2021-22/PrimerSemestre/Reinforcement/PEC2/DDQN.pth (torch, 666959 bytes, 8 tensors)

model.0.weight f4 [512, 2]
00000000: 1664 b93e f77b 2b3f c27e a8bd df88 5640
00000010: 180e 8f3f ba04 c83f 6f59 b63e 7431 0a40
00000020: eba9 a6bd 348e 3cbe 2077 1c3f 0728 483f
00000030: fc23 093f 6870 60be 5fc3 7abe a023 03be
00000040: f7d8 d63e 7e8b 0240 166a f73e c462 d6be
00000050: 342c 6abe 902e 9fbd c622 b7bc 9b9a 5940
00000060: 4cd9 c8be 424e 1dc0 8127 003f 90be 213e
00000070: e19c 3c3f de9b 8140 aa8f e63e 9d4d 0f3f
00000080: 7df8 fcbe a05e a7be f537 1f3f d431 923e
00000090: 746a 553e 2cef 65be 591a 98be a594 e93f
000000a0: c48a e2bd db18 95c0 464b 0abf db58 24c0
000000b0: 0282 2c3e 237a 3840 1fe4 9abd 626e 023f
000000c0: 5cac b0be 461d 893e cef2 40bd 9428 cf3e
000000d0: 0043 663c af22 fabe 10c8 033d e4e5 2dbe
000000e0: 22a3 a33e 4848 bdbe 0aab bc3e d555 78c0
000000f0: 61c4 2cbd 8b7f 303f 5ac4 3bbe b1aa e03e
00000100: ecc0 4f3e d60a 2ebf a0bf c2bd 607c 6e3d
00000110: c021 013f 11cd b13f ea37 80be 2fe1 e63e
00000120: 0b28 5fbe b49f afbc ec57 033f 6f14 af3f
00000130: 96de cd3e b13c 16bf b549 703c 5234 a33e
00000140: 1742 e73d a5e4 5f40 94b2 d63e baa3 f6be
00000150: e631 94be be33 67be 43d6 64be 9a98 ccbe
00000160: 486d 8a3d 34e5 50be dee2 443f 281f 0f40
00000170: a7c6 223f 592b e9be 25f8 293f 6e6b 7540
00000180: c024 19be dfad 8fc0 6388 7ebe b49f 13bf
00000190: 10f5 333d 88d1 1940 6144 2abe daa9 54bf
000001a0: 6643 b73d 4441 3b40 b083 993f 2ae7 8c3f
000001b0: 1542 603e 5755 0140 4915 6a3e 11fb 4840
000001c0: de06 b33e 3275 db3e 098b 83be d256 ff3e
000001d0: 9960 bcbe f1aa 48c0 9be8 0cbf 6419 413b
000001e0: a564 073f dde2 1a3f 2b9a e6bd 6713 753f
000001f0: 99b2 063e 846c 853f 0b08 123f 7840 4940
00000200: a0bd 813e 0d6c 3640 60e0 793e 333e 81be
00000210: 77ed 10bf 4e69 febf 4817 f8bd 809b 2ebf
00000220: fd03 77be ca58 9bbe 2ca7 93be ea8c eebe
00000230: f83c ed3d 64b7 3cbe 3eda 9bbe 2986 703e
00000240: 8081 a8bd 80d1 7d3e a0ab bcbe b8fb 58bf
00000250: 845f 56be e616 803f 5016 bcbe 96ec 20bf
00000260: 161d 90be e422 0dbf 3ade ed3e a036 b0bf
00000270: 1f19 693e 24ee 613e 4073 463c e10c 05bf
00000280: 8dce 00be 86c9 35bc 7bfe 69bf 6b91 54bf
00000290: 7e14 35bd a4cd 4740 f9e7 b13d faaf 263e
000002a0: c8fd 3f3e b6aa ffbe feb0 633e 1daf eb3e
000002b0: 86b6 1cbe b829 29bf 0023 123c e392 013f
000002c0: fe36 c93e 1297 14bf e1b2 abbd c50c 05bf
000002d0: f7f1 95be 9858 16bf 283b a63d 00df 1cbd
000002e0: 0132 9cbe 2d36 273f 04e7 6bbe 0bd5 8bbe
000002f0: 3dc6 8a3d a40a 1b3f bffc 303f 2f2d 2440
00000300: 18c1 b63e 9620 8d40 b37c d5be 0f16 ecbe
00000310: 2045 833e 1a2d 2040 e58d 013f 69dd 0e40
00000320: 96df 56be 1710 23bf 6fe3 213f a76e 203f
00000330: b1cf 85bc 0dd2 e03e a442 81be 871c e3be
00000340: c4db 213e e6bb eb3e b0d6 b0bd e17b 3340
00000350: cfa7 e5be c064 cebe a869 553e 008b 47bd
00000360: a04f 38be ae24 833e 06b8 48bd 8bad 09bf
00000370: 1972 50be ac93 4b40 442c a9be 3a65 88bf
00000380: e23d 92be 975d 4ebf 7aa5 a9be 1895 32be
00000390: 1c9e d1be 2308 81c0 b526 dcbe 33ea 89be
000003a0: 8e3d f03e 1d69 07bf e410 3dbd ab51 6d3e
000003b0: d66d 5c3f 5730 d23f a91e 29be 53a6 35bf
000003c0: 6fd7 9ebe 8275 fc3e 571a 34be f87e 9bc0
000003d0: 3b7a 583f 82d6 073e 5eeb b43e 6b02 6e40
000003e0: 63af b03e e99b 8440 d216 e2be 7c06 45be
000003f0: 5e15 90be b4e6 40bd af99 e23d eac9 5a40
0.36209172 0.6698603 -0.08227302 3.352104 1.1176176 1.5626442 0.35615107 2.1592684
-0.08137878 -0.18413621 0.6111927 0.78186077 0.5357053 -0.2191788 -0.2448859 -0.12806559
0.41962406 2.039764 0.48323125 -0.41872227 -0.22868425 -0.07772553 -0.022355448 3.4000614
-0.39228284 -2.4579015 0.5006028 0.1579535 0.7367688 4.0502768 0.45031482 0.55977803
-0.49408332 -0.3268938 0.6219476 0.2855364 0.2084139 -0.22454518 -0.29707602 1.8248488
-0.11061624 -4.659284 -0.5402111 -2.5679233 0.16846469 2.8824546 -0.07563042 0.5094968
-0.345065 0.26780146 -0.047106557 0.40460646 0.01405406 -0.48854586 0.032173216 -0.16982228
0.31960398 -0.3696921 0.36849242 -3.8802388 -0.04217947 0.68944615 -0.18336621 0.43880227
0.20288438 -0.67985284 -0.09509206 0.058224082 0.50442123 1.3890706 -0.2504266 0.45093676
-0.21792619 -0.021438457 0.51306033 1.3678111 0.40208882 -0.5868636 0.014666011 0.31875855
0.112919025 3.4983304 0.4193312 -0.48171788 -0.2894432 -0.22578332 -0.2234736 -0.39960176
0.06759125 -0.20399934 0.7690867 2.2362766 0.6358437 -0.45540884 0.66394264 3.834682
-0.14955425 -4.4899745 -0.24856715 -0.5766556 0.04393488 2.4034138 -0.16627647 -0.8307167
0.08948402 2.9258585 1.1993313 1.1008046 0.21900208 2.0208337 0.22859682 3.1403239
0.34966177 0.4286285 -0.25692013 0.49870926 -0.36792448 -3.1354334 -0.5504243 0.0029464597
0.52887946 0.60502416 -0.11259874 0.9573273 0.13154067 1.0423741 0.5704352 3.1445599
0.25339985 2.850345 0.24401999 -0.25242767 -0.5661234 -1.9875886 -0.121138155 -0.68206024
-0.24122615 -0.30341178 -0.2883848 -0.46591884 0.115838945 -0.18429333 -0.30439943 0.23488678
-0.08227825 0.24786949 -0.3684969 -0.8475909 -0.20934874 1.0006988 -0.36735773 -0.62861
-0.2814719 -0.55131364 0.46458608 -1.376667 0.22763489 0.220635 0.012112439 -0.51972777
-0.12578793 -0.01109541 -0.9140393 -0.8303439 -0.044208996 3.1219263 0.086868234 0.16278067
0.18749154 -0.4993493 0.22235486 0.46032038 -0.15304002 -0.6607928 0.008919477 0.50614756
0.39299768 -0.58043015 -0.08383728 -0.5197261 -0.29286167 -0.58728933 0.08116752 -0.038298607
-0.305069 0.6531704 -0.23037344 -0.27310976 0.06776092 0.6056311 0.6913566 2.5652578
0.35694194 4.410228 -0.416967 -0.4611058 0.25638676 2.5027528 0.5060714 2.2322638
-0.20983729 -0.63696426 0.6323766 0.6266884 -0.016334387 0.43910256 -0.25246155 -0.44357702
0.1580649 0.46041793 -0.086346984 2.804436 -0.4485459 -0.4031124 0.20841086 -0.048716545
-0.17999125 0.25613922 -0.049003623 -0.5378043 -0.20356025 3.1808882 -0.33041584 -1.0655892
-0.28562838 -0.80611557 -0.3313406 -0.17439687 -0.4094094 -4.0322433 -0.4299828 -0.26936492
0.46921962 -0.52894765 -0.046158686 0.23175685 0.86105096 1.6421002 -0.16515602 -0.70956916
-0.31023738 0.493084 -0.17588173 -4.859249 0.8456151 0.13265422 0.3533582 3.7188976
0.3450881 4.144032 -0.44158036 -0.19240755 -0.28141302 -0.047095016 0.11064469 3.4185739

model.0.bias f4 [512]
00000000: 198a 25bf 0203 0dbe 21a3 90be 7ea3 ae3e
00000010: 3eeb eebd 2561 b13e 1ad8 443e 6a62 a7bb
00000020: d36b c23e 6245 d1be 0c18 dcbe 2774 3c3c
00000030: 85dd 52be 6b38 9fbe b6ab f7bd 11a1 fabe
00000040: 19d4 b23e f0a4 21bf cc9c 29bf 1045 3cbe
00000050: ac8a cbbd 50e8 e6be 8868 b93d 0dcf cabd
00000060: 9391 c33e 5999 e83e 15c5 87be 984f a4be
00000070: c470 7cbe a912 323e 6b24 98bd 829f 133f
00000080: 4b7a a9be 54cf 1abf 3cf1 653e a9eb 9abe
00000090: 6cd0 b73e dcfa 8b3d 3680 efbe 18d7 bd3e
000000a0: b2d3 2abd f48d 6fbe a05c 963e 1620 f53d
000000b0: f031 78bd b3df 1e3e f9ee 09bf e658 d7bd
000000c0: 7d81 0b3d e0a3 0d3e 8e95 e73c ef11 c3bc
000000d0: 21e0 03bd d3fb bd3d 397c ec3d 14f2 de3c
000000e0: b057 f1be f77f f23e 5822 7cbd b859 c13e
000000f0: 2aec 2ebf 13e8 16be 64df ed3d a2e3 a1bc
00000100: 4913 2c3d a0ee 0ebe 1df9 b6be 60e8 52be
00000110: 1f98 a2be c033 1d3e 63c6 c2be ed80 bbbe
00000120: 5c73 c1be 0ffc fcbe 33f5 83be c333 0abf
00000130: 7905 2cbf e28a 473e 3d70 06be 6f22 13bf
00000140: 6678 043f 264e d1be f314 cd3c f03e 973e
00000150: 13a2 06bf 8585 29be d1c9 62be cbf9 98be
00000160: 8ed2 dabe 1ad8 16be 3bd0 473e b0cc fabd
00000170: c28d cdbe 51b6 f63d b945 0d3f c786 053e
00000180: f635 bebd 078e 0abf c0c3 093e 8d5d ea3e
00000190: dfce 7a3e 267d 08bf 2df1 ba3e 2038 17bf
000001a0: b2f9 c8be 313b f1bd f2bb 8b3e e2b0 03bf
000001b0: fdd2 a7be fd65 c2bd da05 c1bd b749 eabe
000001c0: a779 4d3e 9400 e2be 7197 8ebe 5124 0dbf
000001d0: d319 31bf 57b0 6abd bee7 013e fdc5 84be
000001e0: d55e e5be 481d 4ebe 1643 6abd f81a a5bd
000001f0: 459e b0bd 97aa 13bf 2233 083f 2ae6 2cbd
00000200: e726 bebd 678e 67bd fe4d a3bd ea7a 2ebf
00000210: bad9 8e3e e7a9 01bf c08e 05bf dab2 bdbd
00000220: ba27 d1be 2cc3 11be cc3e 9cbe a6fc 953e
00000230: dbb6 663d e1be 93be 4e35 94be 4704 103e
00000240: dd6b 29bf bfe9 743e b0c1 23bd 063a 10bf
00000250: f85c 063f efdd 7e3e b08e f0bd 1e3d 09bf
00000260: 2900 b0be 0849 373e b7ac 0f3f 337a 04bf
00000270: 1cea 18bd d05c 5cbd 28f1 3fbe 8128 e3be
00000280: 5c92 ddbb bacc 2e3e f51b ff3d b664 a53e
00000290: 2ef4 ea3e ca29 23bf c389 4e3e a1b5 f5bd
000002a0: ced8 d9be 2b6b dcbe 64d0 ad3e 3c2e 01bd
000002b0: 498b 05bd 8b03 9ebd 79b1 0dbf 25f4 23bf
000002c0: 7233 d7be e8ef 46bd 91b3 243e 0207 44be
000002d0: f30c 9c3e 530a 24bf 4774 0c3f b0b7 063e
000002e0: 6203 753e 9cdb 2abe d286 a73e 344d 793d
000002f0: dfe3 813c b8ff 0c3e 8966 1ebf fdce e9bd
00000300: 6e69 66be d834 773e 7da7 07bf 82aa 0dbf
00000310: 0574 c9be f957 dd3e 0315 48bd 851e b93d
00000320: 016e 403e bc33 41bf d2e8 3b3e 8722 23bf
00000330: 16e0 19bf 4158 bcbe b69c f2be c2ec 943e
00000340: b7da c13d 3bf5 f53e 2dbe fbbe 0c32 dabe
00000350: c130 81bd 3b0d 12bf 90ee 18bf 4e2a 883e
00000360: c546 053f 067f eb3e 77e2 5e3e 2f57 463e
00000370: f02f 263e 5576 083f 7bd8 25be 871a 2bbe
00000380: 0caa 513e 2c18 0dbe b333 0abe 9809 a73e
00000390: 60ec f13e 1124 32be 94a4 40be 9f8b 9ebe
000003a0: 1499 9b3e 477f 96be 7212 063e 707b b23e
000003b0: 5815 d93e b06e c43e a790 9c3d e1ae 4a3e
000003c0: d0ab 033f f374 14be c85f 5fbc 724b 5cbe
000003d0: 6bc5 8b3e 9a66 d5be dbba 823e 1dbe 7abe
000003e0: ddc2 26bf c16c 18bf cdb6 28bf 070e 633e
000003f0: 18c3 15be 1455 ee3e c283 2b3b 5053 8e3e
-0.64663845 -0.13770679 -0.28249457 0.3410911 -0.11665963 0.34644428 0.19223061 -0.0051081674
0.37972888 -0.40873247 -0.42987096 0.011502302 -0.20592315 -0.3109773 -0.12093298 -0.4895101
0.34927443 -0.631423 -0.6625488 -0.1838572 -0.09938559 -0.45099115 0.09053141 -0.09902773
0.38197002 0.45429495 -0.2651755 -0.32091975 -0.24652392 0.17389931 -0.07428821 0.57665265
-0.33101115 -0.6047261 0.22455305 -0.3025792 0.359012 0.06834957 -0.46777505 0.37078166
-0.041705795 -0.23393995 0.29367542 0.119690105 -0.0605945 0.15515022 -0.5388027 -0.10515003
0.034059037 0.13832045 0.028269555 -0.023812262 -0.032196168 0.09276547 0.11547131 0.027215041
-0.47137213 0.47363254 -0.06155619 0.37763762 -0.6832911 -0.14736967 0.11614874 -0.019761864
0.04201058 -0.13958216 -0.35736933 -0.20596457 -0.31756684 0.15351772 -0.38041982 -0.366218
-0.37783325 -0.49411055 -0.2577301 -0.5398523 -0.6719585 0.19486573 -0.13128753 -0.57474416
0.51746213 -0.40879935 0.025034403 0.29540205 -0.52591056 -0.1655484 -0.221473 -0.29878077
-0.42738765 -0.14730874 0.19513027 -0.12246072 -0.40147215 0.12046493 0.55184513 0.13039695
-0.09287636 -0.54122967 0.13453579 0.457745 0.24492978 -0.5331596 0.36512128 -0.59070015
-0.39253002 -0.11778868 0.27291828 -0.51441777 -0.3277816 -0.09492109 -0.09424944 -0.45759365
0.20065938 -0.44141066 -0.27849916 -0.5513354 -0.6918003 -0.057297077 0.12686059 -0.25932303
-0.44798914 -0.20128357 -0.057192884 -0.080617845 -0.086239375 -0.57682174 0.5320302 -0.04221169
-0.09284764 -0.05653229 -0.0797386 -0.681563 0.27900487 -0.50649875 -0.52170944 -0.09262629
-0.4085062 -0.14234608 -0.3051666 0.29294318 0.05632673 -0.28856567 -0.28946918 0.14064132
-0.6618021 0.23917292 -0.039979637 -0.56338537 0.5248561 0.24889348 -0.117459655 -0.5360888
-0.34375122 0.17898953 0.56122917 -0.5174896 -0.03733264 -0.05379945 -0.18744338 -0.4436684
-0.006761832 0.17070284 0.12456504 0.323034 0.4588942 -0.6373564 0.2016974 -0.119975336
-0.4254822 -0.43050513 0.33948052 -0.031538233 -0.032603536 -0.077155195 -0.55348927 -0.6404441
-0.42031437 -0.048568636 0.16084124 -0.19143298 0.3047863 -0.64078254 0.54864925 0.13156009
0.23927072 -0.16685337 0.32720047 0.060864642 0.015855728 0.13769424 -0.61875206 -0.11416433
-0.22501156 0.24141252 -0.5298994 -0.553383 -0.39346328 0.4323118 -0.048848163 0.09039024
0.18791963 -0.75469565 0.18350533 -0.6372456 -0.60107553 -0.36786082 -0.47385186 0.29086882
0.09465545 0.48038658 -0.4916853 -0.42616308 -0.06308127 -0.5705144 -0.5973902 0.26594776
0.5206111 0.4599535 0.21766077 0.19369195 0.16229224 0.5330556 -0.16195862 -0.16709338
0.20475024 -0.13778752 -0.13496284 0.32624507 0.47250652 -0.1739657 -0.18812782 -0.30965897
0.30390227 -0.2939398 0.13092974 0.348598 0.42399096 0.38365698 0.07644778 0.19793274
0.5143404 -0.14497738 -0.013633676 -0.21513155 0.27299055 -0.4167984 0.25533184 -0.24486585
-0.6514109 -0.59540945 -0.6590393 0.2217332 -0.14625204 0.46549284 0.0026171063 0.27797937

model.2.weight f4 [256, 512]
00000000: 60f5 bebc 6a35 d03c 3ae0 b53c 978b edbc
00000010: 704f 42bc fef9 32bd ade1 1b3b b37d 2fbd
00000020: c31a 9239 46b8 ac3c 10b5 7e3b b9bf 1f3d
00000030: f758 e9bb b1b8 293d 232c 123d 29ce 323d
00000040: a8c7 6abb 7b5e 183d 4006 64ba 9074 0bbb
00000050: 6102 bdbc 63c4 a83c cca4 80bc 3ed2 f53b
00000060: c7fc bd3c 3ac4 02bd 6f18 1e3d d298 6cbc
00000070: 3f5b 19bd daa0 3dbc 35c7 39bd 8e9b 7e3b
00000080: 40be cebb eb39 15bd 4cc1 dbbc bb0f d73c
00000090: e7f2 62bc a910 24bd fc37 6a3c 2cae a63b
000000a0: cfa2 263d 284b 38bc 803a 20bd 816b dd3c
000000b0: d48f 36bc b1b9 a7bc eefc f53c fede ef3c
000000c0: ee37 b3bc 8fd3 e2bc 9276 2cbd a517 cbbc
000000d0: 6be6 183d fc87 7e3c ac9a f7bb 1bdf 8cbc
000000e0: 384c 0ebd c3b0 ca3c 91b2 9ebc b539 4d3c
000000f0: c03e ebbb 6933 acb9 0d27 eb3c c819 9b3b
00000100: 9a51 333d 7c53 253c b99f 133d ca13 8b3c
00000110: ed5a dd3c 5ef4 1ebd 6fff d0bc 1491 86bb
00000120: 40ab 653a 4b31 56bd 5140 27bc c8d6 0abc
00000130: d866 243c 1060 59bd 3ed0 fb3c 16ec 853c
00000140: 61e7 a23c 836b 063d 5ad7 a93c bb4f a2bc
00000150: 0037 56b9 1ab7 9dbc fcb0 22bd c893 363c
00000160: 7af4 9c3c f473 f2bc 4dd3 9f3c 6049 ed3a
00000170: 0e4e f0bc 603a e4bc f93d f6bc c9a8 ecbc
00000180: 10c6 493b a7ec b2bc 772b 3bbd 3549 4bbd
00000190: bdf0 4cbd 9a67 ab3c d7f2 bdbc 1c94 9fbc
000001a0: 9eb9 ce3c 3b92 893b 5b9b 02bd a0f4 d33b
000001b0: a678 8dbc be53 4cbd b893 af3c 079d c5bc
000001c0: 2cac ebbb 60cd 3d3c 1412 22bd 5c09 aebc
000001d0: 6d67 22bd 957b 2cbd f168 c43a 675b f0bb
000001e0: 93f3 c8bc d835 093d 6cb8 34bc 8051 1cbb
000001f0: 61de 0fbd 10d3 0fbb 2c63 48bd 17a2 0c3d
00000200: c797 dabc c112 20bd 281c 8abc 2952 113d
00000210: c1be 053d 0cc3 8e3c 71d2 80bc 28ef 9d3c
00000220: 1c81 0ebd d6ce 09bd f934 013d 1334 b0ba
00000230: f959 1c3d 0e9b f2bc 87d6 1b3d 403f fdbb
00000240: c130 233d 8376 1a3b f3b2 f7bc 40f2 87bc
00000250: 36b0 0bbd 32c0 af3b 74af 453c 3cc0 533c
00000260: d960 16bd c61b b8bc eef3 cd3c 40be 7a3c
00000270: b521 0dbd 292e 24bd 7bb8 08bd b324 15bd
00000280: dd2a e8bc 714f cbbc c1f2 d53b 7d24 49bd
00000290: 2842 0ebc 3c12 8ebc 6852 ad3c eddb 8f3c
000002a0: 13f5 323d b8a8 bcbb 51d2 55bb f94c 2c3b
000002b0: fe19 e03c d4f4 01bc de41 f33c 08fe 8cbc
000002c0: 19d5 1c3d c09f 053a 33f7 bd3c 5e9f eb3c
000002d0: 84c6 ffbc 6b70 c4bc 46a2 b1bc da11 5abc
000002e0: 3797 d23b 67cd 5f3c a0a0 043d 98d0 50bb
000002f0: d43d 503c dd53 bd3c d0c9 7bbb b0be 543b
00000300: 907c ee3c d726 9b3c d600 ad3c 3350 eebc
00000310: 80eb 66ba 089c 903a ccec 4c3c 0538 d33c
00000320: bded 77bc 1253 943c 75e8 a5bc 4066 d13a
00000330: 5a1b 92bc 176d a13b 28e8 813b a6fd 453c
00000340: 5d2c 96ba 959c c8bc 74ec 0c3c 63ac 8b3c
00000350: e44b 26bc aba2 153d e475 8d3c 33a9 db3c
00000360: c4e7 7bbc 26d6 44bc 0a2e aebc b2c6 803a
00000370: cd4b 4c3c 59ac e83c cc73 13bc 939f 5a3c
00000380: b468 53bd a0bc 5dbc 52e5 c23c 0968 40bb
00000390: df02 5dbc 1603 e33c c90d 2abd 2d1c 273d
000003a0: ffc8 073c 4a4d c1bc fcc0 6bbc ac8a 80bc
000003b0: ff04 45bd ba87 a3bc 65d8 64bc f75d 02bd
000003c0: d631 083d 8d2c 0bbd 0e21 dcbc 208c 9ebc
000003d0: 0550 473c a406 f93c 10a9 17bd 7bad fabc
000003e0: bd60 1a3d 45a5 013d c86b 2bbc bc72 12bd
000003f0: 901c 1dbc a4d8 50bd 5490 033d f143 2ebd
-0.023310363 0.025416095 0.022201646 -0.028997226 -0.01185976 -0.043695442 0.0023785636 -0.042844485
0.0002786723 0.021083962 0.0038865246 0.0390012 -0.007121201 0.0414359 0.035686623 0.04365364
-0.003582457 0.03719948 -0.0008698441 -0.0021279193 -0.023072423 0.020601457 -0.015703581 0.0075018695
0.023191823 -0.031925417 0.03859752 -0.014440732 -0.037440535 -0.0115739945 -0.045355994 0.0038850042
-0.0063093007 -0.036432188 -0.02682557 0.026252618 -0.013851858 -0.04005495 0.014295574 0.005086681
0.04068261 -0.011248387 -0.03911829 0.0270288 -0.01114269 -0.020474287 0.030027833 0.029281136
-0.021877255 -0.02768877 -0.042105265 -0.024791548 0.03732912 0.015535351 -0.00755628 -0.017196229
-0.034740657 0.02474249 -0.019372256 0.012525965 -0.0071791112 -0.000328447 0.028705144 0.004733298
0.043778993 0.010090705 0.036040995 0.01697721 0.027020896 -0.038807265 -0.025512425 -0.00410665
0.0008761175 -0.052293103 -0.010208205 -0.008474059 0.0100342855 -0.053070128 0.030738946 0.016347926
0.01988572 0.032817375 0.02073257 -0.01981341 -0.0002042912 -0.019252349 -0.039719567 0.011143632
0.019159544 -0.029596306 0.019509936 0.0018103532 -0.029334094 -0.027859867 -0.030058848 -0.028889077
0.003078822 -0.02184136 -0.04569575 -0.049630363 -0.050034273 0.020923425 -0.023187084 -0.019479804
0.025234994 0.0041983402 -0.03188644 0.0064683706 -0.017269444 -0.04988455 0.021432742 -0.024122728
-0.0071921553 0.01158461 -0.039568022 -0.021244697 -0.039649416 -0.042110045 0.0014984888 -0.0073351148
-0.024530208 0.033498615 -0.011030298 -0.0023852289 -0.035124186 -0.0021945871 -0.048922703 0.03433427
-0.026683701 -0.039080385 -0.01685913 0.035478745 0.03265262 0.01742699 -0.015725346 0.019279078
-0.034791097 -0.03364452 0.03154466 -0.0013443254 0.038171742 -0.029614951 0.038046386 -0.0077284873
0.039841417 0.0023569174 -0.030236697 -0.016595006 -0.034103595 0.0053634876 0.012065757 0.01292425
-0.036713455 -0.02247418 0.025140729 0.015304148 -0.034455974 -0.040083084 -0.03337906 -0.036411952
-0.028340751 -0.024818154 0.0065291827 -0.049107064 -0.008682765 -0.01734268 0.021157458 0.017560923
0.043690752 -0.0057574175 -0.003262658 0.0026290996 0.027356144 -0.007931907 0.029694494 -0.017210975
0.038289163 0.0005097352 0.023189163 0.028762516 -0.03122259 -0.023979386 -0.021683823 -0.01330992
0.0064267176 0.013659812 0.032379746 -0.0031862613 0.0127100535 0.023111278 -0.003841985 0.0032462291
0.02911213 0.018939419 0.021118563 -0.029090976 -0.0008808896 0.0011032829 0.012507629 0.025783548
-0.015132365 0.018106017 -0.020252446 0.0015975907 -0.017835308 0.0049263346 0.0039644428 0.0120844
-0.0011457313 -0.024488727 0.008601297 0.017049974 -0.01014993 0.036532085 0.017268129 0.026814079
-0.015375081 -0.012013948 -0.021262188 0.0009824841 0.012469244 0.028402494 -0.008999776 0.0133437095
-0.051613525 -0.013533741 0.02379099 -0.0029358885 -0.013489454 0.027711432 -0.041517053 0.040798355
0.008287667 -0.023596425 -0.014389273 -0.015691124 -0.048100468 -0.01996218 -0.013967608 -0.031827893
0.033250652 -0.033978034 -0.02687123 -0.019353926 0.012165074 0.030398674 -0.037026465 -0.0306003
0.037689913 0.031651754 -0.010462709 -0.03575395 -0.009589329 -0.050987855 0.032120064 -0.042545263

model.2.bias f4 [256]
00000000: 6f1c 0ebd 830c 17bc cb22 263e 4653 153d
00000010: 8d1b 89bc a783 87bd 09ed 0e3d 4c48 9abc
00000020: 2296 b73c c7af e03d 002d f33a 52c4 d0bc
00000030: 4338 193d 2a26 82bd 182f 2f3e 9c59 f0bc
00000040: d86f 913d ac2e c1bb ba1d d0bc 2be0 14bd
00000050: bae4 2fbd 9e35 02bd 4fa7 92bc 18c5 b13d
00000060: f7f6 c53c 78bd 50ba 8077 e5bb e0b9 e63c
00000070: e407 1bbd 8ca7 7c3b 0eaa ae3d dd6f b93d
00000080: 4612 14bd 2eb4 7b3c 8131 57bc 6155 f63d
00000090: 432f ef3c 82f1 5d3c f912 71bc 1860 f5b9
000000a0: d9c7 1dbb 80f0 b6bc ff23 303c d4ff 1ebd
000000b0: 5c65 01bc 679e cebc a935 003d d22c 83bd
000000c0: 5461 3fbc d2f1 11bd 5f10 24bd a3f0 fd3c
000000d0: c8e3 4c3c 1df9 53bd d25f e53c 953f 023e
000000e0: d67b f93c 9329 d7bc 8c90 633e 6ef7 d53b
000000f0: 5b88 973d a49f 0f3d 0061 55bb 1d9a b1bc
00000100: b96f ca3a 69f1 1abc 5735 c83d 6eb8 53bc
00000110: ff2a f43c 5985 0dbd e25d 05bc c5fe 25bd
00000120: d9da 183a a6fe 6dbd 8f62 33bd f1c7 943c
00000130: 740e 0e3d 1146 d43c d677 b33b 9a8b f3bc
00000140: 52e0 23bd 70dc 13bd 298e 11bd 50af 373b
00000150: bad7 05bd 8841 23bd c95e 0a3e b01a 3cbd
00000160: 7090 69bd c5b5 1bbd 37c3 f73c 381a 4cbd
00000170: 4404 6bbc cf79 173d b5a4 a93c f1eb 0cbd
00000180: 880a 193b b8a0 d93b daeb 96bd 37dd 61bc
00000190: 7977 20bd 5870 9fbc 4fad 22bd 9595 dbbc
000001a0: c75b 973a 39b0 ee3d 4353 bdbc 1a2c 16bc
000001b0: 587c 8ebb 98d3 363c dece fd3c ed4d 82bd
000001c0: 841e 743d df72 9abd 3dbb 34bc 2a3d f3bc
000001d0: aff6 33bd 5db8 21bd f78c 5bbc 936c 8b3c
000001e0: 5458 393c 060b 993c 1cbe 8cbc c339 31bd
000001f0: 1015 60bd 7012 ff3b 996a 783c c0a4 123d
00000200: e113 debc aed2 943c 8d6f 14bc 0cac ccbc
00000210: 2d05 29bd 204f c7bc a89a e7bc a2f0 ecbc
00000220: 41db a83c 1d2d b53c 01a4 a5bd b22f d4bd
00000230: f879 723c 73ba 60bc 0910 833c c3eb 4ebd
00000240: 53ef cd3c 032f 95bc 3d4f 98bd 1f26 12bd
00000250: cc65 3f3c e158 60bd 8878 d13b 01b1 be3b
00000260: 1883 2fbc ee15 b3bb d816 463c f170 083c
00000270: e424 3f3a b038 28bd 3126 4abd f467 823d
00000280: 80dc 8cbb 88bc c5bb 4b36 3bbb 6d49 7038
00000290: 3c6b 1bbd 24c8 26bd ca1e 4fbc 0d84 2f3d
000002a0: a9ff 2bbc 0b99 6a3c 5b5b 99bc 4be7 393e
000002b0: 8d0b 8fbd 9efd 95bd 5aee 62bd 6ed6 283b
000002c0: 9d2f 043d 39db 03bd a141 9c3d 4ac2 233e
000002d0: b9a6 f8bb 7bdf 70bc e0bb 2fbc 69f9 33bd
000002e0: 796d 8f3c 215e 983c 6498 8cbc 003b 653e
000002f0: 32e7 66bc bb24 d7bc 5c71 dcbc 6ce0 0bbc
00000300: c29b f93b d341 543d 32ab 0e3d bc2b fd3c
00000310: d0d5 cebb f56e aa3a 8aab 9abc 9a36 fdbc
00000320: 1c09 263c 7075 563c ecde 8d3c 10d3 6ebc
00000330: 4044 f3bb 5e7d 013d 6c31 553c 545b f8bc
00000340: 42c5 bd3c 846e 9abd 44e8 02bc bb6c bb3c
00000350: 7d9d 493c 43cc 6abc ebc6 0cbb 8be0 19bd
00000360: 2821 37bb b2ea e83c a2e2 b23b e275 4dbd
00000370: 6c25 29bd 39df a63b f37c b53c 0204 ac3d
00000380: 8123 513e 3362 643d 1609 6d3b d284 d2bc
00000390: 82af ad3a ccd9 2ebd 0c52 a63a a1d8 a6bc
000003a0: ad67 9d3b 04bd e3bc 815b ff3c 60f3 d9bb
000003b0: 50ea 053d 4f00 56bd cbc0 13bd de86 213c
000003c0: 8b27 9f3d d316 85bd 9b12 98bc 74c5 8abc
000003d0: 8da6 4fbc b9c0 3cbd 5fbf 473e 7bdc e13c
000003e0: b064 e03c 84c1 0a3c 3416 adbc 56fd 28bd
000003f0: cbef 4d3b 4d52 30bc ed22 de3b 5292 cc3c
-0.034695085 -0.009219292 0.1622421 0.03645637 -0.01673677 -0.066169076 0.034894023 -0.018833302
0.022410456 0.10971027 0.001855284 -0.025484238 0.03740717 -0.063549355 0.17107809 -0.029339604
0.071014106 -0.0058954563 -0.0254048 -0.036346596 -0.04294274 -0.031789415 -0.017902045 0.08680171
0.024165614 -0.00079628034 -0.007002771 0.028164804 -0.037849322 0.0038552014 0.08528529 0.09054539
-0.03615024 0.015362782 -0.013134361 0.120280035 0.02919734 0.0135463495 -0.014713996 -0.00046801637
-0.0024075417 -0.022331476 0.01075077 -0.038818195 -0.007897701 -0.025222016 0.031301174 -0.06405033
-0.01168092 -0.03563101 -0.040054675 0.030998534 0.012505479 -0.051751245 0.027999792 0.12719567
0.030454557 -0.026264941 0.22223109 0.00652974 0.073990546 0.035064355 -0.0032559037 -0.021679932
0.0015444673 -0.009456971 0.09775799 -0.012922389 0.029805658 -0.034551 -0.008140059 -0.04052617
0.00058309507 -0.05810418 -0.043795165 0.018161746 0.034681752 0.025912317 0.005476932 -0.029729653
-0.04000885 -0.036098897 -0.035535965 0.0028028078 -0.032676436 -0.039857417 0.1351272 -0.04592389
-0.057022512 -0.038015146 0.030244453 -0.04982969 -0.014344279 0.0369814 0.020708421 -0.0344047
0.0023352224 0.0066414736 -0.07369204 -0.013785652 -0.039176438 -0.01946275 -0.03971606 -0.026804725
0.0011547738 0.116547056 -0.023110991 -0.009165788 -0.004348319 0.011158846 0.030982431 -0.063625194
0.059599414 -0.07541441 -0.011030969 -0.029692251 -0.043936428 -0.039482463 -0.013400308 0.017019546
0.011312563 0.018682014 -0.017180495 -0.043267976 -0.054707587 0.0077841803 0.015162134 0.03580165
-0.027109088 0.018166866 -0.009059799 -0.024984382 -0.0412647 -0.024329722 -0.028271988 -0.028923336
0.02061236 0.022116238 -0.08087922 -0.1036066 0.014799587 -0.013716328 0.015998857 -0.05051781
0.025138533 -0.018210893 -0.074369885 -0.035680886 0.011681985 -0.05477226 0.0063925423 0.0058194404
-0.0107124075 -0.0054652607 0.012090407 0.008327709 0.0007291569 -0.041069686 -0.04935283 0.06367484
-0.0042987466 -0.0060344376 -0.0028566297 5.7288842e-05 -0.037944064 -0.040718213 -0.012641618 0.042850543
-0.010497966 0.014318715 -0.01872032 0.18154638 -0.06984625 -0.07323764 -0.05540309 0.0025762576
0.03227197 -0.03219149 0.07629705 0.15992084 -0.0075882343 -0.014701719 -0.010725945 -0.043939028
0.017508255 0.018599572 -0.01716251 0.22385788 -0.014093207 -0.026262632 -0.026909523 -0.008537393
0.0076174447 0.051820587 0.034831233 0.030904643 -0.0063121095 0.0013003038 -0.018880624 -0.030909825
0.010134008 0.013089523 0.017318211 -0.014576688 -0.0074239075 0.0316137 0.013012271 -0.030316986
0.023165349 -0.075406104 -0.007989947 0.022878995 0.012305615 -0.014330926 -0.002148087 -0.037567656
-0.0027943347 0.028432224 0.0054591456 -0.05016125 -0.041295454 0.005092528 0.022154307 0.08399202
0.204237 0.055757713 0.0036168746 -0.0256981 0.0013251158 -0.042688176 0.0012689247 -0.020366969
0.004803619 -0.02780009 0.031171562 -0.006651327 0.03269416 -0.052246388 -0.036072534 0.009858815
0.07771214 -0.06498494 -0.01856356 -0.016939856 -0.012673986 -0.046082232 0.19506596 0.027570954
0.027391762 0.008468989 -0.021128751 -0.041257225 0.0031423445 -0.01076181 0.006779066 0.024972115

model.4.weight f4 [128, 256]
00000000: 8ffc 56bd 7c5f 073d cdbb 52bd 68d3 60bd
00000010: c698 ae3c c401 dbbc 28e3 e93b cc92 0f3d
00000020: c0d3 61bc a269 503c a851 d63c d67f 3abd
00000030: c7ca 0c3c 3410 b73c 372b ba3c f519 ab3b
00000040: eed1 c8bd a1ad cf3c c7c6 903b ebfc f33c
00000050: 9176 763c 36ec 4dbd 3cc1 1ebd f9e6 19bd
00000060: 9054 2e3d 60d4 bb3c f6b9 293d e029 a5bc
00000070: a11c 3c3d 319a 66bd 647a 1fbc daea 49bd
00000080: 507d 323d 17f1 5dbc 6d03 18bc 3d97 17bd
00000090: 8482 583d ee38 e03c 273a 15bd c9f6 bb3c
000000a0: 24ac fa3c 1a03 74bd 6d57 26bd 1ad2 eb3c
000000b0: b274 58bd 5059 52bd f2d8 0f3d a72c 24b8
000000c0: e8a5 21bd b0d1 93bb 6871 dabc b6d2 40bd
000000d0: 5e99 69bd 48af eabc e218 08bd 5de8 4dbd
000000e0: c049 65bd 4c99 b2bc a838 c8bb 8ec8 66bb
000000f0: e7e4 55bd 697a 773c bc31 08bd 20a3 0cbb
00000100: eb16 8d3d 9e00 3c3d 39ec 38bc 9423 233d
00000110: 79bb 7d3c 609f 96bc a079 83bc 90d5 f53b
00000120: 107d bbbb 149d f23c b29c 2abd 0842 b03b
00000130: 1623 073d 3bc9 10bc 19fb 1e3d 2628 b1bb
00000140: 3880 c7bc 803f 55bd cbce 5f3d 08e4 8ebc
00000150: 5067 fd3c 9270 09bd 53a3 8cbd b4f3 233d
00000160: 594a a6bd 8080 2a3a be32 613d 006a 093a
00000170: e068 c63c 3ac8 08bd 485e e2bc 04c7 7d3d
00000180: 539d 9abc 889d fcbc ae4c 43bd d9ff 08bd
00000190: 1c6d e03c 612a 02bc 26b5 ce3c 1526 833c
000001a0: fdc1 fe3c d626 09bd 529e 7abc c16e 6e3d
000001b0: 3b54 853c 5a02 0c3d 3a02 78bd c01b 77bd
000001c0: 1bda 4abc 0479 5b3d d8ef 34bc aa1f 7dbd
000001d0: 4e4e 59bd 8aa6 363d f2ad 6abd 5e28 123d
000001e0: f59b a83c 8363 80bb 57a1 a1bc a8b1 053d
000001f0: dc7b 7fbd 4059 7c3b 371d 543d 739c 043b
00000200: 5e5b 2fbd 08db 7cbc 0886 e0bc 0ca2 f5bc
00000210: c893 023c e636 19bd 1143 c7bc 4031 4c3b
00000220: 0795 7c3b aa24 cb3c 0ef7 95bc 16f9 c8bd
00000230: a20b 753d 9211 14bd cf14 343d 97bb cc3c
00000240: 5a72 26bd 18ea f23c 960e aebd 8693 ab3b
00000250: ccab 73bd 7c4e 67bc 58b8 093c 4401 14bd
00000260: 4c02 903c f628 40bd d818 003d 430e 85bd
00000270: 39b8 95bc 9c54 293d 40ce 4b3d 0746 b43b
00000280: e8ff 49bd faa6 82bd 18e3 81bc c1a7 55bd
00000290: f70c b5bc 0b7b 3fbd 04b5 c2bb 9b1a 7cbd
000002a0: 8467 ee3c 2337 773c 0640 1bbd 638c 54bd
000002b0: 80b6 b8ba c279 043d 209b 053c 96e2 893d
000002c0: 279a d83b d055 1d3c 4b98 99bd b6dd 20bd
000002d0: 80e3 eebc e985 8fbb 05bf 943d 442f f03c
000002e0: ba3a 7dbd fe08 2f3d 1c5d 903c 6426 9fbd
000002f0: 676a 183d dc92 c0bd 5fb7 ac3c 1036 023c
00000300: 37a6 4b3d 75a0 b9bc daaf d3bc 1333 27bd
00000310: 4e86 e9bc a47e 28bd 98c5 3b3d ac03 c33c
00000320: 38bc 6e3c 61ce f43b ce4b 823b 5699 223d
00000330: 8c04 0b3d 8a03 8fbc 0036 72b9 587f f03c
00000340: 96a6 593d 80a4 8abb aa75 2cbd 5e47 aa3b
00000350: bf29 cfbc cae2 ff3c e796 0bbc 1c6a df3c
00000360: 9ff6 d1bc 2cef c6bc 1676 24bd 9080 dd3b
00000370: a86d 4b3c 4f7e 3d3d a9b7 853d b725 b8bd
00000380: 3a93 df3c 786e 23bd 0d9e a7bc 7060 1fbd
00000390: 9029 9cbb 309d 5f3c 81c1 51bc a04a 063d
000003a0: 1c44 12bd 0c5e 7b3d 3c70 fd3a 6e58 68bd
000003b0: 003b bcbc ee4c 00bd 10f4 923c d4c7 273b
000003c0: a4ef d4bc 1778 91bc 99da 053d f08e 7d3c
000003d0: 4a1d e7bb 24a7 dabc cc21 87bc 6901 abbd
000003e0: 9acc 0abd 6057 513d 16fe 703d 70e6 1f3d
000003f0: 5e57 233d b1f8 2ebd 7a51 873d 2c4f 04bd
-0.052486952 0.033050045 -0.051448632 -0.054889113 0.021313082 -0.02673424 0.007137675 0.035052106
-0.013783395 0.012720497 0.026161984 -0.04553207 0.008593268 0.022346593 0.022725685 0.0052216
-0.09805666 0.025351347 0.0044182274 0.029783687 0.015042917 -0.050274096 -0.0387585 -0.03757379
0.042561114 0.022928417 0.04143711 -0.02016157 0.04592574 -0.056299392 -0.00973377 -0.049296238
0.04357654 -0.01354625 -0.0092781605 -0.037009466 0.052858844 0.027370896 -0.03643241 0.022944825
0.030599661 -0.05957327 -0.04061072 0.028786708 -0.052845664 -0.051354706 0.035119005 -3.9142233e-05
-0.03946486 -0.0045110807 -0.026665404 -0.04707595 -0.057031028 -0.028648034 -0.033226855 -0.050270427
-0.055978537 -0.021801613 -0.0061102696 -0.0035214755 -0.05222025 0.015104868 -0.033250555 -0.0021459535
0.06889137 0.045899026 -0.011286789 0.03982885 0.0154865915 -0.018386543 -0.016049206 0.0075022653
-0.0057216957 0.029615916 -0.041653343 0.0053789653 0.032992445 -0.00883704 0.038813684 -0.0054063974
-0.024353132 -0.05206251 0.054640573 -0.017442718 0.030933052 -0.03355462 -0.06867089 0.040027335
-0.081196494 0.00065041333 0.054980032 0.00052419305 0.02421993 -0.033394076 -0.027632847 0.061957374
-0.018873846 -0.030836836 -0.04768055 -0.03344712 0.027395777 -0.007944674 0.025232863 0.01600937
0.03109836 -0.033484302 -0.015296536 0.058211092 0.016275516 0.03418193 -0.060549 -0.0603292
-0.012381102 0.053582206 -0.011043511 -0.061797775 -0.053053193 0.044592418 -0.057294793 0.03568303
0.020582179 -0.0039181127 -0.019730253 0.03264013 -0.06237398 0.0038505346 0.051785674 0.0020234853
-0.042811744 -0.0154330805 -0.027407661 -0.029984497 0.007969804 -0.03740587 -0.024323972 0.0031157285
0.0038540976 0.024797756 -0.018306281 -0.09813134 0.059825547 -0.03614957 0.043965157 0.024991794
-0.040636398 0.02965264 -0.08498876 0.005236092 -0.05949001 -0.014117833 0.008405767 -0.03613402
0.01757922 -0.046914063 0.031273693 -0.06496861 -0.01827632 0.041340455 0.049757242 0.005501512
-0.049316317 -0.063795045 -0.015855357 -0.052161936 -0.022100909 -0.046748202 -0.005941989 -0.06154881
0.029102094 0.015088829 -0.037902854 -0.051891696 -0.0014092475 0.03234268 0.00815466 0.06732671
0.0066101733 0.009602979 -0.07499751 -0.03927394 -0.029161215 -0.004379977 0.072629966 0.029319413
-0.061823584 0.042733185 0.017622523 -0.07770994 0.03721085 -0.09403011 0.021083532 0.00794746
0.04971906 -0.02265952 -0.025840688 -0.040820193 -0.028506424 -0.0411364 0.045842737 0.023805462
0.014571242 0.0074708913 0.003976322 0.039697014 0.033939883 -0.017457742 -0.00023099035 0.029357597
0.053137384 -0.0042310357 -0.0421044 0.005196496 -0.02528846 0.031236071 -0.008519865 0.027272277
-0.025630293 -0.024283968 -0.040151678 0.0067597106 0.012416281 0.046263035 0.06529171 -0.089915685
0.027291883 -0.039900273 -0.020461107 -0.03891033 -0.004765697 0.013648316 -0.012802483 0.03278601
-0.035709485 0.061368987 0.0019335817 -0.056724958 -0.022977352 -0.031323366 0.017938644 0.0025601285
-0.025993176 -0.017757459 0.032679174 0.0154759735 -0.007053052 -0.026691027 -0.016495608 -0.08349878
-0.03388653 0.051108718 0.058836065 0.03903812 0.03987824 -0.04271764 0.06607337 -0.032302067

model.4.bias f4 [128]
00000000: 940c 15bc 7c48 84bd 18b2 3b3c 0043 033d
00000010: 3a28 183e 2e95 33bb 77c4 09bd 302e c3bc
00000020: 759f cd3e 33c0 1abd 1146 893d e4da 94bd
00000030: 8d5c ac3e 2a51 38bd df4c 763c 883f 89bd
00000040: 640a 2d3d a8f2 9e3c 6ed4 9b3a 865d d23c
00000050: 10bc a63e 7f16 16bd 11ff 233c 6999 353d
00000060: 36bb eabc b53a d03e 43d1 95bd d4cb 37bc
00000070: 851f 873e 6486 ffbb 61b6 c5bb 5d46 bebc
00000080: 9b4f 303e 6e8d ce3c 56ec 7c3c 702e 1ebc
00000090: 828f 10bd 80c0 9ebd 2021 36bd 4aed 983d
000000a0: fade 72bd 2233 7b3a 9770 af3e df45 55bd
000000b0: d8ef 853c 916d cc3d 0af2 75bd 9da2 af3e
000000c0: 96a1 203e f560 83bd 5ab9 aa3d f04e 86bc
000000d0: 4752 14bd a75c 393d f160 183e 528e bd3b
000000e0: 9e59 4abd 8a26 4abc 66a2 033f 74d9 ac3c
000000f0: d651 c83e 68c2 0cbc 936d c9bd 37a2 ea3c
00000100: 2b77 a9bc 76b4 583d 2bc1 53bc be1c bc3e
00000110: 7b94 bbbd 7988 b0bd 88f8 3c3e d43c 8dbd
00000120: a865 cfbc 51b2 b3bd 0502 c13d 8c5c 84bb
00000130: 1d51 d93c aaaf d03e 6900 f33a aa1a 47bc
00000140: 50c9 63bc dadd abbd 3d8c acbd b1ba 713c
00000150: 478d 87bc 48f5 b83e 0d5a f53d 4c20 8a3b
00000160: 0567 173d df5d 7f3e fac0 973e a91a 733d
00000170: 72af 253d 2d83 f13d 9d3b a03e e9d2 d7bc
00000180: 10da dcbc a0f9 903e 84c5 503e 4842 8cbd
00000190: f5c5 353e b93d c9bc adfb ee3c cd3a d1bd
000001a0: 202e 21bd bc58 b5bd da2e ff3c cb84 663e
000001b0: f2d5 a53c 1fd5 043d 5510 cdbb 5dc6 efbb
000001c0: 2f12 f4bd 1cd7 583e b17f aa3e b7da 7bbc
000001d0: 88c1 d13c 2c5f e0bc f310 97bd 223e e13e
000001e0: 7f61 c7bc 475d d3bd d5d2 91bc 8552 ccbd
000001f0: 7023 843d f1dd 30bd d721 62bd 7456 0f3d
-0.009097237 -0.06459138 0.011456035 0.032046318 0.14859095 -0.002740215 -0.03363463 -0.023825735
0.4016072 -0.03778095 0.06702817 -0.072683126 0.3366436 -0.04499928 0.015032976 -0.06701571
0.042246237 0.019402817 0.001188887 0.025679361 0.32565355 -0.036642548 0.010009543 0.044335756
-0.028653722 0.4066979 -0.07315304 -0.01121803 0.26391235 -0.007798003 -0.006033704 -0.023226911
0.17217867 0.025213923 0.015437206 -0.009654626 -0.03529311 -0.0775156 -0.044465184 0.07467134
-0.05929468 0.00095825095 0.34265587 -0.052068587 0.016349718 0.09981836 -0.06004528 0.34303752
0.1568664 -0.064149775 0.08336134 -0.016395062 -0.03621128 0.045254376 0.1488073 0.005784788
-0.04940187 -0.01233829 0.51419675 0.021099783 0.39124936 -0.008591272 -0.09835353 0.028641803
-0.020686707 0.052906476 -0.012924473 0.3674068 -0.0915918 -0.0861978 0.18454182 -0.06896368
-0.025317028 -0.087742455 0.09424213 -0.0040393528 0.026527936 0.4075902 0.0018539551 -0.012152353
-0.013902977 -0.08391924 -0.08425186 0.014753983 -0.016546858 0.36124635 0.119800664 0.004215276
0.03696348 0.24938153 0.29639417 0.059351597 0.04045052 0.11792598 0.3129548 -0.026345687
-0.026959449 0.2831545 0.20387846 -0.0684858 0.17751296 -0.024565564 0.029172743 -0.102162935
-0.03935063 -0.08854815 0.03115027 0.22511594 0.020243619 0.03242981 -0.0062580504 -0.007317348
-0.11917531 0.21175808 0.33300546 -0.01537197 0.025604978 -0.027389131 -0.0737628 0.43992716
-0.024338482 -0.103205256 -0.017800728 -0.09976677 0.06452072 -0.04318041 -0.055208053 0.034994557

model.6.weight f4 [3, 128]
00000000: ee95 013d 8b2f 5fbd 3893 6d3c ba76 013d
00000010: 93be c83e afc3 243c 2994 6f3c f960 c3bd
00000020: 293e 7bbe bc90 fb3c 4948 ea3c 5bf8 54bd
00000030: 6e64 7cbe 08bb 273c 4771 8fbc f4fa fc3c
00000040: e5c4 2c3d baa1 033d 8791 8e3d 94be 983d
00000050: 2e65 5fbe 3e95 cb3e 5fca 5a3d 122a 7d3a
00000060: 1c26 10bc e690 7bbe 1a1f 903c ba42 be3c
00000070: 168a 033f 96d8 903c 9bc2 cfbc 4e40 243d
00000080: 7ee5 92be 8a4c 483d 51a2 f6bc 64b7 fcba
00000090: e320 35bd 6934 a0bb 4889 6dbd 0a5d a9ba
000000a0: 6044 d9bb 18ea ccbc fbb7 c5be 316b 0a3c
000000b0: ab55 663c bf5c 82be a5d5 063d f9b3 5cbe
000000c0: cb00 40be 9e87 193d a206 a8be 52cb e2bb
000000d0: 308b 493d 02c7 2e3d 708b ac3e 2464 2e3d
000000e0: 017a 5cbd 0e49 b1bd 3276 8fbe 03cc 56bc
000000f0: cd9e 1fbf 9c3f 803a b08c 4a3c 9b3b 673d
00000100: 1a82 fdbc cd9e dc3c 2a17 9ebd 6d3c 8ebe
00000110: b7a3 84bd f98d 7b3c 0eb6 67be d179 90bb
00000120: 4563 043d f3b4 f53c 5a27 e4bc 49c6 31bb
00000130: 6be0 363d 6381 0dbf 7752 9cbc 7098 da3b
00000140: c066 3fbb 8d53 db3c 5bf4 b43c 501b b23b
00000150: 991c 18bb 6c57 8abe c0a4 783e 00f0 74bc
00000160: 7c6a fabc e65d e2be 52a2 52be 3274 6c3e
00000170: 1314 963b 3e58 3f3b a9ae 06bf daf4 e7bc
00000180: 111a 513d d6f9 56be 170f bfbe 5fc1 65bd
00000190: b554 7cbe 2da9 973b 3662 6fbb e874 04bd
000001a0: fa0b 183e d571 ff3c 9662 333d c5e9 b63e
000001b0: d124 fdbc c30e d7bc a2ef e23c 7356 483c
000001c0: 192c e43c f32d 41be af2f 7abe e112 043d
000001d0: ac48 d1bc 30f7 1f3c 379a 983d 2a84 8dbe
000001e0: c463 bebc ff07 a53c a3f3 443c c39a c1bc
000001f0: 1d8a a13e 2596 f93a 3699 eb3c 1cba 6939
00000200: da7d 08bd e058 cebc d062 34bc 9e01 c9bc
00000210: 3ea8 203e 9bd0 d4bd 4855 1bbd b91c e03d
00000220: f18f 84be 84ae cbbc a926 93bb 67bc a33c
00000230: fb0a 54be 4415 313c 4370 3f3c 70d7 4abc
00000240: 2938 7d3d f360 5dbd 0f8c b23d c445 8bbd
00000250: 7ca9 88be 94f4 b53e 559b abbc 1a9f 893d
00000260: 36a8 6e3d e7ac 90be ee1e 653c 877d 1fbd
00000270: c7a5 c73e 3521 913d 863a 9fbc 35e6 57bc
00000280: f086 43be b632 c5bc dc84 0d3d c391 09bb
00000290: ec81 24bc c082 3bbb 5211 763d 258d cd3c
000002a0: 4ad9 57bd 7b7f 6ebd df4f 17bf f561 9d3d
000002b0: 3fc7 2cbd a723 fd3d 660d 56bc 4649 7dbe
000002c0: 17ba 51be 1424 a13c db50 7fbe f583 02bd
000002d0: f60f 98bd c0a6 423d 50e0 913e a588 603d
000002e0: b4dd 77bd 7303 7f3c c386 94be 1433 553d
000002f0: 5e71 1bbf 28a6 a1ba 17a6 fd3c bf19 db3c
00000300: 3dd8 15b8 b65d 77bc 49cf 09bd ac0e 6dbe
00000310: 46ca d9bc 2f53 a03d ccea 66be 0c88 373d
00000320: 6261 a73c 48c9 433b 28d2 27bd c167 883d
00000330: e84e 863c b9ed 16bf bffa 7dbd 3946 af3d
00000340: 939f 843d 4441 f43d 8fb2 9d3c af79 72bc
00000350: f1f9 2c3d 75bc 7ebe 14ba 3a3e cee2 603d
00000360: c5d2 1c3d 7dd6 b5be 35d5 70be 974d 533e
00000370: 8ae0 223c 48f7 7dbb f059 d8be 3cb3 a0bc
00000380: cc6f 5ebd ddc7 6dbe 2378 90bd 7275 e13b
00000390: ef30 5dbe 485f 963c 1a87 18bc 4fb9 8b3d
000003a0: ed0d 41bc b00c a33b b001 ad3c f4d6 d53e
000003b0: 56cd e0bc 7571 063c 0036 433c 068c f6bc
000003c0: 07b7 88bc db1b 45be db9c 4fbe d48a 50bd
000003d0: 3548 2b3d 6a18 08bc a43f 403c c583 89be
000003e0: d024 cab7 f45f bdbc 30a6 653d e7fb 6cba
000003f0: 8c2f ad3e 78b7 113a 3af1 903d e24c 14bc
0.031637125 -0.0544887 0.014500432 0.031607367 0.39207897 0.01005642 0.0146227265 -0.095399804
-0.24535431 0.030708663 0.028598921 -0.051994663 -0.24647686 0.010237463 -0.01751007 0.030881383
0.04217996 0.032136656 0.06961351 0.07458225 -0.2181594 0.397623 0.053415652 0.0009657453
-0.0087981485 -0.24566993 0.017592955 0.023225177 0.5138258 0.017681401 -0.02536135 0.04010039
-0.28690714 0.04890112 -0.030106695 -0.0019280729 -0.044220816 -0.0048890603 -0.05799225 -0.0012921405
-0.0066304654 -0.025013968 -0.38616928 0.008448408 0.014058511 -0.25461385 0.03291859 -0.21553029
-0.18750302 0.03748285 -0.3281756 -0.0069212103 0.049205005 0.042670257 0.33700132 0.04257597
-0.05382729 -0.08656512 -0.28019863 -0.013110164 -0.62351686 0.0009784582 0.012362644 0.05645333
-0.030945826 0.02693119 -0.07719262 -0.27780476 -0.06476539 0.015353673 -0.22628042 -0.004409053
0.032321233 0.02999351 -0.027850796 -0.0027126244 0.044647615 -0.55275553 -0.019082291 0.006671004
-0.002920553 0.026773239 0.022089174 0.005435385 -0.0023210405 -0.27019823 0.24281597 -0.014949799
-0.030568354 -0.44212264 -0.20569733 0.230912 0.0045800298 0.0029196884 -0.5261026 -0.028314997
0.05105025 -0.20993742 -0.373162 -0.056092616 -0.24641688 0.0046283216 -0.0036527044 -0.032338053
0.14848319 0.031182209 0.04379519 0.35725227 -0.030901344 -0.026252156 0.027702156 0.012227642
0.027853059 -0.18865184 -0.24432252 0.032244567 -0.025547348 0.009763524 0.07451289 -0.27639896
-0.023240931 0.020145414 0.012020978 -0.023633366 0.31550685 0.0019041939 0.02875958 0.00022289943
-0.033323146 -0.025188863 -0.011009887 -0.024536904 0.1568918 -0.10391351 -0.037923127 0.109429784
-0.2589107 -0.024863489 -0.0044906926 0.019987298 -0.20707314 0.010808293 0.01168448 -0.012380466
0.061821137 -0.054047536 0.0871812 -0.06800416 -0.26691806 0.3553816 -0.020948092 0.06719799
0.058265887 -0.28256914 0.013984425 -0.03893807 0.38993666 0.07086412 -0.019437086 -0.013177444
-0.19094443 -0.024072032 0.034550533 -0.0020991422 -0.010040741 -0.0028611869 0.06007511 0.025091717
-0.052697457 -0.058227044 -0.5910625 0.076846994 -0.042182203 0.12360316 -0.013064718 -0.24734983
-0.20481144 0.019670524 -0.24933188 -0.031864125 -0.07424919 0.047522306 0.2849145 0.054817814
-0.060514167 0.015564787 -0.29009065 0.052050665 -0.6071986 -0.0012332844 0.030962987 0.026745675
-3.5725756e-05 -0.015098026 -0.03364495 -0.23150128 -0.02658571 0.07828366 -0.22550505 0.04480748
0.020432178 0.0029874612 -0.040971905 0.066604145 0.016395047 -0.58956486 -0.06200671 0.08558316
0.06475749 0.11926511 0.019250182 -0.014799519 0.04223055 -0.24876578 0.18235046 0.054903798
0.038286943 -0.35515204 -0.23518832 0.20635067 0.00994123 -0.0038752127 -0.42256117 -0.019616716
-0.054305837 -0.23220773 -0.07054164 0.0068804557 -0.21600698 0.01835598 -0.0093095545 0.06822454
-0.011783105 0.0049758777 0.021118969 0.4176556 -0.027441662 0.008205761 0.01191473 -0.030096065
-0.016688837 -0.19248907 -0.2027468 -0.050913647 0.04181691 -0.008306602 0.011733923 -0.26858345
-2.4097419e-05 -0.023117043 0.056066692 -0.0009040222 0.33825338 0.000555865 0.0707726 -0.009051533

model.6.bias f4 [3]
00000000: f1ef debe 4139 1fbf 62b5 02bf
-0.43542436 -0.6219674 -0.5105802
