2021-22/PrimerSemestre/Reinforcement/PEC2/DDQN.pth (torch, 666959 bytes, 8 tensors)

model.0.weight f4 [512, 2]
0	0x3ce5369b	0.02798014
1	0x3f24a202	0.64309704
2	0x3ecf67f0	0.40508986
3	0xbe637834	-0.22213823
4	0x3d5cde30	0.053922832
5	0x3f0e3be7	0.55560154
6	0xbdc95268	-0.09830171
7	0x3e7932f4	0.24335843
8	0x3cdf3892	0.027248655
9	0x3f01508b	0.50513524
10	0x3d05956d	0.032613207
11	0x3df507dd	0.119643904
12	0x3e61e060	0.22058249
13	0xbdb62318	-0.08893412
14	0x3f4524af	0.770091
15	0x3ffeb1e6	1.989804
16	0xbecec451	-0.40384153
17	0xbe122385	-0.14271362
18	0x3e69af7c	0.22820848
19	0x4059922a	3.3995461
20	0xbf20f0ef	-0.62867635
21	0xbf839087	-1.0278481
22	0x3d316660	0.043310523
23	0x40373e70	2.863186
24	0x3ebf1cd8	0.37326694
25	0xbe63709d	-0.22210927
26	0x3ecd9556	0.40152997
27	0x3e863d20	0.2621851
28	0xbea87d97	-0.32908317
29	0xc04701a7	-3.1094759
30	0xbdb9edb0	-0.090785384
31	0x3e7cee0c	0.24700183
32	0x3e83551c	0.2565087
33	0x40812609	4.035893
34	0x3df87c38	0.12133068
35	0x3e9eda4a	0.31025916
36	0x3ea151c7	0.31507704
37	0x40869ad0	4.206398
38	0xbe2dc43b	-0.16969387
39	0xbf23b1a7	-0.6394295
40	0x3e60f9be	0.21970269
41	0xbf35bcd2	-0.7099124
42	0x3ee8800e	0.45410198
43	0x4066e871	3.607937
44	0xbed2a624	-0.4114238
45	0xbe1d9dec	-0.15392274
46	0xbeef9383	-0.4679223
47	0xbdad14ba	-0.08451219
48	0x3ee8d90a	0.45478088
49	0xbe088b30	-0.13334346
50	0x3f100e65	0.56271964
51	0xbd507a97	-0.05089816
52	0x3ea96a26	0.33088797
53	0x3ed8cf66	0.42345732
54	0xbdc2990a	-0.09501846
55	0xbeb0a27c	-0.34498966
56	0x3e7eac2c	0.24870366
57	0xbc814720	-0.015780985
58	0xbe0b9a74	-0.13633138
59	0xbfcc76ce	-1.5973756
60	0x3e0d906e	0.13824627
61	0xbef9e057	-0.4880397
62	0x3f207197	0.62673324
63	0xbef16a70	-0.47151518
64	0x3e0f427f	0.1399021
65	0x403dbd83	2.9646919
66	0xbb6bcf3f	-0.0035981683
67	0xbbc7efb1	-0.0061015715
68	0xbe3d9c88	-0.18516743
69	0x3e97acbe	0.2962398
70	0x3f29fc9c	0.66401076
71	0x3eb40b39	0.35164812
72	0xbe7cef0c	-0.24700564
73	0xbd94c2d4	-0.07263723
74	0xbc8771e0	-0.016533792
75	0xbea8728b	-0.3289989
76	0xbe763b6c	-0.24046105
77	0xbefa8b7b	-0.4893454
78	0x3ea3480e	0.3189091
79	0xbd580a10	-0.05274397
80	0x3ecd702e	0.4012465
81	0xbf2e7738	-0.68150663
82	0x3f294839	0.6612583
83	0x3f884cf9	1.064849
84	0xbdb9fb58	-0.09081143
85	0x3f1d2e51	0.613988
86	0xbf2fabfc	-0.686218
87	0xc00731c9	-2.1124136
88	0x3ea556a1	0.32292655
89	0xbdb1c39e	-0.08679889
90	0x3f1e31cb	0.6179473
91	0x3faf6c45	1.3704916
92	0x3ea65a60	0.32490826
93	0x408e17e0	4.4404144
94	0x3e686eb5	0.22698481
95	0x3f2fa330	0.6860838
96	0x3e0adc9a	0.13560715
97	0x4099d781	4.8075566
98	0xbe148f65	-0.14507826
99	0x401c89f1	2.4459193
100	0xbdf4fa76	-0.11961834
101	0x3ebfc3d2	0.37454087
102	0x3d56cf2c	0.05244367
103	0xbea77174	-0.32703745
104	0x3ee364fe	0.44412988
105	0xbef80904	-0.48444378
106	0xbd1c5e9e	-0.03817617
107	0x3e4eaf20	0.20183992
108	0x3df00328	0.11719352
109	0xbe385164	-0.17999798
110	0x3f1719e7	0.590239
111	0x3ee5b1de	0.44862264
112	0x3f4fde5f	0.81198686
113	0xbd32cbb0	-0.043651283
114	0xbce56ec0	-0.028006911
115	0xbde178f0	-0.11009395
116	0xbe95bc53	-0.29245242
117	0xc0914fb3	-4.540979
118	0xbe481d54	-0.19542438
119	0xbec2f36e	-0.38076347
120	0xbeb5d3de	-0.35513204
121	0x3e001788	0.12508976
122	0xbf1a4365	-0.60259086
123	0xbe87605a	-0.26440698
124	0xbeae37fa	-0.34027082
125	0xbf995110	-1.1977863
126	0x3f25276f	0.64513296
127	0x3f5be53b	0.8589665
128	0x3ec8026e	0.39064354
129	0x3ee3f56e	0.44523185
130	0x3e6df5c0	0.23238277
131	0xbec49768	-0.38396764
132	0x3e92a4fc	0.28641498
133	0x3f20162b	0.62533826
134	0xbefcb9db	-0.49360546
135	0xbeddbabf	-0.43306538
136	0x3c065c13	0.008200663
137	0xbf51a779	-0.8189617
138	0x3d11f105	0.035630245
139	0x400fc88a	2.246615
140	0x3e748924	0.2388044
141	0xbece2ca6	-0.4026844
142	0xbe6d26bd	-0.23159309
143	0x3d936750	0.0719744
144	0xbe42fca9	-0.19041695
145	0xbde652e5	-0.112462796
146	0xbead25dd	-0.3381795
147	0x3d9b974f	0.07597219
148	0x3e751288	0.2393285
149	0xbedff0ef	-0.43738505
150	0x3f17b618	0.5926223
151	0x407bf749	3.936968
152	0x3ee674d1	0.45011
153	0x407b3892	3.9253278
154	0xbf0176a8	-0.5057168
155	0x3e9a4f3f	0.30138585
156	0x3ce65660	0.028117359
157	0x3e425f10	0.18981576
158	0xbe94deb9	-0.29076174
159	0xbe3bb250	-0.1832974
160	0xbe6d80b2	-0.23193625
161	0x3fee816b	1.8633245
162	0x3e5a61f0	0.21326423
163	0xbed22758	-0.41045642
164	0x3e1f29ec	0.15543336
165	0x3eb35a82	0.3502999
166	0x3ef32626	0.47490042
167	0xbe8cccd8	-0.27500033
168	0xbed0f680	-0.40813065
169	0x3cedd176	0.029030543
170	0x3e8c8dc4	0.2745191
171	0x3ebe75de	0.371993
172	0x3cdaa6c0	0.02669084
173	0xbe66f084	-0.22552687
174	0xbeb7aec1	-0.35875514
175	0xbed6f9f4	-0.41987574
176	0x3eaa67be	0.33282274
177	0xbf333ac6	-0.70011556
178	0xbd99c7ea	-0.07508834
179	0x40232f8c	2.549777
180	0x3e7ae468	0.24501193
181	0x3dc32070	0.09527671
182	0xbf05a594	-0.5220578
183	0xbd6cfeb9	-0.05786011
184	0x3d385b47	0.045008924
185	0xbe0caa4b	-0.13736837
186	0x3e858262	0.26076037
187	0x3f1558c9	0.583386
188	0xbe201784	-0.1563397
189	0xbf064d03	-0.5246126
190	0x3f1d39e4	0.6141646
191	0x403f9ad0	2.993824
192	0x3eaa71fe	0.33290094
193	0xbee50932	-0.44733578
194	0x3efd179d	0.49432078
195	0x3f7cd8cd	0.9876831
196	0xbbef2522	-0.0072981277
197	0x40284199	2.6290038
198	0x3e470fc0	0.19439602
199	0xbd6fe120	-0.058564305
200	0x3e937eeb	0.28807768
201	0x3efc9cae	0.49338287
202	0xbee67ac1	-0.4501553
203	0xbf403ffc	-0.7509763
204	0x3e181fe8	0.14855921
205	0x3eae1f46	0.34008235
206	0xbea50221	-0.32228187
207	0xbf03578c	-0.5130546
208	0x3f2e7017	0.68139786
209	0x40408288	3.007967
210	0xbd9aa5be	-0.07551144
211	0xbf1dcdc7	-0.61642116
212	0xbf0c3ad0	-0.5477724
213	0xbda40eea	-0.08010657
214	0x3f336521	0.70076185
215	0xbe18a374	-0.14906102
216	0xbd28c274	-0.04120107
217	0xbe765291	-0.24054934
218	0x3e943b36	0.28951424
219	0xbff08604	-1.8790898
220	0xbd082749	-0.03324059
221	0x403bfda1	2.9373553
222	0x3e94cd7c	0.29063022
223	0x3efa67ce	0.48907322
224	0xbe770516	-0.24123034
225	0x3ebf0802	0.37310797
226	0xbe795865	-0.24350126
227	0xbf05fc31	-0.5233794
228	0x3e9f3d2a	0.31101352
229	0xbf6940d9	-0.91114575
230	0xbf2186ed	-0.63096505
231	0xc01881fc	-2.3829336
232	0xbe821ff4	-0.25415003
233	0xbf366af9	-0.7125698
234	0xbe47ee8b	-0.1952459
235	0x40271cbe	2.6111293
236	0x3f29f060	0.6638241
237	0xbf5c8e17	-0.8615431
238	0x3ef5530f	0.4791493
239	0x3f0c927c	0.5491102
240	0xbe9e08df	-0.30866143
241	0x3f073d18	0.52827597
242	0x3e9ecbda	0.310149
243	0xbe2c1580	-0.16805077
244	0xbe556587	-0.20839511
245	0xbe68c98b	-0.22733133
246	0x3f328d45	0.6974681
247	0xbf0585a2	-0.5215703
248	0x3d0fd827	0.03511825
249	0x40686070	3.630886
250	0x3e97692c	0.29572427
251	0x403514f4	2.8294039
252	0x3f20911f	0.6272144
253	0x3d4e4540	0.05035901
254	0xbe7110e9	-0.23541607
255	0x3e7f44aa	0.24928537

model.0.bias f4 [512]
0	0xbd3d34fc	-0.046193108
1	0x3ef0d8f7	0.4704053
2	0xbea7cc2c	-0.32772958
3	0xbf2b9dc1	-0.6703759
4	0xbd4b8a47	-0.04969242
5	0x3ec084e7	0.37601396
6	0x3eae947f	0.3409767
7	0x3deca4d5	0.11554877
8	0x3e37f4af	0.17964433
9	0xbd9fa8d5	-0.07795874
10	0xbec9a4ec	-0.39383638
11	0xbd9e5340	-0.077307224
12	0x3eddddb5	0.43333212
13	0xbeef0fdc	-0.46691787
14	0xbe1c8a1e	-0.15287063
15	0xbf1b552c	-0.60676837
16	0xbdb67917	-0.08909815
17	0x3edc5f54	0.4304148
18	0xbdd59067	-0.10427933
19	0x3e9c0ab8	0.30476928
20	0x3e0b7622	0.13619283
21	0x3dd04923	0.101702
22	0xbf119396	-0.56865823
23	0x3f166a84	0.5875628
24	0xbe6fe734	-0.2342804
25	0x3e7b8ab5	0.24564631
26	0xbebbb535	-0.36661687
27	0x3ee61345	0.44936576
28	0xbf0b4426	-0.5440086
29	0xbd2b4f1d	-0.041823495
30	0x3daceda0	0.08443761
31	0xbec9b7cf	-0.39398047
32	0xbd6ba1a3	-0.057527196
33	0x3e1eaca3	0.15495543
34	0xbf2c0087	-0.67188305
35	0x3e93249a	0.28738862
36	0xbe9ab627	-0.30217096
37	0xbf0ab174	-0.5417702
38	0x3e6b8793	0.23000936
39	0xbf306a6a	-0.68912375
40	0xbedd6c74	-0.43246806
41	0x3e972458	0.29519916
42	0xbecc4916	-0.3989951
43	0xbedc0a4c	-0.42976606
44	0xbe3d8bac	-0.18510312
45	0x3d9320ca	0.071839884
46	0x3c4a2699	0.012338304
47	0x3f0e0b5d	0.5548609
48	0xbd07f5fc	-0.033193573
49	0xbe2033ac	-0.15644711
50	0xbe1504d9	-0.1455263
51	0xbcdbb2a8	-0.026818588
52	0xbf051cb4	-0.5199692
53	0xbd490c2d	-0.049083877
54	0x3f061f48	0.5239148
55	0xbf2904a3	-0.660227
56	0xbe9be2dc	-0.30446517
57	0xbf00e36e	-0.5034703
58	0xbe59105f	-0.21197651
59	0xbedef5a9	-0.435468
60	0xbf28125c	-0.65653014
61	0xbe1f5f7a	-0.15563765
62	0xbe31aad6	-0.17350325
63	0x3eea5128	0.45765042
64	0xbe950913	-0.29108486
65	0xbe4a8de8	-0.19780695
66	0xbf34028d	-0.7031639
67	0xbf217199	-0.6306396
68	0x3cbda2ea	0.023148973
69	0xbd6b3e8f	-0.057432707
70	0xbefd79c0	-0.4950695
71	0x3f14392b	0.5789973
72	0xbe71a57a	-0.2359828
73	0x3eaafc59	0.3339565
74	0xbeb48266	-0.35255736
75	0xbe107661	-0.14107658
76	0xbdebfd58	-0.11522931
77	0x3ebf142e	0.37320083
78	0xbf03e7db	-0.5152566
79	0xbee93ced	-0.45554295
80	0xbddf072d	-0.108900405
81	0xbf22a4ce	-0.6353272
82	0xbf25b050	-0.64722157
83	0xbe8ebdd7	-0.2787921
84	0x3e35daf0	0.177593
85	0xbf01b7c2	-0.5067102
86	0xbd7a1b40	-0.061061144
87	0xbefa5960	-0.48896313
88	0xbf0dec39	-0.5543857
89	0xbde10f5e	-0.10989259
90	0xbf17c360	-0.59282494
91	0xbeb7823b	-0.35841545
92	0x3ed8806f	0.42285487
93	0xbe93091b	-0.28717884
94	0xbec3e978	-0.3826406
95	0xbe06a703	-0.13149647
96	0xbf032ef4	-0.5124352
97	0x3e612cbc	0.21989721
98	0xbd55a8b5	-0.052162845
99	0xbf26fc9b	-0.65229195
100	0x3ef1ee41	0.47252086
101	0x3ec8ea90	0.39241457
102	0xbf17b5d8	-0.59261847
103	0x3e2a5ecd	0.16637726
104	0x3dab4b96	0.08364026
105	0x3ed34a8a	0.41267806
106	0x3e8578bd	0.26068678
107	0xbf33c742	-0.7022592
108	0x3ea9b361	0.33144668
109	0x3e08ca90	0.13358521
110	0xbcae5e7c	-0.021285288
111	0xbe50c734	-0.2038849
112	0xbed54ea1	-0.41661552
113	0xbdb49cb3	-0.088189505
114	0x3e453cf5	0.19261535
115	0xbf21e239	-0.63235813
116	0x3db780ad	0.0896009
117	0xbe476df6	-0.1947554
118	0xbd43d98d	-0.047814894
119	0x3eef6615	0.4675757
120	0xbebe92aa	-0.3722127
121	0xbee5950c	-0.44840276
122	0x3e94b004	0.2904054
123	0xbf338c7e	-0.7013625
124	0xbd6e5ed4	-0.058195904
125	0xbdab53fa	-0.08365627
126	0xbed5c542	-0.41752058
127	0x3f037d3e	0.5136298
128	0xbf14e7f7	-0.5816645
129	0xbe65db82	-0.22447017
130	0x3edc97ec	0.43084657
131	0xbf06eb77	-0.5270304
132	0xbe045428	-0.12922728
133	0xbf24a93e	-0.64320743
134	0xbdfde541	-0.12397242
135	0xbeed66f8	-0.4636762
136	0xbf204eed	-0.6262043
137	0xbc846934	-0.016163446
138	0x3df862d9	0.12128229
139	0xbf2d36f4	-0.67661977
140	0x3e9804db	0.29691204
141	0x3e756971	0.23966004
142	0x3d21c665	0.039495844
143	0xbde03a2b	-0.10948595
144	0xbddd9213	-0.10818877
145	0xbe8b4100	-0.2719803
146	0xbec49c48	-0.38400483
147	0xbe2e8ccb	-0.17045896
148	0xbf1be39a	-0.6089417
149	0xbe25d881	-0.16195871
150	0xbf3bd625	-0.73373634
151	0x3e8bd5e4	0.27311623
152	0xbef55fe8	-0.47924733
153	0xbde27fed	-0.11059556
154	0x3ea80444	0.32815754
155	0xbccb16ac	-0.024791084
156	0x3e86f1a4	0.26356232
157	0xbea20cb2	-0.3165031
158	0x3e20a11c	0.15686458
159	0xbe6666c8	-0.22500145
160	0xbef67082	-0.48132712
161	0x3e354879	0.17703427
162	0xbd24c8e5	-0.04023065
163	0xbe974c46	-0.2955038
164	0x3f0f1eb3	0.5590622
165	0x3f0ce5bc	0.55038047
166	0x3e5382dc	0.20655388
167	0x3f05a5d6	0.5220617
168	0xbed39998	-0.4132812
169	0xbed59f79	-0.4172323
170	0xbe384fa4	-0.1799913
171	0xbed58cc4	-0.41708958
172	0xbe770198	-0.24121702
173	0x3dbdd2ab	0.09268697
174	0x3f0b2532	0.5435363
175	0xbf04e8f9	-0.5191799
176	0x3d896b21	0.06709886
177	0xbef45dfa	-0.47727948
178	0xbda1a4e9	-0.07892782
179	0xbf09dcda	-0.5385262
180	0xbe8913e5	-0.2677299
181	0xbf0f0df2	-0.55880654
182	0xbe960887	-0.2930338
183	0xbef2457e	-0.47318643
184	0xbeb241a8	-0.34815717
185	0xbef045c8	-0.4692824
186	0xbdbd6325	-0.09247426
187	0xbe8d7cc5	-0.27634254
188	0x3ed75541	0.4205723
189	0xbecec266	-0.4038269
190	0xbebfde37	-0.37474224
191	0xbf158505	-0.58406097
192	0x3e8a5e3c	0.2702502
193	0x3da55855	0.080734886
194	0xbeeda627	-0.46415827
195	0xbf27776d	-0.65416604
196	0x3da81a09	0.08208091
197	0x3ca5f7ae	0.020259704
198	0xbea76396	-0.32693166
199	0xbf166a55	-0.58756
200	0xbdce358f	-0.10068809
201	0xbf0a78f7	-0.5409083
202	0x3f046a63	0.51724833
203	0xbf0de965	-0.55434257
204	0x3ef982e8	0.48732686
205	0xbf1fb84a	-0.6239058
206	0x3e6b63b3	0.22987251
207	0x3e45f866	0.19333038
208	0x3e0c8eb8	0.13726318
209	0x3e84ccda	0.2593754
210	0xbec993de	-0.39370626
211	0xbf28b13f	-0.65895456
212	0xbf324486	-0.6963581
213	0xbf34fb28	-0.70695734
214	0x3e2e62c6	0.17029867
215	0x3e85fb1b	0.2616814
216	0xbf22b039	-0.63550144
217	0x3ea19302	0.3155747
218	0x3e298b4b	0.16557042
219	0xbec3abfc	-0.3821715
220	0xbef5a580	-0.4797783
221	0xbe6b98c3	-0.23007493
222	0x3f1c186e	0.60974777
223	0x3e1e5005	0.15460213
224	0xbcf40b76	-0.029790621
225	0xbc686ff2	-0.014186846
226	0xbe32eb4d	-0.17472573
227	0x3d74bb7a	0.059749104
228	0x3e41896a	0.18900076
229	0x3e48376c	0.19552392
230	0xbe60c918	-0.21951711
231	0xbce04bb5	-0.02737985
232	0xbdf10dc5	-0.117702045
233	0xbf2d525a	-0.67703784
234	0xbd1a03d0	-0.037601292
235	0x3f037a45	0.51358443
236	0xbd0b927e	-0.034075253
237	0x3f03f63e	0.5154761
238	0x3f019d39	0.5063053
239	0xbed98e6f	-0.4249148
240	0xbeec6016	-0.46167058
241	0x3f064f3b	0.52464646
242	0xbf2c99dd	-0.67422277
243	0x3e8bfdbb	0.27342018
244	0xbe46a90c	-0.19400424
245	0xbeb760b8	-0.35815978
246	0xbeec8070	-0.4619174
247	0x3e2fa5bf	0.17153071
248	0xbd229cca	-0.039700307
249	0xbd7637ef	-0.060111936
250	0xbd657765	-0.056022067
251	0xbd98922a	-0.074497536
252	0x3dcfc544	0.10145047
253	0xbefd129a	-0.49428254
254	0xbf129252	-0.5725452
255	0xbed69044	-0.4190694

model.2.weight f4 [256, 512]
0	0xbc133cdc	-0.008986678
1	0x3b06c540	0.0020564348
2	0x3a3ea200	0.00072720647
3	0xbd261e61	-0.040556315
4	0x3c71f84c	0.014768671
5	0x3c702806	0.01465798
6	0x3cca7b16	0.024716895
7	0x3d164f66	0.036696814
8	0x3c566bbd	0.01308721
9	0xbd305dbc	-0.043058142
10	0xbd38030b	-0.044924777
11	0x3d11d3f5	0.03560253
12	0x3cf96b51	0.03044668
13	0x3c029eb8	0.007972412
14	0x3cb6c70a	0.022311706
15	0xbd112913	-0.035439562
16	0x3d061b4f	0.032740887
17	0x3c7c0b9c	0.015383627
18	0xbb4e8be0	-0.0031516477
19	0xbd063b8e	-0.03277164
20	0x3d069065	0.03285255
21	0x3bd1d00c	0.006402975
22	0xbce874a9	-0.02837594
23	0xbd36d24c	-0.04463415
24	0x3c311c60	0.010809988
25	0xbd205440	-0.039142847
26	0xbc9e38de	-0.019314226
27	0xbd36984d	-0.04457884
28	0xbc5e9052	-0.013584213
29	0xbc982f13	-0.018577134
30	0xbd02e5c6	-0.03195741
31	0x3cc3772e	0.02386054
32	0xbb2e9a00	-0.0026642084
33	0xbc2d8eb9	-0.01059311
34	0xbc9870de	-0.018608507
35	0xbd2862b2	-0.04110975
36	0x3c2fe5c3	0.010735932
37	0xbd11109a	-0.035416223
38	0x3c8e2e0d	0.017355943
39	0x3c822c16	0.015890162
40	0x3d2a4855	0.041572887
41	0xbd0d3ff4	-0.03448482
42	0x3d27244b	0.040806096
43	0xbc27bd4c	-0.010238003
44	0xbcf50018	-0.029907271
45	0x3c08dadf	0.008352964
46	0xbd423ff2	-0.047424264
47	0xbd231e9e	-0.03982412
48	0x3c9deeff	0.019279001
49	0xb9ac8e94	-0.00032912625
50	0xbd26ee81	-0.0407548
51	0xbd1ce296	-0.038302027
52	0x3b9a4798	0.0047082417
53	0x3d0ccc27	0.034374382
54	0xbcfd5642	-0.03092492
55	0xbc10c7b4	-0.008836675
56	0xbd31dec1	-0.043425325
57	0xbc39213c	-0.011299428
58	0x3cd8620d	0.026413942
59	0x3abbe8a0	0.0014336295
60	0x3c05bca0	0.0081626475
61	0x3c00c4c2	0.007859411
62	0xbd0c59b3	-0.03426523
63	0xbc665111	-0.014057414
64	0xb7e93800	-2.7801841e-05
65	0x3d0a3425	0.033741135
66	0xbcf69708	-0.030101314
67	0xbc960b09	-0.018315809
68	0x3cd9433f	0.026521323
69	0x3ca67b6e	0.020322528
70	0xbb08c420	-0.0020868853
71	0xbd3583f8	-0.04431531
72	0x3ca4a304	0.020097263
73	0x3c032e6f	0.008006676
74	0x3c44524c	0.011982512
75	0x3cb8652a	0.022509176
76	0xbd02e171	-0.03195328
77	0xbd422d3f	-0.04740643
78	0x3d0fccf3	0.035107564
79	0xbd13b632	-0.036062427
80	0xbbfb4be0	-0.007668957
81	0x3cb60b46	0.022222172
82	0xbd2c5c04	-0.04207994
83	0xbbd5e430	-0.006527446
84	0x383247c4	4.2505344e-05
85	0x3c36adec	0.011149865
86	0x3c90945a	0.017648865
87	0x3d20a64b	0.03922109
88	0xbab274c0	-0.0013615116
89	0xbd025ae2	-0.031824954
90	0x3c2483b8	0.01004117
91	0xbc219f94	-0.009864707
92	0xbcd4b4c9	-0.025965111
93	0xbca3d834	-0.020000555
94	0xbca9365b	-0.020655802
95	0x3ba2a060	0.004962966
96	0x3c8f3ffc	0.017486565
97	0x3ced0300	0.028932095
98	0x3cdd8266	0.027039718
99	0x3d2701d5	0.04077323
100	0xbd346717	-0.044043627
101	0xbd42f926	-0.047600888
102	0xbd2c8530	-0.042119205
103	0x3ccba68a	0.024859685
104	0xbbaa4107	-0.00519574
105	0xbbebc076	-0.007194574
106	0xbd1642e1	-0.036684874
107	0x3bf96d28	0.0076118894
108	0x3d0df3e7	0.03465643
109	0xbcb33ec5	-0.021880517
110	0xbc78a0ea	-0.015175084
111	0xbbd6b4c0	-0.006552309
112	0xbc82e5db	-0.015978744
113	0xbd181bd3	-0.03713591
114	0x3d0c99da	0.03432641
115	0x3d33934d	0.04384165
116	0xbd253cc6	-0.04034116
117	0xbc754714	-0.01497056
118	0xbd10e10a	-0.035370864
119	0x3c82cba2	0.01596624
120	0x3c241b30	0.010016248
121	0xbd118475	-0.03552671
122	0xbd2c3ff5	-0.04205318
123	0x3d1d1be5	0.03835668
124	0x3d03c3cd	0.032169152
125	0x3d268b71	0.040660325
126	0xbd019e00	-0.03164482
127	0xbd1da706	-0.038489364
128	0xbc5f6ad6	-0.0136363115
129	0x3cf076be	0.029353496
130	0xbd006eeb	-0.03135578
131	0x3cd5af2a	0.026084501
132	0xbcc09c3a	-0.023511995
133	0xbc64fbb4	-0.013976026
134	0xbb92a325	-0.0044750147
135	0xbbca885b	-0.0061808056
136	0x3c96c90e	0.018406417
137	0x3ac1b840	0.0014779642
138	0xbcbaf3f1	-0.022821398
139	0xbcbc63cf	-0.022996811
140	0x3cc558da	0.02409022
141	0xbb076870	-0.0020661615
142	0x3d0ea106	0.034821533
143	0x3c8ed0d4	0.017433561
144	0x3d0c0b09	0.03419021
145	0x3d10a3f7	0.03531262
146	0xbc2f94d4	-0.010716636
147	0x3b051fe0	0.0020313188
148	0x3d02e451	0.03195602
149	0x3ccfc062	0.02536029
150	0xbc2f109c	-0.010685112
151	0x3ccaad3d	0.02474081
152	0x3be1c140	0.0068894923
153	0x3d2c3699	0.042044256
154	0xbcf5e5f7	-0.030016882
155	0x3b9c1a49	0.0047638756
156	0x3c798a4c	0.015230726
157	0xbca8f797	-0.020625873
158	0xbbb9ea9d	-0.00567372
159	0x3cdee312	0.027207885
160	0xbbf08968	-0.007340599
161	0xbd23a3b1	-0.03995103
162	0xbce195d4	-0.027537264
163	0x3a04f5d2	0.00050720305
164	0xbd022f61	-0.031783465
165	0x3ca1ffd4	0.019775309
166	0xbd0c93f3	-0.034320783
167	0xbd3a50ac	-0.04548709
168	0x3cfcba1e	0.030850466
169	0x3cd24e9e	0.025672253
170	0x3cc6d506	0.0242715
171	0xbbd07ed0	-0.0063627735
172	0x3d2b10f7	0.041764226
173	0xbc22c2ec	-0.009934168
174	0xbbf8365c	-0.0075748395
175	0xbc6cfea0	-0.014465004
176	0x3d142871	0.03617138
177	0xbd1776f8	-0.03697869
178	0xbc792c48	-0.015208311
179	0x3ca4e36e	0.020127978
180	0xbbe7af38	-0.0070704482
181	0xbc64cf7c	-0.013965484
182	0xbc818995	-0.015812675
183	0x3b7c8e80	0.0038537085
184	0xbcc0a13d	-0.023514384
185	0xbd1227c4	-0.035682455
186	0xbc1ccbeb	-0.009570102
187	0xbce17791	-0.027522834
188	0x3cdc1a13	0.026867902
189	0xbc892f1d	-0.016746098
190	0xbd2670d3	-0.04063494
191	0xbca559bb	-0.020184388
192	0xbcf4b063	-0.029869264
193	0x3c6ea7a4	0.014566336
194	0x3ca404aa	0.020021755
195	0xbd1c6cee	-0.03818982
196	0xbd11a18e	-0.03555446
197	0x3d14fba8	0.03637281
198	0xbc9fdcb6	-0.019514423
199	0xbd06c6c6	-0.03290441
200	0xbb964cd8	-0.004586797
201	0x3cdd1a12	0.02698997
202	0xbb9adf79	-0.004726347
203	0xbd15a46c	-0.036533758
204	0xbc8bd38d	-0.017068649
205	0xb996b000	-0.0002874136
206	0x3bb30236	0.00546291
207	0x3c8de7b6	0.017322402
208	0xbd311401	-0.043231968
209	0xbcba9f66	-0.022781085
210	0xbb897a2f	-0.0041954736
211	0x3ce3dcb2	0.027815197
212	0x3c91baa4	0.017789192
213	0x3adbbe60	0.001676511
214	0xbc5ad8ee	-0.013357384
215	0xbd027d1e	-0.031857602
216	0xbd08f896	-0.033440195
217	0xbc261d66	-0.010138845
218	0xbc8661fc	-0.016404144
219	0x3cd5ffee	0.026123013
220	0x3bbdecc0	0.005796045
221	0x3c9efaac	0.019406639
222	0x3c5c255f	0.013436644
223	0xbc745207	-0.014912135
224	0x3b8687ef	0.00410556
225	0xbc878bee	-0.016546216
226	0x3cd81012	0.02637485
227	0xbb8e339b	-0.004339648
228	0x3c1af4c5	0.009457772
229	0xbd40c88e	-0.047066264
230	0x3ca65ec6	0.020308863
231	0xbd0567c3	-0.032569658
232	0xbd2556eb	-0.040366095
233	0xbd32a64c	-0.043615624
234	0xbcdd4097	-0.027008338
235	0x3c314a1b	0.010820891
236	0xbcf3d5c8	-0.029765025
237	0x3d0570a1	0.032578114
238	0xbcc0703f	-0.023491023
239	0x3ce2fb06	0.027707588
240	0xbd1ed056	-0.038772903
241	0x3c5d0ce2	0.013491841
242	0xbce629f0	-0.02809617
243	0x3c0fa17d	0.008766529
244	0x3cac7aa0	0.021054566
245	0x3ca810c2	0.020515803
246	0xbcd1029d	-0.025513941
247	0xb799f197	-1.835152e-05
248	0xbabd09e0	-0.0014422499
249	0xbb349a2c	-0.0027557714
250	0x37e13606	2.6847247e-05
251	0xba2573b0	-0.0006311489
252	0xbc7017da	-0.014654124
253	0xbb8d9068	-0.004320193
254	0xbc76aade	-0.015055386
255	0x3ccb3b06	0.024808418

model.2.bias f4 [256]
0	0xbc63a33b	-0.013893898
1	0xbcd2261f	-0.025652943
2	0xbbb3618e	-0.005474276
3	0xbd06076c	-0.03272192
4	0xb9bbd080	-0.00035822764
5	0x3d11e914	0.03562267
6	0x3da6351a	0.08115597
7	0x3d046beb	0.03232948
8	0xbce5aa76	-0.028035384
9	0x3da6a816	0.081375286
10	0xbd835de9	-0.06414396
11	0x3cf8937f	0.03034377
12	0xbbec232e	-0.007206342
13	0xbbfc3790	-0.0076970533
14	0xbc743019	-0.0149040455
15	0xbd21e08d	-0.03952079
16	0x3cd9bf9e	0.026580628
17	0x3a264ea8	0.0006344118
18	0x3dba8c3c	0.09108779
19	0xbbc135cd	-0.005896306
20	0x3cac883d	0.021061057
21	0x3d0c64dc	0.034275874
22	0xbc8f2dee	-0.017477956
23	0xbd8e9de8	-0.06963712
24	0xbd40c61a	-0.047063924
25	0xbc1f3751	-0.009717778
26	0xbd98c50f	-0.07459461
27	0x3d2fd447	0.042927053
28	0x3e25d79d	0.16195531
29	0xbc81b7da	-0.015834738
30	0x3d092ef8	0.03349206
31	0xbca81172	-0.020516131
32	0xbca30514	-0.019899882
33	0x3ce731f7	0.028222067
34	0x3d1072b5	0.035265643
35	0xbd1447a5	-0.036201138
36	0xbcf43202	-0.029809002
37	0x3c77bf00	0.015121222
38	0xbcc4c6d5	-0.024020592
39	0xbc448938	-0.011995606
40	0x39daf58f	0.00041763156
41	0xbd206243	-0.03915621
42	0xbd4c2dd9	-0.04984841
43	0xbc183ada	-0.009291375
44	0x3e0cf957	0.1376699
45	0x3b787532	0.003791165
46	0xbc900afc	-0.017583363
47	0x3bbc4d80	0.0057465434
48	0xba51fb78	-0.0008010189
49	0xbd703865	-0.058647532
50	0xbd1b56e5	-0.037924666
51	0x3c893e19	0.016753243
52	0xbd2b300f	-0.04179388
53	0x3d95de70	0.07317817
54	0xbc619c95	-0.013770242
55	0xbc29a500	-0.0103542805
56	0x3e08b52e	0.13350365
57	0x3cb8ba58	0.022549793
58	0xbccc0cd3	-0.024908459
59	0x3be2ee8a	0.0069254087
60	0xbce9232a	-0.02845915
61	0xbd82e024	-0.06390408
62	0xbd2900dd	-0.04126059
63	0xbccfb191	-0.025353225
64	0xbd9c0fec	-0.07620224
65	0x3c45ba0d	0.012068284
66	0xbd9d85fd	-0.07691572
67	0x3c59e8cb	0.013300131
68	0xbcd7b887	-0.026333107
69	0x3e0f6383	0.14002804
70	0xbc9eeb8e	-0.01939943
71	0x3ccf5ea7	0.025313688
72	0xb9e6a0f6	-0.00043988944
73	0x3c7f31cb	0.015575836
74	0x3bda75a8	0.0066668577
75	0xbcab8f84	-0.020942457
76	0x3c555b6c	0.013022285
77	0xbcce2240	-0.025162816
78	0x3d0feef3	0.03513999
79	0x3be509d0	0.006989695
80	0x3dd2f13a	0.102999166
81	0xbd80e6d3	-0.06294026
82	0xbd230f07	-0.039809253
83	0xbd9c8544	-0.07642606
84	0xbd0e68b9	-0.03476784
85	0x3e350405	0.17677315
86	0xbd0c8a0d	-0.034311343
87	0xbd3c2b72	-0.04593987
88	0x3cc3c4b9	0.023897516
89	0xbd97db88	-0.07414919
90	0xbd28fcf7	-0.04125687
91	0x3e2c602b	0.1683356
92	0xbd63090c	-0.05542855
93	0x3c3abadd	0.011397091
94	0xbd6b305b	-0.057419162
95	0xbd162aca	-0.0366619
96	0xbd2bb94c	-0.04192476
97	0x3d1bd77a	0.03804729
98	0xbcb51517	-0.022104783
99	0xbc1baa93	-0.009501117
100	0xbc630b26	-0.013857638
101	0x3ca70b12	0.02039102
102	0x3b30032a	0.0026857355
103	0x3c46e2e8	0.01213906
104	0x3cb50142	0.022095326
105	0x3c879eec	0.016555272
106	0x3a8dbb88	0.0010813335
107	0x3ce09ac3	0.027417546
108	0xbc2611bb	-0.010136063
109	0x3d2cc513	0.042180132
110	0xbd1bd017	-0.038040247
111	0x3cd35014	0.02579502
112	0xbcbf2c3b	-0.02333652
113	0xbcb8da4f	-0.022565035
114	0xbd53d414	-0.051715925
115	0xbca7615a	-0.020432163
116	0xbcc04bd6	-0.023473661
117	0x3c51b984	0.012800578
118	0x3e2264dd	0.15858789
119	0x3cc95d51	0.02458063
120	0xbc8d7949	-0.017269747
121	0xbd435ee5	-0.04769792
122	0xbd2db841	-0.042412046
123	0xbb4e22d5	-0.0031453867
124	0x3cd2a126	0.025711607
125	0xbd1e9a85	-0.03872158
126	0xbbef2e00	-0.007299185
127	0xbd47d831	-0.04879016
128	0x3c877eca	0.01653995
129	0x3ca1f5b2	0.019770477
130	0xba99b70f	-0.0011727529
131	0x3aa6dfd7	0.0012731504
132	0xbc174b34	-0.009234238
133	0x3c198c73	0.009371865
134	0x3e42334e	0.18964884
135	0xbcfc73a1	-0.030816855
136	0xbd311133	-0.043229293
137	0x3cc9ac5f	0.024618326
138	0xbd334e47	-0.043775823
139	0xbcc31874	-0.023815371
140	0x3b49cd80	0.0030792654
141	0xbd5e306c	-0.054245397
142	0xbb68da76	-0.0035530603
143	0xbd24a780	-0.040198803
144	0xbd189c5f	-0.037258502
145	0xbc26fc60	-0.010192007
146	0x3c9c9c5f	0.019117532
147	0x3cd1466a	0.025546271
148	0xbca270d4	-0.019829191
149	0xbd26a7d0	-0.040687382
150	0x3bf3cf4c	0.007440483
151	0xbcd9cac0	-0.026585937
152	0x3e4e29a5	0.20133074
153	0x3d116dd9	0.03550515
154	0x3c9353da	0.01798432
155	0xbca589d7	-0.020207329
156	0xbc905816	-0.017620128
157	0xbd0f40c5	-0.03497388
158	0x3ba57beb	0.0050501726
159	0xbd2fad86	-0.042890094
160	0xbd2d05f6	-0.042242013
161	0xbc7703b1	-0.015076564
162	0x3b50bc21	0.0031850415
163	0xbc2a728b	-0.010403286
164	0x3dec6598	0.11542815
165	0xbb8860dc	-0.004161937
166	0x3a305c1e	0.0006727594
167	0xbca243af	-0.019807665
168	0xbc2b0d62	-0.010440202
169	0x3d9e13c6	0.07718615
170	0x3d943525	0.07236699
171	0x3cca0965	0.024662683
172	0xbd18035f	-0.03711259
173	0xbd0504fe	-0.032475464
174	0x3c03525e	0.008015243
175	0x3c5f81b9	0.013641768
176	0x3cbd0582	0.023073915
177	0xbd07ef3d	-0.03318714
178	0xbd35df09	-0.044402156
179	0xbd1a5d34	-0.03768654
180	0xbb5b71a5	-0.0033484485
181	0xbd38ce1c	-0.045118436
182	0xbd0b1076	-0.033951245
183	0xbd688167	-0.056764033
184	0xbc31ad04	-0.010844473
185	0x3dbf9a94	0.09355655
186	0x3c967b14	0.018369235
187	0xbd7d74fe	-0.06187915
188	0x3da41c2d	0.080131866
189	0xbc5123a2	-0.012764843
190	0xbba93fe0	-0.005165085
191	0xbbc07d94	-0.005874345
192	0xbd79349f	-0.0608412
193	0xbc638d5c	-0.013888683
194	0x3d9a0f6e	0.07522474
195	0xb9fd1418	-0.0004827089
196	0xbd45a406	-0.048252128
197	0xbd047f7e	-0.03234815
198	0x3d24f95f	0.04027688
199	0xbd92e0c3	-0.07171776
200	0x3c354b3a	0.011065299
201	0x3d366cf2	0.044537492
202	0xbaa9fbb4	-0.001296869
203	0x3dddc5c4	0.108287364
204	0xbd8861a0	-0.066592455
205	0xbcdbcadd	-0.026830131
206	0xbd33e1f2	-0.04391665
207	0x3cbe4a9b	0.023228934
208	0xbd23e145	-0.040009756
209	0xbcee4a0d	-0.029088045
210	0xbcaadbe4	-0.020856805
211	0x3bad056b	0.005280187
212	0xbc72f99e	-0.014830021
213	0x3b9ae910	0.0047274902
214	0x3d045ec1	0.032316927
215	0xbc8b73fe	-0.017023083
216	0x3cba1937	0.022717101
217	0xbcd0be38	-0.025481328
218	0xbcd977d1	-0.02654639
219	0xbc758d23	-0.014987263
220	0x3d2ca6bd	0.0421512
221	0xbc047a6a	-0.008085826
222	0xbc9caf84	-0.019126661
223	0xbcfba6bc	-0.030719154
224	0x3c8d1def	0.017226188
225	0xba1ed705	-0.0006059262
226	0x3e12a74a	0.14321628
227	0xbd9c0819	-0.07618732
228	0x3d029cd3	0.03188784
229	0xbd126934	-0.03574486
230	0xbc1fedb0	-0.009761259
231	0x3cb15a6d	0.021649564
232	0xbd1adfdc	-0.037811145
233	0x3ad9133a	0.0016561516
234	0xbcf673e9	-0.030084567
235	0xbd282650	-0.041052163
236	0xbc71f56b	-0.014767985
237	0xbc330c50	-0.0109282285
238	0xbd1f91de	-0.03895747
239	0x3e4cd04b	0.20001332
240	0x397e0e00	0.00024228543
241	0x3b4af6ae	0.0030969786
242	0xbd60eaa1	-0.05491126
243	0xbd395558	-0.045247406
244	0x3b9fe528	0.0048796125
245	0x3bb472d8	0.0055068545
246	0xbcdafd31	-0.02673206
247	0x3be81b69	0.0070833457
248	0x3cd4316a	0.025902469
249	0x3d05d0aa	0.0326697
250	0x3df68015	0.120361485
251	0xbd9d6ba3	-0.07686546
252	0xbcad4387	-0.021150364
253	0xbc74abcb	-0.014933537
254	0xbce6b65e	-0.028163131
255	0xbc95b411	-0.018274339

model.4.weight f4 [128, 256]
0	0xbca5febb	-0.020263067
1	0xbc8afce8	-0.016966298
2	0xbce0e494	-0.027452745
3	0x3d7f1180	0.06227255
4	0x3d70f634	0.058828548
5	0x3d66b656	0.056326233
6	0xbc3dd865	-0.011587237
7	0xbd3fa9a7	-0.046792652
8	0x3c97a8b4	0.018513061
9	0xbcb5b199	-0.022179412
10	0x3d761470	0.060078084
11	0x3d4abfa1	0.049499158
12	0x3d5e5afc	0.05428599
13	0x3d2c5936	0.042077266
14	0x3d11dc57	0.035610523
15	0xbd2c6640	-0.0420897
16	0xbcff12c8	-0.031136885
17	0x3c058f08	0.008151777
18	0x3d037320	0.032092214
19	0x3d73389a	0.05938015
20	0x3d2f49c6	0.042794965
21	0xbc2dedda	-0.01061579
22	0xbd3677e4	-0.04454793
23	0xba18f800	-0.0005835295
24	0x3d62a01c	0.055328473
25	0x3c31fa88	0.010862954
26	0x3cd24904	0.025669582
27	0xbcf18d18	-0.029486224
28	0xbc120ddd	-0.008914438
29	0xbbdef971	-0.006804638
30	0xbd1c13a6	-0.038104676
31	0xbd0bb606	-0.034109138
32	0x3d7de652	0.06198723
33	0xbbf809e9	-0.0075695408
34	0xbd5ab34b	-0.053393643
35	0xbd47c7a2	-0.04877437
36	0xbd0b78cc	-0.034050748
37	0xbd5a4b56	-0.053294502
38	0x3c633698	0.013867997
39	0xbc9d5818	-0.019207045
40	0x3d254cd3	0.04035647
41	0xbd04af18	-0.032393545
42	0xbcc31a74	-0.023816325
43	0x3d518112	0.05114848
44	0x3caef935	0.021359066
45	0x3c2dc6c7	0.010606474
46	0xbcca0088	-0.024658456
47	0x3d31c10a	0.043396987
48	0x3c0e5482	0.00868714
49	0xbced4df0	-0.028967828
50	0xbb6faee0	-0.003657274
51	0x3ce9f008	0.028556839
52	0x3c002df0	0.007823452
53	0xbd30b1fb	-0.043138485
54	0xbce81586	-0.028330576
55	0x3c008b38	0.007845692
56	0xbbb90ac1	-0.005647034
57	0xbbe4e067	-0.0069847587
58	0x3cdc2a31	0.026875587
59	0x3cf794a4	0.030222245
60	0x3ca48ea1	0.020087542
61	0x3d44a056	0.04800447
62	0xbd42f6e0	-0.04759872
63	0x3ab91e40	0.0014123395
64	0x3bdbc175	0.0067064115
65	0x3ced7d9d	0.028990561
66	0xbd454558	-0.048161834
67	0xbd74765c	-0.05968319
68	0x3d2b217d	0.041779984
69	0x3d3132cb	0.04326133
70	0x3d5db591	0.054128233
71	0x3d4e5ca9	0.050381336
72	0xbd465fa4	-0.048431054
73	0xbbb257f0	-0.005442612
74	0x3d17d64a	0.037069596
75	0x3d7b58c2	0.061363943
76	0xbcb14335	-0.021638492
77	0x3cf05318	0.029336497
78	0xbca43d1c	-0.02004867
79	0xbd12bd78	-0.035825223
80	0xbcfefb40	-0.031125665
81	0xbd0bdf40	-0.034148455
82	0xbd3ec8c3	-0.04657818
83	0x3d5f83a8	0.054568917
84	0x3d62b352	0.055346794
85	0xbd61de63	-0.055143725
86	0xbc86a5f1	-0.016436549
87	0xbd6fa3aa	-0.05850569
88	0x3b51257c	0.0031913212
89	0x3cb906c0	0.022586226
90	0xbc66fd2a	-0.014098445
91	0xbd309614	-0.043111876
92	0xbc900b8c	-0.017583631
93	0x3ce0397a	0.027371157
94	0x3d3c2395	0.04593237
95	0x3d4e70a2	0.050400384
96	0xbcae1d24	-0.02125413
97	0x3d4f9bdb	0.050685745
98	0xbc974e74	-0.018470027
99	0x3ce50ce4	0.027960248
100	0x3d14b33e	0.03630375
101	0xbb9871f0	-0.0046522543
102	0x3c5efad2	0.013609605
103	0xbce5ad48	-0.028036729
104	0x3c9ee88c	0.019397996
105	0x3d26eb6a	0.040751852
106	0x3c81c927	0.015842987
107	0x3d7fefc8	0.062484533
108	0x3c9da0fc	0.019241802
109	0xbcae2bb1	-0.021261068
110	0xbc76af78	-0.015056483
111	0xbd740d93	-0.059583258
112	0x3d767800	0.060173035
113	0xbd075d8e	-0.033048205
114	0xbd0692c9	-0.03285483
115	0xbd62d919	-0.05538282
116	0xbd753bf0	-0.059871614
117	0xbcb1d834	-0.021709539
118	0x3cebfce5	0.028807113
119	0xbbd9dc91	-0.006648608
120	0x3ceee5e0	0.029162347
121	0x3d3de66f	0.046362337
122	0xbd467d98	-0.04845962
123	0xba8ec3c0	-0.0010892078
124	0xbcf1fe21	-0.029540123
125	0x3d7cae06	0.0616894
126	0x3c0ca790	0.008584872
127	0xbd3cd372	-0.046100087
128	0x3cc1f922	0.023678366
129	0x3d6cf06e	0.05784648
130	0x3d3b15e5	0.045675177
131	0x3d06f9bb	0.032953005
132	0xbd196df8	-0.03745839
133	0xbd0a2f06	-0.03373625
134	0xbd32eee5	-0.04368486
135	0xbbfab2b0	-0.0076506957
136	0xbd148469	-0.03625909
137	0x3d0fb6cd	0.03508644
138	0xbca7c8b6	-0.020481449
139	0xbc298a60	-0.010347933
140	0xbd5a5da8	-0.053311974
141	0xbc91aeb4	-0.0177835
142	0x3d50d9df	0.050989028
143	0x3d58bc72	0.05291409
144	0x3d6ef94e	0.058343224
145	0xbc325640	-0.010884821
146	0x3d02c0a7	0.03192201
147	0x3d08aba9	0.033366833
148	0xbce1b758	-0.027553245
149	0x3c781dc0	0.015143812
150	0xbd749c5c	-0.05971943
151	0x3b0cb3e0	0.0021469519
152	0xbd486862	-0.048927672
153	0x3c433ac2	0.011915864
154	0xb924c000	-0.00015711784
155	0x3c90c536	0.017672163
156	0xbd295518	-0.041340917
157	0x3d476be4	0.048686877
158	0xbd497cf8	-0.049191445
159	0x3ca642a8	0.020295456
160	0x3d435e0e	0.04769712
161	0x3c839c4c	0.01606574
162	0xbcf25d9e	-0.029585656
163	0xbbf0b940	-0.0073463023
164	0xbceea244	-0.029130109
165	0xbd0ff17d	-0.03514241
166	0x3d513980	0.051080227
167	0x3d3e8301	0.046511654
168	0x3d34787e	0.044060223
169	0x3d633475	0.05546995
170	0xbd85d21e	-0.06534217
171	0x3b4b040e	0.0030977759
172	0xbd5d71de	-0.05406367
173	0xbbfb51de	-0.0076696714
174	0xbccf323c	-0.025292508
175	0x3c601dab	0.013678948
176	0x3c7e3460	0.015515417
177	0xbc38f590	-0.011289015
178	0x3d771c80	0.060329914
179	0xbc7e1a18	-0.015509151
180	0xbd242462	-0.04007376
181	0xbc4eff98	-0.0126341805
182	0x3d2d4aa2	0.042307504
183	0x3cd15854	0.025554813
184	0x3d7f6078	0.06234786
185	0xbd4dcb0a	-0.05024246
186	0xbd0ded76	-0.03465029
187	0xbd2aa8ca	-0.041664876
188	0x3d532c37	0.05155584
189	0xb7af4116	-2.0891934e-05
190	0x3bcd6860	0.006268546
191	0x3c5638a3	0.013075027
192	0xbc80bbf4	-0.015714623
193	0x3c54ee78	0.0129963085
194	0x3c2cb5da	0.010541404
195	0x3d56cd84	0.05244209
196	0x3cd37940	0.025814652
197	0xbc446ad0	-0.011988357
198	0x3d290800	0.041267395
199	0x3b3bad2f	0.002863716
200	0xbab0fa73	-0.0013502374
201	0x3ad251a9	0.0016046065
202	0xbcf5f8b7	-0.030025823
203	0xbd1bf267	-0.03807297
204	0x3d5c8076	0.053833447
205	0xbceac0df	-0.028656421
206	0xbd2e59d2	-0.042566128
207	0xbc5ef757	-0.013608775
208	0x3a650200	0.0008735955
209	0xbca32697	-0.019915862
210	0xbcb1f030	-0.021720976
211	0x3b8ef229	0.004362364
212	0xbd724c04	-0.059154525
213	0xbd729bc8	-0.059230596
214	0xbbf0184e	-0.007327116
215	0x3d2f670b	0.04282288
216	0x3cccf3e6	0.025018644
217	0xbd7f390d	-0.062310267
218	0x3ca78875	0.02045081
219	0xbc1950e6	-0.009357667
220	0x3b9a7f00	0.0047148466
221	0x3d0f2018	0.034942716
222	0x3ccffccc	0.025389098
223	0x3d3b7c9c	0.045773134
224	0x3d378952	0.044808693
225	0xbd5f53b3	-0.05452318
226	0xbd442ee6	-0.04789629
227	0xbc66d070	-0.014087781
228	0x3b8389d0	0.0040142313
229	0x3d7a21ee	0.061067514
230	0x3d3519fa	0.044214226
231	0xbd4dd2e1	-0.050249938
232	0xbc0bcffe	-0.008533476
233	0xbc0334b0	-0.008008167
234	0xbcbf6e9c	-0.023368172
235	0xbd3c7dc7	-0.046018388
236	0xbd6be1fb	-0.05758856
237	0x3cf16fb8	0.029472217
238	0xbd1630a4	-0.03666748
239	0xbd191e58	-0.037382454
240	0xbc86b2e8	-0.016442731
241	0x3be8dde4	0.0071065295
242	0xbb04d900	-0.0020270944
243	0xbd5a6bd1	-0.053325478
244	0x3b772d5b	0.0037716243
245	0xbd60be2a	-0.054868855
246	0x3d148876	0.03626295
247	0x3d5285d5	0.051397163
248	0x3d539c84	0.051662937
249	0x3ba15d04	0.0049244184
250	0x3b123b51	0.0022313187
251	0x3bf17469	0.0073686135
252	0x3d521042	0.051285036
253	0x3ba90dd0	0.0051591173
254	0xbd1f11db	-0.038835388
255	0x3b837ac0	0.0040124357

model.4.bias f4 [128]
0	0xbd1a4a80	-0.037668705
1	0xbb46e540	-0.0030349046
2	0x3d1d9729	0.038474236
3	0x3eb0aa7b	0.34505066
4	0x3e43cd8c	0.19121379
5	0xbca66447	-0.020311488
6	0x3c284c70	0.01027213
7	0xbd8a2277	-0.06744855
8	0x3e79176f	0.24325345
9	0x3e4d118c	0.20026225
10	0xb88877f2	-6.507327e-05
11	0xbc7b132d	-0.015324396
12	0xbda54819	-0.08070392
13	0xbc95f1db	-0.018303802
14	0xbd7cafa8	-0.061690956
15	0xbd6b7b23	-0.05749048
16	0x3d590022	0.052978642
17	0x3e9ad4cb	0.30240473
18	0xbda108b4	-0.07862988
19	0xbb549b4d	-0.00324412
20	0x3eee09a3	0.46491727
21	0xbde4fd5f	-0.11181139
22	0x3e94388c	0.28949392
23	0x3e1172e3	0.14203982
24	0x3e6b7948	0.22995484
25	0x3d00c38c	0.031436488
26	0xbdcee31d	-0.10101912
27	0x3e7c4e71	0.24639298
28	0xbd50810e	-0.050904326
29	0xbc0c95b8	-0.008580618
30	0xbd6e921f	-0.05824482
31	0xbcab2116	-0.0208898
32	0xbdc406a6	-0.095715806
33	0xbd31ac8a	-0.043377437
34	0x3e9a48cc	0.30133665
35	0x3e7dde4f	0.24791835
36	0xbda61a47	-0.08110481
37	0x3c0d8182	0.008636834
38	0xbbe1ca75	-0.00689059
39	0xbd7c3422	-0.061573155
40	0xbc5254aa	-0.012837568
41	0x3d063808	0.03276828
42	0xbdbf031f	-0.09326767
43	0x3e8bfdd1	0.27342084
44	0xbd68ab8e	-0.056804232
45	0x3d157e14	0.03649719
46	0xbd57db7a	-0.052699544
47	0xba5f1964	-0.00085105584
48	0x3e24ad74	0.16081792
49	0xbdae0844	-0.0849767
50	0xbd6c9762	-0.057761557
51	0x3e8a9eef	0.27074382
52	0xbcec1bb4	-0.028821804
53	0x3e84212b	0.25806555
54	0xbd5d3dd1	-0.05401403
55	0xbd93f4b4	-0.07224408
56	0x3ee51c68	0.44748235
57	0x3e9b53c0	0.30337334
58	0xbdc8f6db	-0.09812709
59	0x3e8bd855	0.27313486
60	0xbce25da7	-0.027632548
61	0x3dc6dfda	0.09710665
62	0xbd921a9e	-0.07133983
63	0xbc304dd0	-0.010760739
64	0x3e42425b	0.18970625
65	0x3e4b7142	0.19867423
66	0xbd64679b	-0.05576287
67	0x3db37bbb	0.08763834
68	0xbd860d6b	-0.06545528
69	0x3c83d8c6	0.016094577
70	0xbd8a6c09	-0.06758887
71	0xbd8dbc37	-0.06920665
72	0xbd43b0cb	-0.047776025
73	0x3e96895d	0.29401675
74	0x3e031fd7	0.12805115
75	0x3c344785	0.01100338
76	0x3e9ae1fe	0.30250543
77	0xbd86167b	-0.065472566
78	0xbdccc06c	-0.09997639
79	0xbdae1fba	-0.08502145
80	0x3e6d8cb3	0.23198204
81	0xbda1b577	-0.0789594
82	0xbd6e8322	-0.058230527
83	0x3d0cdeac	0.034392044
84	0xbd238332	-0.03992004
85	0x3acceb6a	0.0015634124
86	0xbd874e36	-0.066067144
87	0xbda24e4e	-0.07925092
88	0x3db9d9bd	0.090747334
89	0x3e7a029d	0.2441506
90	0x3e0c1557	0.13680016
91	0x3ea5b5a2	0.32365137
92	0xbc576f02	-0.013149025
93	0x3c8c326e	0.01711389
94	0xbd6f36a2	-0.05840171
95	0xbc472ff0	-0.012157425
96	0x3e3b9b0d	0.18320866
97	0x3e60afb6	0.21942028
98	0x3e9bf2fd	0.30458823
99	0xbd2574c9	-0.040394578
100	0x3c659e95	0.01401486
101	0x3d52ef2c	0.051497623
102	0x3ecb5244	0.397112
103	0xbd9e6540	-0.07734156
104	0xbdb1345f	-0.08652567
105	0xbb52eb80	-0.0032183826
106	0x3e865e8b	0.26244006
107	0xbce489a3	-0.027897662
108	0x3d50c607	0.050970104
109	0x3c7594fd	0.014989135
110	0xbc8d8d95	-0.017279426
111	0xbb1ebcd8	-0.0024221446
112	0x3eb4dddd	0.35325518
113	0xbccf8a2c	-0.02533444
114	0x3c3f8e44	0.011691634
115	0xbd70e618	-0.058813184
116	0x3ecb5a1a	0.3971718
117	0xbd35c30b	-0.04437546
118	0xbd5ec6b4	-0.054388717
119	0x3cf8627a	0.030320395
120	0x3dde5087	0.10855203
121	0xbcb93115	-0.022606412
122	0x3e57fe7a	0.21093169
123	0xbe0a19a9	-0.13486351
124	0x3c9b4676	0.018954497
125	0x3eae0480	0.33987808
126	0x3da5519b	0.08072206
127	0xbd64c3f9	-0.055850957

model.6.weight f4 [3, 128]
0	0x3d66f365	0.056384463
1	0xbc00acb0	-0.007853672
2	0x3c332353	0.010933715
3	0xbe5b6f9b	-0.21429293
4	0xbe10f071	-0.14154221
5	0xbc5dcd12	-0.013537662
6	0x3d3ee119	0.04660139
7	0x3d5aed14	0.05344875
8	0x3f13ce34	0.57736516
9	0xbe877b39	-0.264612
10	0x3c5c0734	0.013429452
11	0x3cb020ce	0.021500017
12	0x3b80bb3d	0.0039285705
13	0xbca3e123	-0.020004814
14	0x3cbe4ee5	0.02323098
15	0x3cc0ca98	0.023534104
16	0x3d5a7d4f	0.05334216
17	0xbe676161	-0.22595741
18	0xbc0c478c	-0.00856198
19	0xbc3bb63a	-0.01145702
20	0xbe9fe381	-0.3122826
21	0x3cf3514c	0.029701851
22	0xbeab53d7	-0.33462402
23	0xbdc36784	-0.095412284
24	0xbe772165	-0.24133833
25	0x3cadf341	0.021234157
26	0x3b127bb6	0.002235157
27	0xbec24c0a	-0.37948638
28	0x3ce6a880	0.028156519
29	0x3c295b88	0.010336764
30	0xbcbbd39c	-0.022928052
31	0x3c656805	0.014001851
32	0xbdaa3389	-0.08310611
33	0xbd7d2957	-0.061807003
34	0xbe7aae68	-0.24480593
35	0xbea62ecf	-0.32457587
36	0xbba02c00	-0.0048880577
37	0x3b8d0643	0.004303725
38	0xbc841cff	-0.016127108
39	0x3d9dd09b	0.07705804
40	0x3d918063	0.07104566
41	0xbd876667	-0.066113286
42	0xbd7cca4a	-0.061716355
43	0xbe6e68ab	-0.23282115
44	0xbdaa52c7	-0.0831657
45	0xbc4149a2	-0.011797341
46	0xbd42bb5b	-0.047541957
47	0x3d069461	0.03285635
48	0x3ed4be03	0.41551217
49	0x3cea6814	0.028614081
50	0x3c9076dc	0.017634802
51	0xbf0b206c	-0.54346347
52	0x3ce320a4	0.027725525
53	0xbe6fdf61	-0.23425056
54	0xbc161c20	-0.009161979
55	0xbd21dacd	-0.039515305
56	0xbe6e0044	-0.23242289
57	0xbe89ce4c	-0.26915205
58	0x3db09154	0.08621469
59	0xbe2ee29f	-0.17078637
60	0x3d33ffb7	0.04394504
61	0xbe86cf75	-0.26330152
62	0x3d0b3e4d	0.03399496
63	0x3b17487e	0.002308398
64	0xbe3201d5	-0.17383511
65	0xbd98c9c1	-0.074603565
66	0x3d3cde68	0.04611054
67	0x3e921b3e	0.2853641
68	0xbd39c86c	-0.045357153
69	0x3af9a743	0.001904704
70	0xbcd4f1cb	-0.025994202
71	0xbd9d0b6f	-0.076681964
72	0x3c97a0fd	0.018509382
73	0xbe889d95	-0.26682726
74	0xbf537460	-0.8259945
75	0x3da81e9c	0.08208963
76	0xbe894876	-0.26813096
77	0xbd827334	-0.063696295
78	0xbc5537a1	-0.013013751
79	0xbb7b860f	-0.0038379466
80	0xbe597d24	-0.21239144
81	0x3d49e7a6	0.049293183
82	0x3bee742d	0.007277033
83	0x3c9120cf	0.01771584
84	0xbc936b97	-0.017995639
85	0x3be8a256	0.00709943
86	0x3cc8beeb	0.0245051
87	0xbd2dc125	-0.042420525
88	0x3e9a91e1	0.30189422
89	0x3e8bd765	0.2731277
90	0xbe41b126	-0.18915233
91	0xbe68e9c3	-0.22745423
92	0x3ce7a748	0.028278008
93	0x3d6058e8	0.054772288
94	0xbd00dcd1	-0.031460587
95	0xbcab5054	-0.020912327
96	0x3f1a1fd8	0.6020484
97	0xbe8801a1	-0.26563743
98	0x3ea0672c	0.31328714
99	0xbd61241f	-0.05496609
100	0xbadd535c	-0.0016885805
101	0xbb8a33d5	-0.0042176046
102	0xbe850726	-0.25982016
103	0x3cb2aed1	0.021811875
104	0x3c569d95	0.013099094
105	0x3cba7a38	0.022763357
106	0xbf042810	-0.5162363
107	0x3d3cc896	0.04608973
108	0xbc42bffc	-0.011886593
109	0x3d7810ef	0.060563024
110	0xbcce5501	-0.025187017
111	0x3d55049f	0.05200636
112	0xbede4f50	-0.43419886
113	0x39ce1000	0.00039303303
114	0x3d19ce23	0.037550103
115	0xbd4ae6af	-0.049536403
116	0xbe7b847b	-0.24562256
117	0x3ba939a8	0.005164344
118	0x3d962edb	0.07333156
119	0xb9f6c0d0	-0.00047064433
120	0x3e76971c	0.24081081
121	0x3cf0e044	0.029403813
122	0xbe30c46e	-0.17262432
123	0xbdaec81b	-0.08534261
124	0x3b2cecd1	0.002638627
125	0xbf35ba5c	-0.70987487
126	0xbe6e4fe2	-0.2327266
127	0xbd0e29dd	-0.034707893
128	0x3d987c97	0.074456386
129	0xbc2347b8	-0.00996583
130	0xbd51d4c6	-0.051228307
131	0xbe6bc009	-0.23022474
132	0xbe86ea8a	-0.26350814
133	0x3c82deb3	0.015975332
134	0xb9b5eea9	-0.00034700826
135	0xbca118d3	-0.019665157
136	0x3ed1d302	0.409813
137	0xbe8d1526	-0.27555197
138	0x3b18b15d	0.0023299076
139	0xbbd46a50	-0.0064824
140	0xbb90810d	-0.0044099153
141	0x3d3323cd	0.043735314
142	0xbc4a91ea	-0.01236389
143	0x3d6366a9	0.055517826
144	0xbdafdcca	-0.08587034
145	0xbe6aae32	-0.22918013
146	0xbba660ab	-0.0050774417
147	0xbdb63db4	-0.08898488
148	0xbe7aaea1	-0.24480678
149	0xbbf8edaa	-0.007596691
150	0xbe6592a4	-0.2241922
151	0xbdadf85f	-0.08494639
152	0xbe9cab0b	-0.30599245
153	0xbca54779	-0.020175682
154	0x3d56f953	0.052483868
155	0xbea000de	-0.31250662
156	0x3da44b25	0.08022145
157	0xbd550325	-0.052004952
158	0x3cd9a950	0.026569992
159	0xbc7ec3ba	-0.015549595
160	0x3ca66604	0.020312317
161	0x3c8f9922	0.017529074
162	0xbe5616df	-0.20907162
163	0xbed4df5b	-0.41576657
164	0x3c87ad76	0.016562205
165	0x3c12a399	0.0089501375
166	0xbcbf15ef	-0.023325888
167	0xbbada88d	-0.005299634
168	0xbc6eef98	-0.014583491
169	0x3d9de07b	0.07708832
170	0xbb817792	-0.0039510215
171	0xbeb0cf10	-0.34532976
172	0xbb2abac0	-0.0026051253
173	0xbcdd8bb0	-0.027044147
174	0x3d5a20f9	0.0532541
175	0x3cf8e136	0.030380826
176	0x3ede0a7b	0.4336737
177	0xb864fd3a	-5.459527e-05
178	0x3cfcb88e	0.030849721
179	0xbebda7bc	-0.37042034
180	0xbd117e82	-0.035521038
181	0xbe5ca676	-0.21547875
182	0x3cceeccc	0.025259398
183	0x3d9b0e0c	0.075710386
184	0xbe824209	-0.25441006
185	0xbebcf535	-0.36905828
186	0xbc0ab9a1	-0.008467109
187	0xbe52a7f4	-0.20571882
188	0x3d55ed2c	0.052228138
189	0xbe8db82b	-0.27679572
190	0x3d1d84c5	0.038456697
191	0xbdb58756	-0.08863704
192	0xbe5a179b	-0.21298067
193	0xbe85e0d9	-0.26148108
194	0x3bac01b3	0.005249226
195	0x3e995e20	0.29954624
196	0xbc88a9d5	-0.016682545
197	0x3b787c5b	0.0037915919
198	0x3d48c8a4	0.04901947
199	0xbcbc1e4d	-0.022963667
200	0x3d03163b	0.032003623
201	0xbe6f56d1	-0.23372962
202	0xbf01e91e	-0.50746334
203	0x3b826c3d	0.003980188
204	0xbe5d889b	-0.21634142
205	0x3d5cd112	0.053910322
206	0xbca2c96f	-0.019871442
207	0xbd23464d	-0.039861966
208	0xbe76ab4b	-0.2408878
209	0x3cab382b	0.020900806
210	0x3d24995f	0.04018533
211	0xbd253cb4	-0.040341094
212	0xbd2a0e69	-0.04151765
213	0x3d1672e0	0.036730647
214	0xba1d1eca	-0.00059936626
215	0xbca1fe28	-0.019774511
216	0x3e934b61	0.28768447
217	0x3f048757	0.5176901
218	0xbe6a5e8e	-0.22887632
219	0xbe92ab6d	-0.28646412
220	0xbd5e299c	-0.0542389
221	0x3c017984	0.007902507
222	0xb92692e6	-0.00015885718
223	0xbd2eac57	-0.042644825
224	0x3eaf28e8	0.34210896
225	0xbe59cad6	-0.21268782
226	0xbe4c9893	-0.19980077
227	0x3c40fc0a	0.011778841
228	0xbc32ec3c	-0.0109205805
229	0xbac666ff	-0.0015136896
230	0xbe3318ab	-0.17489879
231	0xbd528993	-0.051400732
232	0xbbcc35be	-0.0062319925
233	0xbd58fa19	-0.052972887
234	0xbf34e0dd	-0.70655614
235	0xbd423f74	-0.047423795
236	0xbd0138dc	-0.031548366
237	0x3d8a2ed4	0.06747213
238	0x3ce48a28	0.02789791
239	0xbda76877	-0.08174222
240	0xbed9f491	-0.42569402
241	0xbd2199ca	-0.039453305
242	0xbcc4bc90	-0.024015695
243	0x3da2a155	0.07940928
244	0xbe695153	-0.22784929
245	0xba28c39c	-0.00064378395
246	0x3da3bed3	0.07995381
247	0xb9c4be0d	-0.00037525632
248	0x3e894fe5	0.26818767
249	0x3cbc82f4	0.023011662
250	0xbe429538	-0.19002235
251	0x3d5a46bb	0.05329011
252	0xbcb52279	-0.022111164
253	0xbeee91d0	-0.4659562
254	0xbe8e71b9	-0.27821139
255	0x3d8156b7	0.06315368

model.6.bias f4 [3]
0	0xbeb18490	-0.3467145
1	0xbec1d43e	-0.3785724
2	0xbece2f84	-0.40270627
