2021-22/PrimerSemestre/Reinforcement/PEC2/DDQN.pth (torch, 666959 bytes, 8 tensors)

model.0.weight f4 [512, 2]
00000000: 4e6e a83e cae0 f33e 3dc6 e1bd 5108 063f
00000010: 0dd2 013e 321f 85bf 06ab bf3e ff6b 2d3f
00000020: 1682 543d 50d9 9cbd 3449 c13e f2eb 98be
00000030: eb25 0f3f db09 6ebd 4089 e83e 7798 8a3f
00000040: bce3 553e dc8e 8e3e fc10 623e ba1c 3a3f
00000050: d14e 57be bdd1 85bf 3d09 023c 38c8 b2bf
00000060: 5f96 1f3f da39 ff3e ca3b b23e 1ead 32bf
00000070: 86ab af3e 56b3 ca3e 8026 08bd 9c27 153e
00000080: 18c3 c33d c8ce 96bd 8db7 803e edb4 bc3f
00000090: 4485 573e c849 c13d ccfd 4bbe 20ac a9bc
000000a0: 0f9e 833e 4c4a 9240 6897 ec3d 354c 103f
000000b0: bac2 ab3e 068d 2fbf 00c1 eabb a64e e13e
000000c0: a254 debe a7d8 9cbf 64e1 87be f8d4 cbbe
000000d0: 3b06 4ebd 04db b4bf fda7 cdbe 11b9 8fbe
000000e0: 2173 6c3f 00e6 afbf 4927 90be ec87 8e3e
000000f0: e8c1 4d3e 72d8 ff3e 80b9 22bf f101 293e
00000100: c8f8 a33e 8f98 d33e b8cf 8a3e a87d 613f
00000110: 508a b4bd ccbd 1e3e 33fe 183f 0004 97bd
00000120: 40dd 51bc de64 b13e 8258 0bbf 59f3 05be
00000130: a86d 4fbe 6528 12bf 88ab 25be 08d7 aebe
00000140: 7ac1 e8bd 910c a7bc 3cc6 0fbe 53c1 04bf
00000150: fac9 c23e 3c07 0ebf 1e29 a23e 7d5c 193f
00000160: a0e8 1c3f a19b 3140 fdba 85be 547c 01bf
00000170: 3098 833f a087 afbf 93d9 923e 8ff5 1240
00000180: a9bc 05be bb0c 1d3f 7f60 83be 4415 1dbf
00000190: d884 543e bca9 273e 000b d23d 9be5 cfbe
000001a0: e09f 593e c287 b0bf 15eb 93be 8ae6 b6be
000001b0: c4d6 063e cd10 00bf 1016 40bf df50 90bf
000001c0: 6a67 b13e b7b7 a140 d523 963d 4b2d cc3d
000001d0: 567c 80be d34d 93be a3ab 9a3e 7732 8940
000001e0: c6e0 cb3e a217 10bf ddb9 143f 8820 bebd
000001f0: 9e2e ea3e 8f78 29bf 04b1 febd 08ac 8b40
00000200: e6f3 f6be c8b3 86be 8e64 473f a130 6a3f
00000210: fe97 aa3e be11 4bc0 d45b 903e fd3d 9240
00000220: 6533 d53e 9cce fc3f ac6c 2c3e 3df3 88be
00000230: 6ee8 f53e 6575 253f 5841 80bd 9034 e13e
00000240: 985c 8f3d 64cd 34be 4bc7 bebd d944 50be
00000250: 5d7b cfbe a1d7 25bf 8848 96be 8546 43bf
00000260: 7f44 5ebd a905 9dbb 48cc 7f3e 8eff 9f3e
00000270: 4125 f9be a4ec f5be 669c f13e 72b1 f43e
00000280: cbbd 13bf d716 cebf 0999 673d 15c0 16c0
00000290: 432e 81be 79d8 363d acbe cc3e bae8 4abf
000002a0: afd0 2d3f 8002 d9bd 6348 94be 3472 e63f
000002b0: 06f7 963e d3e8 1b40 2a26 303e 9dc0 073e
000002c0: 75a1 c53e f8cf 0d40 ee7c 86be 1097 9d3d
000002d0: 264e 64bd 201f 4140 d6cc c73e 94fd 353f
000002e0: bb56 283f bcc0 1abf e7cc e03e cddd c93f
000002f0: 829a e4be 23ec 3fc0 221a c4bc 0c09 81be
00000300: e24c 763e 3f83 8640 813d e3be 6f59 303e
00000310: a05e 943c f4ea 50be cc5d 08bf e1f5 18bf
00000320: dfc0 093f d81a 2ebf f543 8d3e 4c21 8e40
00000330: 00ad 493b 3536 86be 6123 7fbe 3014 edbd
00000340: 9a62 d13e 9415 65be 20c1 263e 90fb 693e
00000350: 5001 123e 7787 2b3f 1288 df3e 5b34 81be
00000360: 5c53 2abe 4278 febe 15ec 52be d9b1 e4bf
00000370: 1778 66be 6703 40bf d55e 1ebf c203 b63e
00000380: f0f8 003f 5fa1 5a3e 2931 f73e d68a 5b40
00000390: 1426 38be 5e86 973e ff4a a7be 6bc7 fd3f
000003a0: 7e20 113f 0d55 4840 a06b c93c f030 2cbf
000003b0: 808b 89bd 7aac 7abe d698 e63b 6e46 7a40
000003c0: e6af 2dbe 23ab d4be 17c4 edbd 211f d3bd
000003d0: 5a89 d13e 9bec 12bf 6498 263f 50b0 9740
000003e0: 5eef 0b3f 55b0 173f f8d2 93be dbbe 63bf
000003f0: 1021 3b3e add2 333f 47f1 9d3f e528 47be
0.32896656 0.47632438 -0.11024139 0.5235644 0.12677784 -1.0400145 0.37435168 0.67742914
0.051881872 -0.076586366 0.37751162 -0.29867512 0.55917233 -0.058114868 0.45417213 1.0827779
0.20887655 0.27843368 0.22076792 0.72700083 -0.2102616 -1.0454632 0.007936773 -1.3967352
0.62338823 0.49848825 0.3481124 -0.69795406 0.3431055 0.39589947 -0.03323984 0.14565891
0.095586956 -0.07363659 0.25140038 1.4742714 0.2104693 0.09437901 -0.19921035 -0.020711958
0.25706527 4.5715694 0.11552316 0.5636628 0.33547002 -0.6857456 -0.0071641207 0.44005316
-0.43423945 -1.2253617 -0.26539147 -0.3981092 -0.05029891 -1.4129338 -0.40167227 -0.28070882
0.9236317 -1.3742065 -0.28154972 0.27838075 0.200935 0.49969822 -0.635643 0.16504647
0.32025743 0.4132733 0.27111602 0.8808236 -0.088154435 0.1550209 0.5976288 -0.0737381
-0.012809098 0.34647268 -0.5443193 -0.13081111 -0.20256674 -0.5709289 -0.16178715 -0.3414843
-0.11365028 -0.020391734 -0.14040464 -0.5185749 0.3804472 -0.5547979 0.31671995 0.5990675
0.6129246 2.7751238 -0.26119223 -0.50580335 1.0280819 -1.3713264 0.2868162 2.2962377
-0.1306025 0.6134755 -0.25659558 -0.61360574 0.20753801 0.16373342 0.10256004 -0.40604863
0.21252394 -1.379143 -0.2889029 -0.35722762 0.13167864 -0.50025636 -0.75033665 -1.127468
0.3464921 5.053676 0.07331053 0.099695764 -0.2509486 -0.28770313 0.30209073 4.2874103
0.39819926 -0.5628606 0.58096105 -0.092835486 0.4573869 -0.6619958 -0.12436107 4.36475
-0.48232955 -0.26309037 0.7788781 0.9148045 0.33319086 -3.172958 0.2819506 4.570067
0.41640773 1.9750552 0.1683833 -0.26748076 0.48028892 0.64632255 -0.06262463 0.43985415
0.07000083 -0.17656475 -0.09315356 -0.20338763 -0.40523806 -0.6478215 -0.29352212 -0.7627948
-0.05426454 -0.0047919345 0.24980271 0.3124966 -0.48661235 -0.48032105 0.47189635 0.4779163
-0.57711476 -1.610072 0.05654243 -2.3554738 -0.25230607 0.04464004 0.3998922 -0.7926136
0.6789655 -0.1059618 -0.28961477 1.8003602 0.2948534 2.4360855 0.17202058 0.1325707
0.38599744 2.2158184 -0.2626719 0.076948285 -0.05573859 3.0175247 0.39023465 0.71090055
0.6575734 -0.6045034 0.43906328 1.5770813 -0.4464913 -2.9987876 -0.023938242 -0.25202215
0.24052766 4.2035213 -0.4438286 0.17221616 0.018111527 -0.20402128 -0.5326812 -0.5975018
0.5380992 -0.6800971 0.2759091 4.4415646 0.0030773282 -0.26213232 -0.2491584 -0.11576116
0.4089554 -0.22371513 0.16284609 0.2284987 0.14258313 0.6700358 0.436585 -0.25235257
-0.16633362 -0.49701124 -0.2059787 -1.7866775 -0.22506748 -0.7500519 -0.6186345 0.35549742
0.5037985 0.2135062 0.48279694 3.4303489 -0.17983276 0.29594702 -0.32674405 1.9826483
0.56690204 3.130191 0.024587452 -0.6726217 -0.06716061 -0.24479857 0.0070372624 3.9105487
-0.16961631 -0.41536817 -0.11609667 -0.10308672 0.40925103 -0.5739228 0.6507628 4.7402725
0.5466212 0.59253436 -0.28871894 -0.889631 0.18274331 0.7024334 1.2339257 -0.19449194

model.0.bias f4 [512]
00000000: e3cf 9cbe 89f1 823e 523d 303e 322b 92be
00000010: e87d 60bd 09ae f33e ebc5 833e c559 5d3e
00000020: 7bab 90be d8a5 d83e 4f6a 063e 755d 583d
00000030: 5fd4 b8be 2b82 a3be 1254 e1be 121f 23bf
00000040: 90e1 4cbd 3982 733e 8047 05bf 3437 a5be
00000050: 1df2 e7bd dbcd 243e c41d 33be 92af 34bf
00000060: 69af 19bf b54c ba3e 880e 163d 2cf6 f13e
00000070: 509e cf3d c1ee 23bf cf0b 2dbf a67e 10bd
00000080: 5fe1 c63e c60b b73e 74f6 4dbe ed14 bdbe
00000090: bc98 1fbe d4a7 2ebf b0de 16bf 867a 81be
000000a0: 195f 12be a12b 1fbf 3ae4 5fbe 3421 07bf
000000b0: 089d 8e3e b7e7 f23e 8d64 58be db71 003e
000000c0: 9c44 cd3e 6bec cabe d89d 39be 5041 c2bd
000000d0: 09fc 293c 66b9 6a3e 367c 0abf 1bdd 10bf
000000e0: 0b8c 09be 156a cd3e 22a0 023e 32f6 bc3d
000000f0: 1050 26bf 89d7 dfbe 96af 05bf 17cc 62be
00000100: d372 d83e cff0 3a3e 56cd 993e 5d2f f8bd
00000110: d322 493e a0a1 45be 33c4 dfbe 1589 333e
00000120: d1f5 18bf 6053 023f 35ee 09bf 9a2e d1be
00000130: e52f 08be b4d9 1cbe 0210 b03e 9758 31bf
00000140: 432e 82be 3551 d83d 391b 9bbe b042 183e
00000150: 5a30 01bf dbdf 50bc f700 ff3d 6f3a c3bd
00000160: 70dc bb3d cfd4 1bbf 476e bdbc 24b0 083f
00000170: eb0e 31bf 77be 0b3e 12fd c4be 7c95 de3e
00000180: a2be d6bd ef72 08bf a233 29bf 4078 8a3e
00000190: fd8b 06bf 0c97 efbd 0808 48be 065d a4be
000001a0: c89d 0cbf 3959 94be bf69 bbbe da60 f0be
000001b0: 16ed cbbe 932f 073e f1a4 ac3e 4258 40bf
000001c0: 5420 a33e 0262 e0bd 8ee3 f0be 8e5b 85be
000001d0: 9c1b 8b3e 62af 14bf cd3d 13bf 8602 11be
000001e0: 4b45 79be 7eec 16be 72db 5d3e 94c3 39be
000001f0: a324 813e 899e 613e e5f6 03bf dffd 003d
00000200: 23b1 f0be 9bef 12bd 518a 603e 4809 1cbe
00000210: e0f1 37be bcfa 2fbf b328 10bf a51a 8e3e
00000220: 94f4 31be 2b0d efbd 2a36 5abe 2ccf 37bf
00000230: d9b1 1ebf a248 9b3d 889e 4f3e 24c3 4c3e
00000240: 8971 db3e 5c72 eebe fc03 02bf f36c 93be
00000250: ac6e dc3d 270d 30bf 41c3 d63e 0c8a 063e
00000260: 4d91 e9be 64ee 1abf 4977 86be 1dad 1fbf
00000270: 817a 903e 27e9 91bb 30c9 36bf a0c3 8b3e
00000280: 72a5 583e ed38 133d ae40 dd3c 4557 a5bb
00000290: cce8 473e cecf f3be aed8 ee3e cf70 87bd
000002a0: 0d35 f63e ade8 a33e f94f 26bf ea3d a0be
000002b0: 91c7 bf3e 2bf3 99be 61a4 403e d1c9 d53d
000002c0: 913b dcbe 0389 033f 20d4 b53e d41d e0be
000002d0: 412c 11bf 99b5 023f 0609 f3be c8be d43c
000002e0: 06ae eabe 440a 07be 599e eabe a0a3 16be
000002f0: 3700 03be deec 72be c640 0f3e 3bb6 10bf
00000300: 381c 29bf d213 0ebf c689 14bf 1263 aa3e
00000310: 1c14 21bf 5fad 9c3e 45a3 1f3d 9d7f 0abf
00000320: 1dad 50be 30fe 013e 0ace e03d eb46 17be
00000330: 9bd0 87be 0e43 fcbe b215 903d 0751 03be
00000340: 64ce f73e 883a ea3e 2ea4 9e3e de8f 113f
00000350: 8b72 6e3e b90d cbbe 2f7d 0cbe 06db 673e
00000360: 769f 1c3d 4ec5 05bf 413c 14bf 3599 a9be
00000370: f9f8 fa3e 428e 18be ea56 ac3d dcbc 79be
00000380: 1700 02be 74bd 18bf aa00 473e b438 e63e
00000390: 957f 6c3e afa4 193f abef acbe fbb2 70be
000003a0: 5229 cabd 0584 873d c13b 1abe c1e3 983e
000003b0: 297b d33d 93cd 643e 82bf 5cbe 0d7d 883e
000003c0: 6481 a83e bd63 213d 5ce4 9fbd 8ec2 84bc
000003d0: d2f8 d1be ce18 b13e 9409 3cbe 8e8c c0be
000003e0: e80e 7abe 797f 0ebf e659 9b3e ecf2 17bf
000003f0: c10a afbd 5005 f5bd d5b6 313e 7892 b83e
-0.30627355 0.25574902 0.17210892 -0.2854858 -0.054807574 0.47593716 0.25736937 0.21616276
-0.2825583 0.4231403 0.13126491 0.052823503 -0.36099526 -0.31935248 -0.44009453 -0.63719285
-0.0500198 0.23780145 -0.52062225 -0.3226868 -0.11325476 0.16094153 -0.17491823 -0.705804
-0.6003328 0.36386648 0.03663495 0.47258127 0.101376176 -0.64036185 -0.67596143 -0.03527703
0.3884382 0.3575117 -0.20113546 -0.36930028 -0.15585607 -0.68224835 -0.58933544 -0.2528879
-0.1429409 -0.6217595 -0.21864405 -0.5278504 0.2785418 0.4744241 -0.21132107 0.12543432
0.40091407 -0.39633498 -0.18126619 -0.094851136 0.010375031 0.22922286 -0.5409578 -0.5658738
-0.13432328 0.40119997 0.12756398 0.092266455 -0.64965916 -0.43719128 -0.5222105 -0.22148167
0.42275104 0.18255924 0.3003947 -0.12118409 0.1964219 -0.19299936 -0.43704376 0.17532761
-0.59750086 0.5090847 -0.538791 -0.40855867 -0.1329952 -0.15317422 0.34387213 -0.692758
-0.2542592 0.10562364 -0.30294207 0.1486919 -0.50464404 -0.012748684 0.12451356 -0.0953263
0.091729045 -0.60871595 -0.023123873 0.5339377 -0.6916339 0.13646875 -0.38474327 0.43473423
-0.10485579 -0.53300375 -0.6609441 0.27044868 -0.52557355 -0.11698732 -0.19534314 -0.3210222
-0.54928255 -0.2897432 -0.36604115 -0.46948892 -0.3982932 0.13201742 0.3371959 -0.7513467
0.31860602 -0.109561935 -0.4704861 -0.26046413 0.27169502 -0.5808011 -0.57516176 -0.14161119
-0.2434284 -0.14738652 0.21665743 -0.18141013 0.25223264 0.22033133 -0.51548606 0.03149211
-0.47010145 -0.035873037 0.21927764 -0.15237916 -0.17963362 -0.68741965 -0.563121 0.27754703
-0.17378455 -0.116724335 -0.21309724 -0.71800494 -0.61990124 0.07582213 0.20275319 0.19996315
0.42860058 -0.46571624 -0.5078733 -0.2879406 0.107632965 -0.6877007 0.41945842 0.13138598
-0.45618668 -0.60520005 -0.26262882 -0.62373525 0.28218463 -0.0044528428 -0.7140074 0.27297688
0.21156862 0.03594296 0.02700838 -0.0050458037 0.19522399 -0.4761948 0.46649688 -0.066133134
0.4808735 0.32013455 -0.6496578 -0.31297237 0.37456945 -0.30068335 0.18812706 0.10438884
-0.43014196 0.5138094 0.355134 -0.43772757 -0.5670815 0.51058346 -0.47467822 0.025969878
-0.45835894 -0.1318751 -0.45823935 -0.14710855 -0.1279305 -0.2372317 0.13989553 -0.5652806
-0.66058683 -0.55498993 -0.58022726 0.3327871 -0.6292131 0.30601022 0.038974065 -0.5410097
-0.20378537 0.12694621 0.10976799 -0.14773147 -0.2652634 -0.4926991 0.07035388 -0.12823878
0.4839965 0.4574778 0.30984634 0.5686015 0.23285882 -0.39658907 -0.13719629 0.22642145
0.03823801 -0.5225419 -0.5790444 -0.331247 0.49018076 -0.14898017 0.08415015 -0.2438845
-0.12695347 -0.5966408 0.19433847 0.44965136 0.23095544 0.6001691 -0.33776602 -0.23505776
-0.098711625 0.066169776 -0.15061857 0.29861262 0.10326225 0.22344045 -0.2155743 0.26657906
0.32911217 0.03940176 -0.07807228 -0.016206052 -0.41010147 0.34589237 -0.18363029 -0.37607235
-0.24419749 -0.5566326 0.30342025 -0.59355044 -0.08546973 -0.11963904 0.17354901 0.36049247

model.2.weight f4 [256, 512]
00000000: 9361 243d 3c62 643b bd54 75bd bc9d c5bc
00000010: 90c1 b5bb cead a7bc 0c52 4bbc c597 acbc
00000020: 8a67 fa3c b584 54bd 8d26 dbbc ce30 4fbd
00000030: c3a1 b3bc d024 133b 92eb 1dbd a5cd 153d
00000040: f8ce 00bc 0c33 8fbc e19b bcbc 8e69 ae3c
00000050: 0eb4 233c cc87 0cbc 473f 073d 6bbc 01bd
00000060: e0ae 8d3c 894b abba 4977 98bd 51c7 5fbd
00000070: 56ec 85bc ae30 b63c 7a8a e53c ed89 8abc
00000080: 5cc4 1abd 14fe 0ebd 0463 23bc 1c48 56bc
00000090: 20c7 4abb 5029 403c 004a 3ebb 966b f5bc
000000a0: b8be e03b 6814 12bd 24ee 91bc 1647 913c
000000b0: 95c5 11bd 0a16 3a3c 6144 1cbd 286b 86bd
000000c0: 1181 3bbb 946f 083c b044 cb3b 81f1 153d
000000d0: 20d8 243c 1f8f 123c 6484 a3bc d038 debb
000000e0: aaae ef3c 34a1 98bd 224c 5bbd dd9f 70bd
000000f0: 8bfb 2cbd 04ee 28bd ceaa c93c 8808 3abd
00000100: 3236 33bc eb18 12bc 1c8a 0cbd 0343 1038
00000110: 7a8a 79bd 8d9c 343d 0ce6 febc fd9a 5abd
00000120: 90d7 0abc 314d aebc 0ce2 13bd 75e2 0e3d
00000130: 7f1b 0b3d ea4f b53c 3678 49bd f5ba 10bd
00000140: 5777 d6bc 966a 94bd 857e 2dbd abdd 05bd
00000150: 4082 55ba 5c61 90bd e934 c83b b09b 39bd
00000160: c8c8 98bc d88a d33b a562 8ebd 9451 85bd
00000170: e349 303d 9ebb 98bd 8286 9a3c d021 fdbc
00000180: 7b5a 0cbc 2915 1abd ae82 e83c cfb8 d4bc
00000190: 3491 c9bc 5d58 debc 45a7 a3bc d2a5 0fbd
000001a0: 3a41 e93c c913 babc da8f b1bc 0260 c83c
000001b0: 1069 5abb 4c92 81bd 8579 3dbb 6a92 9ebc
000001c0: 05ec 89bc c626 aa3b 5cbf d7bc 2c78 88bd
000001d0: 09ff fdba 68d5 08bd 305e 4c3c 7467 583c
000001e0: c063 773a dc75 17bd e6ae 0a3c 0225 03bd
000001f0: 45a8 4dbc 3eb9 89bc e018 23bd 632b 133d
00000200: 9c51 22bc 0933 56bc a9f2 3fbd 7446 88bd
00000210: ad08 81bd de55 57bc 2c16 173c ad24 8bbd
00000220: 894f 323b 0463 0b3c d26c a53c e0e9 933c
00000230: dc91 263c 10bf 5d3c b55b a8bc 8c01 91bd
00000240: 243f 25bd 1d04 06bd e4c6 17bc 5709 163d
00000250: 9418 97bd 8c7d 53bc c575 0cbd 265c 63bd
00000260: b018 23bc fc50 193c 9eab 02bd 3cfa 28bd
00000270: 2951 6cbd 7269 e7bc aed2 6ebc 6e64 99bd
00000280: e663 3bbd 304a 743b bc18 0cbc a883 c0bb
00000290: 2c7f 99bd e0f7 df3a 9b46 78bc 80b3 703a
000002a0: 8e6d 44bd 4b3d 8abd 5cdd a4bc 8fae c7bc
000002b0: ed16 323c 1b28 9abc 2e00 5cbc 9db6 1d3c
000002c0: 06b4 c93c c4cf ab3a 4440 933b 043a 813c
000002d0: aa7d fdbc a8db 3b3c 0bf7 04bd 9855 6bbd
000002e0: ea28 fa3c e9ab 8fbd 007b 563b 56fc 21bd
000002f0: ba95 20bd db7b 193d b987 98bd 86d4 af3c
00000300: 3059 2d3c 08fc 88bb c84a a8bb a704 86bd
00000310: 982d ce3b 6c8c 9e3b 9d05 bbbc 99f8 2d3d
00000320: a67c 803c 9714 88bb 2e10 87bd 234a 0fbd
00000330: e249 5dbc 7499 043c ea3d 1bbd c748 92bc
00000340: 7cf6 98bd 03d8 373c 7123 1abd 315f 68bd
00000350: 2680 1d3c 0264 c43c 249e b2bc cdf2 25bd
00000360: 0ffc 33bd f0df d4bb 722a fdbc 453d 013d
00000370: 2791 27bd 857f fdbc 1ae6 0fbd d0fc 11bd
00000380: 7093 f0bc b496 dfbc fc8b 8bbd cd8f aabc
00000390: 9672 ceb9 5c20 8dbd e8fe a73b 8633 993c
000003a0: e489 483c 663c 6fbd 2c93 5f3c 3ae3 143b
000003b0: 7f9f 6dbd a8c1 093c 8bb0 d7bc 4a04 94bd
000003c0: 17b4 85bd ffb9 533c 633c e4bc b800 d03b
000003d0: 5d74 043d 51e2 3fbd bc3d 5cbc 4504 2a3d
000003e0: b1c5 183d ac8e 0ebc 0137 91bd abf0 eebc
000003f0: c6e7 c13c dfc6 cfbc c4b9 89bd f291 5ebd
0.040132117 0.0034848591 -0.059895266 -0.024123065 -0.005546756 -0.020468619 -0.012409698 -0.021068463
0.03056695 -0.05188437 -0.02675178 -0.050583653 -0.02192772 0.0022452362 -0.038554735 0.03657307
-0.007861845 -0.017480396 -0.023023548 0.021290567 0.009991659 -0.008577298 0.03301933 -0.03167383
0.017295301 -0.0013068776 -0.07444627 -0.054633442 -0.016348045 0.02224001 0.028020132 -0.016911471
-0.03778492 -0.034910277 -0.009972338 -0.013078716 -0.0030941442 0.0117286 -0.0029035807 -0.029958528
0.006858673 -0.035663992 -0.01781375 0.017734092 -0.03558882 0.011357794 -0.03815115 -0.06563407
-0.0028610865 0.008327384 0.0062032565 0.03660727 0.010061294 0.008945256 -0.01996059 -0.006781675
0.029258091 -0.07452622 -0.053539403 -0.058746208 -0.042232078 -0.041242614 0.024617579 -0.045418292
-0.010938214 -0.008917074 -0.0343114 3.4394685e-05 -0.060923077 0.04409461 -0.031115554 -0.053370465
-0.008474246 -0.021277042 -0.036104247 0.034883935 0.03396177 0.022132833 -0.049186908 -0.035334546
-0.026179953 -0.07246892 -0.042356987 -0.032682102 -0.0008144714 -0.0704982 0.006109823 -0.04531449
-0.018650427 0.0064557604 -0.06952409 -0.065097004 0.043039214 -0.0745766 0.018862966 -0.030899912
-0.008566494 -0.037617836 0.028382625 -0.02596703 -0.024605371 -0.027141744 -0.019977221 -0.035070248
0.028473485 -0.022714512 -0.02167504 0.024459843 -0.0033326782 -0.06326732 -0.0028911543 -0.019356925
-0.016836176 0.0051926104 -0.026336364 -0.06663546 -0.0019378375 -0.033406645 0.012473628 0.013208259
0.0009437166 -0.036977634 0.008464551 -0.032017715 -0.012552326 -0.016811963 -0.039818645 0.03593005
-0.0099071525 -0.013073691 -0.046862278 -0.06654063 -0.06300483 -0.013143031 0.009221595 -0.06794105
0.0027208051 0.008507494 0.020193491 0.018055856 0.0101666115 0.013534322 -0.020551542 -0.07080373
-0.04034342 -0.032718766 -0.009263728 0.03663 -0.07377735 -0.012908351 -0.034292 -0.0555078
-0.009954616 0.009357687 -0.03190195 -0.041254267 -0.057694588 -0.028248522 -0.014576597 -0.074898586
-0.045749567 0.0037275665 -0.008550819 -0.0058750696 -0.07494959 0.0017087422 -0.015153552 0.0009182021
-0.047956042 -0.06749972 -0.020125084 -0.024375228 0.010869724 -0.018817952 -0.013427777 0.009626058
0.024621975 0.0013108184 0.004493745 0.015774734 -0.03094371 0.011465944 -0.03246216 -0.057454675
0.030537087 -0.07015211 0.0032727122 -0.039547287 -0.03920529 0.037471633 -0.07447762 0.021463644
0.010580346 -0.004180435 -0.0051358677 -0.06543856 0.0062920563 0.004838517 -0.022829825 0.04247341
0.015684437 -0.004152845 -0.06594883 -0.03498281 -0.013506385 0.008093227 -0.037900843 -0.017856969
-0.07468888 0.011220935 -0.037631456 -0.056731407 0.0096130725 0.023973469 -0.021803923 -0.040514756
-0.043941554 -0.006496422 -0.030904029 0.03155257 -0.040909912 -0.030944595 -0.03513155 -0.03564149
-0.029367179 -0.02729354 -0.06813809 -0.020820523 -0.00039376755 -0.06890938 0.0051268227 0.018701326
0.012239907 -0.05840721 0.013645928 0.0022718445 -0.058013435 0.008407988 -0.0263293 -0.072273806
-0.0652849 0.012922763 -0.027860826 0.006347742 0.032337535 -0.04684669 -0.013442453 0.041507978
0.03729791 -0.008701008 -0.07090569 -0.029167494 0.023670088 -0.025363384 -0.06724885 -0.054338403

model.2.bias f4 [256]
00000000: 8731 2abc 8184 d2bc 6cc6 563e 077a e0bc
00000010: 18c4 2a3d ce63 15bd 1194 18bd 07ba b33b
00000020: 1404 88bb 849b 5ebd 8d4e 07bd a291 0ebc
00000030: 8201 083c bc18 0e3d 4bbc 743b 02a3 c6bc
00000040: b4b6 87bb 6841 1fbd 0c44 81bd f069 d8bb
00000050: 64af c8bc 6084 793c cd55 cebb 42f3 28bd
00000060: 33c4 f83b 983f 89bd 54df 69bc 434e cf3c
00000070: 4ba0 243d 7152 673e e0e2 49bc c168 82bc
00000080: f2b6 49bd 2370 f73c 0a56 6cbc ed44 183e
00000090: 0263 47bd 5766 193d 9790 f4bc 8cd2 3cbc
000000a0: 0a87 9abd 13cb 933c 2807 d9bc c228 3dbd
000000b0: 5370 c3bc 4973 df3c c168 fa3b 78b4 b63d
000000c0: a39a af39 9f7f e7bd 23fb 1dbd ca17 8c3c
000000d0: 4565 85bc 4317 15bd 786d 96bc c6db b83c
000000e0: c81f 93bb 3cd6 883d 3717 afbd 3cf9 06bd
000000f0: 0043 5b3a da47 5b3d c6df fbbb 55d7 533c
00000100: da07 02bd 1078 a5bb 9d79 0e3c f791 b63c
00000110: 0848 83bb ce10 d9bc 425b 01bd 705d 25bd
00000120: c250 81bb eb8e 9dbc 478b 83bd 6dec 5938
00000130: 7f37 183c a347 a2bc 0c48 c2bc fc74 45bc
00000140: 6005 55bc 20ab 083d 9448 233e 81bd 1cbd
00000150: 3ce7 12bc ecee 7f3c 044f 27bd 03e7 ba3d
00000160: 8beb a7bc 55aa 1abc 9ba8 793e ac51 20bd
00000170: b4ba 593e 0d84 25bc b628 81bc 3a2b 30bd
00000180: c2ce 5ebd e2ee 12bd a3f8 45bd cf59 acbb
00000190: d989 733c 952e 28bb 0949 34bd 3c48 2cbd
000001a0: 2cf4 a7bd e4c1 7b3c e210 1dbd 0aa6 ddbc
000001b0: eacf f3bc c240 e1bc d624 91bc 00f9 63bc
000001c0: dff1 82bc e63d 09bd 492f eabc 95e1 ae3b
000001d0: 6807 043d 3ac7 a2bc 9320 463e 04de 11bd
000001e0: 1f1d 1ebd 7585 d63b 1fe2 b33d d7c2 1fbd
000001f0: 711c bcbc c0cb 7ebb ad6d f9bc 6249 153c
00000200: f983 a23c 7278 013d bf9a 51bc 20e8 fa3b
00000210: d297 0a3e 469f 6f3e 0be9 49bd c68d 4dbc
00000220: 7a11 a83a 8393 1dbd 50b1 d6ba 3ed7 64bc
00000230: 8626 8bbc ea25 e33b cc00 0fba d79e 76bd
00000240: 96f1 d83c 076c aeba 2c31 97bc 5c51 a53c
00000250: 725d d43c 078d c8bc fab8 073c cb0f ec3d
00000260: 7cb2 c43d 0ab0 99bd e0b1 02bb d3ee 41bd
00000270: 7d55 ef3d 3de1 2abd 422b 253a 51cb c23c
00000280: b81e 2dbd 3ee6 2dbd e07e 92ba c250 a53c
00000290: 9942 e7bb ffd4 833d bdd0 47bd 19f6 e53b
000002a0: 968e f53c fa9a fd3c ce81 4dbd 189f 29bd
000002b0: 23a6 5c3e b29e 6abd 86df 1ebb 989c 0a3e
000002c0: bca2 343c 6ccb 1cbc 724a 06bd b527 d63c
000002d0: 3310 88bc f04c 10bc b216 a8bc 1f72 df3c
000002e0: 377a 9f3c 3424 fdbb b11f 1e3e 12e3 b03b
000002f0: bc1a 3fbd 2746 1cbd 80f5 c93b 2023 48bb
00000300: 4c99 2e3d 07ab 193c 782c 00bd ec0b 393c
00000310: 2d1d 77bd fe7a b33c 860c e23c ccde 063d
00000320: c20c 50bd 25b0 1f3e e09f 04bd 572b 603d
00000330: ff53 2f3d 32e0 08bc ba9c 113e 79ea 8ab9
00000340: 033a 1cbd fb30 e5bc 4555 fcbc 2ed9 fa3c
00000350: e562 fdbc e001 46bd eecb 59bc fc4a e83c
00000360: ee38 3fbd d40a 893c e7a8 1d3c 1931 233d
00000370: 5277 9a3c 136d 9dbc 258d 9cbd d162 243c
00000380: ebdb 9e3a 05b9 7fbc fe12 a0bc bfdc 7dbc
00000390: 1abe 093d a066 153b 4779 233d 9f53 693a
000003a0: a3c6 633e 2aee 023e 3307 bb3c e4c8 feba
000003b0: cf70 823e 500d 353e 9fef 57bd d2ec 42bd
000003c0: 7e7e 9abc 9a08 1b3e 3512 9f3c aa46 06bd
000003d0: b456 803c 959d 7ebd 3a58 e73c 38e4 663c
000003e0: a896 163e 85c1 05bd 6332 21bc 6566 d7bc
000003f0: 65da 9fbc 7b49 863e cca9 31bd dccb 3e3e
-0.010387785 -0.025697948 0.2097413 -0.027401937 0.041690916 -0.036472134 -0.037250582 0.0054848227
-0.004150877 -0.05434753 -0.033033896 -0.008701714 0.008301141 0.034691557 0.0037343677 -0.02424765
-0.004141653 -0.038880736 -0.06311807 -0.0066044256 -0.024497695 0.015229315 -0.0062968493 -0.041247614
0.007591748 -0.06701583 -0.014274437 0.025305873 0.04019193 0.22590043 -0.012322158 -0.015919091
-0.049246736 0.030204838 -0.01442481 0.14870043 -0.048678406 0.037451115 -0.029854102 -0.011524808
-0.07545288 0.01804117 -0.02649267 -0.046181448 -0.023857271 0.027276652 0.007641882 0.089211404
0.00033493814 -0.11303639 -0.03856958 0.017101187 -0.01628364 -0.036399137 -0.018362746 0.022565734
-0.0044898726 0.06681487 -0.0854935 -0.032952532 0.0008364171 0.05353532 -0.007686588 0.012929757
-0.03174577 -0.005049713 0.008695987 0.022286398 -0.0040063895 -0.02649727 -0.03158117 -0.040372312
-0.0039463947 -0.019233188 -0.064230494 5.195702e-05 0.009290575 -0.01980955 -0.023715995 -0.012051817
-0.01300177 0.033366323 0.15945655 -0.038266663 -0.008966263 0.015620928 -0.04084684 0.09126093
-0.020498058 -0.009440024 0.24380724 -0.03914039 0.21262628 -0.010102284 -0.015766483 -0.043009974
-0.0543964 -0.035872348 -0.04833282 -0.0052597295 0.014864408 -0.002566253 -0.044014964 -0.042061076
-0.08200869 0.015366051 -0.03834618 -0.027056713 -0.029762227 -0.0274967 -0.01771776 -0.013914347
-0.015984474 -0.033506297 -0.028587 0.00533695 0.032233626 -0.01987039 0.19348364 -0.03561212
-0.03860199 0.006546671 0.087833636 -0.039004173 -0.02296278 -0.0038878769 -0.030447805 0.009111734
0.01983832 0.031609006 -0.012793242 0.007657066 0.13534477 0.23400602 -0.049294513 -0.012546008
0.0012822591 -0.038470756 -0.0016379748 -0.013967333 -0.016986143 0.00693201 -0.0005455136 -0.060210075
0.026482385 -0.0013307341 -0.018456064 0.020180397 0.025923464 -0.02448131 0.008283848 0.1152645
0.09604356 -0.0750428 -0.0019942448 -0.0473469 0.116862275 -0.04171871 0.00063006964 0.02377859
-0.042265624 -0.042455904 -0.0011176728 0.02018011 -0.0070574996 0.0643711 -0.048783053 0.0070178625
0.029975217 0.030957688 -0.05017262 -0.04141149 0.21547751 -0.05728025 -0.0024242117 0.13536298
0.011025127 -0.009569984 -0.03278584 0.02614198 -0.016609287 -0.008807406 -0.020518634 0.027276097
0.019467456 -0.007725263 0.15441777 0.0053981626 -0.046656355 -0.03815284 0.006163299 -0.0030538514
0.042626664 0.009379155 -0.03129241 0.011294346 -0.06033056 0.021909233 0.027593862 0.03292732
-0.050793417 0.15594538 -0.03237903 0.054728832 0.042804714 -0.008354234 0.14219943 -0.00026496107
-0.03814126 -0.027977457 -0.030802378 0.030621137 -0.030930946 -0.048341632 -0.0132932495 0.028356068
-0.04668515 0.016728796 0.009622789 0.039841745 0.018855724 -0.01921705 -0.07644109 0.010033325
0.0012119984 -0.015608077 -0.019540306 -0.0154945245 0.03362856 0.0022796765 0.03991058 0.0008900705
0.22243743 0.12786165 0.022830581 -0.0019438532 0.2547669 0.1768086 -0.052718755 -0.04758913
-0.018859144 0.1514 0.019417861 -0.032782234 0.015666343 -0.062162 0.028240312 0.0140924975
0.14705908 -0.032655258 -0.009838673 -0.026293943 -0.019513318 0.26227936 -0.04337482 0.18632454

model.4.weight f4 [128, 256]
00000000: 2819 3dbd d3cc bd3c f282 99bd b017 0cbc
00000010: c2c2 75bd 7e40 d3ba aebc 81bc 790d 303c
00000020: 2ac9 11bd b8b5 1c3d 82c6 643d d027 06bd
00000030: 53cd 39bb ea16 793d b96d babb 1cff c7bc
00000040: b700 763d f656 513d ba87 953c 2844 50bc
00000050: e79a 4e3d 7cfc debc 22bb 09bd 2c89 883d
00000060: 585c 933c 1a66 2e3d 1f7a 433d 9822 0fbd
00000070: 9201 063d 109d 393d f2c1 553d 4cd3 cfbc
00000080: 013d d23b 0622 c7bc 60c3 0dba 863a 80bd
00000090: 09c9 e73c ace6 d23c 305a 9b3c 9c28 883c
000000a0: c2fe a0bc 2a0b 86bc 10dc 843b b651 52bd
000000b0: 4a93 2f3d bf1b a43c 79dd edbc 069c 0a3b
000000c0: 506d 42bd 357f 213d 8003 48bc 8a68 f23c
000000d0: e0da 913b ee89 803d 000d fd39 c0d2 91ba
000000e0: e007 163b 50e0 1cbd 942d 7f3d 944f dabc
000000f0: 0c0f d33c 61ee da3c 44ce 46bd 95c7 96bc
00000100: 4e9d d9bc 7838 10bd fc72 1f3d 2976 a53c
00000110: 2cea 993c 5c00 1d3d 5270 70bc f6d7 893d
00000120: 4093 aabc 85bb 75bd 7a67 24bd 0147 3e3c
00000130: b815 23bd 0ac1 4cbd f5ae a9bd 6436 88bc
00000140: b04b 3a3c f05e 6e3d f5d4 de3c 00e6 793d
00000150: d08b b7bb dc07 453d 46e4 04bd 244f 00bd
00000160: 58db 293d c4ad 8c39 3f06 8fbd 0061 c1bc
00000170: 67f3 4d3c 8095 4bba 0a28 143d 1046 ccbb
00000180: 9466 1dbb 2463 833c 00f2 aa39 cc53 9c3c
00000190: db8c 52bd f02c 593d 90e1 f3bc 744d ccbc
000001a0: a697 36bc 3e62 7d3d 47c8 f73a 928c e83a
000001b0: 41a4 f3bc 0883 15bc 4e13 6a3d 8c9b 98bc
000001c0: 282f c43c 94fd 053d 2c00 723d f74b 943b
000001d0: eb03 56bd bc76 5fbd 514c 29bd 165e 83bc
000001e0: 80f5 443a 06d0 f73c 8206 483c 3401 3d3d
000001f0: 8c97 b6bc da92 303d 773d efbc 1ec4 8dbd
00000200: bee3 27bd 8f82 9cbc 8159 92bd 8037 17bb
00000210: 39eb 08bd 7cf0 cd3c 4ae7 fdbc 9f9f bcbb
00000220: e2ac 72bd 0021 39ba f858 743c e22e 213d
00000230: 00f0 c537 b700 543b 3de5 f6bb 04af 8b3c
00000240: 05b2 e73b a836 093c 454d 70bb 6c1c 25bd
00000250: 83cd adbc 0bcd 05bd e250 e0bc b3ae 18bd
00000260: a3a4 803b e036 c3bc 26f6 303d f157 3fbd
00000270: 6e69 88bd 14b6 9a3c 8c81 513c d7fb 58bc
00000280: ddc9 133d b11d 33bc 40fa 61bb d605 5e3d
00000290: e8e5 b63b 8728 143d 8882 d73c 9a51 73bc
000002a0: f068 893b 8010 283d de8a 603d 73d5 e9bc
000002b0: d6aa bf3a 5c74 d3bc 6051 4d3d c02f 30bd
000002c0: 650e 6bbd a469 813c 6af7 03bc 6529 4d3d
000002d0: 704c 3f3c 74bc 88bc 07de 65bd da8c 51bd
000002e0: 32df 393d 76f5 a5bd a3f7 2bbd 101e 68bd
000002f0: 007f a8bc 2c3b 2fbc d864 80bc 08a8 253d
00000300: 0630 98bd 233b 0c3d f6b9 5a3d 8982 a5bd
00000310: 60fd aa3c 90dc 5dbd ba3b 40bd 9e87 0fbd
00000320: 60b0 163c caaf 1b3d 5582 43bd 60c1 933a
00000330: ac09 09bd 68bc e23c 2fa7 95bc 78d9 debc
00000340: be0c 233d 0951 72bb 0758 e03b 404b 88ba
00000350: 92ed 7ebc 4042 593b d233 da3c 770d 3b3d
00000360: e8b7 923c 5770 413d b8ed 133d 042e 103d
00000370: c4dc 363d 380b 743d 6c3e 25bd 39bf 6c3c
00000380: a1c6 c4bb 8d93 8d3d 1541 aabc 2497 103d
00000390: 90dc a6bd d05e bdbc 0cc5 423d 115a a639
000003a0: b25d 60bd 857a 38bc 09d1 48bc e019 e63c
000003b0: 0f27 ca3c d2de 5bbd c87c 8d3c 2cd5 6f3d
000003c0: 1b00 0dbd c22f 13bc 916a f7bc 3b90 c03b
000003d0: 507b 8e3c 589d 12bd e883 9bbc ddde 24bb
000003e0: 2498 1bbc 6a8e 7e3d bd7c 6abb b8c2 193d
000003f0: 3602 00bd d031 8f3c bc04 29bd f887 2c3c
-0.04616657 0.023168957 -0.07495679 -0.008550569 -0.06000019 -0.0016117243 -0.01583704 0.0107454
-0.035592236 0.038259238 0.055853374 -0.032752812 -0.0028351143 0.06081287 -0.0056893495 -0.024413638
0.060059275 0.051108323 0.018253196 -0.012711562 0.050440695 -0.027220003 -0.03362573 0.066667885
0.017988369 0.04257784 0.047723886 -0.0349451 0.03271634 0.045315802 0.052186914 -0.025369309
0.0064159636 -0.024308216 -0.0005407836 -0.062611625 0.028294103 0.025744759 0.018963903 0.016620927
-0.019652728 -0.016362745 0.004054554 -0.051347457 0.042865075 0.020032762 -0.02903627 0.0021150126
-0.04746753 0.039427955 -0.012207866 0.029590864 0.0044511408 0.06276308 0.00048265606 -0.001112543
0.0022892877 -0.03829986 0.062299326 -0.026649274 0.02576401 0.026724996 -0.048536554 -0.018405715
-0.026564267 -0.035210103 0.038928017 0.020197945 0.01878842 0.03833042 -0.014675217 0.067306444
-0.020822167 -0.059993286 -0.040137745 0.011613608 -0.039815634 -0.049988784 -0.082853235 -0.016627498
0.011370584 0.05819601 0.027201155 0.06101036 -0.0056013837 0.0481032 -0.03244426 -0.031325474
0.041468948 0.00026832346 -0.06983613 -0.023605824 0.012570239 -0.00077661127 0.036170997 -0.006233938
-0.002401744 0.016038485 0.0003260523 0.019082926 -0.05140386 0.05302137 -0.029770643 -0.024939276
-0.011144554 0.06186127 0.0018904292 0.0017742089 -0.029741408 -0.009125479 0.057147317 -0.018628858
0.023948267 0.032712534 0.059082195 0.0045256573 -0.05224983 -0.054556593 -0.041332547 -0.016036075
0.0007513389 0.03025056 0.012208583 0.046143726 -0.02228906 0.0431088 -0.029204113 -0.06922172
-0.040988676 -0.019105224 -0.07145978 -0.0023073852 -0.03342745 0.025139086 -0.030994076 -0.005756333
-0.059246905 -0.00070621073 0.01491379 0.03935135 2.3595989e-05 0.003234906 -0.0075346516 0.017051227
0.007070782 0.0083748475 -0.003666715 -0.04031031 -0.02121616 -0.032666247 -0.027382318 -0.03727598
0.003925876 -0.023829877 0.043203495 -0.046714727 -0.06660734 0.01888565 0.012787234 -0.013243637
0.036081184 -0.010932372 -0.0034481436 0.054204784 0.005581606 0.036171462 0.02630736 -0.014850998
0.0041934177 0.04103136 0.054819934 -0.028544163 0.0014623057 -0.02581232 0.050126433 -0.043014288
-0.057386775 0.015797444 -0.008054594 0.050088305 0.011675939 -0.016691424 -0.056119945 -0.051159717
0.04537887 -0.081034586 -0.04198421 -0.056669295 -0.02056837 -0.01069526 -0.015673086 0.04044345
-0.07431035 0.034236085 0.053400002 -0.08081538 0.020872772 -0.054165423 -0.04693196 -0.035041444
0.0091973245 0.038009442 -0.047731716 0.001127284 -0.03345649 0.02767773 -0.018268196 -0.027203307
0.039807074 -0.003697457 0.006846431 -0.0010398403 -0.015559571 0.003315106 0.026636038 0.045667138
0.017909959 0.047226276 0.03611538 0.035200134 0.044644132 0.05958101 -0.040342733 0.014449888
-0.0060051237 0.06912909 -0.020782987 0.03530039 -0.08147538 -0.0231165 0.0475512 0.00031729092
-0.054776855 -0.01125968 -0.012256869 0.02808851 0.024676828 -0.053679295 0.017271414 0.058552906
-0.03442393 -0.008983554 -0.030202182 0.0058765686 0.017392784 -0.035794586 -0.018983796 -0.002515725
-0.009496722 0.062147535 -0.0035779916 0.037539214 -0.03125211 0.017479807 -0.04126428 0.010530464

model.4.bias f4 [128]
00000000: 5745 d5bc 1cef 323d d278 5dbc 4bcd 06bd
00000010: 7a30 7f3c 467b b0bc 9579 383d 5ecc 44bd
00000020: 200b 63bc 6ea7 84bd 9f1e 43bd 4eaf c53c
00000030: b92b 173e 0d7f 4fbb e689 503c f09f e0ba
00000040: 0d87 1e3c e50e 05bd 0338 2b3c fc38 2bbd
00000050: fb82 e33c 64b1 613d 4d10 e33e 4d29 98bd
00000060: bf18 95bd 8194 e5bc aed2 833a 4d07 bb3a
00000070: 6a92 7cbd e393 6c3d 1e3c b2bd 01f2 7cbd
00000080: 845e 6f3b 5b9e c73c d5b4 cbbd 5f05 13bd
00000090: b07c 803e 5d5d 1a3d 1379 fdbc bddc 64bd
000000a0: 53aa dfbc 357c babd 9142 87bc ecab 0dbd
000000b0: c827 edbc 070d 49bd 3053 59bd 120f 4c3c
000000c0: ca62 1f3d a3a8 e9bc dcda 0a3d b757 17bd
000000d0: 9772 4f3d d4b9 ae3e 291f 84bd 4088 83bd
000000e0: 8c60 6abd 9af5 70bb 7861 553c 6500 2abd
000000f0: 7f94 583e 3ea8 c93c f15e 91bd 5f80 2bbd
00000100: 1c91 ea3e b926 8bbd 711a 543d 6118 a2bc
00000110: 9c50 01bd 70ff 7fbd 3611 d93e 39f1 ec3c
00000120: 586d 543c 3824 6d3d 27ac e63c 4a0f 4d3d
00000130: 9044 d3bb e4e9 0c3d 2a09 063d f785 e73c
00000140: 2298 7fbd 60eb 683e c6b5 f63c a538 cd3b
00000150: d07e cdbb 94ca 70bd c842 503c 2215 5f3d
00000160: 7422 b7bc 3836 483d 9d83 79bd 3465 d9bc
00000170: 2c1a a43c 90bd 743e 2606 ee3d f60f 76bd
00000180: b5c5 09bc d0e8 7cbd 61a5 433d 098f ae3c
00000190: 56ae 37bc a930 66bc 222c b6bd df72 23bb
000001a0: 3213 f13c b03d e13b 22f3 fbbc 8cc8 35bd
000001b0: bca3 35bd 4e03 173e 499e 85bc eb38 b1bc
000001c0: 608d e43e 723c d4ba fd45 c13c 6892 57bb
000001d0: 101f a5bc 79ef f9bb 8842 e2bc 1cd5 35bc
000001e0: 4ec4 f737 802f f53e 75e6 95bd fa8c ff3e
000001f0: 49e2 04bd 165d 57bc dadb 3cbd f6f4 3cbc
-0.02603404 0.043685064 -0.013517575 -0.032910626 0.015575523 -0.021543156 0.045037825 -0.048046462
-0.013857633 -0.06477247 -0.047636624 0.024131443 0.14762773 -0.0031661422 0.01272819 -0.0017137509
0.009675753 -0.032484908 0.010450366 -0.04180239 0.027772417 0.055100814 0.44348374 -0.074297525
-0.072801106 -0.028024914 0.0010057294 0.0014269144 -0.06166307 0.057758223 -0.08702873 -0.06175423
0.0036524842 0.024367502 -0.099466 -0.035893794 0.2509513 0.037686694 -0.030941522 -0.055874575
-0.027302897 -0.09105722 -0.016511234 -0.034587786 -0.028949633 -0.04908469 -0.05305785 0.012454765
0.038912572 -0.028522795 0.033900127 -0.036948886 0.05064639 0.3412615 -0.06451256 -0.06422472
-0.05722098 -0.0036767484 0.013023727 -0.041504283 0.21150397 0.024616357 -0.07098187 -0.04187047
0.45813835 -0.06794495 0.05178303 -0.019787015 -0.031571016 -0.062499464 0.42395943 0.028923618
0.012965523 0.05789587 0.02815826 0.05006341 -0.0064473823 0.034402743 0.032723583 0.028262122
-0.062400945 0.22746038 0.030115973 0.006262856 -0.0062712207 -0.058786944 0.012711234 0.054463513
-0.022355296 0.048879832 -0.06091653 -0.026537515 0.020032011 0.23900437 0.116222665 -0.060073815
-0.008408953 -0.061745465 0.04776514 0.021308439 -0.0112109985 -0.014049687 -0.088951364 -0.0024940295
0.029428098 0.006873809 -0.030755583 -0.04438071 -0.044345602 0.14747354 -0.016310828 -0.021633586
0.4463911 -0.001619233 0.023592943 -0.0032893661 -0.020156413 -0.0076274243 -0.027619615 -0.0110981725
2.9536106e-05 0.47887802 -0.07319347 0.49912244 -0.032442365 -0.013144752 -0.046108104 -0.011533013

model.6.weight f4 [3, 128]
00000000: cdf2 a23c 00da 50ba a97a 593d d75f 9b3d
00000010: a109 aabc fd08 06bc 0eb7 76bd 4098 2e3f
00000020: 089f e43c 3952 da3d 5df2 9e3b cedf cb3c
00000030: dd94 a33f 5c00 8ebd 9089 aebc 4d06 d1bd
00000040: 7ab7 133d 7602 06bb 5d62 443d 24e5 423d
00000050: 5d52 1c3d b6d7 cf3c 90eb 9ebe 2aec 263d
00000060: a8ed bebb 28e2 bebc 031e eebc b0b3 d33c
00000070: 8575 7bbc 4a4e bbba d547 573d 7039 9a3c
00000080: 6850 703d 9b53 91bb afa6 453c 003c 82b8
00000090: 94ba 91be 6d0c 893c 72a4 04bd c440 b3bb
000000a0: 9b70 9cbd 79af b1bd 516f da3b 0d28 9dbd
000000b0: e67b 1fbc 709e 9339 818b 173c 4d3c 913d
000000c0: e978 ab3d e24f 3c3d 48b2 02ba eef4 bb3b
000000d0: 862c 073d 3574 7bbe 6ace 953d ab0b a43d
000000e0: af79 fa3b 533b 003d 5eb6 c1bc 5fff a93c
000000f0: c9d7 e5bd 718c 71bc 1c6c a13c 7da8 893c
00000100: 8a37 96be 6884 ab3c 3df1 ba3b 7465 88bc
00000110: e008 8f3b e0b3 d83b 388b 39be 29ed 453c
00000120: 23b9 0e3d 0541 1c3d 159e 09bd 80d4 13ba
00000130: 906c d23b 91b0 26bc 90dd 0c3d 5adb 213d
00000140: 7c7b b33c ab15 89be 9550 cc3b beb0 65bd
00000150: ec57 03bd 137f 25bd 30cf 593b e050 653c
00000160: 6c43 083d 5e49 9cbd 66f7 bfbc f4f6 463c
00000170: d64c 7bbc 0a80 243f a3ff 883e 45c0 8e3d
00000180: 51d0 84bb 4c51 503d 65aa 94bd 7946 b6bd
00000190: c66e b63b 262b 8fbd 88d1 053d d54a 563d
000001a0: 1921 ea3b 5baf f43c 94c4 2e3d 6418 bb3c
000001b0: 0056 d339 fa6a 83bf c9e6 02bd 7d97 8bbb
000001c0: 2697 76be f7ff 6f3c 2fad ce3c e839 f4bb
000001d0: 94e9 c2bc edbe d5bb d94a 8cbd a8d5 a13c
000001e0: 8d42 8f3b 943a adbe da9c 04bd 45f0 a1be
000001f0: 4419 99bd f2df b63c 1e12 673d 4859 763d
00000200: 6c83 fdbb 80c1 72bc ed83 81bd e8b4 afbc
00000210: 5e90 65bc ec11 623c 1442 703c aa05 303f
00000220: 2ed2 9fbd e31e 0dbd ec35 6ebb 5ff1 1fbd
00000230: 3ed4 763f d4b4 863b bc52 b23d f0e8 243d
00000240: 9aaf 003b 3f5d d33c ff34 863a 86c0 c5ba
00000250: 2551 b33c 3697 513d 44a8 99be 1e32 debc
00000260: a496 8fbc b663 f3bc dc38 f9bc 04dc 433d
00000270: 7359 54bc ae89 ee3a 9d48 5abd f9a1 f3bc
00000280: 2944 6b3c 4d55 f0bc 94e1 833d f078 593d
00000290: a8d3 3abe e57f 0c3d 7aca 0dbc 5294 9c3c
000002a0: 8188 32bc 00bc a338 22de f8bb e49e 073d
000002b0: 45cd b3bd 8afa c1bc 2372 a83d ec82 a63c
000002c0: 0e38 7d3d 2c02 123d 7a4c 15bd d72a 133d
000002d0: f37d 8bbc a61e 71be da71 683c d5bd 663d
000002e0: 4ce6 6abc af61 47bb bd1b 27bd a1dd e0bc
000002f0: 0727 16bf 19fb 853d b621 693c 22ad babc
00000300: 0c6f 99be 8864 51bd 3afe 6ebc 01ad 98bc
00000310: d84b 2b3c f6fc 143d 94ff dabe 00a3 183d
00000320: d2d4 42bd 68c2 46bb 047e a9bc da44 72bd
00000330: d6e1 a1bd 654c bf3c 13e4 92bc e16e 75bc
00000340: b32b 463a 7160 c5be c8c6 ceb9 7861 30bb
00000350: 062c 213d 2d31 4ebd 2189 8a3d e43a bebc
00000360: 4ae1 76bd d2e8 743d ecce 5fbd efd7 3bbd
00000370: cdf6 8f3d 832b 843f 688b 3e3c 06ff 553d
00000380: 00e8 2ab8 1bdf f7bc a94b 483c 3df3 913d
00000390: 9029 4ebd 7a66 26bd 518f 34bd 9f56 9e3c
000003a0: 030f 58bc ee1d 47bc c0f6 edbd adcb 613d
000003b0: 15e9 ebbc 6071 23bf 6209 c13c 8b98 aaba
000003c0: 9095 61be b9f3 7abb 2594 b9bc e76a 303c
000003d0: d40a c7bc ecc0 3e3d 40e7 65bc aaf4 303d
000003e0: d7f8 e23c ca2e a6be 5b18 f63d 4485 98be
000003f0: d1c5 04bd aa9a ac3c a46f e2bc 9b80 95bd
0.019891167 -0.0007967055 0.053095493 0.075866394 -0.020756545 -0.008180854 -0.06023317 0.68201065
0.027907863 0.10660214 0.0048506693 0.024886992 1.2779804 -0.06933662 -0.02130583 -0.1020628
0.03606365 -0.0020448244 0.04794537 0.047581807 0.038164485 0.025371414 -0.31039095 0.040752567
-0.0058266707 -0.0233012 -0.029067045 0.025842518 -0.015347843 -0.00142903 0.05255874 0.018826216
0.05867043 -0.0044350154 0.012063666 -6.210059e-05 -0.2846266 0.016729558 -0.03238339 -0.005470367
-0.07638665 -0.08676047 0.006666102 -0.07673655 -0.0097341295 0.0002815607 0.009249569 0.070915796
0.08372671 0.04597462 -0.00049856724 0.005735985 0.033001445 -0.24556048 0.07314761 0.08010038
0.0076439003 0.031306576 -0.02364653 0.020751653 -0.112227984 -0.0147429565 0.01970487 0.016803974
-0.29339248 0.02093716 0.0057050274 -0.01664994 0.0043650717 0.0066132396 -0.18119514 0.012080469
0.03484453 0.038147945 -0.033598024 -0.000563927 0.006421633 -0.010173933 0.034390986 0.03951583
0.021909468 -0.26774344 0.006235192 -0.056076758 -0.03206627 -0.04040439 0.0033235066 0.013996333
0.033267424 -0.07631181 -0.023433398 0.012143839 -0.015338143 0.6425787 0.26757535 0.06970266
-0.0040531536 0.05085878 -0.07259063 -0.0890016 0.0055674044 -0.06990652 0.032670528 0.05231746
0.007145059 0.029868772 0.04266794 0.022838779 0.0004030913 -1.0267022 -0.031958375 -0.004260002
-0.24081096 0.014648429 0.025229065 -0.007453192 -0.02379302 -0.0065230043 -0.068502136 0.0197552
0.004371947 -0.33833754 -0.032376148 -0.31628624 -0.07475522 0.022323582 0.056413762 0.06014374
-0.007736614 -0.014816642 -0.06323991 -0.021448568 -0.014011471 0.013798218 0.014664192 0.6875864
-0.078037605 -0.034453284 -0.0036348058 -0.03904855 0.96417606 0.004110912 0.087071866 0.04026121
0.0019635917 0.0258013 0.0010239183 -0.0015087284 0.021889279 0.051169597 -0.3001119 -0.027123507
-0.017527886 -0.029710632 -0.03042262 0.047817245 -0.0129607795 0.0018198991 -0.053291906 -0.02974032
0.014359512 -0.02933755 0.0643951 0.05309385 -0.18244803 0.034301657 -0.008654231 0.019113693
-0.010896803 7.8074634e-05 -0.0075948397 0.033110514 -0.087793864 -0.023679037 0.08224895 0.0203261
0.061821036 0.035646603 -0.036449887 0.035929527 -0.01702783 -0.23546848 0.014187301 0.05633338
-0.014337134 -0.0030423214 -0.040797938 -0.02744943 -0.586533 0.06542034 0.014229229 -0.022787634
-0.29967535 -0.051121265 -0.0145869795 -0.018637182 0.010455094 0.036374055 -0.42773116 0.037264824
-0.047566243 -0.0030328277 -0.020689972 -0.059147693 -0.07904403 0.023351857 -0.01793102 -0.014980049
0.0007559612 -0.3855014 -0.00039439485 -0.0026913565 0.039348625 -0.050339866 0.067644365 -0.02322144
-0.060273446 0.059792347 -0.054640695 -0.045860227 0.070294954 1.0325779 0.011629917 0.052245162
-4.0747225e-05 -0.030257752 0.01222507 0.07126472 -0.050332606 -0.040625073 -0.04408199 0.019328414
-0.013187173 -0.012153132 -0.116193295 0.05512588 -0.028797666 -0.6384487 0.023564044 -0.0013015432
-0.2202971 -0.0038292243 -0.022653649 0.010767675 -0.024297155 0.046570703 -0.014032185 0.04320208
0.027706547 -0.32457572 0.12016364 -0.29789174 -0.032415215 0.021069843 -0.027641125 -0.0729992

model.6.bias f4 [3]
00000000: 1ddd ddbe 268b b5be 4661 17bf
-0.4333276 -0.35457724 -0.591328
