2021-22/PrimerSemestre/Reinforcement/PEC2/DDQN.pth (torch, 666959 bytes, 8 tensors)

model.0.weight f4 [512, 2]
000000 94 ac 54 be a8 37 8d bf 19 14 1d 3f c6 14 63 40
       -0.20768958 -1.103261 0.6135879 3.548143
000010 9f 4a f2 be d4 ac d0 be 49 7f 73 3f c9 e8 3f 40
       -0.47322556 -0.40756857 0.95116097 2.998583
000020 39 1b 28 3f 27 5a 6b 40 c9 52 72 be 87 29 61 bf
       0.6566654 3.6773775 -0.23664393 -0.8795399
000030 5c 6e 86 3e 59 3f 75 c0 0a 77 84 be cc a6 a4 bf
       0.26256073 -3.8319914 -0.2587207 -1.2863402
000040 7d bf 96 bd fb aa 7a bf a0 21 3c 3f 17 3b 12 40
       -0.07360742 -0.97917145 0.7348881 2.2848566
000050 52 32 d2 3e d8 aa ec bd 54 16 2b 3f f0 c1 2b 3f
       0.41054016 -0.11556023 0.66830945 0.670928
000060 75 94 ac be 8b 11 d0 3e a0 9d 98 bd 17 c7 0f 3f
       -0.33707014 0.40638384 -0.074519396 0.5616316
000070 94 92 24 3f 25 34 9c be ed d7 c4 3c 5b 6a 4f 40
       0.6428616 -0.30508533 0.024028743 3.2408664
000080 c8 35 1e 3f 42 2e 82 40 93 65 b6 be 3e 3d 98 3d
       0.61800814 4.0681467 -0.3562437 0.07433556
000090 f0 55 78 bd 03 1c 84 be 9b be 56 bf 28 dd 13 3f
       -0.06062883 -0.2580262 -0.8388459 0.5775933
0000a0 a7 20 28 3f ab 3a 21 bf 1c 76 34 3e d8 44 4f bd
       0.65674824 -0.62980145 0.1762318 -0.050602764
0000b0 56 ff 5b bd 4c ae 69 bf 0f 75 f5 3e 08 c9 18 bf
       -0.053710304 -0.9128158 0.4794087 -0.5968175
0000c0 e1 77 91 be f4 a3 81 be 76 ff 68 be 7a a3 ef 3e
       -0.28411773 -0.253204 -0.227537 0.4680441
0000d0 76 29 a6 3e 59 13 27 bf 0d 76 00 bf d5 cb 1e 3f
       0.32453507 -0.652639 -0.5018013 0.62029773
0000e0 5b db 0f 3f 60 07 9e 3c 1d 07 2a 3f 48 67 67 3e
       0.56194085 0.019290626 0.66417104 0.22597992
0000f0 04 6e 00 3d 00 36 fe be 44 0e 00 3e 3a 4f ae 3e
       0.03135492 -0.49650574 0.12505442 0.3404482
000100 6f 32 4f 3e c7 b4 a7 40 ab fe 1e bf f6 35 7a c0
       0.20234083 5.2408175 -0.6210734 -3.9095435
000110 48 12 e9 bd fc e7 40 be 41 fe 96 3e b0 a3 ed be
       -0.1138044 -0.18838495 0.29490855 -0.46413946
000120 44 a0 8e 3e fe 3b d3 3e 42 50 36 bf 9f 00 0b c0
       0.27856648 0.41256708 -0.71216214 -2.171913
000130 2d dc da 3e 73 af 1e bf 01 0a a9 be 7d b8 87 bf
       0.42746106 -0.61986464 -0.33015445 -1.0603176
000140 be 96 88 3e d6 9f b2 3e 69 c9 03 3f e5 16 bd be
       0.26677507 0.3488757 0.514792 -0.3693153
000150 f1 cf e9 3e 94 44 59 bf 07 01 2c 3f 07 6d 23 bf
       0.4566646 -0.84870267 0.6718907 -0.6383824
000160 19 76 ea be 6f 24 04 bf 76 c2 40 bf c2 48 37 bf
       -0.45793226 -0.51618093 -0.75296724 -0.71595395
000170 60 66 d8 bd 84 4c 32 be e8 b8 47 3e 7a 3e be be
       -0.105664015 -0.17412001 0.1950413 -0.3715704
000180 61 0a 9f 3e 66 cc 70 bf d4 f5 08 bf 00 fa 80 c0
       0.31062606 -0.9406189 -0.53500104 -4.0305176
000190 30 85 2f be 93 71 18 3f a0 df 1c be 98 13 89 3d
       -0.17140651 0.595483 -0.15319681 0.0669319
0001a0 a3 8d 5f bc e9 ac 3f c0 e2 2e dc be 29 e7 8b bf
       -0.013644609 -2.9949286 -0.4300452 -1.092992
0001b0 d9 56 f3 bd f5 29 6e 40 00 87 f4 3d 07 5b 23 bf
       -0.11881799 3.7213109 0.11939812 -0.6381077
0001c0 50 78 fc bd 59 03 20 bf ac c2 03 bf 82 85 85 c0
       -0.12327635 -0.6250511 -0.5146892 -4.1725473
0001d0 8c b9 85 be bb e7 f0 be 36 2b ab be 8f 6f 13 bf
       -0.26118124 -0.47051796 -0.33431405 -0.575921
0001e0 dd c6 20 3f 9d d0 7d 3f c8 82 8d be 00 38 67 3a
       0.6280344 0.99146444 -0.2763884 0.00088202953
0001f0 c9 8f 25 3f 2d f8 15 bf 90 6f a0 bd e9 64 f6 be
       0.64672524 -0.5858181 -0.07833779 -0.48123863
000200 5f 8e a3 3e f2 28 32 bf 7e ff fb be f5 8d 2d 3f
       0.31944558 -0.6959373 -0.49218363 0.67794734
000210 84 12 39 be 92 51 0b bf 0c 74 93 3e 32 d9 62 c0
       -0.1807347 -0.5442134 0.28799474 -3.5445065
000220 4d 16 d3 bc 16 14 09 c0 60 66 2b 3e 9d cd e5 bf
       -0.02576747 -2.141851 0.16738272 -1.7953373
000230 ef 63 47 3e 42 02 88 bf 61 e4 25 3f d5 ce 14 3f
       0.19471715 -1.0625689 0.64801604 0.581281
000240 39 fd 02 bf fa ca 44 c0 50 77 2b 3e 45 21 97 be
       -0.5116764 -3.0748887 0.16744733 -0.2951757
000250 48 ca 49 3e 32 c1 8b be ab bf c8 be c6 ee 3e bf
       0.1970607 -0.27295834 -0.3920873 -0.7458309
000260 00 2c e9 bb 47 53 0a bf 90 a1 10 3f 9f 21 b1 bf
       -0.007115841 -0.5403332 0.56496525 -1.3838385
000270 a0 83 24 bf ca ba 5f bf 97 17 8a 3e 8e c5 fb bd
       -0.64263344 -0.8739439 0.26971123 -0.1229354
000280 ac 1f f3 be 74 3a e4 be 44 bc 74 3f f8 ef 2b 40
       -0.474851 -0.44575846 0.9559977 2.6865215
000290 ba e4 4f bf 53 67 44 be 11 f9 4f 3d 35 81 2b bf
       -0.81208384 -0.1918004 0.050774638 -0.6699403
0002a0 cf a6 a7 3f 90 a3 63 be 51 0c cb 3c 14 b7 e5 bf
       1.3097781 -0.22230363 0.024786146 -1.7946496
0002b0 67 b0 47 3f 80 77 19 40 78 21 0c be f0 14 ce bd
       0.78003544 2.3979187 -0.13684642 -0.10062587
0002c0 33 3f eb be 32 98 be be eb a2 a4 3e 59 79 92 3f
       -0.45946655 -0.3722549 0.32155547 1.1443282
0002d0 5e e1 d8 3e 7c 40 3c be db 1c b0 be b1 64 ae bf
       0.42359442 -0.18383974 -0.34397015 -1.3624479
0002e0 d5 54 d2 3e 10 e8 dd be 69 cc 0c 3f 5d 89 79 40
       0.41080347 -0.43341112 0.54999405 3.899009
0002f0 12 2a e8 3d 99 65 18 bf d1 2b c6 be bc d0 89 bf
       0.11336149 -0.59530026 -0.38705304 -1.0766826
000300 9c 9b b7 be 70 7a 84 be 05 12 e2 bd 87 b5 3a 40
       -0.35860908 -0.25874662 -0.11038593 2.9173295
000310 b8 3a 6f be de 9f f2 3e bf 07 8c be c4 a3 a2 3e
       -0.23362243 0.47387594 -0.2734966 0.31765568
000320 30 fe 44 3e a4 02 77 3e d5 62 14 3f f0 24 1a be
       0.1923759 0.24122101 0.57963306 -0.15053153
000330 b3 d2 1a be 39 e9 91 bf 9b 99 15 bd 6e 48 f4 be
       -0.15119438 -1.1399299 -0.036523443 -0.4771151
000340 38 c2 36 3f 22 20 4f 40 b9 4e 9a 3e c7 74 42 bf
       0.71390104 3.2363362 0.30138186 -0.7595944
000350 ce ec b9 be e4 9b 60 3e fd af a3 be 49 38 3c bf
       -0.3631348 0.21934468 -0.31970206 -0.73523384
000360 0c 66 07 3e d1 b9 10 3f 5c e8 40 be 28 d4 67 be
       0.13222522 0.56533533 -0.18838638 -0.22639525
000370 bf 6b 62 3d 88 b0 01 3f 2d ee 58 be e6 a9 1c 3d
       0.055278536 0.5065999 -0.21184607 0.038247965
000380 29 25 3d be 13 27 b4 bf 5e 47 ce be f9 d6 51 bf
       -0.18471207 -1.4074425 -0.40288824 -0.8196865
000390 da ec 06 bf b0 2a 4c be 9a 69 27 3f a4 4a 8c 3e
       -0.52705157 -0.19938159 0.6539551 0.27400696
0003a0 33 37 49 3e 87 ea d7 bf 92 d6 24 3f bb 89 50 3f
       0.19649963 -1.6868447 0.6438991 0.8146016
0003b0 e0 80 bd 3c de 53 00 bf 4a 85 d8 3e b0 2d 33 3e
       0.023132741 -0.5012797 0.4228919 0.17497897
0003c0 3d 7c 02 bf e6 bb 02 3f 2c 95 9d 3e 58 85 5a 40
       -0.5097082 0.5106796 0.30777872 3.4143887
0003d0 88 68 23 be 73 37 1c bf 7c 21 83 3e f0 7d e0 be
       -0.15957844 -0.6102211 0.25611484 -0.43846083
0003e0 1c d7 07 3f 6f a9 70 3f da 51 1e 3f 22 ea 6b 3f
       0.53062606 0.94008535 0.61843646 0.92154133
0003f0 ca 5e 1f bf 77 93 b0 bf 7f dc 2f 3f 47 b6 02 3f
       -0.6225401 -1.3795003 0.68695825 0.51059383

model.0.bias f4 [512]
000000 ba f8 8d 3e c8 dc 92 bc 01 e4 85 3e 5e dc b0 3d
       0.27728826 -0.017927542 0.26150516 0.08635782
000010 6c 68 89 3d 0b 9b 84 3e e7 d1 01 3e cc bb 8c 3e
       0.0670937 0.25899538 0.12677728 0.27487028
000020 e5 37 85 3d ae 4a 01 3a fb 28 ce be 51 26 cf 3e
       0.06504802 0.00049320876 -0.4026564 0.4045892
000030 ff 6b cf be 4d ea 0c bf f4 8b ad 3e 0b ed c5 bd
       -0.40512082 -0.55045015 0.33895838 -0.09664353
000040 80 a5 5e bd b3 18 db be 03 a2 e4 be 78 21 e5 be
       -0.05435705 -0.42792282 -0.44654855 -0.44752097
000050 4a 18 b6 be e8 c4 bc 3e 83 36 07 3f f1 28 08 3f
       -0.35565406 0.36868978 0.52817553 0.5318747
000060 43 8c c6 be ae b4 e9 be b3 44 ce be 63 d5 22 bf
       -0.38778886 -0.4564566 -0.40286788 -0.6360685
000070 aa 77 e6 be be fa 20 bf 41 06 1c 3e da 68 b5 be
       -0.4501317 -0.628826 0.1523676 -0.35431558
000080 e7 2b 52 3c a0 57 cb be ee d0 fe be 6c bd 10 3f
       0.01282785 -0.3971529 -0.49768776 0.56539035
000090 3e 35 54 be 31 84 e9 be 05 ba 9d 3e 1e 81 bd 3e
       -0.20723435 -0.45608667 0.30805984 0.3701257
0000a0 13 b3 27 bf 9e a4 0c bf 6e d3 fb 3e b1 97 10 bf
       -0.6550762 -0.54938686 0.49184746 -0.5648146
0000b0 53 b2 8b 3e 03 9e 90 be 28 df 14 be 43 d1 28 bf
       0.27284488 -0.28245553 -0.14538252 -0.6594431
0000c0 81 13 48 3e 6c 25 ab be d8 2c 28 bf 01 89 bf be
       0.1953869 -0.33426988 -0.65693426 -0.37409213
0000d0 c6 66 f6 3d 06 9a 81 3e 9b d7 66 bd 4f 66 32 bf
       0.12031321 0.25312823 -0.05635796 -0.6968736
0000e0 b8 d5 2d bf 0c eb 8e be dc 35 1f bf 5b 10 05 3f
       -0.67904234 -0.27913702 -0.6219156 0.5197808
0000f0 21 0f bb 3e 1e 27 33 bf bd 3e b9 be f7 e5 a8 3e
       0.3653498 -0.69981563 -0.36180678 0.3298795
000100 db 0e f0 3e e9 e8 17 bf a8 0e 1e bf e9 a3 13 3e
       0.46886334 -0.5933977 -0.61741114 0.14417996
000110 a8 42 de 3d 6e 8e 15 3e 1c 5c 02 3e 12 51 cf be
       0.108525574 0.14605114 0.1273045 -0.4049154
000120 35 a5 63 be 24 16 26 bf 63 65 9f be b8 66 63 3e
       -0.2223099 -0.64877534 -0.3113204 0.22207153
000130 06 17 89 be b7 c1 59 be a4 1c 87 be c4 57 e9 3e
       -0.26775378 -0.21265303 -0.2638904 0.45574772
000140 31 6b 31 bf a8 5c 11 be 41 48 db be 0d 86 d3 3e
       -0.69304186 -0.14195502 -0.42828563 0.4131321
000150 4d da 9d bd 7e 78 03 3e 74 e3 0e bd 5c 1e a2 be
       -0.07707653 0.12838933 -0.034884885 -0.31663787
000160 9d e6 c9 3e f3 0a 71 3e 59 d5 f7 3e b8 47 49 3e
       0.39433756 0.23539333 0.4840496 0.19656265
000170 ee ae a2 3e 9d 9d de 3d e6 ac c7 bd ac c4 d3 3e
       0.31774086 0.10869906 -0.09749775 0.41360986
000180 f9 dc 03 3f a4 e9 41 bd 0c 0a 07 bf f3 e1 aa be
       0.5150905 -0.047341958 -0.52749705 -0.3337551
000190 85 6e 95 be 18 7b 26 bf 28 e7 01 3f 7f 54 cd 3e
       -0.29185882 -0.65031576 0.5074334 0.40103528
0001a0 aa 9a d2 bd 8c f6 42 3e 68 f6 23 bf 4a ed e8 3e
       -0.10283406 0.19039363 -0.6404786 0.45493537
0001b0 bb 97 bd be 79 f7 af be 01 3f 58 bd 6c a0 e7 3e
       -0.37029824 -0.34368494 -0.05279446 0.4523958
0001c0 e1 85 5a 3e bb c5 98 3e 0e 93 34 bf 78 0a 18 3f
       0.21340133 0.29838356 -0.7053689 0.59390974
0001d0 a7 e9 f9 3d 54 6c df 3e eb 29 31 bf a8 ec 6d be
       0.12202769 0.43637335 -0.69204587 -0.23234808
0001e0 46 d6 1c bf fe 1f 27 3e eb 1d af be 50 1f 18 be
       -0.61264455 0.16320798 -0.34202513 -0.14855695
0001f0 a2 1b b3 3e 07 80 d0 3e 97 29 ae be 64 8f fa be
       0.3498202 0.40722677 -0.34016106 -0.48937523
000200 52 f7 98 3e 2a f6 41 3d a1 5c 0b 3e 65 0f 91 be
       0.2987619 0.0473539 0.13609554 -0.28332058
000210 3b f9 11 3e 6e 17 fb 3e de 18 2f bd 80 4b 16 3e
       0.1425523 0.49041313 -0.042748325 0.14677238
000220 87 e2 ad be 9c 01 9d 3e d4 5d be 3e 8e a8 a9 3e
       -0.3396189 0.3066529 0.3718096 0.3313641
000230 31 9b 8f 3e 7c 59 b7 be 3a 54 0b bf 16 8d a2 3e
       0.2804809 -0.3581046 -0.54425395 0.31748265
000240 ff bc 03 3f 47 e1 2e bf 43 71 0d 3f 68 35 00 3f
       0.5146026 -0.68312496 0.5525095 0.5008149
000250 7f 15 58 3e bf 74 80 be 82 d4 d2 be 8c 97 11 bf
       0.2110195 -0.2508907 -0.41177756 -0.5687187
000260 45 6f 6d 3e 4c 1f 28 3f 57 87 39 be 98 1f bb be
       0.23186977 0.65672755 -0.18118034 -0.36547542
000270 8f 50 94 3d 1c 62 9d 3e 18 d3 fc be ab 14 9d bd
       0.07241928 0.30738914 -0.49379802 -0.07669958
000280 03 96 f5 be 08 d6 9a be 37 0b 4d 3e b6 9f 54 3e
       -0.47966012 -0.30241418 0.2002381 0.2076405
000290 25 3e 0d be 49 fa 02 3e 4d 60 f2 bd 00 b8 9c bd
       -0.13793238 0.12790789 -0.11834774 -0.07652283
0002a0 e8 05 ec 3e ae 19 8c be 87 c9 7a 3e b1 e5 d2 bd
       0.46098256 -0.27363342 0.24490939 -0.102977164
0002b0 28 80 54 be b4 09 03 3f 95 bb 8f 3e ba 68 ca bd
       -0.20752013 0.5118668 0.280728 -0.09883256
0002c0 6f c1 40 be fd d1 97 3e e4 78 bc bd 17 70 cc 3e
       -0.18823789 0.29652396 -0.092027456 0.39929268
0002d0 8a 1b 1a 3f 20 90 ee 3e 34 2c 28 bf 9c 0a e7 be
       0.6019827 0.46594334 -0.6569245 -0.45125282
0002e0 c6 65 24 bf ed 3b 57 be 1c 0e 14 3f b2 4b f1 3e
       -0.64217794 -0.21018954 0.5783403 0.47128063
0002f0 db ad 9f be 0d ee 08 bf 00 d5 ea be 3e 8b 94 be
       -0.3118733 -0.53488237 -0.4586563 -0.29012483
000300 6d 63 89 be 9c eb c4 be 8a a6 51 bb 98 a0 fe 3e
       -0.26833668 -0.38461006 -0.0031990134 0.49731898
000310 60 1b 13 be 43 06 ba bd 9c 26 de be e4 43 1d bf
       -0.14365911 -0.090832256 -0.43388832 -0.6143172
000320 29 34 2c 3d f0 d5 eb be c0 30 95 bd 8f 8e 1d be
       0.04204193 -0.4606166 -0.07284689 -0.15386413
000330 47 42 89 bd ba c9 e9 be 13 7f 33 be d4 80 8b 3e
       -0.067020945 -0.45661718 -0.17528944 0.27246726
000340 82 d6 1e 3e 4b cf e0 3e 12 76 f9 be ff ed ed be
       0.15511516 0.43908152 -0.48722893 -0.4647064
000350 bc 9c 93 be c1 37 9c be 11 f9 4a be f3 df 9c bd
       -0.28830516 -0.30511287 -0.19821574 -0.076599024
000360 b6 dc 24 bf c9 64 de 3d f1 2e 47 be 2a 6f 56 3e
       -0.6439928 0.10859067 -0.194515 0.20940843
000370 4f 78 02 bf 60 64 69 be 39 e8 30 be 6f 55 d3 be
       -0.50964826 -0.22792196 -0.17276086 -0.41276118
000380 71 d0 73 be b2 33 e1 3d 80 f9 ac be ba b0 8a be
       -0.23809983 0.10996188 -0.33784103 -0.27087957
000390 a2 8f a6 bd 03 56 2d bc cf 61 a9 bd b2 cf 52 3e
       -0.081328645 -0.010579589 -0.08270609 0.20587042
0003a0 6c 9b a8 3e 28 04 43 3c c8 9b 96 be 4a 33 bf 3e
       0.32931077 0.011902846 -0.29415727 0.37343818
0003b0 00 dc e9 3e 2e c3 9a be e8 41 19 be 38 25 2d bf
       0.4567566 -0.30227035 -0.14966547 -0.67634916
0003c0 69 ef 97 be b4 24 6c be f0 33 b2 bd 71 1b e0 3e
       -0.29674843 -0.23060876 -0.087013125 0.43770936
0003d0 2e b7 ee 3d 3b 42 37 3e 18 73 93 be 29 02 b5 3e
       0.116560325 0.17896359 -0.28798747 0.3535321
0003e0 c7 b1 ac 3e 65 eb 3a 3e 14 41 17 be 52 07 ec 3e
       0.33729383 0.18253858 -0.14770919 0.46099335
0003f0 e7 cf 5a be 39 f4 25 bf 2b 66 09 be c7 41 f1 3c
       -0.21368371 -0.6482578 -0.1341788 0.02945031

model.2.weight f4 [256, 512]
000000 56 5b 8d 3c 34 4f 15 3c 25 c2 c6 bc 0e 64 ff 3c
       0.017255466 0.009113122 -0.024262497 0.03117564
000010 ee 2a 0f 3d f5 27 54 bd 86 41 16 bd 5e ff c2 bc
       0.03495305 -0.05179592 -0.03668358 -0.02380341
000020 a3 19 01 bd f0 d8 89 3b ea 4b 8d bc 0b ad ba 3b
       -0.03151859 0.004206769 -0.017248113 0.005696898
000030 32 5b 41 bd 90 ca 19 3c 00 cb 42 3c 10 88 f6 bb
       -0.04720611 0.009386674 0.011889219 -0.007523544
000040 57 15 2b 3d 38 56 4e bd 98 0e ce 3b c9 47 1d 3d
       0.041768398 -0.050375193 0.006288361 0.038398538
000050 a4 16 04 3c ed 99 f4 bc ea c3 88 3c 33 61 b1 bc
       0.008062039 -0.029858554 0.016694982 -0.021652794
000060 96 c3 58 bc 5b e3 33 3d c9 1c 2b bd 40 b7 89 3b
       -0.013230225 0.043917995 -0.0417755 0.0042027533
000070 d0 e6 00 3b c0 ca 39 bb 36 0b ca 3b 93 ef 20 3d
       0.0019668825 -0.0028349608 0.006165887 0.039290976
000080 3e fd 15 bd 86 e6 95 bc 80 7f d8 3a cc 2a 21 bd
       -0.036618464 -0.018298399 0.001651749 -0.039347455
000090 92 11 c3 3c 0f a6 23 bc 1a 4e 9e ba 30 79 05 bd
       0.02381209 -0.009988322 -0.001207772 -0.032586277
0000a0 30 1d 1b bc df 2c 22 3d d1 02 74 3c 1d c0 91 bc
       -0.009467408 0.039593574 0.01489325 -0.017791802
0000b0 94 00 88 3c 2c 49 38 bc 3d f3 10 bd 07 d1 c8 bc
       0.016601838 -0.011247914 -0.03538822 -0.024513735
0000c0 4e 99 7d bc 51 97 32 3d 6c ea 2f bd d0 8a a7 3b
       -0.015478445 0.043601338 -0.04294817 0.0051129833
0000d0 55 a4 d2 bb 3d 12 0a 3d 47 3e 8f bc 3c 1a 5f 3c
       -0.0064282813 0.0337088 -0.01748575 0.013617095
0000e0 86 7c 88 3c fd 41 0a bd ca a0 db 3c e0 ed e5 bc
       0.01666094 -0.033754338 0.026810069 -0.02806753
0000f0 ef f6 bc 3b 40 86 1f bd 15 64 13 3d 4f e0 2f bd
       0.0057667415 -0.03894639 0.035984118 -0.042938527
000100 1c 77 95 3c 32 1f f7 bc 4a 71 ce 3c 8e dc f7 3c
       0.018245272 -0.030166242 0.025200505 0.030256536
000110 c8 d1 db 3c 07 4a 2e 3b 18 72 cd bc 15 d9 1a 3d
       0.02683343 0.0026594417 -0.025078818 0.03780468
000120 f1 ad 2e bc 60 dc 19 bd 6a 04 cc 3c 6a 81 0a bd
       -0.010661588 -0.03756368 0.024904449 -0.033814825
000130 e1 29 23 3d 5d b2 2b bd 8f f3 20 bd f0 9f 87 3c
       0.03983486 -0.041918147 -0.039294776 0.016555756
000140 38 79 c5 bc 40 49 ef 3a f4 ab 1d 3c 89 32 3e bc
       -0.024105653 0.0018256083 0.009623516 -0.011608728
000150 e1 7f 18 bd 50 89 09 bc fd 4a 0e 3c 42 e6 9a 3c
       -0.03723133 -0.008394554 0.008684871 0.018908624
000160 99 c6 f0 3c df 6d 0f bd 1f 83 12 bd 04 be 24 bd
       0.029391574 -0.03501689 -0.035769578 -0.040220276
000170 e0 e3 46 bd 29 09 ec bc 2e 50 f3 bb 82 83 31 3b
       -0.048557162 -0.028812962 -0.0074253296 0.0027086441
000180 65 6f 27 bd 29 b7 d1 bc 2d 3f b5 bc 2e 9b 93 3c
       -0.04087772 -0.025600033 -0.022124851 0.018018331
000190 10 19 1f 3c ba 20 b4 3c e3 85 93 3c c1 31 42 3b
       0.009710565 0.021988261 0.018008178 0.0029631706
0001a0 40 84 dd 3b 22 5e a1 3c 61 32 c6 bc fb 74 e9 3c
       0.00676015 0.019698206 -0.024193944 0.028498163
0001b0 86 14 ef bc 34 9e 1b bd 8e 7b 39 3b e1 31 42 bd
       -0.029184591 -0.03799267 0.0028302404 -0.04741085
0001c0 35 f7 20 bd 0d c5 1c bd 0e 62 ff 3c a9 b8 0b bd
       -0.039298255 -0.03827386 0.031174686 -0.034111653
0001d0 00 ed 3c bd 7b dd af 3c c1 ff 1f 3d d6 fe 8d 3c
       -0.04612446 0.021467915 0.039062265 0.01733343
0001e0 b0 8b f4 bb 7f 2e d4 3c d8 13 0a 3c df 6d 34 3d
       -0.007462941 0.025901077 0.008427583 0.044050094
0001f0 fc 7c 4e 3b f9 27 86 3c 05 38 13 bd 4b d4 13 bd
       0.0031507602 0.016376482 -0.035942096 -0.03609113
000200 d5 00 9b bc 85 09 b1 bc 40 8d 33 bd a7 6f be bc
       -0.018921295 -0.021610985 -0.04383588 -0.0232466
000210 a0 7f 2e 3b 8c ad ef 3c c8 45 c6 bc ae 42 1c bd
       0.0026626363 0.029257558 -0.024203196 -0.03814953
000220 80 bc 81 bb 5d 99 d5 3c 29 46 e2 bc 31 69 f4 bc
       -0.0039592385 0.026074106 -0.027621346 -0.029835315
000230 1f 64 53 bc 4e ab e2 bc d4 e6 a8 bc 4c 50 14 bc
       -0.012902289 -0.027669575 -0.02061788 -0.009052347
000240 6f 6d 8b bc ae b8 ef bc f2 2c 2a bd e9 65 60 bc
       -0.017019955 -0.029262867 -0.04154677 -0.013696172
000250 1c 8e a1 bb ae 3b b9 3c 40 94 ac bb 80 1d 91 b9
       -0.004930271 0.022611465 -0.005266696 -0.00027678534
000260 a9 48 78 ba 33 dc bc 3b 56 4b 4f 3c 1a 4a 8f 3b
       -0.00094712764 0.0057635545 0.012652239 0.0043728473
000270 8f 28 ce 3c c0 2b 8a bb 62 1a 2f bd d0 4c cd bb
       0.025165824 -0.004216641 -0.04274977 -0.0062652603
000280 46 d0 58 bd 31 d8 de bc a1 d9 c8 3b 7a 10 c1 bc
       -0.052933 -0.027202697 0.006129459 -0.023567427
000290 5a e0 de 3c 1a 12 43 bc 98 05 94 bb a1 35 26 bc
       0.027206589 -0.011906171 -0.0045172684 -0.010144622
0002a0 08 51 60 bc 58 4b 5a 3c c6 6c fd ba 98 d2 2a 3c
       -0.013691194 0.013323627 -0.0019334785 0.010426186
0002b0 f5 24 12 bd ca 33 ee ba 11 c4 2a bb cc 25 c4 bc
       -0.035679776 -0.0018173393 -0.0026056806 -0.023943804
0002c0 67 5d bf b8 45 e8 df 3c da 77 e2 3c 70 42 87 3c
       -9.124987e-05 0.027332434 0.02764504 0.016511172
0002d0 bf 5b 45 bc 60 f7 e9 b9 d8 db f3 3b fc 6f 5b bc
       -0.0120458 -0.00044625532 0.007441979 -0.013393398
0002e0 cb be 09 3d e8 c4 92 3c 3e 0b 0c 3d 80 f5 13 bc
       0.03362922 0.017916158 0.03419041 -0.0090307
0002f0 70 61 19 3c b3 aa 21 bd aa ac e9 3c 70 13 60 3b
       0.00936161 -0.039469432 0.028524715 0.0034191273
000300 92 47 9f bc 5c 5f 16 3c 04 f8 1c 3b b6 c9 0d 3d
       -0.019443307 0.009178009 0.002395154 0.034616195
000310 c0 39 a0 bb 84 db 09 bc 88 5a 0c bc ff 5a df bc
       -0.004889697 -0.008414153 -0.008566506 -0.02726507
000320 fb b6 e3 3c b7 41 2a 3d 96 3c f9 bc 95 a5 86 bb
       0.027797213 0.041566577 -0.030424397 -0.0041090944
000330 27 27 2f bd 8d e9 0f bd c8 24 f8 3b 00 75 3b 3c
       -0.042761948 -0.03513484 0.007572744 0.011441469
000340 d5 5d e7 3b 24 63 00 bd 30 05 25 bd f0 bf 15 3d
       0.007060746 -0.031344548 -0.04028815 0.03656
000350 79 4e 02 3d 78 e1 8b 3b 5d 34 8d 3c 9d df e8 bc
       0.03181312 0.0042688213 0.017236883 -0.02842694
000360 e1 8b 0a bd fd 15 38 bc cb 36 82 bc de 73 14 bc
       -0.033824805 -0.011235711 -0.015895268 -0.009060828
000370 bc 27 39 3c ba 05 9c 3c 78 e3 c2 3c a5 9f 07 3d
       0.011300977 0.0190457 0.023790106 0.033111233
000380 d2 15 80 bc 9f df 07 3d 5d 54 3a bd 56 7c 92 3c
       -0.015635405 0.033172246 -0.04549061 0.017881554
000390 06 2d b9 bc 30 b7 e0 bc 60 a4 a8 bc 35 9a 19 bd
       -0.022604477 -0.0274311 -0.020586193 -0.03750058
0003a0 de ac f3 3c 68 10 9e bb b8 1b 2c bb bb 3e 58 bb
       0.029745515 -0.004823733 -0.002626164 -0.0032996375
0003b0 ec 8e 12 3d 3a 10 26 bd 4c 56 ad bc e4 66 4a bc
       0.035780832 -0.04054282 -0.021159314 -0.012353633
0003c0 91 22 2d 3d ef 13 29 bd 2a c5 51 bb 31 5d a7 bc
       0.042269293 -0.041278776 -0.0032008388 -0.02043018
0003d0 75 c1 9b 3c cd 4b 16 bd 57 f5 d5 bc 49 43 0c bd
       0.019013146 -0.036693383 -0.026117964 -0.034243856
0003e0 2a ed 7c 3c 4f 15 1b 3c be 1e 85 3c a6 1c 52 3c
       0.015437404 0.00946553 0.01625001 0.012824213
0003f0 8c 87 c6 3b f0 9f 47 bb 36 62 b1 bc 47 db c4 bc
       0.006058639 -0.003046032 -0.021653276 -0.02403034

model.2.bias f4 [256]
000000 01 e3 d8 3c fb f6 12 3d dd 7f 94 bd 4f 62 15 3d
       0.026475431 0.03588007 -0.072509505 0.036470708
000010 a5 ac 2f bd eb 3a 0e 3c e9 ce 29 3e 47 0d 8c bd
       -0.042889256 0.008681039 0.16582836 -0.0683847
000020 60 34 28 bc ca ef fa bc d8 b2 76 bc 12 72 9f 3c
       -0.010266393 -0.030631918 -0.015057288 0.019463573
000030 aa 25 f2 3c 9d aa fb 3c 2f 21 cc bc 70 55 77 bd
       0.029558975 0.030721003 -0.024918167 -0.060384214
000040 a0 05 a6 bc 74 df 13 bd 4b 0b b4 bc 64 2e 07 3d
       -0.020266354 -0.036101773 -0.021978041 0.033003226
000050 1a 3a 0a bd 48 63 2a 3d b3 62 c2 3b 4d 7d f7 bc
       -0.033746816 0.04159859 0.005932176 -0.030211115
000060 b8 ac b5 3d 5a e3 a2 3c 6a 6a 7f bd 02 ce 75 3c
       0.08870834 0.0198838 -0.062357344 0.015002729
000070 07 5a 3d bc b6 f4 c5 3c b9 8a 94 bc 05 20 e4 bc
       -0.011557109 0.024164539 -0.018132554 -0.0278473
000080 fe f3 90 bc 08 88 ed bb e2 39 fe 3c 78 2c f5 bc
       -0.01769447 -0.007248882 0.03103346 -0.02992843
000090 12 35 b4 bc 13 c5 7b 3c e1 a2 b6 bc ec ba 73 bc
       -0.021997962 0.01536681 -0.022294464 -0.014876109
0000a0 01 56 fb bc a6 93 87 bd a2 29 1b bd 98 b6 84 bd
       -0.030680658 -0.066199586 -0.0378815 -0.064801395
0000b0 c4 e4 b9 bc d4 4a 01 3d 6a ff 13 3e bc 60 e6 39
       -0.022692092 0.031565502 0.14452901 0.0004394109
0000c0 4e 2f 6f 3b 67 13 8c bd 68 79 b4 bc 52 04 03 3e
       0.0036496702 -0.06839638 -0.022030547 0.12794617
0000d0 ac 0a 17 bc 98 45 a8 bb c3 46 44 bd df 13 76 bc
       -0.009218853 -0.0051352493 -0.047919046 -0.015019386
0000e0 00 65 cd bc a0 13 c3 bc ca a7 fe 3c 9c 8c 1c bd
       -0.025072575 -0.023813069 0.031085867 -0.038220033
0000f0 09 0c d6 3b ba d8 2f bc d6 84 3b bc 82 f3 6d 3c
       0.0065321964 -0.010732824 -0.011445245 0.014523389
000100 58 f5 1b 3c f5 08 f0 3d 72 ed fe 3c c7 25 88 3b
       0.009518944 0.117204584 0.031119082 0.004154894
000110 ec 11 b1 bc 66 99 92 bd eb 92 ea 3c 29 04 87 3c
       -0.021614991 -0.07158165 0.02863451 0.016481476
000120 24 11 89 bd f7 ae 2c bd 1a 80 a4 3d 58 d9 99 bc
       -0.066927224 -0.042159047 0.08032246 -0.018780395
000130 36 a7 31 3b 1b 62 8c 3d ad bb 50 bc ef 57 91 3c
       0.0027107722 0.0685465 -0.012740058 0.017742125
000140 60 13 04 bd b8 68 9a 3b 83 49 50 bc 1c a7 0a bb
       -0.03224504 0.0047121905 -0.012712839 -0.0021156734
000150 f8 47 31 bc 8c 3e b2 bc 10 45 15 3e ab db c5 3d
       -0.010820381 -0.02175834 0.14577127 0.09661039
000160 eb ae 2c bc 7b 34 8d bc 69 da 7b bd 84 b9 0d 3c
       -0.010539751 -0.017236939 -0.06148759 0.008650187
000170 1d 5b f9 bc 70 eb 47 bb 06 68 f2 3c 19 d5 b0 bc
       -0.030438954 -0.0030505322 0.029590618 -0.021585988
000180 a6 b0 75 bc 4b 30 3f 3c f9 a8 ff 3c 59 cc ad bd
       -0.01499573 0.011669229 0.031208502 -0.08486242
000190 b1 a6 98 3c 88 46 28 bd b8 17 a0 bc 88 46 11 bd
       0.018634172 -0.04108289 -0.01954256 -0.035467654
0001a0 01 c6 31 bd c5 f9 d6 3a 92 3a 8b 3c 6f 54 03 3d
       -0.043401722 0.0016401341 0.016995702 0.032062944
0001b0 6b f8 2a bd 80 a3 c7 3a 70 9f 30 bb bb f3 47 bd
       -0.041740816 0.0015231222 -0.00269505 -0.048816424
0001c0 b3 77 c7 3c 94 04 cc 3d ed 5b 87 bc aa c3 45 bd
       0.02434907 0.09961811 -0.016523326 -0.048282303
0001d0 53 ff c9 bb 12 d9 2d bd cc 5b 34 bc dd 37 c4 bb
       -0.00616447 -0.042443343 -0.011008214 -0.0059881047
0001e0 c8 eb 2a bd e7 45 6b bd 6f c6 1d bd 27 6e 52 3b
       -0.041728765 -0.05743971 -0.03851932 0.0032109113
0001f0 40 6c 96 3b 90 9c 11 bb 15 f1 14 bd 25 b3 e7 bc
       0.004590541 -0.0022218563 -0.036362726 -0.028283665
000200 14 fe ef 3b d2 d5 52 bd 1a 6d f7 bc 40 34 0d 3e
       0.0073239896 -0.051473446 -0.03020339 0.13789463
000210 ce f5 04 bd 51 a1 12 bd 31 6e 54 bd cf 0a a0 bb
       -0.03246098 -0.035798375 -0.0518629 -0.004884101
000220 66 d0 74 3c d4 58 86 ba 17 60 1c bd 9b b7 95 ba
       0.014942264 -0.0010249862 -0.038177576 -0.0011422517
000230 04 4d 12 3d ef 93 8e bd 56 39 13 bc a6 ca 9b bc
       0.03571798 -0.0696181 -0.008985838 -0.019017529
000240 97 f3 2b bc a3 64 31 3d db 9c 9d bb a0 d9 11 bd
       -0.010495088 0.043308865 -0.0048099584 -0.035607934
000250 ba ca 81 bc 68 38 6d bd 30 9c 07 bd fd 7c 32 3d
       -0.015843738 -0.05791512 -0.033107936 0.04357623
000260 83 d0 d1 3c c5 88 39 bd 5f 79 1d 3d ce 4f cc bc
       0.025612121 -0.04529645 0.038445827 -0.024940398
000270 b4 f2 2c bd b2 b4 48 bc 1a 4c dd 39 33 94 e3 bc
       -0.042223647 -0.012250112 0.00042209105 -0.027780628
000280 65 a8 ea 3b b0 3f f4 3b ba 93 fd 3c c7 86 93 bd
       0.0071611875 0.007453881 0.03095423 -0.07203441
000290 d4 38 ff 3c aa 1e ac bc eb 7c 3e bd 48 01 84 3b
       0.031155027 -0.021010716 -0.04650585 0.004028473
0002a0 75 27 e7 bc eb e0 8a bd 08 7c 19 3c 68 c0 99 bb
       -0.028217057 -0.06781181 0.00936795 -0.004692126
0002b0 7b 50 c2 bc 4b 78 9c bc 42 45 0b bd a5 35 07 3a
       -0.023720017 -0.019100329 -0.034001596 0.0005157835
0002c0 b4 9c 2f 3c 20 25 ef bb 83 24 07 3c 00 28 bc 3c
       0.010718513 -0.007298127 0.008248451 0.022968292
0002d0 db 25 65 3e 36 39 29 bd f3 9c 91 3c 20 c2 f5 3c
       0.22377722 -0.041314326 0.017775035 0.029999793
0002e0 df eb 43 bd 98 d8 90 3b 43 87 5e 3e b7 36 7e bc
       -0.047832366 0.0044203512 0.21731286 -0.015515975
0002f0 cd fc 6e 3e 77 70 25 bd ae 0c 02 bc 3a 99 1a 3d
       0.23338623 -0.040390458 -0.007937593 0.037743784
000300 3b e6 61 3d ce f6 b1 3c ab 24 3e bd fa 94 99 3c
       0.055151206 0.021724131 -0.046421688 0.018747795
000310 5b 76 b5 3d 74 9d a8 3d da 67 a1 3c 90 e1 07 bc
       0.08860465 0.08233157 0.01970284 -0.008293524
000320 d4 4b e9 3d 5d 6a 3c bd 52 70 e5 3c a0 bb 33 bb
       0.11391416 -0.045999873 0.02800766 -0.0027425066
000330 db fa 9e bd 38 c0 d6 bc c4 b9 9d 3b 65 bb 9a 3c
       -0.07762691 -0.026214704 0.0048134048 0.018888185
000340 5d 48 6b 3c e4 87 3b bc e1 0d 30 bd c9 ee 2c bd
       0.0143605145 -0.011445973 -0.042981986 -0.04221991
000350 97 66 ee bc a2 0e ae 3c 7f 18 24 bc 0b 8f 90 3d
       -0.029101653 0.021247212 -0.010015606 0.07058533
000360 a0 34 69 bc 34 50 1b bd d9 ea 8d ba d7 76 be 3b
       -0.014233738 -0.037918285 -0.0010827436 0.0058125067
000370 bf 9e 2d 3c 6a 26 6d bd 8f a6 bd bc 53 c1 c8 bc
       0.01059693 -0.057897963 -0.02315071 -0.024506247
000380 e1 7d 10 3d a3 60 59 bc fc e8 0e 3c f3 e0 37 bd
       0.035276297 -0.013267669 0.00872254 -0.044892263
000390 18 7a ee bc 3a 29 9a 3d 5e 2b 8a 3b 1e 32 ad 3c
       -0.029110953 0.075273946 0.0042165956 0.021142062
0003a0 6c 60 37 bc 7f af af bb 36 d1 95 bc 9d c0 51 3c
       -0.011192422 -0.005361497 -0.018288236 0.01280227
0003b0 76 bd 9b bb 32 ec 9f 3c d0 a4 4c bd 9a 0d 89 ba
       -0.00475281 0.019521806 -0.049961865 -0.0010456324
0003c0 65 6d 4b 3e 8c bf 1c 3b 9d 14 3e bd 5c 50 88 bd
       0.1986595 0.0023917882 -0.046406377 -0.06655952
0003d0 d2 20 f6 3c b2 d0 8e bd 50 6e 20 bd af b1 b0 3b
       0.030044947 -0.06973399 -0.039167702 0.0053922753
0003e0 4c 72 1c 3b 42 44 9e 3c 43 3a c1 bc 8e ff 8d bc
       0.0023871837 0.019319657 -0.023587352 -0.017333772
0003f0 34 b5 b9 3c 41 fe fe 3d e5 69 23 3e ee b5 00 3d
       0.022669412 0.12450839 0.15958364 0.0314235

model.4.weight f4 [128, 256]
000000 8a 36 ec 3c 86 20 2d 3d 1b 51 00 3d 2e 34 c0 3b
       0.0288346 0.042267345 0.03132735 0.0058655953
000010 f8 c4 3a 3d 5a 2c 14 3b e8 44 9c 3e 13 c9 47 bd
       0.045598 0.0022609443 0.3052132 -0.048775744
000020 7d e9 8c ba 71 5e 61 3c f9 2b cc bc 5a d6 5a 3c
       -0.0010750737 0.013755427 -0.024923312 0.013356769
000030 12 b1 36 3d 85 2e 62 3c 81 6a 2f 3d be 71 62 bd
       0.04460246 0.013805036 0.04282618 -0.055284254
000040 24 05 f4 3c 88 9d 05 bc 96 c2 8c 3d 7f b5 bb 3a
       0.029787607 -0.008155234 0.06873052 0.0014321058
000050 65 ef 9a bc 08 a2 3e bd bf ed 58 bc 3b 0c 10 3d
       -0.01891298 -0.046541244 -0.013240277 0.035167914
000060 6d 3e 44 3e 0c 92 63 bd 26 37 2c bd 51 e3 19 3d
       0.19164439 -0.055559203 -0.04204478 0.0375703
000070 db cd 81 be 8c 12 f3 ba eb 5f cf 3c 5f 18 92 3c
       -0.25352368 -0.0018544956 0.025314292 0.017833887
000080 88 dc 90 bc 1c cf 3c bd 60 49 01 3b da 18 bd bc
       -0.017683282 -0.046095952 0.0019727573 -0.02308314
000090 4a e0 26 bd 13 14 78 3a 3a fc 92 bc d0 03 01 3d
       -0.040741242 0.00094634405 -0.017942537 0.031497777
0000a0 cc e5 8a bc ae de 5b bc 88 81 c4 3c c2 de 13 3d
       -0.016955279 -0.01341979 0.023987547 0.03610111
0000b0 e3 76 27 3d 0f f7 f7 3c cc dc 91 3e 55 36 3c 3d
       0.040884864 0.030269174 0.28488767 0.045950253
0000c0 3b 5d bd 3c 8e 48 d0 3c 20 53 3a bb 7a af 81 3e
       0.023115745 0.025425222 -0.0028430894 0.2532919
0000d0 7c ae ba bc 2e 19 36 bd 05 76 f6 bc 68 d7 79 3d
       -0.022788279 -0.044457607 -0.030085573 0.060996443
0000e0 dd 96 7a bc c5 9d 17 3d f8 90 e3 3c 9a 84 06 bd
       -0.015294758 0.037015695 0.027779087 -0.032841302
0000f0 57 8d ab bc 8e d6 54 3d 7a 20 c1 3c 73 02 0c 3d
       -0.02094142 0.051962428 0.023575056 0.034182023
000100 c8 8c 53 3c c9 07 cf 3e 48 b6 01 3c 00 7e c2 3c
       0.012911983 0.40435627 0.007916994 0.023741722
000110 5f 52 28 bc a4 62 cd bc 10 6d 41 bd d6 aa 70 3c
       -0.010273545 -0.02507145 -0.04722315 0.014689168
000120 89 5d 6d bc a0 e4 8f 3a 04 33 82 3e 11 9a 2f bd
       -0.014487633 0.001097817 0.25429547 -0.04287154
000130 cf 7d 56 3d 31 b2 38 3e f0 c0 cb bc f7 65 2b 3d
       0.052366074 0.18036725 -0.024872273 0.041845288
000140 9c d8 50 bd ff 1a 94 bc 57 1c 05 3d ff a1 a7 bb
       -0.050987825 -0.018079279 0.03249773 -0.005115747
000150 40 a8 3f 3d 93 95 d6 bb 9e 5b 8f 3e 92 99 55 3e
       0.046791315 -0.0065485924 0.27999586 0.20859364
000160 d2 c2 98 3b f0 57 17 3b 42 7e 8e 3d e2 55 3a bd
       0.0046618963 0.0023093186 0.069576755 -0.04549206
000170 34 5d ec 3c a0 e7 7c 3b 5c 67 33 3c c4 23 73 bc
       0.028853036 0.0038590208 0.010949936 -0.01484007
000180 02 c8 cc 3c 3c 92 87 bc bb 76 45 3d 7a bb 06 3d
       0.024997715 -0.016549222 0.048208933 0.032893635
000190 0e f8 94 bc 4f 46 f8 3c 4e 6f 8a bb 94 9f 41 3d
       -0.018184688 0.030306963 -0.0042246943 0.047271326
0001a0 5c 69 cf 3b 72 09 21 3d 97 a1 ba bc 43 02 92 bc
       0.0063296985 0.03931565 -0.02278213 -0.017823344
0001b0 00 52 fe ba 28 2f 3f bc ee 5a 5f 3d b1 ed 63 3c
       -0.00194031 -0.011668958 0.054530077 0.0139116505
0001c0 3d 08 ae bc d0 90 92 3d 99 c3 13 bd f1 e4 2d 3d
       -0.021244163 0.07156527 -0.03607521 0.042454664
0001d0 9c 4a 98 bc 2f 4f 1d bc 3b 5e 5a bb 51 6c 8f 3d
       -0.018590264 -0.009601398 -0.0033320326 0.070030816
0001e0 d3 11 ab 3c 69 23 aa 3d 60 55 6f 3c 14 d2 b1 bc
       0.020882523 0.08307535 0.014607757 -0.021706618
0001f0 ca f7 46 bd 24 78 aa bc c6 60 50 bd d8 85 63 bc
       -0.048576154 -0.02080924 -0.05087354 -0.013886891
000200 84 e8 47 3c 5c f6 c7 bc ec 83 65 3d a4 ab 34 3e
       0.012201432 -0.024409465 0.056034014 0.176436
000210 7c 44 33 3c 9b 17 a6 bc e9 e4 42 3d 50 14 76 bc
       0.010941621 -0.020274928 0.047581587 -0.015019491
000220 c3 e8 48 bd bc 20 02 bd 88 29 eb bc 78 93 87 3c
       -0.049050104 -0.0317695 -0.028706327 0.01654981
000230 45 55 38 bd 43 ba 9d 3c d2 4b d3 bc a1 79 be bc
       -0.045003194 0.019253856 -0.02579299 -0.023251357
000240 fb 29 48 3d 98 3c 6c 3e 47 f9 31 bc 60 2a 41 3c
       0.04886816 0.2306999 -0.010862655 0.011789888
000250 71 69 54 3d 6b 85 c3 3c 3d 27 37 3d 2a 67 23 bd
       0.05185837 0.02386733 0.044715155 -0.039893307
000260 dc e0 23 3d a9 ed a3 3a 06 af 8c 3d 60 17 27 3d
       0.040009364 0.0012506741 0.068693206 0.040793777
000270 7b ec 34 bd d5 df 95 bc 83 d2 f1 3c 48 41 3c bd
       -0.044170838 -0.018295208 0.029519325 -0.045960695
000280 92 df b3 3c 87 4d 82 3d 27 f2 18 bd 6f aa bd bd
       0.021957193 0.063624434 -0.03734031 -0.09261023
000290 bf c1 34 bd ec ac ed bc 10 b3 03 bd 98 b1 45 bc
       -0.044130083 -0.02901312 -0.03215319 -0.012066267
0002a0 39 c0 8b 3b 9d f9 a4 3c 19 f5 a6 3d 28 ce 6d 3c
       0.004264858 0.020138556 0.081522174 0.0145144835
0002b0 c8 5e c6 bb 64 02 9c bc 51 bd 64 3d 54 34 80 3c
       -0.0060537793 -0.019044109 0.05584461 0.015649952
0002c0 de 70 87 3d 50 61 68 3d 9f bc 67 be 65 2f 4c bd
       0.066133246 0.05673343 -0.22630547 -0.049849886
0002d0 3c 37 a4 3e 55 2b 02 3d 1a 6c 6c 3d 84 df 87 3c
       0.3207339 0.031779606 0.05772028 0.016586073
0002e0 e7 bc 69 3d 34 22 2d 3b e1 c2 a7 3e d0 3c 13 3c
       0.057064917 0.0026418092 0.32765868 0.008986667
0002f0 a4 0d 98 3e 35 80 a9 bd b8 f2 a1 3c 6a 64 e6 3b
       0.29697907 -0.08276407 0.019769058 0.0070310133
000300 29 a4 12 3e e8 57 12 3d 82 8d 09 bd d0 67 26 bc
       0.14320435 0.035728365 -0.033582218 -0.010156587
000310 f3 a8 68 bd 8f 28 32 3e cc 4b b9 3c 00 aa 43 b9
       -0.056801748 0.17398284 0.02261915 -0.00018659979
000320 8e 0d 85 3e f7 12 00 3d 2a c4 d2 bc b4 71 12 3d
       0.25986904 0.031268086 -0.025728304 0.035752967
000330 64 b1 9c bc 31 f4 72 bd a3 33 a3 bc 1b cc 3a bc
       -0.019127555 -0.05931491 -0.019922083 -0.011401202
000340 5c bc 45 3d 53 00 eb bd ce d9 e0 bc 2a 2c 37 3c
       0.048275337 -0.11474671 -0.027447607 0.011179963
000350 73 86 11 bd c7 8f 67 3d a4 ae 0a bd 93 4e 1b 3e
       -0.03552861 0.0565336 -0.033857957 0.15166692
000360 ce 7a 38 bd a2 db 3a bd fa f4 e5 bc d7 ea 31 bd
       -0.04503899 -0.045619614 -0.028070915 -0.04343685
000370 6e 28 cb bc 2d a1 e4 bc c8 9f f6 3c 69 7e e3 3c
       -0.024799552 -0.027908886 0.030105487 0.027770238
000380 8a 5e 29 bd 49 c0 d7 3c e1 71 b7 bc 13 f1 92 3d
       -0.041349925 0.026336806 -0.022393169 0.071748875
000390 70 59 2d bc d2 ad 31 3e c3 a9 f1 bc 64 29 58 bd
       -0.010580406 0.17351463 -0.029499894 -0.05277385
0003a0 f0 7d 33 3c 91 27 18 bd fc a6 b0 bd c0 74 d1 3c
       0.010955319 -0.03714711 -0.086256 0.025568366
0003b0 02 4a 4a bb dc 78 b1 3c 48 f0 23 3d b0 a4 b6 bc
       -0.0030866866 0.021664076 0.040024072 -0.022295326
0003c0 58 2d 8e 3e 82 db 3e ba b9 1f 5f 3d f9 8e a1 3d
       0.2776897 -0.0007280634 0.054473612 0.07888598
0003d0 35 bd 05 3d 06 9c bc bb 2e 72 71 3d f6 ed 33 3d
       0.032651145 -0.005755904 0.05894678 0.04392811
0003e0 10 62 96 bd 69 81 4a 3d e2 0c e7 bc e3 1f 8a 3d
       -0.07342923 0.04943982 -0.028204385 0.06744363
0003f0 4e e6 2b 3d fb 60 e2 3d d7 46 9e 3e 01 91 8b bc
       0.041967683 0.11053654 0.30913422 -0.017036917

model.4.bias f4 [128]
000000 36 2d f4 3e 9a 8a 67 3c 93 f0 4f 3c c1 c8 7e 3d
       0.47690743 0.014132166 0.012691635 0.062203173
000010 69 34 c7 3e a9 e2 00 bb 89 ba 1a bd 23 32 16 3e
       0.38907173 -0.001966635 -0.03777555 0.14667563
000020 48 be 00 3d 05 b2 78 bd ec 07 2d bd 90 ea 07 bd
       0.031431466 -0.060716648 -0.042243883 -0.03318268
000030 7a 24 38 3d a0 d2 91 3e 1a b8 34 bd fd 63 f4 3e
       0.04495666 0.28481007 -0.044120885 0.47732535
000040 b6 55 b2 bb f6 e5 78 3d 3b 41 06 bd 56 e6 1c 3c
       -0.0054423464 0.060766183 -0.032777052 0.009576401
000050 df 38 ba bd 00 75 ec 3e 8f b3 66 3d 8a d6 7e 3e
       -0.090928786 0.46183014 0.056323584 0.24886528
000060 a7 f3 06 bd 03 f5 f0 3c 00 41 8e ba 7d 17 0f 3b
       -0.03294721 0.029413706 -0.0010853112 0.0021834068
000070 80 a5 91 bb 91 72 a5 bd 72 0f 14 3d 6a fb 17 3d
       -0.004444778 -0.080784924 0.036147542 0.037105
000080 71 7d 08 3e f2 46 2e bd c6 14 8f 3b b1 b5 a5 bd
       0.13329102 -0.042548127 0.00436649 -0.080912955
000090 e3 ff 27 3e 46 39 6b bd 1f f9 4b bc 66 5d 89 bd
       0.16406207 -0.057427667 -0.012449532 -0.067072675
0000a0 c0 d8 d9 3d f1 10 00 bd 47 58 0e 3c 28 76 ee bb
       0.10637045 -0.031266157 0.008688039 -0.007277269
0000b0 9b 4f 63 bd e3 d9 a7 bc e2 ae 1f bd 6b 17 9d bc
       -0.05549584 -0.020489639 -0.03898514 -0.019176206
0000c0 a7 6a 56 bd e7 9b 8c 3e c7 85 22 3e 4e fe 16 bd
       -0.052347805 0.27462694 0.15871345 -0.036863618
0000d0 06 9c 91 bd ef 76 d2 3e cc 8c 73 3c af 5c 6f bc
       -0.07109837 0.41106364 0.014865112 -0.0146095
0000e0 a7 32 16 3d 88 77 89 bd 2c 9c 1d bc 48 7c 3e bc
       0.0366694 -0.06712252 -0.009619754 -0.011626311
0000f0 91 57 bd 3e fc d9 30 3e aa 1e fd bc e5 e1 2e bb
       0.3698087 0.17270654 -0.03089841 -0.0026684937
000100 f3 68 9d bd a2 b8 01 3c c8 31 8e 3b 55 80 65 bd
       -0.07686033 0.007917555 0.0043394305 -0.05603059
000110 c6 93 46 3d ae ed 5f bd 76 2a 1e 3e c9 3d 42 bd
       0.04848077 -0.05467003 0.15445885 -0.047422204
000120 6e 9d 39 3d 6b 43 4e bd fc b3 c1 3e 28 f0 6b bd
       0.045316152 -0.050357264 0.3783263 -0.057602078
000130 1f dd 84 bd 32 bb 38 3d 6f d3 ee 3c b7 2d a9 3e
       -0.06487488 0.0451004 0.029153554 0.3304269
000140 02 3e f2 3c 4f 5d 73 bd f4 a5 b3 bc 13 36 84 bd
       0.029570583 -0.059415158 -0.021929719 -0.06455626
000150 cc 72 b5 bd 5e 32 ab 3e a0 62 22 3c f9 2a e1 3c
       -0.088597864 0.33436865 0.009911209 0.027486311
000160 3a 6c 1a bd e1 09 16 bc a0 bc 4e 3e 44 b2 21 3e
       -0.03770087 -0.009157629 0.20189142 0.15790659
000170 8d 29 59 bd b1 36 1b bd f5 5b e8 3e cd 1d 38 bd
       -0.05301814 -0.037893955 0.45382658 -0.044950295
000180 38 be ef bc ec 12 9d 3e e6 cf 3f 3e e0 8b 68 bd
       -0.029265508 0.306785 0.1873165 -0.05677402
000190 cd 3c b0 3b 9c 4d c5 3d 6f af be bd 14 bc 3b 3d
       0.005378342 0.096339434 -0.09310805 0.045833662
0001a0 d2 40 1c 3d b8 d0 01 3e 38 b1 97 3c cc fe c3 3e
       0.038147755 0.12677276 0.018517122 0.38280332
0001b0 2c ff 3d bd e8 c3 91 3c f0 ba eb bc 8b 02 c0 bd
       -0.04638593 0.01779361 -0.028775662 -0.09375485
0001c0 c6 22 a5 bd 1a d7 8d bd 32 bc ce bb 8b 0b 47 3e
       -0.08063273 -0.06925793 -0.0063090557 0.19437997
0001d0 b3 7d f8 3d 4e e6 49 3d 8e 6c 29 bc a3 68 8a bd
       0.1213335 0.0492919 -0.010340823 -0.06758239
0001e0 97 3f fe bc d8 ed 08 bd 65 87 dd 3e b6 47 4b ba
       -0.031036181 -0.03342995 0.4326736 -0.0007754521
0001f0 94 2b 1d 3d bc 05 60 bd 05 c4 1b bd ff bc 88 bc
       0.038371637 -0.05469297 -0.038028736 -0.016691683

model.6.weight f4 [3, 128]
000000 6f dc 99 be 8f 05 b3 3b 0a 0a 10 bd be 97 a2 3c
       -0.3005099 0.005463309 -0.035165824 0.019847747
000010 09 ad 92 be 41 5e 61 bd 7a 04 4b bb b0 b2 c6 bd
       -0.2864764 -0.05502153 -0.003097801 -0.09702051
000020 c7 63 0e 3d 1a 2b 44 3d 2b 4d 41 3d 05 50 be bc
       0.034763124 0.047892667 0.047192734 -0.023231516
000030 59 41 34 bd a2 d5 e5 be a3 f8 65 3c cc dc 8c be
       -0.044007633 -0.4488955 0.01403633 -0.27512205
000040 6e 68 59 bd cb 54 a1 3d 32 ba 83 3d 55 e4 3e 3d
       -0.053078108 0.07877501 0.06431998 0.046604473
000050 0d 85 01 3d 65 49 92 be a5 a9 e2 bc 76 fc 64 be
       0.031621028 -0.2857162 -0.027668783 -0.22361931
000060 21 2b c2 3c cc 6e 42 bd f0 ea 18 bc b1 36 d1 3c
       0.023702206 -0.047468945 -0.009333357 0.025538774
000070 2b 16 95 3d 14 36 e0 3c a6 c2 55 bd c3 25 94 ba
       0.07279619 0.027369536 -0.052187584 -0.0011302758
000080 da 8a 1a be 44 a2 7b bd 9e 5f 2a bd ed 93 29 bd
       -0.1509203 -0.061434045 -0.041595094 -0.04140084
000090 a5 93 21 be 50 7d e3 bb f3 7e 35 37 9b 04 90 3c
       -0.15778978 -0.0069424286 1.0817998e-05 0.017580321
0000a0 5f 3e e4 bd cd 25 10 bd 74 52 3c bb 4b bb 05 3b
       -0.11144709 -0.0351923 -0.002873567 0.0020405825
0000b0 6a 4b ae bc 25 19 f2 3c 2d be 05 3d 85 3f 8c 3d
       -0.021276195 0.029553005 0.03265207 0.06848053
0000c0 ba 17 77 bb 87 26 30 be 3d d6 8c be ef 1a 83 3d
       -0.003770335 -0.17202197 -0.275072 0.064016216
0000d0 ef 9b 0f 3d e7 74 7e be 48 7c 67 3d 25 e2 d9 3b
       0.03506082 -0.24849282 0.05651501 0.006649273
0000e0 6d 38 27 bd 88 ae bc 3b e2 cf 1e 3f 20 42 ad bb
       -0.040825296 0.0057581104 0.62035954 -0.0052874237
0000f0 82 5d 76 be ce 4b 41 be c9 a7 ca bc d0 44 3f 3d
       -0.24059108 -0.18876573 -0.02473821 0.046696484
000100 a7 80 94 3d 49 eb b4 bd 0e cb 3e bd 48 07 36 3d
       0.07251101 -0.088339396 -0.046580367 0.044440538
000110 28 14 67 bc e7 24 50 3b aa 22 3f be f1 cc 2b 3c
       -0.014103927 0.0031760277 -0.18665567 0.010485874
000120 7a 71 84 3d d2 b1 51 3d d7 fc 30 be 07 f4 b0 3d
       0.064669564 0.051194973 -0.17283951 0.086402945
000130 28 77 46 3d b8 dc bb ba a8 0d fe bc ad 17 85 be
       0.04845348 -0.0014332747 -0.031012371 -0.25994626
000140 14 c9 40 bb 38 02 8d 3d f0 6c e3 3c 64 13 18 bc
       -0.0029416727 0.06885189 0.027761906 -0.009281967
000150 d4 22 85 3d fa e8 99 be 76 89 92 bd 6b d2 e4 bc
       0.065007836 -0.3006056 -0.07155125 -0.027932366
000160 b3 d7 39 bd 24 34 14 bd 4c 87 3d 3d eb c2 3e be
       -0.045371722 -0.036182538 0.046271607 -0.18629043
000170 c0 70 9b bc d5 c0 55 bc 38 46 8d be a7 d9 af 3d
       -0.018974662 -0.013046463 -0.27592635 0.08586436
000180 43 4f 90 3d 19 6e 89 bf 7c 89 5d be 46 72 b6 3c
       0.07046368 -1.0736724 -0.21634477 0.022271287
000190 be b8 28 3c b1 a1 40 3f b3 98 75 3c dc af 4f bd
       0.010297952 0.7524672 0.01499002 -0.050704822
0001a0 ee 02 1c 3d 77 b7 34 3f 53 cb a3 bd 4f 38 ef be
       0.03808873 0.70592445 -0.079977654 -0.46722648
0001b0 99 13 72 3d c0 e9 3e 3c e7 b7 80 3d 7b a9 93 3c
       0.05910072 0.01165241 0.062850766 0.01802515
0001c0 57 13 4e bc 4f 91 98 3c cb 3b 28 bd 1b 89 7f be
       -0.012577853 0.018623976 -0.041072648 -0.24954645
0001d0 a1 ba 1a 3f db 7f 8a bd 8b 51 14 bd 08 1d 44 bd
       0.60441023 -0.06762668 -0.036210578 -0.04787925
0001e0 8a 05 88 bd dc 28 b4 bb 00 bf 95 be 1b e2 95 bd
       -0.066416815 -0.005498035 -0.29247284 -0.07318517
0001f0 e9 17 6f 3d 02 5c 74 3d d5 b2 e9 bc cc f7 94 bd
       0.058372412 0.059658058 -0.028527657 -0.07273826
000200 d6 54 88 be 43 ae 2e bb 1c e5 ef bc 93 e1 5c bd
       -0.26627225 -0.002665416 -0.029284053 -0.05392606
000210 d4 7f 6d be 06 b3 1e bc 98 4c be 39 a1 32 3e 3e
       -0.23193294 -0.009686237 0.0003629669 0.18574001
000220 24 61 8d 3d 90 36 45 bd 46 e9 dc bc b3 1a 33 3d
       0.06903294 -0.048147738 -0.026966702 0.043726634
000230 eb cd 79 bd 69 a4 d7 be bb df 9f 3d 7d fe 8f be
       -0.060987394 -0.42117622 0.07806345 -0.28123847
000240 e5 47 a2 3d dc cc 89 bd 28 8c 05 bd c0 73 f9 3a
       0.07923869 -0.06728527 -0.032604367 0.0019031689
000250 57 1f ad 3d bb d4 8e be 74 92 00 3c c0 33 7a be
       0.08453243 -0.27896675 0.007847417 -0.24433804
000260 ea 50 37 3d 72 f8 65 3c 27 02 90 3d 9b 46 7a 3d
       0.0447549 0.014036285 0.070316605 0.06110249
000270 6a 1d 29 3d 42 82 ee ba 97 d2 02 bc 6b f8 f4 bb
       0.041287817 -0.0018196779 -0.007984779 -0.007475903
000280 02 00 6e be d5 24 d2 3b c2 f2 6e 3d f2 d1 7d 3a
       -0.2324219 0.006413082 0.05833698 0.00096824684
000290 20 22 8e be 00 56 f1 3a ea 0d df 3a b0 98 a5 bc
       -0.2776041 0.0018412471 0.0017017697 -0.020214409
0002a0 96 c4 27 be c0 0a dc 3a d2 41 02 bb bb c0 4c bc
       -0.16383585 0.0016787872 -0.0019875658 -0.012497122
0002b0 77 2c 01 3d e2 9f 9e 3d 28 10 ac bc 17 08 1d bd
       0.031536546 0.07745339 -0.021003798 -0.038337793
0002c0 dc 5a a8 3d 52 66 73 be 02 96 80 be a6 72 6d 3d
       0.08220455 -0.23769501 -0.25114447 0.057970665
0002d0 e0 ad 80 3c 22 1a 6f be 2d e6 55 bd bc aa 80 3d
       0.01570791 -0.23349813 -0.052221466 0.06282565
0002e0 11 ca 12 3d 18 b2 01 3e 4f 9d 08 3f c0 46 15 3b
       0.035837237 0.12665594 0.53365034 0.0022777766
0002f0 ec dd 83 be 99 db 92 be 12 81 50 3d 7d 4a a4 bd
       -0.2575525 -0.28683165 0.05090434 -0.0802202
000300 d2 6e af bd c6 e0 3c 3d e8 38 0a bd f9 14 9a bd
       -0.08566059 0.0461128 -0.033745676 -0.075235315
000310 70 03 83 3d ae 85 9f 3d d6 cd 9e be 58 ed 58 3d
       0.0639714 0.07789169 -0.31016415 0.052960724
000320 c7 bf 28 3d dc bb eb 3c 5b 11 a8 be 5b dc c7 3d
       0.041198518 0.028776102 -0.3282574 0.09758826
000330 e6 1b 78 bc 15 f8 ee 3c 33 77 f4 bb 12 4f 72 be
       -0.01514337 0.02917103 -0.0074604987 -0.23662975
000340 67 95 ff ba be ac 30 3c cc 39 bf 3c cd ba 5d bb
       -0.0019499481 0.010783372 0.02334299 -0.0033833266
000350 6e ef 09 3d 00 98 bc be 18 48 dc 3c 06 32 cc 3c
       0.033675604 -0.36834717 0.026889846 0.024926197
000360 2d 85 01 3d be f8 d1 bc ba 6e 49 3e c1 91 73 be
       0.031621147 -0.025631305 0.19671145 -0.2378607
000370 84 15 b9 3c 40 43 c4 b9 ee d3 84 be 88 5b b5 bc
       0.022593267 -0.00037434138 -0.2594294 -0.022138372
000380 97 d4 9c bd fc db 5a bf 55 b1 a2 be f9 a9 0f 3c
       -0.07657736 -0.8549192 -0.3177592 0.008768552
000390 6e e4 37 3d 8c 7c 01 3f c0 44 fc ba 02 9f a7 3d
       0.044895582 0.5058067 -0.0019246563 0.08184625
0003a0 73 37 86 3c a5 0a 26 3f 38 d5 a9 3d de d8 08 bf
       0.016383862 0.6485999 0.082926214 -0.53455913
0003b0 e4 4b b4 3c 80 28 45 3c 7e 90 30 3c e2 8c ac bb
       0.022008844 0.012033582 0.010776637 -0.005265818
0003c0 80 31 63 bd 78 fd 7a 3d c7 39 71 3d 31 23 61 be
       -0.05546713 0.061276883 0.05889299 -0.2198608
0003d0 3f c7 dd 3e da 62 d7 bc 73 0b 34 3d 24 b1 c5 3c
       0.43316075 -0.026292253 0.04395623 0.024132319
0003e0 0e 31 a8 3d 22 04 4f 3d bd 23 6f be a8 00 24 3d
       0.082124814 0.05054105 -0.23353477 0.04003969
0003f0 e4 3f 72 bd e8 ff 65 bc 11 42 14 39 a8 ec 9c 3d
       -0.059142962 -0.014038064 0.00014138992 0.07662326

model.6.bias f4 [3]
000000 6b 36 0b bf e1 c0 cf be 18 49 b2 be
       -0.5437991 -0.40576842 -0.3482139
