2021-22/PrimerSemestre/Reinforcement/PEC2/DQN.pth (torch, 666959 bytes, 8 tensors)

model.0.weight f4 [512, 2]
0	0x3da560aa	0.08075078
1	0x3f15eb2d	0.58561975
2	0xbf22e5ab	-0.63631696
3	0x3f515f4b	0.8178603
4	0x3f209dd5	0.6274083
5	0xbe7f7442	-0.24946693
6	0xbf166c08	-0.5875859
7	0xbcf75654	-0.030192532
8	0xbb947131	-0.004530095
9	0x402bc47e	2.683868
10	0x3d8b1068	0.067902386
11	0xbee1eb61	-0.44124892
12	0xbe94bc35	-0.2904984
13	0xbe834bb6	-0.256437
14	0x3ef98c22	0.48739725
15	0x3e5fcd98	0.21855772
16	0xbf114f99	-0.5676208
17	0x3ee39cb9	0.44455507
18	0x3f2e7861	0.68152434
19	0xbf22e74c	-0.6363418
20	0xbe5856a8	-0.21126807
21	0x3f186926	0.59535444
22	0x3e2559f4	0.16147596
23	0x3f26f303	0.65214556
24	0x3f127c00	0.5722046
25	0x3ffc3f97	1.9706906
26	0x3eff2995	0.49836412
27	0xbec57204	-0.3856355
28	0x3d0c1120	0.03419602
29	0xbed86cd8	-0.4227054
30	0x3ee1b699	0.44084623
31	0x3f035381	0.5129929
32	0x3f0f7b03	0.56047076
33	0xbefd365b	-0.49455532
34	0xbdca92d6	-0.09891288
35	0xbe235541	-0.1595049
36	0xbf15acf5	-0.58467036
37	0xbf1590ac	-0.58423877
38	0x3ee5b73e	0.44866365
39	0xc0087160	-2.1319199
40	0x3ef1fec0	0.4726467
41	0x3e82f295	0.255757
42	0x3ed31d2b	0.4123319
43	0x3e81be44	0.25340474
44	0x3e9c9a4a	0.30586463
45	0x3ebc739a	0.36806947
46	0x3f090e3d	0.5353735
47	0x3fbe6c0f	1.4876727
48	0x3ec917be	0.39275926
49	0xbe530eb8	-0.20611084
50	0xbefc79ff	-0.49311826
51	0xbf2faf91	-0.6862727
52	0xbee2495a	-0.44196588
53	0x3f164218	0.586946
54	0xbdf80f48	-0.1211229
55	0x3f02a097	0.5102629
56	0x3f89152c	1.0709586
57	0x401516bb	2.3295124
58	0xbeaf67d1	-0.34258893
59	0xbeb97383	-0.3622094
60	0x3f1d816d	0.61525613
61	0xbe6ce35a	-0.23133603
62	0x3eae5acc	0.34053648
63	0xbf490566	-0.7852386
64	0x3f01bbf9	0.5067745
65	0x3f00dc8f	0.50336546
66	0x3de77631	0.1130184
67	0xbf52ac43	-0.822941
68	0xbf60aff5	-0.8776849
69	0xbfef4e87	-1.869584
70	0xbe562117	-0.2091106
71	0xc089a96e	-4.3019323
72	0xbe54b887	-0.20773517
73	0x3f212a64	0.6295531
74	0xbef87c04	-0.48532116
75	0x3e986675	0.2976567
76	0xbda01e18	-0.0781824
77	0xbdcca4a8	-0.09992343
78	0x3ea3c79e	0.31988233
79	0xbf23ecce	-0.6403321
80	0xbea4af8d	-0.32165185
81	0x3edf0b50	0.43563318
82	0xbeb8f924	-0.3612758
83	0x3f0ca9ce	0.549466
84	0x3c2fb040	0.010723174
85	0x3eae8bfe	0.3409118
86	0xbe5bfc76	-0.21483025
87	0xbe07bf4c	-0.13256568
88	0xbbdabb39	-0.0066751507
89	0x40474f2c	3.1142073
90	0xbe8e9d5f	-0.2785444
91	0xbd16b29d	-0.036791433
92	0x3eadbe65	0.33934322
93	0x3e75ad22	0.23991826
94	0x3e496e26	0.19670925
95	0xc001e9b6	-2.0298896
96	0x3eacf71a	0.33782274
97	0xbff6d924	-1.9285016
98	0xbe5ee71e	-0.21767852
99	0xbdfdfdf5	-0.12401954
100	0x3dbf118f	0.09329521
101	0x3e75032c	0.23926991
102	0x3f113083	0.5671465
103	0x3dac8450	0.08423674
104	0x3e60c284	0.21949202
105	0xbea0eea6	-0.31432074
106	0xbab36a02	-0.0013688209
107	0x3ddc3fea	0.10754378
108	0x3cf2fb28	0.029660776
109	0xbdb14714	-0.08656135
110	0xbe78f4e6	-0.24312171
111	0xbcdc13fe	-0.026865002
112	0xbe642f84	-0.22283751
113	0x40290693	2.6410263
114	0x3e722986	0.23648652
115	0x3f8a0eea	1.0785801
116	0xbe2cd150	-0.16876721
117	0x3e64df48	0.223508
118	0xbbb55a85	-0.0055344724
119	0x3f8256b0	1.0182705
120	0xbd72cc31	-0.059276763
121	0x3f2fb095	0.6862882
122	0xbeb9ae2b	-0.36265692
123	0x3f071c45	0.5277751
124	0x3f0ee3f2	0.55816567
125	0x40498d24	3.1492395
126	0x3ef577ca	0.47942954
127	0xbdd700de	-0.10498212
128	0xbdc8bf9c	-0.098021716
129	0xbe4242fa	-0.18970862
130	0xbd9ca163	-0.076479696
131	0x3fb5cf1a	1.4203827
132	0x3f151612	0.582368
133	0x3f38c512	0.72175705
134	0x3e8db29f	0.2767534
135	0xbd897f06	-0.06713681
136	0x3d5eeb89	0.054423843
137	0x3d90eac1	0.07076026
138	0xbeb7aa01	-0.3587189
139	0xbf25ecdb	-0.6481454
140	0x3e719336	0.23591313
141	0x3cf0c592	0.029391084
142	0x3ef947e1	0.48687652
143	0x3f91fcfa	1.1405327
144	0xbdaa2277	-0.08307355
145	0x404da6ff	3.2133176
146	0x3f33a00d	0.70166093
147	0x3f2425a3	0.6411993
148	0x3f2b14ed	0.66828805
149	0x3e2dc4f8	0.16969669
150	0xbd6d8690	-0.057989657
151	0xbf2b162f	-0.66830724
152	0x3e381996	0.1797851
153	0x3e271aee	0.16318867
154	0xbec40e8c	-0.38292348
155	0x3ebc88ad	0.36823025
156	0x3d88cbc8	0.06679493
157	0xbe25d6c8	-0.16195214
158	0xbecd6e1b	-0.40123066
159	0xbe5d3bc2	-0.21604827
160	0xbf27b049	-0.65503365
161	0xbe8731f5	-0.26405302
162	0xbef5bc00	-0.47994995
163	0xbf9e4573	-1.2364944
164	0x3c4c8780	0.012483478
165	0xbed71a89	-0.42012432
166	0xbe40cdfc	-0.18828577
167	0xbec0c4a7	-0.37650034
168	0x3ec94910	0.39313555
169	0xbf0fee3d	-0.562229
170	0xbf03933e	-0.5139655
171	0xc058219c	-3.3770514
172	0xbedbb16d	-0.42908803
173	0x3eeefbc2	0.4667645
174	0xbd7a46e4	-0.061102763
175	0xc097527d	-4.7288194
176	0x3eb2e044	0.34936726
177	0x3f0d64d1	0.5523196
178	0xbdb3428d	-0.08752928
179	0x3ebd05b1	0.36918405
180	0xbe7da412	-0.24769619
181	0x3f346f19	0.7048202
182	0xbe9ee7c8	-0.3103621
183	0xc040d698	-3.0130978
184	0xbe84f87a	-0.25970823
185	0x4018a6d7	2.385183
186	0xbef25391	-0.4732938
187	0xbe9afb13	-0.3026968
188	0x3deaff10	0.114744306
189	0xbf2b3c76	-0.6688913
190	0x3f017271	0.5056525
191	0xbca6ba02	-0.020352367
192	0xbee25173	-0.44202766
193	0xc016b5d6	-2.3548484
194	0xbd7b7a29	-0.061395798
195	0x3e89cf2f	0.2691588
196	0x3e6cbc91	0.23118807
197	0x3f1484a2	0.5801488
198	0xbe7235e9	-0.23653378
199	0x3e75ad94	0.23991996
200	0x3f008d81	0.5021592
201	0x3e874b64	0.26424706
202	0x3f8c8d83	1.0980686
203	0x40095a30	2.1461296
204	0x3e864d4a	0.26230842
205	0x3d788e50	0.060682595
206	0x3f31b261	0.6941281
207	0xbeb84066	-0.35986632
208	0xbe874f90	-0.2642789
209	0x3fe06776	1.7531574
210	0x3e97a8b6	0.29620904
211	0x3e087e80	0.13329506
212	0x3ea22882	0.3167153
213	0xbdd7b448	-0.10532433
214	0xbe368ae8	-0.17826426
215	0xbe4260b1	-0.18982197
216	0xbec0f5c4	-0.37687504
217	0x3d86d845	0.06584219
218	0x3dd70938	0.10499805
219	0x3f232a19	0.6373611
220	0x3edbfb59	0.429652
221	0x3e8d5d7e	0.2761039
222	0x3e2ce90e	0.16885778
223	0x3f8b35d0	1.0875797
224	0x3ec022bb	0.37526497
225	0x406e1628	3.7201023
226	0xbe88a67e	-0.26689523
227	0xbeda0d2b	-0.4258817
228	0x3f0fd977	0.561912
229	0xbea92cb6	-0.33041924
230	0x3de2b820	0.11070275
231	0xbe9ad2a6	-0.30238837
232	0xbe04c9a2	-0.12967542
233	0xbdb4234c	-0.08795795
234	0x3e3a7089	0.18206991
235	0x3f44ca95	0.76871616
236	0xbdde53e4	-0.108558446
237	0x40431802	3.0483403
238	0x3f726e25	0.9469932
239	0x3e2e07ec	0.1699521
240	0x3f2550a7	0.6457619
241	0xbe8d0123	-0.2753993
242	0x3f3aa33f	0.72905344
243	0xbf3ac424	-0.72955537
244	0x3f2d1bf9	0.6762081
245	0x3efdadbe	0.49546617
246	0xbd2cc270	-0.042177618
247	0x3e1afec8	0.15136254
248	0x3ebcd856	0.368838
249	0xbfb3e5f5	-1.4054552
250	0x3d81da30	0.06340444
251	0x3f190aed	0.59782296
252	0xbe1751f6	-0.1477736
253	0xbef44ce4	-0.47714913
254	0x3eebd0d6	0.46057767
255	0x3ed99072	0.42493016

model.0.bias f4 [512]
0	0xbcd7e7cb	-0.026355645
1	0xbe516b83	-0.20451169
2	0xbf1fee07	-0.62472576
3	0x3ea7d037	0.32776043
4	0xb9b9ee7c	-0.00035463634
5	0xbf03bb89	-0.5145803
6	0xbf22135b	-0.63310784
7	0xbecc7eb4	-0.39940417
8	0xbf2f67c0	-0.68517685
9	0xbed2bfc8	-0.41161942
10	0x3e8d4496	0.2759139
11	0xbde49640	-0.111614704
12	0x3e80861e	0.25102323
13	0x3f11abc2	0.56902707
14	0xbd926748	-0.071486056
15	0x3e354a2a	0.17704073
16	0xbed0a259	-0.4074886
17	0xbe39a04b	-0.18127553
18	0xbf3b93f9	-0.73272663
19	0x3e512cb0	0.20427203
20	0x3ede79ea	0.43452388
21	0x3ebd4b76	0.36971635
22	0x3ed127bf	0.40850636
23	0x3e3fbcb4	0.18724328
24	0xbe8f9016	-0.28039616
25	0xbf2203d4	-0.6328709
26	0x3dbcadbf	0.09212827
27	0xbe9c1c45	-0.30490318
28	0x3e101d79	0.14073743
29	0xbee8dcc3	-0.45480928
30	0xbecdf1d9	-0.40223578
31	0xbde40b53	-0.111349724
32	0x3ef9caf1	0.48787645
33	0x3e442227	0.19153653
34	0xbec21f62	-0.37914568
35	0xbe34a459	-0.17640819
36	0x3e943952	0.28949982
37	0x3e706f40	0.23479939
38	0xbf31795a	-0.6932579
39	0xbec4d2ed	-0.38442174
40	0x3efb4c92	0.49081856
41	0x3ef669d9	0.4812763
42	0xbd8be2c0	-0.068303585
43	0xbe929d92	-0.28635842
44	0x3bd8fb8a	0.0066217827
45	0xbeac197a	-0.33613187
46	0x3dd7267b	0.105053864
47	0x3e24ead3	0.16105203
48	0x3e2ae7f6	0.16690049
49	0xbe9026f8	-0.2815473
50	0xbd76ddbf	-0.060270067
51	0xbf242d41	-0.6413155
52	0xbf0842ba	-0.53226817
53	0xbc3e136c	-0.01160131
54	0xbc66a2e9	-0.014076927
55	0x3eee3623	0.46525678
56	0xbdedb3ce	-0.11606561
57	0x3e690956	0.22757468
58	0xbe9c8b66	-0.30575103
59	0x3ba32eb6	0.0049799336
60	0x3e0732a2	0.13202909
61	0x3e42af4a	0.1901218
62	0x3dd998af	0.10624825
63	0x3f1af2ed	0.60526925
64	0xbe1e122b	-0.15436618
65	0xbc1dcd12	-0.009631412
66	0x3f0cb412	0.54962265
67	0x3ebb6b4e	0.36605304
68	0x3f0cb485	0.5496295
69	0xbefdbbfa	-0.49557477
70	0x3edce8fe	0.4314651
71	0x3eea7412	0.4579168
72	0xbe080b92	-0.13285664
73	0xbf12d736	-0.57359636
74	0xbf0fc01d	-0.56152517
75	0xbf094b7d	-0.5363081
76	0x3ee1e0f6	0.44116944
77	0x3df6dcb4	0.120538145
78	0xbe654dba	-0.22392932
79	0xbf252fc1	-0.6452599
80	0xbe3a973a	-0.18221751
81	0xbf25ff08	-0.6484227
82	0xbee96ccc	-0.45590818
83	0xbe85cc33	-0.26132354
84	0x3f098680	0.53720856
85	0xbee418fd	-0.44550315
86	0xbf30b9ee	-0.69033706
87	0xbd9b9b94	-0.075980335
88	0x3ea0125b	0.31264004
89	0x3e336b84	0.17521483
90	0x3eb3e45b	0.3513516
91	0xbe6b54e1	-0.22981597
92	0xbe0ac390	-0.13551164
93	0x3e7399a7	0.23789082
94	0xbe51fd60	-0.20506811
95	0xbe849586	-0.25895327
96	0xbe0a57fc	-0.13510126
97	0xbd9dbbde	-0.077018484
98	0x3f026884	0.5094073
99	0xbeaaa274	-0.33327067
100	0xbf198ed2	-0.5998355
101	0xbe2c023c	-0.16797727
102	0xbeec6ced	-0.46176854
103	0xbec002df	-0.3750219
104	0xbe58e4ba	-0.21181002
105	0xbe9811d2	-0.29701096
106	0xbf1f07f0	-0.62121487
107	0xbe751d26	-0.239369
108	0x3e3d1e1c	0.18468517
109	0xbe6f9e0a	-0.23400131
110	0x3f095dff	0.5365905
111	0x3e2b1092	0.1670554
112	0xbce85b5e	-0.02836388
113	0x3ecf941e	0.40542692
114	0xbebc8d2a	-0.3682645
115	0xbf10484a	-0.56360304
116	0xbe3f03a6	-0.18653736
117	0x3f1914bc	0.59797263
118	0xbd436753	-0.04770596
119	0x3e145042	0.14483741
120	0xbeb0578d	-0.34441796
121	0xbce16c47	-0.027517451
122	0xbf0d74fe	-0.5525664
123	0xbe86d89f	-0.26337144
124	0x3e35f59d	0.17769475
125	0xbe1b6a88	-0.15177357
126	0x3eb0872f	0.34478137
127	0xbf2cf986	-0.6756824
128	0xbd9939c1	-0.07481719
129	0x3f0e5eef	0.5561361
130	0x3f0db004	0.55346704
131	0x3e5659c0	0.20932674
132	0xbf112cf9	-0.5670925
133	0x3f0ad635	0.54233104
134	0xbe1d9866	-0.15390167
135	0xbf10f3da	-0.5662209
136	0xbbdd74ba	-0.0067582997
137	0xbef3382a	-0.47503787
138	0xbd9e18f8	-0.07719606
139	0xbec06abf	-0.3758144
140	0x3d9f54c4	0.0777984
141	0xbdb07eba	-0.08617921
142	0x3eee8a82	0.46590048
143	0xbe9d661b	-0.30741963
144	0xbf2dbe4c	-0.67868495
145	0x3ecc16ae	0.39861053
146	0x3d9959a3	0.074878
147	0xbd9dee74	-0.07711497
148	0xbf13937d	-0.57646924
149	0xbeb47263	-0.3524352
150	0xbecf0bdf	-0.40438744
151	0xbeee14ba	-0.46500188
152	0xbefec1af	-0.49757144
153	0x3eda00c3	0.42578706
154	0x3f07466e	0.5284184
155	0xbeaf39a2	-0.34223658
156	0xbe4c88c4	-0.19974047
157	0xbea6c3bf	-0.32571217
158	0x3ef33d0d	0.47507516
159	0x3e45d368	0.19318926
160	0x3f036ddb	0.513395
161	0x3eeb8d5d	0.4600629
162	0x3e2c3fec	0.1682126
163	0x3ea5fcba	0.32419378
164	0x3e78d66f	0.2430055
165	0xbed259d9	-0.41084173
166	0xbe91a793	-0.2844816
167	0xbe809ead	-0.2512106
168	0x3d285885	0.041100044
169	0x3e16ae91	0.1471503
170	0xbd274ef7	-0.04084679
171	0x3d2cbc79	0.04217193
172	0xbf3209c7	-0.6954617
173	0x3e394d2f	0.1809585
174	0xbdee90ed	-0.11648736
175	0xbd8f4447	-0.06995445
176	0x3ef0e0b6	0.4704644
177	0x3e3f4d5c	0.18681854
178	0xbda44478	-0.08020872
179	0x3f0d72ee	0.55253494
180	0x3f19d7f7	0.6009516
181	0xbdc7d9d2	-0.09758343
182	0xbf34d39d	-0.70635396
183	0x3e7f2982	0.24918178
184	0x3ef3e9eb	0.47639403
185	0x3e463ec5	0.19359882
186	0xbe9fda7a	-0.31221372
187	0x3e2543f4	0.16139203
188	0x3e37eb2c	0.17960805
189	0xbed0b859	-0.40765646
190	0xbd910fa3	-0.070830606
191	0x3f06eb3d	0.52702695
192	0xbeff37d6	-0.49847287
193	0xbf11b287	-0.56913036
194	0x3e01b70b	0.12667482
195	0x3ef7852b	0.48343787
196	0x3ea71f7b	0.32641205
197	0xbef08166	-0.46973723
198	0xbed837f5	-0.42230192
199	0xbda38b88	-0.07985598
200	0x3e98b6bd	0.29826918
201	0xbed801b7	-0.42188808
202	0xbd76a034	-0.060211375
203	0xbf2f5304	-0.68486047
204	0x3ef6639c	0.4812287
205	0xbe89e1d8	-0.26930118
206	0xbf1e6d9e	-0.6188601
207	0xbe4c3d7a	-0.19945326
208	0x3ee691a6	0.45032996
209	0xbd84b2fd	-0.06479452
210	0x3eaa9e66	0.33323973
211	0xbd66444e	-0.056217484
212	0x3e6f648e	0.23378202
213	0x3e8e53b3	0.27798232
214	0x3f166c84	0.5875933
215	0xbf185a6f	-0.5951299
216	0x3e532fb3	0.20623665
217	0x3ef83950	0.48481226
218	0x3e9f141d	0.31070033
219	0xbea1b457	-0.315829
220	0xbeac9936	-0.3371064
221	0xbd8bd722	-0.06828143
222	0x3e94e2de	0.29079336
223	0xbe830f77	-0.25597736
224	0x3e470e33	0.1943901
225	0x3e2406e0	0.16018248
226	0xbea3d1af	-0.31995913
227	0xbebf9dc6	-0.3742506
228	0xbce4a98c	-0.027912878
229	0x3eb6ef04	0.3572923
230	0xbd993527	-0.07480841
231	0x3eb156e2	0.346366
232	0xbd2342de	-0.03985869
233	0xbf1ed680	-0.6204605
234	0xbf15169f	-0.5823764
235	0xbd2a106b	-0.041519564
236	0xbd93ac06	-0.07210545
237	0x3ed624f9	0.41825083
238	0xbf322429	-0.69586426
239	0x3e0e5b39	0.13901986
240	0xbe5dbdb4	-0.21654397
241	0x3f010be4	0.5040877
242	0xbe787507	-0.24263392
243	0xbe69a1e0	-0.22815657
244	0xbe53cc6b	-0.20683448
245	0xbf25df2c	-0.6479366
246	0x3efe9387	0.4972193
247	0x3e31d10f	0.17364906
248	0x3e3b874c	0.1831333
249	0x3d6e9c4c	0.058254525
250	0xbd1f6dc7	-0.03892305
251	0xbef5cd30	-0.48008108
252	0x3e065e38	0.13121879
253	0xbe4ee4a4	-0.20204407
254	0xbdad72ce	-0.08469163
255	0xbe0e6064	-0.13903958

model.2.weight f4 [256, 512]
0	0x3bf55bfa	0.007487771
1	0x3cdb16c9	0.026744263
2	0xbd0b7030	-0.034042537
3	0xbcfd15b2	-0.030894134
4	0xbcdbb20a	-0.026818294
5	0x3ccc8a2e	0.024968233
6	0x3bd73e18	0.0065686814
7	0xbd33ca0b	-0.043893855
8	0xbc3b708c	-0.0114404075
9	0xbc2503bc	-0.010071691
10	0x3c1ec4b3	0.009690451
11	0x3cf3821e	0.02972513
12	0x3d07d6f3	0.033163976
13	0xbd17a8a5	-0.037026066
14	0xbc94fe9f	-0.018187819
15	0xb9ccc63c	-0.00039057608
16	0x3d10127f	0.03517389
17	0xbd2d9e70	-0.042387426
18	0xbd3172bb	-0.043322306
19	0x3cff0aee	0.031133141
20	0xbd3dfb82	-0.046382435
21	0xba638170	-0.00086786505
22	0x3c00749a	0.0078403
23	0xbb756410	-0.0037443675
24	0xbbdea520	-0.006794587
25	0x3ba877b8	0.0051412247
26	0xbd28efcc	-0.041244313
27	0xbcfe16fc	-0.03101682
28	0x3c2feb88	0.010737307
29	0x3d1d9e31	0.03848094
30	0xbcda8dec	-0.026679002
31	0xbcdae09b	-0.026718428
32	0x3add633f	0.001689054
33	0xbbaa5454	-0.005198041
34	0x3c111fa0	0.008857638
35	0xbd49a3ef	-0.049228605
36	0x3c5345fa	0.012895102
37	0xbd15f9d1	-0.036615197
38	0x3d0a27af	0.03372925
39	0x3d1be20b	0.03805737
40	0x3d078436	0.03308507
41	0x3cb8c005	0.0225525
42	0x3b9b0110	0.0047303513
43	0xbcaab17a	-0.02083658
44	0x3d08f967	0.033440974
45	0xbcf05f20	-0.029342234
46	0xbb7647fb	-0.0037579525
47	0xbc3c1636	-0.011479905
48	0xbcd8eb83	-0.026479488
49	0x3d1e24fb	0.038609486
50	0xbc27e878	-0.010248296
51	0x3d29d25f	0.04146039
52	0x3cd3cabe	0.025853511
53	0x3ca397e6	0.019969892
54	0x3c994051	0.018707426
55	0xbcf288ae	-0.02960619
56	0xbc73cf7a	-0.014881009
57	0x3cd5f8ab	0.02611955
58	0xbd06dfd4	-0.032928303
59	0xbd40eebd	-0.04710268
60	0x3cb8129c	0.022469811
61	0x3cf729e1	0.030171337
62	0x3ca6637a	0.020311106
63	0x3bc00795	0.005860279
64	0x3ca71335	0.0203949
65	0x3cb3e9c6	0.021962058
66	0xbd1a6c67	-0.037701037
67	0x3cd31917	0.0257688
68	0x3b6d2b37	0.0036189088
69	0x3c9702ce	0.018433955
70	0xbd23787d	-0.03990983
71	0x3ccc001b	0.024902394
72	0xbd09fd8c	-0.033689067
73	0x3c8598f2	0.016308282
74	0x3cb4375a	0.02199905
75	0xbc2b1280	-0.010441422
76	0xbc7d11f8	-0.015446179
77	0xbd00aada	-0.031412937
78	0xbd0447be	-0.03229498
79	0x3b8e7a20	0.0043480545
80	0x3ce401ed	0.02783295
81	0x3b600670	0.0034183525
82	0xbd1494fc	-0.036274895
83	0x3d1adbab	0.037807148
84	0x3c0822c9	0.008309075
85	0x3d06ef09	0.032942805
86	0xbc070dd4	-0.008243043
87	0xbc44cdc7	-0.012011952
88	0xbd36ad07	-0.044598605
89	0xbc9aa016	-0.018875163
90	0x3d13d648	0.036093026
91	0xbcc34c4a	-0.023840088
92	0xbd0e97ae	-0.03481262
93	0x3d05aff4	0.032638505
94	0x3d12759b	0.03575669
95	0x3d0dfc9b	0.03466473
96	0x3cff08d9	0.031132149
97	0xbce04efa	-0.027381409
98	0x3d0d60e4	0.03451623
99	0xbc947dc9	-0.018126385
100	0xbaee8260	-0.0018196814
101	0x3bd016e0	0.006350383
102	0x3cb58ab6	0.02216087
103	0xbce769a6	-0.02824862
104	0xbbe5dcf1	-0.0070148637
105	0xbcc4cae8	-0.024022534
106	0x3b824098	0.0039749853
107	0x3a5edc72	0.0008501477
108	0xbc3c98a8	-0.011511005
109	0x3ce16d9e	0.02751809
110	0xbd36ec8f	-0.044659194
111	0x3cbeb604	0.023280151
112	0xbc037d6c	-0.008025508
113	0x3bc0df26	0.0058859764
114	0x3cc9c392	0.024629388
115	0x3c129684	0.0089470185
116	0xbceb7796	-0.028743546
117	0x3cefbaef	0.029263942
118	0x3cf051a4	0.029335804
119	0x3ba41d63	0.005008386
120	0xbc817a23	-0.01580531
121	0xbd4102ba	-0.04712174
122	0x3baf34c0	0.0053468645
123	0x3d215b79	0.039393876
124	0x3bdbbb52	0.00670568
125	0xbd203ef8	-0.03912255
126	0xbd3e956b	-0.046529215
127	0xbcf93b12	-0.030423675
128	0xbc8d490b	-0.017246744
129	0xbc26cf43	-0.010181251
130	0x3c7e697d	0.01552808
131	0xbc5d5f62	-0.013511511
132	0xbc60aa40	-0.013712466
133	0xbbc8f08d	-0.0061321915
134	0x3d1b6ae1	0.037943725
135	0x3c0f8d94	0.008761782
136	0xbcb04ec4	-0.021521933
137	0x3cc00c12	0.023443256
138	0xbc1a8074	-0.00943004
139	0xbcac84c0	-0.021059394
140	0x3c07019a	0.008240128
141	0xbd37d6d6	-0.044882618
142	0xbc3cc024	-0.011520419
143	0xbcd37e59	-0.025817083
144	0x37bad000	2.2269785e-05
145	0x3ca3d652	0.019999657
146	0xbce7789e	-0.028255757
147	0xbce9b34f	-0.028527884
148	0x3d0348e9	0.032051954
149	0x3c2e0548	0.010621376
150	0xbd169c4e	-0.036770158
151	0x3ccbcec2	0.024878863
152	0xbcd0a747	-0.025470389
153	0xbc650f07	-0.013980634
154	0x3c824136	0.015900236
155	0xbae37100	-0.0017352402
156	0x3c8455b0	0.01615414
157	0x3c56ab2c	0.013102334
158	0xbc20a098	-0.0098039135
159	0xbd28f5af	-0.041249927
160	0xbd2a7e11	-0.041624133
161	0x3cd7c53a	0.026339162
162	0xbbb9f109	-0.0056744856
163	0x3d310773	0.043219995
164	0xbc047468	-0.008084394
165	0xbd26a7cd	-0.04068737
166	0xbd077e2f	-0.033079322
167	0xbd0d70ab	-0.034531277
168	0xbc238ce2	-0.00998232
169	0xbd375841	-0.0447619
170	0x3cd75afe	0.026288506
171	0xbb31fde0	-0.0027159378
172	0xbbfc16a0	-0.007693127
173	0xbd079715	-0.033103067
174	0xbc86e95a	-0.016468693
175	0xbd1d64e1	-0.038426284
176	0xbd2051c3	-0.039140474
177	0xbbf5ff51	-0.0075072427
178	0x3ce2cc56	0.027685326
179	0xbcf7168b	-0.030162117
180	0xbd01fed7	-0.031737175
181	0xbd16a641	-0.036779646
182	0x3d070295	0.032961447
183	0x3cf8de72	0.030379508
184	0xbcf0001e	-0.02929693
185	0xbcacdff4	-0.021102883
186	0xbc280fe4	-0.010257695
187	0x3c34b117	0.01102855
188	0x3c8744b1	0.016512247
189	0x3ccc8a32	0.02496824
190	0xbc65401e	-0.0139923375
191	0xbc2ea64f	-0.010659768
192	0xbd0f75c0	-0.035024405
193	0x3ca0714a	0.01958527
194	0x3ce602ba	0.028077472
195	0x3bf969bb	0.007611481
196	0x3c7faf2b	0.015605728
197	0x3c8cd168	0.017189696
198	0x3cacbc85	0.021085987
199	0xbcc277dc	-0.023738794
200	0xbcb19d74	-0.021681525
201	0x3cc37b1e	0.023862418
202	0xbd384f0d	-0.044997264
203	0xbca3b780	-0.01998496
204	0x3c80d175	0.015724877
205	0x3c689b0e	0.014197124
206	0x3d00d67f	0.03145456
207	0xbcbf1913	-0.023327386
208	0xbc0d8cb7	-0.008639506
209	0x3b2c0800	0.0026249886
210	0x3d11def2	0.035613008
211	0x3c095f3c	0.008384522
212	0xbccf1041	-0.025276305
213	0xbc8042f9	-0.015656935
214	0xbd2ee169	-0.042695437
215	0xbc7e8ec8	-0.015536971
216	0x3c9bc842	0.019016389
217	0xbce02a7e	-0.027364012
218	0xbd432cad	-0.047650028
219	0xbc98f1eb	-0.018670043
220	0xbcecbfae	-0.028899994
221	0xbd0cc1d0	-0.03436452
222	0xbd45db38	-0.048304766
223	0x3cede85a	0.029041458
224	0x3bb960b0	0.005657278
225	0xbcf9aeba	-0.030478824
226	0xbd1313d0	-0.035907567
227	0xbc5f2b12	-0.013621109
228	0xbd456f5e	-0.04820191
229	0xbb8b0dcc	-0.004243588
230	0xbc55944e	-0.013035847
231	0xbccc525a	-0.024941612
232	0xbcac73ba	-0.021051276
233	0x3d02fdf1	0.03198046
234	0x3d2d6877	0.042335954
235	0x3cf131e2	0.029442731
236	0xbd3b642a	-0.04574982
237	0x3c71bdf3	0.01475476
238	0xbb5ff110	-0.0034170784
239	0xbc9e6038	-0.01933299
240	0xbd0a7e6d	-0.033811975
241	0x3ce5d4cc	0.028055571
242	0xbc258838	-0.010103278
243	0xbcd2b64b	-0.02572169
244	0x3d10a06b	0.035309236
245	0x3be634b8	0.0070253275
246	0x3c22d8ba	0.009939367
247	0x3bbb0011	0.005706795
248	0xbbb0ee43	-0.0053994968
249	0xbcb9d4d7	-0.022684498
250	0xbc17c614	-0.009263534
251	0xbca2cf62	-0.019874278
252	0xbcf43442	-0.029810075
253	0x3d24548d	0.040119696
254	0xbcf19e1b	-0.029494336
255	0xbcb67598	-0.02227287

model.2.bias f4 [256]
0	0xbc8a9136	-0.016914945
1	0xbcc941eb	-0.024567565
2	0x3d154793	0.03644521
3	0xbcd44b19	-0.025914716
4	0x3cd52758	0.026019737
5	0xbcf14cc8	-0.029455557
6	0x3c077e88	0.0082699135
7	0xbd2ce5e3	-0.042211425
8	0x3c097de2	0.008391829
9	0xba10e000	-0.00055265427
10	0x3c842458	0.016130611
11	0x3d14712e	0.03624075
12	0xbc932d72	-0.017966006
13	0xbd4aa763	-0.04947604
14	0x3dc6c393	0.097052716
15	0xbd035268	-0.03206101
16	0xbc345e2a	-0.011008779
17	0xbc7c2dc4	-0.015391771
18	0xbd7d4241	-0.061830763
19	0xbc8afef2	-0.01696727
20	0xbd1f8c3e	-0.038952105
21	0x3b29f923	0.002593585
22	0xbd16e7b1	-0.036842052
23	0x3b25d007	0.0025300996
24	0x397df40a	0.00024218872
25	0xbcf032ff	-0.029321192
26	0xbcd5ffaa	-0.026122887
27	0xbcebfca2	-0.028806988
28	0xbd00ad98	-0.031415552
29	0xbc60cb2e	-0.013720317
30	0x3c124e4c	0.0089298
31	0xbc90af42	-0.017661694
32	0x3c242274	0.01001798
33	0xbc8dc83e	-0.017307397
34	0xbd0b4555	-0.034001667
35	0xbd0a664d	-0.033788968
36	0xbd261858	-0.04055056
37	0xbc8f3ccd	-0.017485047
38	0xbc5a36d8	-0.01331874
39	0xbd4c0982	-0.049813755
40	0xbcfc72bc	-0.030816428
41	0x3c97564a	0.018473763
42	0xbca45940	-0.020062089
43	0xbb054b5b	-0.0020339105
44	0x3cbe7f77	0.02325414
45	0xbcdc831a	-0.026917983
46	0xbd0ed136	-0.034867488
47	0x3ae30d60	0.0017322712
48	0xbb827827	-0.0039816084
49	0xbd48695e	-0.04892861
50	0xbc096d2d	-0.008387846
51	0x3b518023	0.0031967245
52	0xbd2e77fb	-0.04259489
53	0xbc82d836	-0.015972238
54	0xbcfb58c6	-0.030681979
55	0xbcbb76f9	-0.022883879
56	0xbd04d1f2	-0.032426782
57	0x3c2ce208	0.010551937
58	0xbd1d866f	-0.038458284
59	0xbd2f13dd	-0.042743552
60	0xbcee4cf1	-0.029089423
61	0x3b7068b0	0.0036683492
62	0x3e095863	0.13412623
63	0xbd75c61c	-0.060003385
64	0xbcf374dc	-0.029718809
65	0x3bbe2ca5	0.005803662
66	0xbb0406c0	-0.0020145625
67	0x3ca882f4	0.020570256
68	0xbc8d9f3e	-0.017287847
69	0xbd58217c	-0.05276631
70	0xbcb896ff	-0.022532938
71	0x3bb87e30	0.005630277
72	0xbd29fe63	-0.041502368
73	0xbbba912e	-0.0056935763
74	0xbd81d078	-0.063385904
75	0x3cee7015	0.02910618
76	0x3ce154ae	0.027506199
77	0x3d8ff31d	0.07028792
78	0xbc56f2c2	-0.013119401
79	0xbc1e4388	-0.009659655
80	0x3cd1bd39	0.025602924
81	0x3e3daec6	0.18523702
82	0x3dac6d7f	0.08419322
83	0xbc2985d8	-0.010346852
84	0x3bfa7838	0.0076437257
85	0xbbfb1c9a	-0.0076633217
86	0x3c34cec4	0.011035625
87	0x3cae67c4	0.021289714
88	0xbcf3763c	-0.029719464
89	0xbb2024ec	-0.002443607
90	0x3cee40c5	0.029083619
91	0xbd4d3c2e	-0.05010622
92	0xbd1c84ad	-0.038212467
93	0x3b3098ce	0.0026946547
94	0xbd01b53b	-0.031666975
95	0x3cf17044	0.029472478
96	0xbc4796a8	-0.012181915
97	0xbd630558	-0.055425018
98	0xbd2231d6	-0.03959831
99	0x3b8c3c90	0.0042796806
100	0x3dad264c	0.0845457
101	0xbda33af2	-0.07970227
102	0xbd20f84c	-0.039299294
103	0x3cf2df94	0.029647626
104	0xbcfa0e03	-0.03052426
105	0xbca23949	-0.019802706
106	0x3e3f31ff	0.18671416
107	0x3ba987cb	0.0051736585
108	0xbd2de9b6	-0.042459212
109	0x3ca550d7	0.020180149
110	0xbc964a39	-0.018345939
111	0x3e083c71	0.13304307
112	0xbd28eccd	-0.041241456
113	0x3ce098cd	0.027416611
114	0xbd9296e3	-0.071576856
115	0x3dc423eb	0.09577163
116	0xb9970fbc	-0.00028812687
117	0x3bc29226	0.0059378324
118	0x3a36547f	0.000695534
119	0xbcbeadb1	-0.023276182
120	0x3dab0be1	0.08351875
121	0x3b4bad70	0.0031078719
122	0xbd59cefe	-0.05317592
123	0xbc9b3ab7	-0.018948896
124	0x3cfeb09e	0.031090077
125	0xbd4804b5	-0.048832614
126	0x3db57ce4	0.088617116
127	0xbd7e61c0	-0.06210494
128	0xbd20a3c5	-0.039218683
129	0xbcfa5965	-0.030560205
130	0x3d0bf2f6	0.034167252
131	0x3c6cec58	0.014460646
132	0x3debc600	0.11512375
133	0xbcf53513	-0.029932534
134	0x3dc5ce48	0.09658486
135	0x3da650fd	0.08120916
136	0x3d19746c	0.037464544
137	0xbd02ba4e	-0.031915955
138	0xbcbd141f	-0.023080884
139	0x3c51382b	0.012769739
140	0x3cecec26	0.028921198
141	0xbc875f98	-0.016525075
142	0xbcd8edef	-0.026480643
143	0xbd450428	-0.048099667
144	0xbbb0de28	-0.005397577
145	0x3d5e2a73	0.0542397
146	0x3d21bbc6	0.039485715
147	0x3e2a011d	0.16601987
148	0xbd9964fa	-0.07489963
149	0xbd5053fd	-0.050861347
150	0x3e63e493	0.22255163
151	0xbbe2903b	-0.0069141663
152	0x3d10f81d	0.03539287
153	0x3de36eca	0.11105116
154	0xbcac804b	-0.021057269
155	0xbcfbb85e	-0.030727562
156	0x3d1255cd	0.035726357
157	0xbcf9e971	-0.030506821
158	0x3c339678	0.0109611675
159	0x3d78e138	0.06076166
160	0x3d27f755	0.04100736
161	0xbd14943f	-0.03627419
162	0xbb821380	-0.0039696097
163	0xbd1444f2	-0.036198564
164	0x3e2baa9f	0.16764306
165	0xbd01a81f	-0.031654473
166	0xbd089cb2	-0.03335256
167	0xbc8b0d30	-0.016974062
168	0xbce78372	-0.02826092
169	0xbc0d4cf9	-0.008624309
170	0xbaa74952	-0.001276294
171	0xbc9e9018	-0.019355819
172	0x3cd55dc3	0.026045686
173	0x3d13eef2	0.036116548
174	0x3d093610	0.033498824
175	0xbc759322	-0.0149886925
176	0xbd4328d3	-0.047646355
177	0xbd323208	-0.043504745
178	0x3d164bce	0.036693387
179	0x3c64dd10	0.013968721
180	0x3dd4136d	0.10355268
181	0x3cc97a38	0.024594411
182	0x3d8718f6	0.06596558
183	0xbba047a7	-0.004891354
184	0xbbab94e5	-0.0052362555
185	0xbc85d8b2	-0.01633868
186	0xbca59513	-0.020212686
187	0x3d1267d7	0.03574356
188	0xbbb1008c	-0.0054016765
189	0xbcd05ab9	-0.025433885
190	0x3cb153a1	0.021646323
191	0xbc9b7f7b	-0.018981686
192	0x3d462369	0.048373614
193	0xbd41efd7	-0.04734787
194	0x3e332fa1	0.17498638
195	0xbd66d83d	-0.056358565
196	0xbcc6c458	-0.024263546
197	0xbd2a44aa	-0.04156939
198	0xbd405983	-0.046960365
199	0xbd62797a	-0.05529163
200	0xbd209700	-0.039206505
201	0xbc901ff2	-0.017593358
202	0x3c3e56c9	0.011617371
203	0x3e37707b	0.17914002
204	0x3cdc8004	0.026916511
205	0x3c3cfbc8	0.011534639
206	0xbc6722e7	-0.014107442
207	0xbd0ebc49	-0.03484753
208	0x3b9a0497	0.004700254
209	0xbc10376e	-0.008802278
210	0xbcb939d5	-0.022610584
211	0x3dceb2f0	0.10092723
212	0x3da2459b	0.079234324
213	0xbc9cd566	-0.019144725
214	0xbd469a06	-0.048486732
215	0x3bdd2c38	0.006749656
216	0xbb2f90e3	-0.002678924
217	0xbd14a8be	-0.036293738
218	0xbd1b424c	-0.037905023
219	0xbcadfb1b	-0.0212379
220	0xbcab2705	-0.02089263
221	0x3cc9bd37	0.024626357
222	0x3d6ca30e	0.05777269
223	0x3cfd11ba	0.030892242
224	0xbd221af5	-0.03957649
225	0x3bee956c	0.007280996
226	0x3cc58a26	0.024113726
227	0xbd3b58e9	-0.04573909
228	0x3c914058	0.017730877
229	0x3d0b2d0e	0.033978514
230	0xbd022255	-0.031771023
231	0xbd5ba5a5	-0.053624768
232	0x3e47a1c5	0.19495304
233	0x3e5312f5	0.206127
234	0xbd1b79ba	-0.037957884
235	0x3c351421	0.011052162
236	0x3d099876	0.033592664
237	0x3d095174	0.033524945
238	0x3c15e44f	0.009148671
239	0xbd745e7e	-0.059660427
240	0x3c2d95a7	0.010594762
241	0xbc05cb52	-0.008166151
242	0xbd2475cb	-0.0401514
243	0xbc3265c6	-0.0108885225
244	0xbb11b418	-0.0022232588
245	0xbc6d2662	-0.014474483
246	0x3e1e3f53	0.15453844
247	0x3a29d38c	0.00064783613
248	0xbc276d50	-0.010218933
249	0xbd92c5ca	-0.071666315
250	0x3e4eccd0	0.20195317
251	0xbbd3b29d	-0.0064605013
252	0x3b693239	0.0035582914
253	0x3c8f6443	0.017503863
254	0x3c34d9df	0.011038273
255	0xbd42af70	-0.04753059

model.4.weight f4 [128, 256]
0	0x3d6ef39d	0.058337796
1	0x3cd56ab0	0.02605185
2	0x3cf3eb4d	0.029775286
3	0x3bf54370	0.007484846
4	0x3d140786	0.036139987
5	0x3aca3142	0.0015426057
6	0xbc6c2268	-0.0144125
7	0xbd51f6be	-0.051260702
8	0x3bb3e9bc	0.00549051
9	0xbc4d6840	-0.012537062
10	0x3c595c48	0.0132666305
11	0x3d3d67e9	0.046241675
12	0x3d2f8962	0.042855628
13	0x3d064740	0.032782793
14	0xba3015a3	-0.00067170913
15	0xbd646096	-0.055756174
16	0xbb9f1d3b	-0.0048557795
17	0xbdc7fa89	-0.09764583
18	0x3aadfdb7	0.0013274465
19	0x3cf5a43b	0.029985538
20	0x3d77f88e	0.060539775
21	0xbcb885a2	-0.022524659
22	0xbd084f5b	-0.033278804
23	0xbc1ebd8c	-0.009688746
24	0x3ab4edbb	0.0013803759
25	0xbc29ae43	-0.010356489
26	0xbd949373	-0.07254686
27	0xbd7b9a89	-0.061426673
28	0x3c166f7a	0.0091818515
29	0x3c5b0188	0.013367064
30	0xbd61c277	-0.055117097
31	0x3c99a394	0.018754758
32	0xbd55159c	-0.05202256
33	0xbd322c43	-0.043499243
34	0x3d3626e8	0.044470698
35	0xbca33ae0	-0.019925535
36	0x3c64bd42	0.013961138
37	0xbc18ba30	-0.009321734
38	0x3be40e71	0.0069597294
39	0xbcd2a04a	-0.025711197
40	0x3d05abc2	0.032634504
41	0x3d5046e9	0.050848875
42	0x3d7bfb6e	0.06151908
43	0x3b04cf64	0.0020265216
44	0xbc318240	-0.010834277
45	0x3c014fd7	0.00789257
46	0xbd2eaa4f	-0.042642888
47	0xbc7421b0	-0.01490061
48	0x3d5004b0	0.05078572
49	0xbd25eb76	-0.040507756
50	0xbc984416	-0.018587153
51	0xbcce470a	-0.025180358
52	0x3b481160	0.0030527934
53	0xbc348f37	-0.011020473
54	0xbd606e12	-0.05479247
55	0xbd32131c	-0.043475255
56	0x3c82312e	0.015892591
57	0x3c984500	0.01858759
58	0x3cdc94ce	0.026926424
59	0xbc782420	-0.015145332
60	0xbce62a10	-0.028096229
61	0x3d1ab1be	0.037767164
62	0xbde71c1c	-0.11284658
63	0xbd09414a	-0.03350953
64	0xbd4352ba	-0.047686316
65	0x3c039c93	0.008032936
66	0xbd01847d	-0.03162049
67	0xbc0f1b22	-0.008734496
68	0xbd4f10d8	-0.050553173
69	0x3bba7949	0.005690728
70	0xbc86f608	-0.016474739
71	0xbca57f94	-0.020202436
72	0x3c5f2038	0.013618521
73	0xbd1a3bcf	-0.037654694
74	0xbd848503	-0.064706825
75	0x3d178899	0.036995504
76	0xbcd091bf	-0.025460122
77	0xbc532f2d	-0.012889666
78	0xbcb14178	-0.021637663
79	0xbd3d4b2a	-0.04621426
80	0xbbfc8647	-0.007706437
81	0x3b2aba82	0.0026051109
82	0x3b4a87b0	0.003090363
83	0x3c950fc5	0.018195996
84	0xba82a380	-0.000996694
85	0xbd04a949	-0.032388005
86	0xbc7e7a7e	-0.015532134
87	0xbc8d0b78	-0.017217383
88	0xbd2ac236	-0.04168912
89	0x3cb9b461	0.02266902
90	0xbe1c25e0	-0.15248823
91	0xbd299454	-0.041401222
92	0xbd5c442a	-0.053775944
93	0x3c90033c	0.017579667
94	0xbcacc3be	-0.02108943
95	0xbd1b115b	-0.03785835
96	0x3bca4670	0.0061729476
97	0xbe9b16eb	-0.30290923
98	0x3c9060e5	0.017624328
99	0xbc1b07f0	-0.009462342
100	0xbe0f3c9c	-0.13987964
101	0xbd217f20	-0.039427876
102	0xbcfd9729	-0.030955868
103	0x3ce10eb2	0.027472828
104	0xbd5487a8	-0.051887184
105	0x3a7e0a3d	0.00096908567
106	0xbce3d2d0	-0.027810484
107	0xbc4543fb	-0.012040134
108	0xbbd78ddc	-0.0065781903
109	0xbbac88b1	-0.0052653183
110	0x3d9c4048	0.07629448
111	0xbc3325d8	-0.010934316
112	0x3d3b73d4	0.04576476
113	0x3d8d423f	0.06897401
114	0xbcbfc65e	-0.023410019
115	0xbdf10850	-0.117691636
116	0x3d85d35c	0.06534454
117	0x3ce8bbe9	0.028409915
118	0x3d20a2d3	0.03921778
119	0xbcf71b6f	-0.030164449
120	0xbe1a8d6f	-0.15093015
121	0xbd287f6c	-0.041137144
122	0xbd01e201	-0.031709675
123	0xbaaa0140	-0.0012970343
124	0x3cd13a40	0.025540471
125	0x3cd59f4b	0.026076933
126	0xbcc7accd	-0.02437439
127	0x3c81cf03	0.015845781
128	0xbe0f79b5	-0.14011271
129	0x3cf0742b	0.029352268
130	0xbcb41579	-0.021982895
131	0xbd7a3fd6	-0.061096035
132	0xbd991b6a	-0.07475932
133	0xbc98f3cc	-0.018670939
134	0xbc41ca47	-0.011828012
135	0xbdc5e74b	-0.09663256
136	0x3c7dc7e1	0.015489549
137	0x3d7219b4	0.059106544
138	0xbc5ed618	-0.013600849
139	0x3c5dd2a8	0.013538994
140	0x3c8a2a65	0.016865918
141	0xbbdf3f38	-0.006812956
142	0xbca7b574	-0.020472266
143	0x3cbbc793	0.022922313
144	0x3d66da08	0.056360275
145	0xbe23826c	-0.15967721
146	0xbce91b62	-0.02845544
147	0xbc1b2d8b	-0.0094713075
148	0x3d168e8c	0.036757037
149	0x3d6c81e9	0.05774108
150	0xbd797235	-0.060899932
151	0xbc928f42	-0.017890576
152	0xbcc058c8	-0.023479834
153	0xbdb53473	-0.088478945
154	0xbb6efde5	-0.003646725
155	0xbd04ba4d	-0.032404233
156	0xbd60f014	-0.054916456
157	0x3d2d882d	0.042366195
158	0xbd346370	-0.044040143
159	0xbb3122d1	-0.002702881
160	0xbcec0359	-0.02881019
161	0xb9b8c949	-0.00035245184
162	0xbd071480	-0.032978535
163	0x3bb98190	0.005661197
164	0x3c5b2602	0.013375761
165	0xbcd2ec26	-0.02574737
166	0x3bc9ee7f	0.006162464
167	0x3d7b7339	0.06138918
168	0xbc342888	-0.0109959915
169	0x3cfeb20d	0.03109076
170	0xbd8bb6af	-0.068219535
171	0xbd47d516	-0.0487872
172	0xbcadb0c6	-0.021202456
173	0xbcea1624	-0.02857501
174	0x3be97714	0.007124791
175	0x3ce0a8c6	0.027424227
176	0xba939da2	-0.0011262188
177	0xbd3d924b	-0.046282094
178	0xbb6ff70c	-0.0036615757
179	0x3d74ad8e	0.059735827
180	0xbd91492d	-0.07094035
181	0xbd2943b3	-0.04132433
182	0xbe1eb324	-0.15498024
183	0xbd2237b9	-0.039603923
184	0x3df41888	0.119187415
185	0xbc8b7b50	-0.017026573
186	0xbc0fec80	-0.008784413
187	0xbd281b33	-0.041041564
188	0x3d4a1d80	0.04934454
189	0xbd54ac36	-0.051922046
190	0xbd3e0e47	-0.046400335
191	0xbd1e2a10	-0.038614333
192	0xbd9a2708	-0.07526976
193	0x3d397de4	0.045286074
194	0x3d0eb7d1	0.03484327
195	0xbca629f7	-0.020283682
196	0xbb885d60	-0.004161522
197	0x3c648680	0.013948083
198	0x3d546488	0.051853687
199	0x3d07f75a	0.033194877
200	0xbc624b88	-0.013811953
201	0x3c855106	0.016273987
202	0x3c58ad3b	0.013224895
203	0x3cc8c7f4	0.024509408
204	0x3d72e9f8	0.05930516
205	0x3d0e6874	0.034767583
206	0x3d741e83	0.05959941
207	0xbcaaa041	-0.020828368
208	0xbcfb6e74	-0.030692317
209	0xbd4e19ee	-0.050317697
210	0xbe3e1521	-0.18562748
211	0xbd8c4959	-0.068499275
212	0xbd911e52	-0.07085861
213	0x3d191307	0.03737166
214	0x3c194c70	0.009356603
215	0xbc1c6528	-0.009545602
216	0x3d01abfd	0.03165816
217	0x3c8ff68c	0.017573617
218	0x3d3363e4	0.043796435
219	0x3ceb34b7	0.02871166
220	0xbb63aa23	-0.003473886
221	0xbd95c9f1	-0.07313908
222	0xbe1cad18	-0.15300405
223	0x3c19ea78	0.009394281
224	0xbcc6b094	-0.02425412
225	0x3cf30742	0.029666547
226	0xbcf4f480	-0.029901743
227	0xbcd8a9f8	-0.026448235
228	0x3d11864d	0.03552847
229	0x3cca22dd	0.024674827
230	0xbd0cdca1	-0.034390096
231	0xbd3688d0	-0.04456407
232	0xbc92203d	-0.017837638
233	0xbd9392d6	-0.07205741
234	0x3cbee259	0.02330129
235	0x3b3a868d	0.0028461546
236	0xbd11b7e0	-0.035575747
237	0xbd0e5d2d	-0.034756828
238	0xbd2cf191	-0.042222563
239	0x3d00020d	0.031251956
240	0x3d412091	0.0471502
241	0x3c38b23f	0.011272966
242	0xbd1c49cd	-0.03815632
243	0xbc083026	-0.008312261
244	0xbcf5c01d	-0.029998833
245	0xbcdf8d8d	-0.027289176
246	0xbd8fb1ed	-0.070163585
247	0x3d8c3536	0.06846087
248	0xbe012dd0	-0.12615132
249	0xbd140260	-0.036135077
250	0xbd93cf4a	-0.072172716
251	0xbd1dcc5d	-0.038524974
252	0xbc6f467b	-0.014604206
253	0xbc609026	-0.013706243
254	0xbd1133a6	-0.035449646
255	0xbd117fbd	-0.03552221

model.4.bias f4 [128]
0	0x3decd00f	0.115631215
1	0x3d22e441	0.03976846
2	0xbd36a655	-0.04459222
3	0xbd55c0c2	-0.05218578
4	0x3d2e4c24	0.042553082
5	0xbc097990	-0.008390799
6	0x3e311029	0.17291321
7	0x3e25cc2e	0.1619117
8	0xbd2df9d0	-0.042474568
9	0xbcc21a28	-0.023694113
10	0xbd3a86b8	-0.045538634
11	0x3b92bd03	0.0044780984
12	0x3d5e631f	0.054293748
13	0xbdad48f3	-0.084611796
14	0x3c446310	0.011986509
15	0x3ed0d7e4	0.4078971
16	0x3d020796	0.031745516
17	0x3eb38b95	0.3506743
18	0x3ccb6d83	0.024832493
19	0x3cc439d2	0.023953352
20	0x3d4cc977	0.04999682
21	0xbd923459	-0.07138891
22	0xbd6f2791	-0.058387343
23	0x3ed025b3	0.40653762
24	0xbd902570	-0.07038391
25	0x3ebe1fda	0.37133676
26	0xbca47999	-0.020077514
27	0xbcd3a2f4	-0.025834538
28	0x3d8091b2	0.06277789
29	0xbd65b6f4	-0.05608268
30	0x3cfa502a	0.030555803
31	0x3c661900	0.014044046
32	0x3d42db3c	0.04757236
33	0x3a9bf640	0.001189895
34	0xbd8ab2ce	-0.067723855
35	0x3bebc940	0.0071956217
36	0xbd764a94	-0.060129717
37	0x3e6c7c37	0.23094259
38	0x3e639f56	0.2222875
39	0x3dd658dd	0.10466168
40	0xbc41bf62	-0.011825414
41	0xbd0e2313	-0.034701418
42	0xbd045455	-0.032306988
43	0xbc6b4465	-0.014359568
44	0x3e6e89e8	0.23294795
45	0xb9fc53a8	-0.00048127514
46	0xbce8280e	-0.028339412
47	0xbdb774e8	-0.08957845
48	0xbd51e5f3	-0.051244687
49	0x3e1ebafb	0.15501015
50	0x3ae6c411	0.001760604
51	0xbdb2c893	-0.08729663
52	0x3ec8656e	0.39139885
53	0xbbcfeded	-0.0063455016
54	0xbd5c5350	-0.05379039
55	0xbd2695c9	-0.04067019
56	0xbda38cef	-0.07985865
57	0x3d2f8e5d	0.042860378
58	0x3ce089e6	0.027409505
59	0xbd4dd480	-0.050251484
60	0xbbd618a1	-0.0065336977
61	0xbca17510	-0.01970914
62	0x3d4b5eb0	0.049650848
63	0xbd6e514a	-0.058182992
64	0x3ec44466	0.38333434
65	0x3b832969	0.004002739
66	0x3ea23e30	0.3168807
67	0xbc843c9a	-0.016142178
68	0xbb9f897e	-0.0048686853
69	0xbd9de7b9	-0.07710213
70	0xbd8177e2	-0.06321694
71	0x3d238f39	0.03993151
72	0xbbf1b6b8	-0.007376518
73	0x3ba5936f	0.005052976
74	0x3ac5fb8a	0.0015104872
75	0x3dc154a1	0.0943997
76	0x3ec8d520	0.392251
77	0xbda6477a	-0.08119102
78	0x3e4252c8	0.18976891
79	0x3e5d412d	0.21606894
80	0xbcd58111	-0.02606252
81	0xbd02ed4f	-0.031964596
82	0xbd87644d	-0.06610928
83	0xbd13749b	-0.035999876
84	0x3cff9de8	0.031203225
85	0xbd74e7bc	-0.05979131
86	0xbcaecf34	-0.021339037
87	0x3c08b5fd	0.008344171
88	0x3d6219a0	0.05520022
89	0x3bcad638	0.0061900876
90	0x3cbc7358	0.023004219
91	0xbd8e9b31	-0.06963194
92	0xbd9dc684	-0.077038795
93	0x3c02ad08	0.007975824
94	0x3a77bd65	0.0009450524
95	0xbd8fceb6	-0.07021849
96	0xbc0c7ab1	-0.008574174
97	0xbdc15eab	-0.094418846
98	0x3c8a0d4e	0.016852047
99	0xbca284da	-0.01983874
100	0xbc052de8	-0.008128621
101	0xbc9c7da6	-0.019102883
102	0x3e88e36e	0.26736015
103	0x3e3ef694	0.1864875
104	0x3d028453	0.031864475
105	0x3e6e4881	0.23269846
106	0x3e30e2ab	0.17273967
107	0xbd73d784	-0.059531704
108	0xbafb8872	-0.0019190444
109	0xbc29dc0b	-0.010367404
110	0x3cef511f	0.029213486
111	0x3ce8b0ed	0.028404677
112	0x3c6ee90e	0.014581932
113	0xbd9fa6c0	-0.07795477
114	0xbd6da829	-0.0580217
115	0xbbe810d0	-0.0070820823
116	0x3c7e4f2e	0.015521808
117	0xbd9bfdec	-0.07616791
118	0x3ea1ffd1	0.31640485
119	0x3b34c305	0.002758206
120	0x3ead3fe2	0.338378
121	0xbd87c98d	-0.0663024
122	0x3bfb4794	0.007668445
123	0x3d5a2c35	0.053264815
124	0xbd6c0a17	-0.05762681
125	0xbd668c2f	-0.056286033
126	0x3e8a574c	0.27019727
127	0x3b00964b	0.0019620832

model.6.weight f4 [3, 128]
0	0x3bb7a8b3	0.0056048273
1	0x3c72313e	0.014782248
2	0xbca2f7df	-0.019893585
3	0xbd1aab71	-0.037761156
4	0xbce9ba4e	-0.02853122
5	0x3d527ca1	0.051388387
6	0xbe1a0a88	-0.1504308
7	0xbed75a8b	-0.42061266
8	0xbcf01d75	-0.029310921
9	0x3ceaa9a3	0.028645342
10	0xbbb3f144	-0.0054914076
11	0x3d37804e	0.044800095
12	0x3d257985	0.040399093
13	0x3d109871	0.03530163
14	0x3d85853f	0.06519555
15	0xbe872b0b	-0.26400027
16	0xbc8bd0ae	-0.01706728
17	0xbe7bffc5	-0.24609287
18	0x3c06c8ea	0.008226613
19	0x3cf2af64	0.029624648
20	0xba1063e1	-0.0005508047
21	0xbd0057fe	-0.031333916
22	0x3cba3523	0.022730416
23	0xbe8c3403	-0.27383432
24	0xbd01cfa9	-0.03169218
25	0xbe7939d6	-0.24338469
26	0xbcfe51ca	-0.03104486
27	0xbcca968c	-0.02472999
28	0xbb80a35b	-0.0039257235
29	0x3ca73c40	0.020414472
30	0x3ca90034	0.02062998
31	0xbd087e4c	-0.03332357
32	0x3c9f6a64	0.01945991
33	0xbd5d5463	-0.054035556
34	0x3d1b460c	0.0379086
35	0xbbf611c0	-0.00750944
36	0x3d84c753	0.064833306
37	0xbe0b251a	-0.13588372
38	0xbe526aa3	-0.20548491
39	0xbe6b92a5	-0.23005159
40	0xbcf3b5ee	-0.029749837
41	0xbcbabba6	-0.022794556
42	0x3d7d2ad5	0.061808426
43	0x3d4a6956	0.049416862
44	0xbe7290bd	-0.23688026
45	0x3cb5ee2f	0.022208301
46	0xbcb89593	-0.02253226
47	0xbc840503	-0.016115671
48	0xbc50b184	-0.0127376355
49	0xbde5d646	-0.1122251
50	0x3d0204c0	0.03174281
51	0xbc4cc67d	-0.012498495
52	0xbe77a621	-0.24184467
53	0xbddd947a	-0.10819335
54	0x3bfb7170	0.007673435
55	0x3d5efe1f	0.054441568
56	0x3d4a74b9	0.04942772
57	0xbd8ac395	-0.067755856
58	0x3d8c4ae3	0.06850221
59	0x3c87716c	0.016533576
60	0x3d7cdee6	0.06173601
61	0x3d0113c8	0.031513005
62	0xbcd6d853	-0.026226198
63	0xbcd8a8f2	-0.026447747
64	0xbf27e3b9	-0.6558185
65	0x3d39ee0b	0.04539303
66	0xbe8b91a0	-0.2725954
67	0x3d198cbf	0.03748774
68	0xbb8374ac	-0.004011711
69	0xbce6b425	-0.028162071
70	0xbdbe669d	-0.09296916
71	0x3b56ae22	0.00327576
72	0xb973a1e8	-0.000232346
73	0x3c8a593b	0.016888252
74	0x3d8c68f6	0.06855957
75	0xbbc4dd56	-0.0060078306
76	0xbe962406	-0.2932436
77	0xbca56a38	-0.02019225
78	0xbe2a82f9	-0.16651525
79	0x3f2df2d8	0.67948675
80	0x3c9ba3fb	0.01899909
81	0x3d89ccf0	0.06728542
82	0xbbbe0451	-0.0057988544
83	0xbd022d68	-0.031781584
84	0x3cb51ae7	0.022107555
85	0xbd3e6b83	-0.04648925
86	0x3d986097	0.07440298
87	0x3d14ac38	0.036297053
88	0x3a864ce8	0.0010246309
89	0x3d351e37	0.04421827
90	0x3c7aca98	0.015307091
91	0xbd379b61	-0.044825915
92	0x3d5ad24d	0.053423215
93	0xbd2bc345	-0.04193427
94	0x3c7fb5fb	0.015607352
95	0x3cc649d2	0.024205122
96	0x3d641815	0.05568703
97	0x3d9f2308	0.077703536
98	0x3d1939e5	0.03740873
99	0xbcfae8c7	-0.030628575
100	0xbbff5874	-0.007792527
101	0x3cc13e46	0.023589265
102	0xbea6695c	-0.32502258
103	0x3f2f8c1a	0.68573153
104	0xbcabe33a	-0.020982374
105	0xbdd1b5e6	-0.102397725
106	0x3f1f1127	0.6213555
107	0x3d06145f	0.03273427
108	0xbc28f48d	-0.010312212
109	0x3d3a89cd	0.045541573
110	0xbcdf4260	-0.02725333
111	0xbbe36c04	-0.0069403667
112	0xbd1286ad	-0.035772968
113	0xbd86d9dd	-0.06584523
114	0x3d11751a	0.035512067
115	0x3bf26f50	0.0073985234
116	0x3d5e56d7	0.054282036
117	0xbca9bbad	-0.020719374
118	0xbeaeb46e	-0.34122032
119	0x3d1deef4	0.03855796
120	0xbe6c0916	-0.23050341
121	0x3d32a698	0.043615907
122	0x3cde8eb5	0.027167657
123	0xbbb65292	-0.0055640424
124	0x3cafefaa	0.021476585
125	0xbd45cd11	-0.04829127
126	0xbe4644fd	-0.19362254
127	0x3d816d9c	0.063197345
128	0xbad36297	-0.0016127405
129	0xbd431504	-0.047627464
130	0x3d1b7ed0	0.037962735
131	0x3d1bd118	0.038041204
132	0x3d8c004d	0.06835995
133	0x3cab30e1	0.02089733
134	0xbe69d354	-0.22834522
135	0xbe930123	-0.28711805
136	0x3ca07e4d	0.019591475
137	0x3daecbe5	0.085349835
138	0x3c7417b0	0.014898226
139	0x3c9d07ee	0.01916882
140	0xbcca516f	-0.024697034
141	0x3cf95337	0.030435188
142	0xbc20a81a	-0.009805704
143	0xbe8b3b3f	-0.2719364
144	0xbbdcb836	-0.006735827
145	0xbe5e85a4	-0.21730667
146	0x3b035625	0.002004036
147	0x3db016b5	0.08598081
148	0x3c8f46ce	0.017489817
149	0x3d5273aa	0.051379837
150	0x3d9df38d	0.07712469
151	0xbe8db1bc	-0.27674663
152	0x3d5dc429	0.05414215
153	0xbe4c5c87	-0.19957171
154	0x3bb08ef0	0.005388133
155	0x3d630632	0.05542583
156	0xbb77589e	-0.003774203
157	0xbcb46007	-0.022018446
158	0x3d82a809	0.063797064
159	0x3d3f6373	0.0467257
160	0xbd2c2ab9	-0.04203293
161	0xbd1871b5	-0.037217814
162	0xbcdac53c	-0.026705377
163	0x3d64a5aa	0.055822052
164	0x3d961bed	0.07329545
165	0xbe629889	-0.221285
166	0xbe6cedb4	-0.23137552
167	0xbec219a7	-0.37910196
168	0x3d8124d7	0.06305855
169	0x3d40f5ea	0.047109522
170	0xb9b4f681	-0.00034515935
171	0xbc3e7acf	-0.01162596
172	0xbe5d08db	-0.2158541
173	0x3d1541e7	0.036439802
174	0xbcfcc5c8	-0.030856028
175	0x3d6b5b63	0.0574602
176	0x3d463e96	0.04839953
177	0xbe29849e	-0.16554496
178	0x3c4c4b8c	0.012469184
179	0xbc73d0d0	-0.014881328
180	0xbe5b5155	-0.21417744
181	0xbca4c041	-0.020111205
182	0x3ab0ae9e	0.0013479774
183	0xbd8e1928	-0.06938392
184	0x3d24c549	0.04022721
185	0xbcafccee	-0.021460023
186	0x3d297776	0.041373692
187	0xbd84cc10	-0.06484234
188	0xbd36004b	-0.044433873
189	0xbd894372	-0.06702317
190	0x3b998eea	0.004686226
191	0xbd493d5e	-0.04913079
192	0xbf0c4a2b	-0.5480067
193	0x3d939b46	0.072073504
194	0xbea58a63	-0.32332143
195	0x3c785a4e	0.015158249
196	0xbb24a625	-0.0025123444
197	0xbcd9742c	-0.026544653
198	0xbd04cad8	-0.03242001
199	0xbaf48ac6	-0.001865708
200	0x3a023b51	0.0004967945
201	0x3d9da0fa	0.076967195
202	0xbd9812a5	-0.07425431
203	0xbbaae379	-0.005215105
204	0xbe8c764c	-0.27434003
205	0xbd6cb0ff	-0.057785984
206	0xbe5d8282	-0.21631816
207	0x3f13c100	0.5771637
208	0xbd11100e	-0.0354157
209	0xbc331d80	-0.010932326
210	0x3d8d8cb1	0.069116004
211	0x3cac20ea	0.021011788
212	0xbe120d08	-0.14262784
213	0x3d592237	0.053011145
214	0xbd348341	-0.044070486
215	0x3c8f5888	0.01749827
216	0x3e6e57ec	0.23275727
217	0x3ba1ed31	0.0049416055
218	0x3db30657	0.087414436
219	0x3c3c3b23	0.011488709
220	0xbd32caaa	-0.043650307
221	0xbd0adc64	-0.033901587
222	0xbce14e89	-0.027503269
223	0xbbb5873d	-0.0055398033
224	0xbcb8fa09	-0.022580164
225	0x3d13d989	0.03609613
226	0x3d098463	0.03357352
227	0x3dabf6a3	0.083966516
228	0x3c1b366b	0.0094734235
229	0x3ccb0ffe	0.0247879
230	0xbeb8615f	-0.36011788
231	0x3f125dd5	0.57174426
232	0xbcd9d0bf	-0.026588796
233	0xbe3ad5f1	-0.18245675
234	0x3f0fd771	0.5618811
235	0x3d552a82	0.05204249
236	0x3c70cb30	0.014696881
237	0xbd608669	-0.054815684
238	0x3d2ea6f6	0.042639695
239	0xbcd996b9	-0.026561128
240	0x3b310584	0.0027011344
241	0x3b7e8940	0.0038839132
242	0x3cceb5a5	0.0252331
243	0xbd61d4c3	-0.055134546
244	0x3d93a112	0.07208456
245	0xbaeb2f8f	-0.0017943251
246	0xbe8eccba	-0.2789057
247	0xbdaba35f	-0.0838077
248	0xbe60c095	-0.21948464
249	0x3be1f210	0.006895311
250	0xbc13effb	-0.009029384
251	0xbb660fa8	-0.0035104547
252	0x3d34c2f5	0.044131238
253	0x3a5d765f	0.00084481196
254	0xbe284d00	-0.16435623
255	0xbca72855	-0.020404974

model.6.bias f4 [3]
0	0xbea7d5f2	-0.32780415
1	0xbeedd0e5	-0.46448436
2	0xbee13455	-0.4398524
