2021-22/PrimerSemestre/Reinforcement/PEC2/DQN.pth (torch, 666959 bytes, 8 tensors)

model.0.weight f4 [512, 2]
0.34193057 2.0593178 0.50170434 1.692888 -0.037760317 0.64103407 -0.26621565 1.2556744
-0.21293136 -0.081303716 -0.47261348 -2.7222826 -0.49422842 0.06706392 0.2841127 3.945467
0.022866748 -0.06473172 -0.66238487 -3.3314102 0.27294043 -1.7489755 -0.03533291 1.8152467
0.100561954 0.53807294 -0.041403275 2.98268 -0.50634164 -2.8921769 -0.6222081 -2.5651007
-0.2215476 0.5358754 -0.034863275 0.27779263 -0.22044933 -0.26069352 0.11279812 1.7109667
-0.092628196 -0.056270543 0.09413712 0.30993834 0.15196234 -0.47473544 0.4269708 1.5421902
-0.08215338 -0.6203573 0.30945522 0.3791526 -0.008615016 0.26368967 -0.47520706 -2.7681375
0.14216982 4.487654 -0.40669796 0.07650453 -0.2800315 -0.21638048 -0.048772212 0.8741643
-0.45163202 -0.13767673 0.37696135 0.513676 -0.19871166 0.67603266 0.46350512 0.9137541
-0.12172818 0.005901575 0.19759785 4.5278277 -0.038878873 1.0831785 0.20676035 3.5156631
0.11602545 0.8491888 0.5777263 0.5447981 0.11084611 1.9996475 -0.32423958 -1.0612695
-0.16421372 0.34099934 0.15762535 0.97983605 -0.012447894 -0.09758198 0.2787525 -0.013939559
-0.22400199 1.9988005 -0.4688123 -3.4431884 -0.3083309 -0.2235758 0.51239294 0.38917273
0.26930857 0.50570804 -0.45870355 0.25093514 0.081360586 0.31486896 -0.38061464 0.36703107
0.5133448 0.1562109 0.7609382 1.4833117 0.5917807 -0.102177024 0.5632208 3.3298738
-0.3909487 -3.452395 -0.028193533 -0.5698053 0.031884253 0.07470149 -0.39286217 0.9309019
0.54470766 -0.8328565 0.32811263 1.9323311 0.19895868 4.1093473 -0.33620143 0.049639285
-0.16585155 -0.59602237 -0.097606346 1.9059427 -0.021285476 0.33623037 -0.35668716 -3.6266506
-0.2637929 0.6647213 0.26966387 1.3870857 -0.05590484 1.7810948 0.026701888 1.1614629
-0.07071954 0.70691925 0.5532381 0.29400915 -0.45576575 1.0024226 0.16898608 -0.3995232
0.47702616 0.58640856 0.22207327 3.6778426 -0.24262825 0.27394018 0.4993759 2.0649064
-0.014239728 -0.2860832 -0.26142246 -0.21205835 0.121048704 3.8665645 0.0844776 0.39341205
-0.24154705 0.6551717 -0.1332076 1.1930639 0.2887587 4.4461684 -0.08295101 0.33726364
-0.37915304 -1.7257956 0.08418167 -4.9440947 0.6588532 1.5576105 0.44276923 0.82079864
-0.15218621 3.0149739 -0.24787308 2.9781644 0.08497518 0.6277836 -0.061662078 -0.40432104
-0.72649425 -2.7231276 -0.3076529 -0.6633714 -0.39815122 1.3632795 -0.39784518 0.12107701
0.60550237 1.6131083 -0.2389099 -0.14452702 -0.61165386 1.1821254 -0.43315545 0.24400419
-0.08153161 2.0393336 0.12286456 -0.024700016 -0.2921833 1.2887127 0.41728705 -0.041309714
-0.43278322 1.1195295 -0.33934927 -0.6598738 -0.5673314 -0.13992347 0.058735617 3.7356734
-0.3382513 0.6549585 0.12230744 2.2900786 -0.24080041 -4.188805 0.87179136 1.0827892
0.70940065 3.848916 0.15523541 0.4301378 -0.2226937 0.33222088 -0.16406907 1.5162226
-0.27361736 -4.2907662 0.4210313 -0.07657964 0.26571405 -1.6446723 -0.28693914 1.5537357
00000000: 8611 af3e ddcb 0340 b26f 003f 8eb0 d83f
00000010: 90aa 1abd cf1a 243f 6b4d 88be f0b9 a03f
00000020: ae0a 5abe 9082 a6bd 65fa f1be e139 2ec0
00000030: 820b fdbe cf58 893d 3877 913e 8882 7c40
00000040: 0c53 bb3c 1092 84bd 0e92 29bf d335 55c0
00000050: d9be 8b3e 6ede dfbf 3eb9 10bd 015a e83f
00000060: 6df3 cd3d 26bf 093f 7b96 29bd 3be4 3e40
00000070: 9b9f 01bf 6d19 39c0 0849 1fbf 9c2a 24c0
00000080: 60dd 62be 212f 093f cbcc 0ebd d63a 8e3e
00000090: 78bd 61be 9f79 85be b302 e73d f500 db3f
000000a0: dab3 bdbd f17b 66bd f6ca c03d 3db0 9e3e
000000b0: 049c 1b3e 8610 f3be eb9b da3e 7d66 c53f
000000c0: 0840 a8bd bccf 1ebf ea70 9e3e 4a20 c23e
000000d0: ff25 0dbc 5502 873e 574e f3be 2a29 31c0
000000e0: f794 113e dd9a 8f40 b73a d0be 68ae 9c3d
000000f0: 4a60 8fbe d892 5dbe 5fc5 47bd 3bc9 5f3f
00000100: 503c e7be 21fb 0cbe 1401 c13e 4580 033f
00000110: 127b 4bbe 7a10 2d3f 8b50 ed3e caeb 693f
00000120: a04c f9bd 0062 c13b 1757 4a3e f7e3 9040
00000130: 743f 1fbd 98a5 8a3f fcb8 533e a000 6140
00000140: c09e ed3d 7064 593f dfe5 133f e377 0b3f
00000150: 4903 e33d 73f4 ff3f bb02 a6be aed7 87bf
00000160: a427 28be 7797 ae3e 8a68 213e 89d6 7a3f
00000170: 40f2 4bbc 10d9 c7bd a6b8 8e3e c062 64bc
00000180: c760 65be b2d8 ff3f 2a08 f0be 335d 5cc0
00000190: 8cdd 9dbe 0ef1 64be 2f2c 033f a641 c73e
000001a0: d0e2 893e 1576 013f 31db eabe 927a 803e
000001b0: 61a0 a63d 8136 a13e ecdf c2be 7feb bb3e
000001c0: 916a 033f c0f5 1f3e d9cc 423f 28dd bd3f
000001d0: f17e 173f 3042 d1bd 3d2f 103f a71c 5540
000001e0: 6e2a c8be 0af4 5cc0 20f6 e6bc c3de 11bf
000001f0: 1099 023d 18fd 983d 3b25 c9be 964f 6e3f
00000200: f671 0b3f 1536 55bf 61fe a73e a056 f73f
00000210: d3bb 4b3e c67f 8340 9822 acbe 9052 4b3d
00000220: fdd4 29be ec94 18bf d6e5 c7bd eef5 f33f
00000230: e15e aebc 6326 ac3e b39f b6be 0b1b 68c0
00000240: dd0f 87be 2d2b 2a3f 6211 8a3e 068c b13f
00000250: 79fc 64bd eafa e33f ebbd da3c d1aa 943f
00000260: 68d5 90bd a9f8 343f 03a1 0d3f 5e88 963e
00000270: 215a e9be 624f 803f b00a 2d3e 4e8e ccbe
00000280: c63c f43e df1e 163f 2d67 633e c661 6b40
00000290: 8a73 78be e341 8c3e 33ae ff3e 6d27 0440
000002a0: c04d 69bc 7f79 92be 2ad9 85be d325 59be
000002b0: 62e8 f73d cb75 7740 9802 ad3d 4e6d c93e
000002c0: 1c58 77be 55b9 273f 9367 08be 51b6 983f
000002d0: 2ed8 933e 0347 8e40 38e2 a9bd d2ad ac3e
000002e0: 5920 c2be dfe6 dcbf 7067 ac3d 0636 9ec0
000002f0: 9aaa 283f c85f c73f a6b2 e23e dc1f 523f
00000300: b4d6 1bbe 55f5 4040 71d2 7dbe 3f9a 3e40
00000310: 7807 ae3d 6db6 203f 6091 7cbd 2b03 cfbe
00000320: 87fb 39bf b947 2ec0 ae84 9dbe b5d2 29bf
00000330: 7ada cbbe f17f ae3f 5db2 cbbe 39f7 f73d
00000340: 3402 1b3f 557a ce3f cca4 74be e4fe 13be
00000350: 5995 1cbf e34f 973f 8dc6 ddbe 3cdc 793e
00000360: 0bfa a6bd 7184 0240 6aa0 fb3d b057 cabc
00000370: 0d99 95be 8af4 a43f a6a6 d53e 6034 29bd
00000380: c395 ddbe be4c 8f3f 30bf adbe 7ded 28bf
00000390: a13c 11bf 1948 0fbe c294 703d 4615 6f40
000003a0: 462f adbe 5cab 273f 537c fa3d a690 1240
000003b0: 6294 76be b10a 86c0 b82d 5f3f d698 8a3f
000003c0: 489b 353f a454 7640 08f6 1e3e 063b dc3e
000003d0: d109 64be db18 aa3e b901 28be 9513 c23f
000003e0: 9317 8cbe f54d 89c0 6a91 d73e c9d5 9cbd
000003f0: ac0b 883e 9f84 d2bf b0e9 92be d0e0 c63f

model.0.bias f4 [512]
0.26724786 0.43006578 -0.19564188 -0.18299772 -0.53741586 -0.27629215 -0.59745437 -0.09678918
0.3109231 -0.40360788 0.17905498 0.08033112 0.4718617 -0.112574205 -0.36254418 -0.27407324
-0.5672358 0.2309898 -0.31195775 0.19312054 0.5337173 0.55801594 -0.3811728 0.27757028
-0.56101704 -0.5961333 0.48399663 -0.29826912 0.035134897 -0.49904397 -0.37651497 0.38203868
-0.5488806 0.03878963 -0.26497555 0.58901775 -0.6768675 0.04071742 0.56408954 -0.08123817
0.56932425 -0.44130996 0.12765548 -0.46075767 -0.19950709 0.5604977 -0.24941722 -0.1763345
-0.20504476 -0.24877538 0.1771132 -0.48257983 -0.55814624 -0.5588617 0.103923835 0.52802163
-0.46047986 0.32821906 -0.34570023 0.018655024 -0.20690216 -0.5893823 -0.20612293 0.548756
-0.13761103 0.2560114 -0.08697878 -0.4479049 0.11170984 0.053912185 0.3299103 -0.1545626
-0.34634197 0.20756808 0.050553847 0.10495894 -0.25136963 -0.61457175 0.016848776 -0.36580175
-0.6373062 -0.089209594 -0.2914653 0.3607189 -0.19937104 -0.10821335 -0.08225076 -0.6403625
-0.6235395 0.19051564 -0.1039259 -0.15465164 -0.55680364 0.024589831 0.2847472 0.18774989
-0.1582205 -0.120876886 -0.29319268 -0.17552823 -0.56443214 -0.42624646 0.33656967 0.37787512
0.019090803 -0.48737282 0.59286374 -0.5250552 0.05997597 0.12186184 0.0447967 -0.3832751
0.3220029 -0.45633522 -0.15954967 -0.0029196285 0.45479822 0.14198244 -0.09005239 0.3798572
-0.12301948 -0.3270576 -0.2677075 0.034767218 -0.17542347 -0.24653985 0.105660416 0.07721878
-0.5401078 -0.36623713 0.16086301 0.24434607 -0.5614912 -0.36269432 0.052954752 0.5527102
0.01985312 -0.21492937 -0.5568105 0.5430841 -0.58557963 -0.65646344 0.19447906 -0.17058718
0.109024435 -0.43090752 -0.45134184 -0.0375032 -0.34072405 -0.70495355 0.24080154 0.04459542
-0.19164856 -0.3832471 0.042910084 0.39497915 0.032761306 -0.14867134 -0.3738405 -0.064377315
0.20386104 -0.14062153 -0.6348946 -0.028218891 -0.48183054 -0.34908083 0.17135641 -0.393751
0.4686736 -0.6279929 -0.2550454 -0.5094358 -0.17276186 -0.063262485 0.27485517 -0.32141444
-0.55159014 -0.2857997 -0.0978891 -0.21113423 -0.289928 -0.6875453 -0.19137615 -0.05755612
0.3672262 0.1087046 -0.61636317 -0.4042933 -0.293607 -0.3583875 -0.65025765 -0.10975908
0.17944846 -0.6003499 0.38460946 -0.11705678 -0.05675401 -0.6440862 -0.3377947 -0.25949234
-0.23452914 0.4575252 -0.60552466 -0.3070439 0.24498016 -0.43050495 0.14592522 -0.53913254
-0.096516296 -0.5875028 -0.5345012 -0.058082342 0.51771826 -0.5814433 -0.50120014 0.15606779
-0.271825 -0.6750164 0.010380938 0.50515854 -0.091994405 -0.3657766 -0.3857191 0.20729047
0.2966107 -0.4686745 -0.6320374 -0.31505036 -0.14929341 -0.25891265 -0.6885794 -0.12000027
0.12606147 0.18434633 -0.15243107 0.3821574 -0.28476036 -0.5259443 -0.6165194 -0.37638527
0.33466533 -0.44679323 -0.09973669 -0.57422066 -0.01097397 0.016947959 -0.5170475 0.044790443
-0.5450353 -0.29025456 -0.18008953 -0.66996974 -0.45866296 -0.48172125 -0.18088931 0.06900869
00000000: b6d4 883e 9531 dc3e 5856 48be c163 3bbe
00000010: 1694 09bf 2a76 8dbe c5f2 18bf 6839 c6bd
00000020: 5031 9f3e b1a5 cebe 305a 373e a484 a43d
00000030: db97 f13e 4e8d e6bd 649f b9be 5453 8cbe
00000040: 5e36 11bf 9788 6c3e edb8 9fbe 64c1 453e
00000050: b2a1 083f 22da 0e3f 1529 c3be b11d 8e3e
00000060: d09e 0fbf 319c 18bf 68ce f73e bbb6 98be
00000070: 9ce9 0f3d b182 ffbe 92c6 c0be 939a c33e
00000080: 7083 0cbf e0e1 1e3d e0aa 87be dec9 163f
00000090: 3047 2dbf 4fc7 263d 2c68 103f 3360 a6bd
000000a0: 3cbf 113f 61f3 e1be 1eb8 023e 6ee8 ebbe
000000b0: 964b 4cbe c77c 0f3f 3a67 7fbe 0891 34be
000000c0: 41f7 51be f9be 7ebe 2a5d 353e b414 f7be
000000d0: ace2 0ebf 8f11 0fbf 05d6 d43d 6d2c 073f
000000e0: 04c4 ebbe 540c a83e 9fff b0be 6cd2 983c
000000f0: 29de 53be c2e1 16bf e411 53be 467b 0c3f
00000100: e8e9 0cbe ed13 833e ee21 b2bd cb53 e5be
00000110: 21c8 e43d 06d3 5c3d 01ea a83e a945 1ebe
00000120: bc53 b1be ba8c 543e 8d11 4f3d b6f4 d63d
00000130: 85b3 80be 9354 1dbf 7206 8a3c 5e4a bbbe
00000140: 8026 23bf 85b3 b6bd f13a 95be 26b0 b83e
00000150: ec27 4cbe f69e ddbd 1673 a8bd ccee 23bf
00000160: 49a0 1fbf 8816 433e 1ad7 d4bd 005d 1ebe
00000170: af8a 0ebf 9d70 c93c 63ca 913e 8241 403e
00000180: 8e04 22be 4d8e f7bd 5a1d 96be acbd 33be
00000190: a07e 10bf fa3c dabe dc52 ac3e d978 c13e
000001a0: 5164 9c3c ee88 f9be ebc5 173f 056a 06bf
000001b0: 5da9 753d b392 f93d bf7c 373d a23c c4be
000001c0: 90dd a43e c5a4 e9be fd60 23be 3d57 3fbb
000001d0: 50db e83e d863 113e 636d b8bd a57c c23e
000001e0: a3f1 fbbd 1874 a7be f510 89be 1268 0e3d
000001f0: 36a2 33be f174 7cbe 7d64 d83d e124 9e3d
00000200: 8144 0abf 6f83 bbbe 46b9 243e db35 7a3e
00000210: e3bd 0fbf 12b3 b9be 15e7 583d 6a7e 0d3f
00000220: 03a3 a23c 7216 5cbe 228b 0ebf 8f07 0b3f
00000230: 8ce8 15bf fd0d 28bf 8525 473e 68ae 2ebe
00000240: 3448 df3d e99f dcbe 4716 e7be f59c 19bd
00000250: 6273 aebe d677 34bf ae94 763e b0a9 363d
00000260: 853f 44be f738 c4be 7cc2 2f3d b53a ca3e
00000270: b830 063d 4d3d 18be 0668 bfbe 41d8 83bd
00000280: f3c0 503e 17ff 0fbe 7488 22bf 4e2b e7bc
00000290: 7eb2 f6be b9ba b2be 0e78 2f3e bb99 c9be
000002a0: fcf5 ef3e 25c4 20bf 5095 82be 626a 02bf
000002b0: 7ce8 30be c38f 81bd d1b9 8c3e 6f90 a4be
000002c0: 0335 0dbf 5754 92be 157a c8bd 9233 58be
000002d0: 7171 94be f802 30bf 1cf8 43be f7bf 6bbd
000002e0: 1305 bc3e 84a0 de3d fac9 1dbf 88ff cebe
000002f0: a853 96be 917e b7be 4977 26bf 5ec9 e0bd
00000300: 56c1 373e 88b0 19bf 88eb c43e 77bb efbd
00000310: e576 68bd d5e2 24bf 6df3 acbe 2edc 84be
00000320: 6828 70be be40 ea3e aa03 1bbf dc34 9dbe
00000330: 14dc 7a3e 256b dcbe 6c6d 153e 9704 0abf
00000340: 56aa c5bd 9566 16bf 12d5 08bf c0e7 6dbd
00000350: 2f89 043f 78d9 14bf a74e 00bf 3cd0 1f3e
00000360: a52c 8bbe e0cd 2cbf cf14 2a3c 1252 013f
00000370: 9067 bcbd 1247 bbbe f97c c5be f443 543e
00000380: 5cdd 973e 1bf6 efbe 34cd 21bf 484e a1be
00000390: 5fe0 18be 3390 84be bd46 30bf b4c2 f5bd
000003a0: 4216 013e 49c5 3c3e e416 1cbe 22aa c33e
000003b0: 1ccc 91be 49a4 06bf 37d4 1dbf 92b5 c0be
000003c0: 4159 ab3e 15c2 e4be c042 ccbd 2000 13bf
000003d0: 2bcc 33bc 72d6 8a3c 3a5d 04bf 2f76 373d
000003e0: 6f87 0bbf 3f9c 94be 6469 38be 2383 2bbf
000003f0: dfd5 eabe 2ba4 f6be 0c3b 39be 6e54 8d3d

model.2.weight f4 [256, 512]
-0.049745545 -0.022223648 0.03154208 -0.025946774 -0.00894532 -0.02489205 0.06545784 -0.010141607
-0.04853115 -0.22919297 0.007333651 -0.03637616 0.01049793 -0.005037199 -0.18531421 0.12937298
0.010246672 -0.010127933 -0.017548889 -0.055593055 -0.046467423 0.012973642 0.024148624 -0.06594255
0.018777538 0.029995557 -0.0010462404 -0.0402819 0.099105105 0.011149995 -0.100504406 -0.0054730843
-0.23967737 0.005544522 0.04846919 -0.014802578 0.0023823045 -0.016834212 0.010074811 -0.010020879
-0.018054489 -0.04120494 -0.065309756 -0.09592319 -0.0056222365 -0.032765906 -0.00745837 0.027265642
-0.071717076 -0.046569154 -0.025317214 -0.03975178 0.00035876036 0.1339866 -0.05149444 -0.00775322
-0.026896385 0.015937895 0.042863835 -0.005995776 -0.026291506 -0.012065399 0.021905687 -0.0029245927
-0.04075504 -0.0056104404 -0.036435924 -0.040703855 -0.047911696 -0.07131839 -0.022045033 -0.011891135
0.009084895 0.039511092 -0.06071138 0.011211471 0.03824461 -0.032629672 0.0054320763 -0.011080831
-0.011082891 -0.10127321 -0.16069917 -0.028116604 -0.037288744 0.0056149964 0.05870946 0.0062610134
0.017742544 -0.006673715 -0.13057238 0.009035002 -0.04641461 -0.049448323 -0.04429333 -0.06336078
-0.10609156 -0.0067520947 0.00643396 0.02949727 0.00010725632 -0.042037368 0.011545929 -0.04463244
0.020524474 -0.022837285 -0.011603714 0.021407196 -0.060445864 -0.0011195256 -0.08680973 0.00018066168
-0.057907525 -0.17200953 -0.0739255 -0.04432243 -0.06300201 0.014155 -0.010048658 -0.0005346689
-0.010108479 -0.0035526752 -0.03144172 -0.012874136 -0.05928887 0.045416985 -0.032176707 -0.024265883
0.093671456 -0.029569564 -0.04173151 -0.03270778 0.016762733 0.002203388 -0.03400233 -0.024669666
-0.050384156 -0.050588258 0.028417382 -0.06469544 0.037641358 0.032762457 -0.052759975 -0.014329697
-0.044797346 0.023418102 0.0073799603 -0.06461617 -0.02908849 0.02108099 -0.008634475 0.010408281
-0.04945062 -0.21961677 0.003834934 0.0147931 0.014348361 -0.007847917 0.02547234 -0.0016727932
-0.059963144 -0.06363524 -0.039643653 -0.047951695 -0.025274647 0.025561485 -0.13849421 -0.02762894
-0.024603266 -0.0034381673 0.011742633 0.04063314 0.0028357357 -0.08045261 -0.024444394 -0.1986497
-0.023404377 0.041599046 0.08279964 -0.09235606 0.0076898783 -0.012577187 0.00021296917 0.0030269802
0.005771841 -0.060350105 0.0406659 -0.013487792 0.01879413 -0.06353411 -0.031239633 -0.15824834
0.007298042 -0.0341046 -0.02993935 0.0023581071 0.035735052 0.029379386 -0.04338614 -0.040958542
-0.043156154 -0.06646181 -0.005494233 -0.01862229 -0.048132557 -0.14161767 -0.07226767 -0.0428384
0.026214367 -0.14248876 -0.08562099 -0.019812712 0.0074963346 0.0018681288 -0.08802735 -0.056563344
0.01568789 0.117859855 -0.0065629827 -0.06058703 -0.01977234 -0.14735892 0.024284307 -0.025129642
-0.030208739 -0.03254958 0.024924543 -0.043901723 -0.028098892 0.016450074 -0.02652159 0.016292166
0.0065484964 -0.025269954 0.025173757 -0.026219431 -0.057134245 -0.025525412 0.035624426 -0.03661304
-0.026633473 0.024162918 -0.06089775 0.016957577 -0.037499133 0.035664048 -0.017536571 -0.074395895
-0.040051594 -0.0208789 -0.036875837 -0.020380208 0.0018605102 0.0044820416 -0.010368507 0.12094178
00000000: fcc1 4bbd 5e0e b6bc 4532 013d 548e d4bc
00000010: 648f 12bc 6aea cbbc c30e 863d fc28 26bc
00000020: 99c8 46bd 90b1 6abe 204f f03b 2bff 14bd
00000030: 83ff 2b3c 160f a5bb 02c3 3dbe 5a7a 043e
00000040: a8e1 273c a1ef 25bc b0c2 8fbc 8bb5 63bd
00000050: a054 3ebd 668f 543c 56d3 c53c e30c 87bd
00000060: 5ad3 993c 3eb9 f53c 0122 89ba a2fe 24bd
00000070: 9ef7 ca3d 78ae 363c 41d5 cdbd 8f57 b3bb
00000080: fc6d 75be d2ae b53b a187 463d 8386 72bc
00000090: 7020 1c3b e7e7 89bc d210 253c 9d2e 24bc
000000a0: 02e7 93bc 83c6 28bd 1fc1 85bd 6173 c4bd
000000b0: bd3a b8bb 8b35 06bd 5865 f4bb 325c df3c
000000c0: 67e0 92bd 4cbf 3ebd 0c66 cfbc c3d2 22bd
000000d0: 0018 bc39 c933 093e d5eb 52bd b90e febb
000000e0: cf55 dcbc 3090 823c fd91 2f3d 3778 c4bb
000000f0: 4961 d7bc f4ad 45bc 8e73 b33c 86aa 3fbb
00000100: c2ee 26bd c9d7 b7bb d63d 15bd 16b9 26bd
00000110: 0e3f 44bd 600f 92bd c997 b4bc 09d3 42bc
00000120: d0d8 143c 62d6 213d 7fac 78bd 51b0 373c
00000130: 61a6 1c3d b1a6 05bd 8fff b13b 608c 35bc
00000140: 0495 35bc 5468 cfbd 538e 24be cb54 e6bc
00000150: 15bc 18bd 01fe b73b 5579 703d 3029 cd3b
00000160: d058 913c 2eaf dabb c4b4 05be 8c07 143c
00000170: 3f1d 3ebd 538a 4abd ec6c 35bd 4cc3 81bd
00000180: 8846 d9bd ad40 ddbb f8d3 d23b 42a4 f13c
00000190: ccee e038 602f 2cbd 232b 3d3c 81d0 36bd
000001a0: f122 a83c 4215 bbbc 811d 3ebc 255e af3c
000001b0: 1596 77bd 0cbd 92ba 4dc9 b1bd 0070 3d39
000001c0: 7130 6dbd 4423 30be 4166 97bd 708b 35bd
000001d0: 3307 81bd 60ea 673c 20a3 24bc 0629 0cba
000001e0: 099e 25bc 00d4 68bb 08c9 00bd 0aee 52bc
000001f0: e3d8 72bd 2907 3a3d b9cb 03bd 3fc9 c6bc
00000200: d2d6 bf3d df3b f2bc a9ee 2abd 98f8 05bd
00000210: 0052 893c b766 103b 0746 0bbd 0a18 cabc
00000220: 9e5f 4ebd a235 4fbd 92cb e83c 0b7f 84bd
00000230: d32d 1a3d ed31 063d d81a 58bd 1bc7 6abc
00000240: 6c7d 37bd 52d7 bf3c 98d3 f13b 7c55 84bd
00000250: fc4a eebc 0ab2 ac3c 9d77 0dbc 7f87 2a3c
00000260: bc8c 4abd 38e3 60be 8453 7b3b c25e 723c
00000270: 6315 6b3c 8d94 00bc 5eab d03c a041 dbba
00000280: ea9b 75bd 3153 82bd 6261 22bd ff68 44bd
00000290: c70c cfbc 5266 d13c 6dd1 0dbe 1656 e2bc
000002a0: ca8c c9bc e052 61bb 2c64 403c ef6e 263d
000002b0: c0d7 393b 57c4 a4bd 9c3f c8bc d46a 4bbe
000002c0: 89ba bfbc c363 2a3d dc92 a93d 2d25 bdbd
000002d0: 60fb fb3b 8c10 4ebc 7a50 5f39 4d60 463b
000002e0: b621 bd3b ac31 77bd 4991 263d e6fb 5cbc
000002f0: 26f6 993c 2c1e 82bd 42ea ffbc da0b 22be
00000300: 6a24 ef3b 44b1 0bbd 5e43 f5bc 798a 1a3b
00000310: eb5e 123d 0aad f03c aab5 31bd 25c4 27bd
00000320: 82c4 30bd 211d 88bd f808 b4bb c68d 98bc
00000330: a526 45bd 3904 11be 1201 94bd 5177 2fbd
00000340: 83bf d63c 93e8 11be 0f5a afbd 454e a2bc
00000350: d0a3 f53b 00dc f43a af47 b4bd f7ae 67bd
00000360: e483 803c 8260 f13d 4a0e d7bb 1b2a 78bd
00000370: 9af9 a1bc 42e5 16be e2ef c63c aedc cdbc
00000380: 5178 f7bc b552 05bd 8e2e cc3c 4bd2 33bd
00000390: a62f e6bc 4ec2 863c ce43 d9bc 2677 853c
000003a0: c594 d63b ef02 cfbc 3239 ce3c 22ca d6bc
000003b0: 9905 6abd ab1a d1bc ebea 113d 8ef7 15bd
000003c0: 712e dabc 50f1 c53c eb6f 79bd 9eea 8a3c
000003d0: b198 19bd 7714 123d dba8 8fbc e05c 98bd
000003e0: 240d 24bd 3a0a abbc 1e0b 17bd 65f4 a6bc
000003f0: 5ddc f33a 17de 923b ace0 29bc 53b0 f73d

model.2.bias f4 [256]
0.015807139 0.007430779 -0.03909151 -0.017903363 -0.024060762 -0.006521125 -0.031931125 -0.033299703
0.025861964 0.029926125 -0.010523477 -0.05079615 -0.043994416 -0.009253867 -0.017767858 -0.0064203464
0.021371743 -0.0047363713 -0.053702284 0.013160832 -0.039577786 -0.012143438 -0.03695088 0.0019365764
-0.011053906 0.016882148 -0.017177805 0.029001521 -0.010447227 0.02034035 -0.06819074 -0.030794546
0.016370777 0.02285112 -0.013165749 -0.039104734 0.01839319 -0.034663487 0.024917882 0.024276983
-0.034052692 0.0024597496 -0.006431449 -0.046413977 -0.04023005 -0.027393352 -0.047886726 0.025275527
-0.03756473 0.12297789 -0.039355773 0.021417663 -0.04830841 0.011631094 0.0017594076 -0.016175732
-0.04690817 0.016153594 0.03396647 0.14728357 0.024543393 0.005798142 0.037334695 -0.025301531
-0.010820637 -0.00604936 -0.043692823 -0.015505537 -0.013651991 -0.068413734 -0.0021970456 -0.041181717
0.01745747 -0.009188576 -0.015272826 -0.046777323 0.015481708 0.032362953 -0.01713782 0.13906713
0.043074455 -0.042482197 -0.023522036 -0.0048759864 -0.043132663 -0.023212567 -0.04877803 0.013968639
-0.01298558 -0.03205104 -0.016266841 -0.015098157 -0.041241057 -0.03230335 0.17048034 0.011271703
0.009705491 -0.05119571 0.0114103155 -0.028646022 0.14221945 0.024886204 0.01467732 -0.00077873876
-0.048853748 -0.028311126 -0.01570714 0.019935925 -0.0451973 0.06731716 0.007893305 0.022518266
-0.047450785 -0.016623573 0.030630171 -0.013145048 0.01480053 0.034902994 0.0071480423 -0.003395484
0.005409339 -0.028491735 0.03313389 -0.014935352 0.0016335142 0.007720177 -0.0009749172 0.0093476195
-0.03312403 -0.07255769 0.021140372 -0.05873536 -0.027591703 0.030770293 -0.01631158 0.032585643
-0.066924796 0.031742938 0.006788644 -0.04363547 -0.035202827 -0.024877217 0.0024389378 -0.04053003
-0.028353326 0.09373427 -0.028534317 -0.043531753 0.013316609 0.025437143 -0.064417414 0.19255836
-0.018506806 0.02062649 0.010619888 -0.012743285 -0.015972288 0.024656067 0.011188556 0.07570895
-0.004913082 -0.037104703 0.028712524 0.0229152 0.18457685 0.018307844 0.021616051 0.010112926
-0.032808285 0.037256412 0.06945872 -0.025033742 0.159314 0.037420914 0.0028473663 0.0260225
0.0009402739 -0.04610061 -0.018737486 0.011891734 0.06636922 0.039956916 0.023897711 0.1582663
-0.030343365 -0.03261347 0.03419483 -0.013142382 0.03529942 -0.029751865 0.036061846 0.021659998
0.033238415 -0.008798672 0.0061230944 -0.0018257536 -0.022980921 0.08428756 0.003213822 -0.017186426
0.013726627 -0.031523213 0.011206328 0.040186353 -0.027011804 0.019378627 -0.014408416 -0.023400493
-0.04364604 -0.061632022 -0.03038115 -0.046372578 0.0037273592 -0.036811452 -0.039289013 -0.008152608
0.0965815 0.090659596 -0.001522737 -0.009533172 0.0002789443 -0.06500096 0.025478398 0.011896705
0.010098458 0.007039629 -0.021244377 -0.06400471 -0.014407017 0.008854691 0.015637541 0.009192833
0.024631312 0.0096430965 -0.0029786946 -0.027023368 0.008359579 -0.030946087 0.010982277 -0.01579185
-0.028423961 -0.056707293 -0.013192459 -0.013394063 -0.024428988 -0.10541901 0.00028386308 -0.02938458
0.0025540814 0.01971634 -0.020035828 0.035046313 -0.048878957 0.027666131 0.0013616335 -0.021712607
00000000: f97d 813c e47d f33b 6b1e 20bd 13aa 92bc
00000010: 131b c5bc 29af d5bb 36ca 02bd 4565 08bd
00000020: 78dc d33c a227 f53c a96a 2cbc a00f 50bd
00000030: 7d33 34bd 889d 17bc e68d 91bc c561 d2bb
00000040: cb13 af3c 9033 9bbb edf6 5bbd 88a0 573c
00000050: 511c 22bd 45f5 46bc ce59 17bd b9d4 fd3a
00000060: 711b 35bc 6e4c 8a3c 78b8 8cbc 9994 ed3c
00000070: d92a 2bbc cea0 a63c 96a7 8bbd d844 fcbc
00000080: 021c 863c 4632 bb3c 27b5 57bc 492c 20bd
00000090: 51ad 963c 4dfb 0dbd 9620 cc3c 86e0 c63c
000000a0: d67a 0bbd c033 213b e8be d2bb 951c 3ebd
000000b0: 44c8 24bd 0668 e0bc df24 44bd 9f0e cf3c
000000c0: 79dd 19bd d5db fb3d 8533 21bd 1874 af3c
000000d0: 0adf 45bd 5890 3e3c ec9b e63a f882 84bc
000000e0: c822 40bd 8b54 843c 6d20 0b3d 81d1 163e
000000f0: 3a0f c93c 57fe bd3b 44ec 183d 2845 cfbc
00000100: 0b49 31bc b639 c6bb 3ff7 32bd f00a 7ebc
00000110: 9aac 5fbc 801c 8cbd 4ffc 0fbb 29ae 28bd
00000120: f802 8f3c ae8b 16bc e03a 7abc 9499 3fbd
00000130: fda6 7d3c 048f 043d 9d64 8cbc 9d67 0e3e
00000140: d76e 303d d001 2ebd 49b1 c0bc bdc6 9fbb
00000150: e0ab 30bd 4828 bebc 79cb 47bd b8dc 643c
00000160: 78c1 54bc f447 03bd 0a42 85bc 435e 77bc
00000170: 62ec 28bd 8450 04bd 6692 2e3e f3ac 383c
00000180: c803 1f3c 98b2 51bd 55f2 3a3c 10ab eabc
00000190: faa1 113e 27de cb3c 2479 703c 4624 4cba
000001a0: de1a 48bd bcec e7bc 43ac 80bc aa50 a33c
000001b0: ce20 39bd 94dd 893d ec52 013c 3a78 b83c
000001c0: c15b 42bd 292e 88bc 20ec fa3c 545e 57bc
000001d0: ec7d 723c 71f6 0e3d 203a ea3b c586 5ebb
000001e0: d340 b13b 8067 e9bc 67b7 073d 68b3 74bc
000001f0: a41b d63a 8af9 fc3b 9691 7fba c226 193c
00000200: 10ad 07bd 2099 94bd 932e ad3c 7d94 70bd
00000210: ff07 e2bc fb11 fc3c dd9f 85bc 8678 053d
00000220: de0f 89bd e204 023d 4673 de3b 1bbb 32bd
00000230: d730 10bd 4ecb cbbc 96d6 1f3b d102 26bd
00000240: 3c45 e8bc c1f7 bf3d cdc0 e9bc 5a4e 32bd
00000250: e82d 5a3c 8e61 d03c 47ed 83bd 052e 453e
00000260: 969b 97bc e2f8 a83c 0aff 2d3c 36c9 50bc
00000270: 51d8 82bc 85fb c93c 3550 373c 4b0d 9b3d
00000280: ebfd a0bb 1afb 17bd 8736 eb3c a8b8 bb3c
00000290: b701 3d3e 55fa 953c 2514 b13c b0b0 253c
000002a0: fb61 06bd 2e9a 183d 6040 8e3d 9013 cdbc
000002b0: 3623 233e ac46 193d e19a 3a3b 232d d53c
000002c0: b77c 763a fed3 3cbd 5b7f 99bc 8cd5 423c
000002d0: 96ec 873d dda9 233d 22c5 c33c 9010 223e
000002e0: a692 f8bc b495 05bd e10f 0c3d 2553 57bc
000002f0: 2096 103d 2fba f3bc 96b5 133d 4f70 b13c
00000300: 0125 083d 4e28 10bc 3da4 c83b 204e efba
00000310: 7c42 bcbc f59e ac3d fc9e 523b 8cca 8cbc
00000320: a6e5 603c 7c1e 01bd bf9a 373c 729a 243d
00000330: dc47 ddbc edbf 9e3c 4711 6cbc 64b2 bfbc
00000340: 31c6 32bd dc71 7cbd e4e1 f8bc 2cf1 3dbd
00000350: b646 743b 9bc7 16bd 84ed 20bd 8492 05bc
00000360: 85cc c53d bdab b93d 9396 c7ba 0531 1cbc
00000370: 453f 9239 391f 85bd 13b8 d03c 66ea 423c
00000380: 0174 253c b0ac e63b b008 aebc e714 83bd
00000390: 690b 6cbc 4413 113c 4d1a 803c 899d 163c
000003a0: 9bc7 c93c 14fe 1d3c 3436 43bb 1c60 ddbc
000003b0: 9ef6 083c a682 fdbc 02ef 333c e95d 81bc
000003c0: 5ed9 e8bc e845 68bd 2f25 58bc c672 5bbc
000003d0: 4d1f c8bc ece5 d7bd 75d3 9439 eeb7 f0bc
000003e0: 6062 273b 2984 a13c 2d22 a4bc b98c 0f3d
000003f0: 4d35 48bd 15a4 e23c d778 b23a a3de b1bc

model.4.weight f4 [128, 256]
-0.037153743 -0.012826867 -0.044348884 -1.8501148 0.024945162 -0.020407265 -0.02726907 0.0031080802
0.22217456 0.032789215 0.002798698 -0.0372557 -0.0074804663 0.013960429 0.007435754 -0.0010387801
0.021752097 -0.016647942 -0.0026097447 -0.01633779 0.057270393 0.04307575 0.11657611 0.02019701
-0.017655132 0.047036625 -0.03146091 -0.029873358 0.03217423 -0.022320211 -0.01068221 0.05387087
0.17675799 -0.017415456 0.034829065 -0.013547518 -0.0022483703 0.040863894 -0.000860773 0.017426059
0.014388928 0.028862614 -0.03855365 -0.021136349 -0.030577369 0.024296105 -0.048863944 -0.045356836
0.254508 0.11922629 -0.026800133 -0.047897212 -0.06262604 -0.051437918 0.026517143 -0.008818497
-0.043904614 -0.030813051 -0.02950938 0.20037808 -0.004329458 -0.080751434 0.05244208 0.010423608
0.0052869306 0.05908538 0.06915493 0.056819126 -0.016558988 0.011174644 -0.030529061 -0.054523498
-0.042011455 0.059147336 -0.02437131 0.055014722 -0.033316877 -0.014757566 -0.0065060407 0.159761
-0.061042078 -0.015594899 -0.02313374 -0.031165982 0.024746314 -0.039511964 -0.047871176 0.043439
-0.00075078773 -0.04612957 -0.08982992 0.03750328 0.026518993 -0.0744658 0.14632109 0.010234229
0.0704534 0.08363085 -0.027630772 0.029036619 0.1826441 -0.0016321049 -0.009393025 0.036771365
-0.046436667 0.0548612 -0.04563823 -0.055855267 0.037657768 0.2908477 0.02565276 -0.041585833
-0.0035315917 -0.032507062 0.04074509 0.049803667 -0.018918144 0.060017336 0.03772588 0.01797869
-0.047033668 -0.0694644 -0.030003563 0.010259576 0.029142853 -0.016494894 0.01739644 0.054690234
-0.00073452917 -0.016564032 -0.063675724 0.071766354 0.01135477 -0.03223165 -0.016360251 -0.01779838
-0.003641547 -0.010871098 -0.0028785947 0.06167048 0.07191188 -0.00012617442 -0.044399627 -0.0045514335
0.048047986 0.2633691 -0.025082879 0.056318354 0.023527877 -0.036787093 -0.013618227 0.1582531
0.024418086 -0.006066948 -0.043199945 -0.023402197 0.033287887 -0.0071355635 0.06709113 0.38975525
-0.009667595 0.02802343 0.04971742 -0.04010563 0.17889833 0.023017755 -0.029806707 -0.016021445
-0.010123028 -3.5362413e-05 0.22231393 0.052347552 0.18427867 0.03385859 0.04407269 0.010090714
-0.010006327 0.011372655 -0.025729317 0.017541701 0.18416348 -0.007206425 0.017466927 0.11782077
0.067180574 -0.061206736 0.016325176 0.052120082 -0.020565484 0.023597933 0.24518873 -0.0013877123
0.017022872 0.05824218 -0.032322645 -0.0074589476 0.020789286 0.10435416 -0.050092883 -0.045699116
-0.0080339275 -0.022108547 0.03085241 0.27464247 0.12943687 0.030046733 -0.036845367 0.021440858
0.010606423 -0.0041733184 -0.016894437 0.038341094 -0.020170331 -0.00037796795 -0.037473164 -0.014617726
0.2324847 0.14483932 0.013684266 -0.032864038 0.024265349 0.025693648 -0.037230797 -0.053562634
0.29053864 -0.019812444 0.008090608 0.02379977 0.022316819 0.0043888446 -0.032911073 -0.0056638196
0.30060714 0.058418635 0.07964971 0.045745797 0.062842555 0.026727933 0.009958458 -0.015397318
-0.034059204 0.042655513 -0.044755556 0.050011963 -0.0001821369 0.13490808 0.01871348 -0.0012947153
0.010125309 -0.03180265 -0.014075998 0.32887894 -0.022245929 0.28164738 -0.0078706425 0.039654486
00000000: 862e 18bd c827 52bc 2da7 35bd 90d0 ecbf
00000010: cc59 cc3c 232d a7bc 6263 dfbc efb0 4b3b
00000020: ba81 633e fc4d 063d 5c6a 373b 6f99 18bd
00000030: b31e f5bb 48ba 643c a0a7 f33b ad27 88ba
00000040: 7431 b23c 4461 88bc 4008 2bbb d4d6 85bc
00000050: 5c94 6a3d 3370 303d 75bf ee3d 3374 a53c
00000060: 7fa1 90bc 7aa9 403d 28dd 00bd f9b8 f4bc
00000070: 20c9 033d e0d8 b6bc 7004 2fbc b4a7 5c3d
00000080: 0c00 353e dcaa 8ebc eca8 0e3d 69f6 5dbc
00000090: 6559 13bb e660 273d 80a5 61ba 18c1 8e3c
000000a0: 8abf 6b3c 4a71 ec3c 6fea 1dbd 2326 adbc
000000b0: 647d fabc a008 c73c 8f25 48bd 17c8 39bd
000000c0: df4e 823e ea2c f43d f48b dbbc de2f 44bd
000000d0: 1542 80bd 91b0 52bd 7b3a d93c 757b 10bc
000000e0: 53d5 33bd a76b fcbc a8bd f1bc e92f 4d3e
000000f0: 20de 8dbb 0261 a5bd 82cd 563d c8c7 2a3c
00000100: fd3d ad3b 8303 723d 1aa1 8d3d 2cbb 683d
00000110: b7a6 87bc db15 373c 1518 fabc 0854 5fbd
00000120: 3414 2cbd 7a44 723d 57a6 c7bc 1e57 613d
00000130: 4777 08bd b8c9 71bc a030 d5bb 6398 233e
00000140: 4207 7abd bf81 7fbc f882 bdbc cd4f ffbc
00000150: c8b8 ca3c 4cd7 21bd 9114 44bd 18ed 313d
00000160: 83d0 44ba 5cf2 3cbd c0f8 b7bd 0a9d 193d
00000170: 5c3e d93c 8681 98bd 32d5 153e 78ad 273c
00000180: df49 903d a746 ab3d ee59 e2bc 34de ed3c
00000190: 0e07 3b3e 5aec d5ba 34e5 19bc 929d 163d
000001a0: 6034 3ebd 23b6 603d 27ef 3abd 7ec8 64bd
000001b0: 083f 1a3d fde9 943e bd25 d23c e855 2abd
000001c0: 4772 67bb 2026 05bd 53e4 263d eefe 4b3d
000001d0: 39fa 9abc bdd4 753d 7486 1a3d 0c48 933c
000001e0: 60a6 40bd 5a43 8ebd 08ca f5bc c817 283c
000001f0: febc ee3c 4d20 87bc fb82 8e3c de02 603d
00000200: 6b8d 40ba 4bb1 87bc 6b68 82bd 3dfa 923d
00000210: 5b09 3a3c 5605 04bd ef05 86bc e9cd 91bc
00000220: 05a7 6ebb b11c 32bc cea6 3cbb 2f9a 7c3d
00000230: 8946 933d b04d 04b9 62dc 35bd 3124 95bb
00000240: f7cd 443d 51d8 863e 9c7a cdbc 13ae 663d
00000250: 89bd c03c 10ae 16bd fc1e 5fbc 1a0d 223e
00000260: 7008 c83c 40cd c6bb 6df2 30bd f7b5 bfbc
00000270: e158 083d 72d1 e9bb 1367 893d 008e c73e
00000280: d564 1ebc 6491 e53c 7ea4 4b3d cd45 24bd
00000290: 2031 373e bb8f bc3c 322d f4bc 683f 83bc
000002a0: 0fdb 25bc 1a52 14b8 43a6 633e 636a 563d
000002b0: 8cb3 3c3e 4eaf 0a3d 9185 343d 8653 253c
000002c0: 94f1 23bc 5f54 3a3c 4ac6 d2bc 9db3 8f3c
000002d0: 5a95 3c3e e023 ecbb cd16 8f3c 044c f13d
000002e0: f895 893d eab3 7abd 60bc 853c de7b 553d
000002f0: f278 a8bc 7450 c13c c112 7b3e e6e3 b5ba
00000300: 8d73 8b3c 5a8f 6e3d c064 04bd 306a f4bb
00000310: 4b4e aa3c a2b7 d53d 322e 4dbd ff2e 3bbd
00000320: bca0 03bc fc1c b5bc 31be fc3c f09d 8c3e
00000330: 198b 043e 9124 f63c 2beb 16bd bda4 af3c
00000340: 90c6 2d3c 55c0 88bb 3466 8abc 8d0b 1d3d
00000350: 403c a5bc 002a c6b9 767d 19bd 307f 6fbc
00000360: 7810 6e3e c250 143e f933 603c 719c 06bd
00000370: 20c8 c63c 7c7b d23c 527f 18bd 7e64 5bbd
00000380: 7bc1 943e b54d a2bc 788e 043c bcf7 c23c
00000390: c3d1 b63c 4cd0 8f3b c3cd 06bd 9097 b9bb
000003a0: 2ee9 993e 6148 6f3d 631f a33d f25f 3b3d
000003b0: 99b3 803d 8af4 da3c cd28 233c 0845 7cbc
000003c0: aa81 0bbd 8cb7 2e3d 9a51 37bd 58d9 4c3d
000003d0: 00fc 3eb9 5825 0a3e 034d 993c 70b3 a9ba
000003e0: a0e4 253c 7f43 02bd 049f 66bc d262 a83e
000003f0: 183d b6bc 1634 903e def3 00bc be6c 223d

model.4.bias f4 [128]
0.15624034 -0.06353008 0.19926554 0.042434953 0.063555814 0.46816814 -0.037175726 0.007960472
-0.014168386 0.16382898 0.03450805 -0.11895721 0.039295718 0.0577321 0.35962892 0.021304572
-0.036392488 0.04486446 0.067706324 0.08959492 -0.0562833 -0.08213958 -0.038418546 -0.017150754
0.035824493 -0.023573872 -0.00067495235 0.035623737 -0.0048414757 -0.022468502 0.20325586 0.19034533
-0.007604368 0.0015568044 0.20992678 0.2669141 -0.0508935 0.14375317 -0.001063164 -0.04577487
-0.08135353 -0.010609982 -0.04390213 -0.051490262 0.03726282 -0.042877078 0.08913606 -0.0130982
0.053957243 0.40031445 -0.09825734 -0.04416281 -0.08439835 -0.017500743 0.4254854 0.46745232
-0.010895582 -0.025158469 -0.0126433605 -0.044672012 0.34108406 0.15623674 0.25947812 0.010341804
-0.025515527 -0.08962731 -0.08025329 0.011257817 -0.06176978 0.21323973 -0.036756374 0.10935425
-0.026288537 0.16215171 -0.04699652 -0.06558804 0.029125027 -0.05709659 -0.06790027 0.25023523
0.015813742 -0.07871966 -0.077946335 -0.089609586 -0.066576995 -0.015460825 -0.083130375 -0.09205786
-0.016052006 0.09992776 0.09247571 0.24288389 -0.07779364 0.014305019 0.45114753 0.2580466
0.03195251 0.024573445 -0.12607418 0.0904242 0.22421543 0.0025021138 0.044808127 0.022037962
-0.0685426 -0.041316226 0.45836127 -0.064391986 0.20366932 -0.061230436 -0.018230068 -0.07910243
0.025973944 0.4331908 0.45661598 -0.016047822 -0.010821635 -0.045918614 -0.07592273 -0.08210608
-0.04506081 0.04961509 0.019192679 -0.02119203 0.023600796 0.24199249 -0.09657075 -0.07027198
00000000: 78fd 1f3e 0f1c 82bd 440c 4c3e 46d0 2d3d
00000010: 8d29 823d bcb3 ef3e 9345 18bd a46c 023c
00000020: 8522 68bc c9c2 273e 5058 0d3d d69f f3bd
00000030: 8cf4 203d 7f78 6c3d 4821 b83e ed86 ae3c
00000040: 4a10 15bd ccc3 373d 9da9 8a3d 8b7d b73d
00000050: 5189 66bd cc38 a8bd c45c 1dbd bd7f 8cbc
00000060: b4bc 123d fe1d c1bc 49ef 30ba 32ea 113d
00000070: 3ea5 9ebb dd0f b8bc 4e22 503e e3e9 423e
00000080: 102e f9bb b00d cc3a 0cf7 563e f7a8 883e
00000090: b475 50bd 0834 133e dd59 8bba 6e7e 3bbd
000000a0: ae9c a6bd 7dd5 2dbc b8d2 33bd 74e7 52bd
000000b0: e6a0 183d e09f 2fbd f78c b63d d599 56bc
000000c0: 4502 5d3d 04f6 cc3e 253b c9bd 10e4 34bd
000000d0: 0bd9 acbd b85d 8fbc 39d9 d93e e955 ef3e
000000e0: 6283 32bc 2219 cebc 1926 4fbc 00fa 36bd
000000f0: 92a2 ae3e 86fc 1f3e 51da 843e ab70 293c
00000100: f005 d1bc 868e b7bd d65b a4bd b572 383c
00000110: 4f02 7dbd 845b 5a3e da8d 16bd 1ff5 df3d
00000120: 0f5b d7bc 190b 263e 6c7f 40bd 0653 86bd
00000130: 9c97 ee3c 1dde 69bd 4c0f 8bbd d51e 803e
00000140: d28b 813c c637 a1bd 54a2 9fbd 3b85 b7bd
00000150: 8559 88bd 664f 7dbc 4240 aabd d588 bcbd
00000160: 7f7f 83bc eda6 cc3d e863 bd3d 8eb6 783e
00000170: 4652 9fbd 995f 6a3c cffc e63e af1e 843e
00000180: a3e0 023d 404e c93c 9719 01be 5330 b93d
00000190: bb98 653e 81fa 233b ba88 373d f588 b43c
000001a0: 1060 8cbd 343b 29bd 54ae ea3e f2df 83bd
000001b0: b18e 503e c4cc 7abd 3957 95bc 7400 a2bd
000001c0: 4fc7 d43c 2fcb dd3e 92c9 e93e b976 83bc
000001d0: 3a4d 31bc 2815 3cbd 607d 9bbd 3c27 a8bd
000001e0: af91 38bd 3139 4b3d f739 9d3c e89a adbc
000001f0: 7556 c13c e1cc 773e e3c6 c5bd c1ea 8fbd

model.6.weight f4 [3, 128]
-0.26185846 0.034754984 -0.27422866 -0.007767865 0.6378966 -0.80541897 0.06738459 -0.087949365
-0.0020341724 -0.100609586 0.010410924 -0.08574704 -0.005986251 0.026323821 -0.24722004 -0.02068148
0.060480885 -0.004109007 -0.0031556035 -0.0098521765 -0.07784163 0.006934002 -0.011683713 -0.04504634
0.03035856 0.04328921 0.2484007 0.026229423 -0.052577626 0.019084524 0.2824013 0.2116721
-0.0035590902 -0.0028773835 -0.21013935 -0.19376661 -0.03134721 0.22130865 0.0136772655 -0.03505469
-0.017280826 0.034476273 -0.04393753 -0.069438726 0.035172462 -0.03714721 -0.2029821 0.01819795
0.48770964 -0.83457196 0.04260187 -0.026574094 -0.06745791 0.019166488 -0.24415633 -0.31410554
-0.024425082 0.04659314 -0.061596878 -0.026480444 -0.26681823 0.35063395 -0.44934 0.06914969
-0.0538597 0.03318374 0.08265021 0.011747069 -0.08821188 -0.21625474 0.06445874 -0.2523558
0.039789885 0.17102274 -0.08329197 -0.040474918 -0.0052287485 0.026260894 -0.0038035258 0.6421616
0.065071054 -0.011347586 -0.014038197 0.034810934 0.064694874 -0.06381371 0.018307647 0.007870588
-0.051073004 0.35506147 -0.0025185233 -0.2367432 -0.054588143 0.039794926 -0.30064565 -0.2708799
-0.006155071 0.017927833 0.03791554 -0.18318565 -0.096804224 0.051169492 -0.03787412 0.110171124
-0.041547846 0.023530716 -0.6572209 -0.094093494 0.4576444 0.03606271 0.054750603 0.053324513
-0.93175894 -0.26173088 -0.6378842 -0.015775137 -0.009384669 -0.17033686 0.036812406 -0.0022473335
-0.00097522535 -0.010126405 -0.012679973 -0.003355537 -0.054376464 -0.29936063 0.001072713 -0.021108914
-0.25254562 -0.06328978 -0.22782972 0.029044366 0.6263306 -0.565286 0.064516015 0.017005555
0.0029877487 -0.2779428 0.018401843 0.054507792 -0.06634051 -0.0008791281 -0.2358103 0.063137606
0.015158765 -0.030256677 -0.03268076 0.0038021167 -0.024716282 -0.011634663 0.040546745 0.04872823
0.0019080038 0.005104183 0.010849074 0.003352123 0.056930542 0.026084544 0.21486375 0.51517785
0.023138471 0.07758314 -0.24308108 -0.43748048 0.04759965 0.24117221 -0.03778216 0.036527123
0.029027805 -0.058986317 0.08263818 0.06600639 0.08152132 -0.050522387 -0.27070966 0.04177087
0.45521256 -0.737109 0.017545825 0.07075533 0.040302176 0.014112301 -0.2813934 -0.5377428
-0.011506952 0.043076705 0.055546932 0.019658998 -0.21927361 0.32588583 -0.25481817 0.01159484
-0.05574611 -0.0342912 -0.013506246 -0.06696497 -0.0120485425 -0.26563406 0.05130338 -0.25086445
0.038629286 0.27766776 -0.055692274 -0.09942288 -0.006877272 0.03903389 -0.061480455 0.64180946
-0.03317304 -0.034561194 -0.0166241 0.002030179 0.06591024 -0.064497374 0.01748877 -0.019913822
-0.08567662 0.32347336 -0.0027128148 -0.2556359 0.086824186 -0.0056932545 -0.30257073 -0.24157217
-0.039455023 -0.07466907 -0.018746842 -0.29924896 -0.5319889 -0.039535873 -0.020162368 -0.04988916
-0.009333251 -0.06391757 -0.7513624 0.035484307 0.20664011 0.013723865 -0.062590726 0.03296276
-0.1521373 -0.276709 -0.717665 0.016504085 0.03312655 0.07963222 0.09128181 0.08155843
-0.017665882 -0.04013058 -0.031363644 -0.022368597 0.04089677 -0.25089216 -0.05379177 0.0014734139
00000000: 5012 86be 3e5b 0e3d b367 8cbe 9389 febb
00000010: 314d 233f f02f 4ebf ef00 8a3d cc1e b4bd
00000020: c04f 05bb 660c cebd 9592 2a3c 259c afbd
00000030: 5028 c4bb 0ea5 d73c 4027 7dbe 356c a9bc
00000040: ceba 773d d9a4 86bb 3ece 4ebb 066b 21bc
00000050: 6f6b 9fbd a036 e33b 0b6d 3fbc 8382 38bd
00000060: 84b2 f83c 0750 313d c15c 7e3e 16df d63c
00000070: a35b 57bd 2657 9c3c e796 903e 92c0 583e
00000080: a03f 69bb 7c92 3cbb c52e 57be c16a 46be
00000090: ef65 00bd bc9e 623e 9c16 603c 8295 0fbd
000000a0: 8590 8dbc fe36 0d3d d7f7 33bd e435 8ebd
000000b0: 0011 103d ac27 18bd 8ada 4fbe de13 953c
000000c0: 14b5 f93e 82a6 55bf 4c7f 2e3d eab1 d9bc
000000d0: 5f27 8abd 0a03 9d3c 1e04 7abe 71d2 a0be
000000e0: 1c17 c8bc 73d8 3e3d 024d 7cbd 84ed d8bc
000000f0: 669c 88be 4b86 b33e e40f e6be 5a9e 8d3d
00000100: fd9b 5cbd aceb 073d 8344 a93d c776 403c
00000110: 6ea8 b4bd e271 5dbe f202 843d c834 81be
00000120: b8fa 223d 9620 2f3e fb94 aabd 07c9 25bd
00000130: ec55 abbb 1621 d73c 9344 79bb b464 243f
00000140: f943 853d 3aeb 39bc 7700 66bc e995 0e3d
00000150: bf7e 843d c3b0 82bd ebf9 953c a4f3 003c
00000160: ed31 51bd 9eca b53e cf0d 25bb cf6c 72be
00000170: d197 5fbd 0100 233d 3aee 99be c5b0 8abe
00000180: 7ab0 c9bb 64dd 923c 534d 1b3d 0595 3bbe
00000190: 4b41 c6bd 1a97 513d e521 1bbd 66a1 e13d
000001a0: 132e 2abd 7dc3 c03c a13f 28bf 17b4 c0bd
000001b0: 5e50 ea3e 7eb6 133d 2b42 603d ce6a 5a3d
000001c0: c187 6ebf 9701 86be 614c 23bf dc3a 81bc
000001d0: 28c2 19bc c96c 2ebe 9bc8 163d 0048 13bb
000001e0: 44a6 7fba 39e9 25bc a9bf 4fbc 92e8 5bbb
000001f0: dbb9 5ebd cc45 99be 479a 8c3a 9aec acbc
00000200: a94d 81be 129e 81bd 324c 69be 73ee ed3c
00000210: 3457 203f 95b6 10bf f920 843d 3c4f 8b3c
00000220: 1bce 433b 854e 8ebe 76bf 963c 9043 5f3d
00000230: 89dd 87bd 4a75 66ba 4178 71be 4a4e 813d
00000240: 785c 783c dadc f7bc 43dc 05bd ef2c 793b
00000250: cd79 cabc 509f 3ebc 5814 263d 4197 473d
00000260: fc15 fa3a fe40 a73b 51c0 313c 4baf 5b3b
00000270: 0030 693d 41af d53c 3e05 5c3e b2e2 033f
00000280: e48c bd3c e9e3 9e3d 3fea 78be 71fd dfbe
00000290: daf7 423d d9f5 763e 77c1 1abd 779d 153d
000002a0: b8cb ed3c a39b 71bd 353e a93d 5c2e 873d
000002b0: a6f4 a63d 90f0 4ebd 759a 8abe ef17 2b3d
000002c0: 9f11 e93e 2db3 3cbf 43bc 8f3c 2ce8 903d
000002d0: e513 253d 4837 673c cc12 90be 83a9 09bf
000002e0: a887 3cbc 3371 303d 2e85 633d e80b a13c
000002f0: 4389 60be 82da a63e 8777 82be 49f8 3d3c
00000300: 0856 64bd ee74 0cbd 4d49 5dbc ee24 89bd
00000310: 4067 45bc 3001 88be 7e23 523d 4e71 80be
00000320: be39 1e3d 782a 8e3e 951d 64bd 399e cbbd
00000330: bd5a e1bb 00e2 1f3d eed2 7bbd a04d 243f
00000340: 74e0 07bd 0a90 0dbd 442f 88bc c00c 053b
00000350: f3fb 863d 3317 84bd 9c44 8f3c 5022 a3bc
00000360: 3977 afbd 4d9e a53e 7bc9 31bb b5e2 82be
00000370: e1d0 b13d 7b8e babb 8dea 9abe b25e 77be
00000380: 979b 21bd 19ec 98bd fa92 99bc 2937 99be
00000390: 6d30 08bf 5ef0 21bd 8d2b a5bc 9358 4cbd
000003a0: 7eea 18bc 37e7 82bd 4959 40bf fe57 113d
000003b0: 7799 533e 10da 603c 912f 80bd f603 073d
000003c0: e1c9 1bbe cdac 8dbe e5b8 37bf 9333 873c
000003d0: b5af 073d 3816 a33d f5f1 ba3d 1b08 a73d
000003e0: 0ab8 90bc f75f 24bd 2a77 00bd 593e b7bc
000003f0: 5f83 273d f074 80be c254 5cbd 911f c13a

model.6.bias f4 [3]
-0.22957635 -0.55430466 -0.51311153
00000000: 1016 6bbe e9e6 0dbf 475b 03bf
