2021-22/PrimerSemestre/Reinforcement/PEC2/DQN.pth (torch, 666959 bytes, 8 tensors)

model.0.weight f4 [512, 2]
00000000: 93f2 123d 4e2f 2a40 6be1 493e 3a97 01c0
00000010: ee6c 523d 9941 d1c0 36c3 f03e fc1f c2be
00000020: 536f 08be 2c3a 4b40 ca6f 8c3e e122 9c40
00000030: 6820 f2bd dda9 30bf ebcb 0d3f a053 e4bd
00000040: 7bd9 debe 9134 f5be 75e2 6a3d 15c4 0bbf
00000050: e60b a13e 4772 453f a019 bcbe b9c6 bf3e
00000060: b8cc 47bd 9ea6 2fbf 089c fb3d 84f6 fe3e
00000070: a3f2 103f 0ef3 c23f 11de 593e 29aa 5fc0
00000080: 6740 87bd 9725 54bd 6d81 09bf 3366 22bf
00000090: 3428 3bbe f838 5abe e0b8 813d 3356 003f
000000a0: 0f49 153f 83f8 6440 da6d 72be 6149 1c3f
000000b0: 7e90 b5bd 2f53 14bf 50f9 6c3d 1aee d63e
000000c0: 9a58 7c3e 360d 233f 9f3b dd3e 8d27 36bf
000000d0: e796 eebd 4070 3240 4c77 923e 5112 2fbe
000000e0: 6d9e 903e 39e9 5740 eec4 293f 1cb2 0d40
000000f0: 9450 9e3c f55d 2440 2f7d 2b3e 7e0a e73f
00000100: deb3 9b3e 10cc c1bd 2b75 8b3e 0c50 bd3f
00000110: a08a f9be 2de5 c03e 0907 62bd e65e 4440
00000120: 1018 1dbf 9cf9 33c0 f1e9 6fbe 2c7d 2540
00000130: 0036 fbbc 1f8b 2e3f 7b40 91be f27d 953d
00000140: a587 eabe 04f3 1cbe 6fa8 583e 0bdd 4abf
00000150: 20eb b7bc 1057 cfbe 27d0 96be 26fe 0fbf
00000160: eeaf 513f 97d8 2c40 b7ba 26be c652 3d40
00000170: 011d 143f 7871 e0bf dea8 8d3f a858 273f
00000180: 18db c43e f392 303f dab5 843e d6f6 b5be
00000190: 22ab b9be 4462 5b3e aaab 3bbe a038 2d40
000001a0: e00c 89bb 0b32 cfbf b147 b8be 3d2c 6cbf
000001b0: b7ca 0c3f 265e 18bf 8a24 613e 72d9 813e
000001c0: 86df aabe 2661 71bf b5ed ebbd ccb4 4d40
000001d0: bc92 92be 7448 4ebf f822 083f 7b5b 653f
000001e0: 3d21 07bf b474 d2be 9200 003e 7995 b23f
000001f0: 4231 ca3b 6c83 3fc0 3375 f5be 367c dabd
00000200: 411a f0be 735c ecbf 780a a53e 03a0 993f
00000210: dc2f 673e 5b0b 8640 c5b9 d8be e4b6 133e
00000220: 267d f9be a95e b5be a523 223e 8803 103f
00000230: e53d 03bf bc84 1bbf 6578 313f 144a 21be
00000240: 462c 123f 968f 8f3f f8d8 c0bd 5cde 27bf
00000250: 002a 913d 5c1d 40be 32e4 7f3d 6470 88c0
00000260: 9d3b cbbd 94e0 8dbf 484e 163e 2aa8 28bf
00000270: cded a6be b79c 37c0 fc0b 03be 188b 2b3f
00000280: 22c2 f03d 55fa 013f aaa5 cc3e de39 23bf
00000290: 292d 883f 0da6 f83f afe4 5a3f 77e1 0040
000002a0: 30ff 6abe cb7e 2e3f 067f 053f 5154 d5bf
000002b0: 208f fabc 9e3e c3be dfa6 9d3e 7db7 4140
000002c0: 408b 20bf 2e2c a2be 0ee2 d93e 1ce1 1fc0
000002d0: b699 16be 40f9 743e 1a17 2dbe 7558 25bf
000002e0: d213 c43d ba0e 043f a34c 673f a92d e93f
000002f0: dadd 073f 481f 9d3f af59 0d3d fa0f 5240
00000300: f9d9 663f 47b0 3c3e fa64 96bc 743e 5540
00000310: 17b4 083f c627 9c3e 9916 dc3d 24b1 3140
00000320: 3e78 03bd a2b8 acbe 2a4c 923f f7a8 eb3f
00000330: 7c56 e83d 81d7 d13e eb02 a73e 64fd 5940
00000340: 34f1 763e 1055 853d 8098 2a3e 059b 083f
00000350: a6d7 f83e 74e2 573d dfdd 9f3e 4a30 8140
00000360: d042 d43c 0862 3040 c0fd 62be 600c 8d3c
00000370: 4002 16bc b7aa 82be a2a0 9d3e 5f2b a5be
00000380: 6c30 17be 18b2 91be c26c 15bf 11b5 8cbf
00000390: 72f3 d93e 24ef 053e 760f c8be 0a24 51bf
000003a0: 622d 29be 33d4 6fbf 490f 61bc c0e9 17bf
000003b0: 58cc 373f 5730 4a40 8f09 a2be 31d0 b0be
000003c0: 32f8 053e 54d2 4e40 989c 5a3e 0eff 0940
000003d0: 59a1 cfbe 55d7 51bf 5884 123f f68d 3e40
000003e0: 0e31 8ebc f577 893e 962d f73e 4745 30bf
000003f0: 0ede 083f 71a7 903f d8f6 863e 160e f73f
0.035875868 2.6591372 0.19714896 -2.0248551 0.051373415 -6.5392575 0.47023934 -0.37915027
-0.13323717 3.1754255 0.27429038 4.8792577 -0.11822587 -0.6900919 0.5538928 -0.11148763
-0.435253 -0.47891667 0.057344873 -0.5459607 0.3145439 0.771275 -0.367383 0.374563
-0.04877922 -0.6861361 0.1228562 0.49797451 0.56620234 1.5230424 0.21276118 -3.4947608
-0.06604081 -0.05179366 -0.53713113 -0.63437194 -0.18277055 -0.21310794 0.0633409 0.5013153
0.58314604 3.577668 -0.23674718 0.6104947 -0.0886545 -0.5793943 0.05785495 0.41978532
0.24643174 0.63692033 0.4320955 -0.711541 -0.11649876 2.7881012 0.2860664 -0.17096831
0.2824587 3.3736098 0.66316116 2.213996 0.019325532 2.5682347 0.16746973 1.8050077
0.30410665 -0.0946275 0.2723783 1.4790053 -0.48738575 0.37674847 -0.05518249 3.0682921
-0.6136484 -2.81211 -0.23429085 2.585765 -0.030665398 0.6818103 -0.28369507 0.07299413
-0.45806614 -0.15327078 0.21158002 -0.79243535 -0.022450984 -0.4049611 -0.29455683 -0.56247175
0.8190907 2.7007196 -0.16282164 2.958177 0.57856756 -1.7534628 1.1067159 0.65369654
0.38448405 0.68974227 0.25919992 -0.35539883 -0.36263376 0.21424204 -0.18327203 2.706581
-0.004182443 -1.6187147 -0.35992196 -0.92255 0.5499682 -0.5951866 0.21986595 0.2536121
-0.3337366 -0.9428886 -0.115199484 3.21416 -0.28627574 -0.80579305 0.5317836 0.89592713
-0.5278509 -0.41104662 0.12500218 1.3951865 0.006170423 -2.9923964 -0.47940978 -0.106682226
-0.4689503 -1.8465713 0.3223455 1.2001957 0.2257685 4.188886 -0.4232923 0.14425236
-0.48728293 -0.35423782 0.1583391 0.5625539 -0.5126632 -0.6074941 0.6932433 -0.15750915
0.57098806 1.1215694 -0.094163835 -0.6557367 0.07088089 -0.187612 0.062473483 -4.2637196
-0.0992348 -1.1084161 0.146783 -0.658816 -0.32603303 -2.86894 -0.1279754 0.67009115
0.11755778 0.507726 0.39970142 -0.63760173 1.0638782 1.9425675 0.85505193 2.0137613
-0.22948909 0.6816222 0.5214695 -1.6666356 -0.030585825 -0.3813371 0.30791375 3.0268242
-0.6271248 -0.3167433 0.4255528 -2.4981146 -0.14707074 0.23923206 -0.16903344 -0.645881
0.09574093 0.5158497 0.90351313 1.8217059 0.53072894 1.2275171 0.034509357 3.2822251
0.9017635 0.1842662 -0.018358696 3.3319368 0.53399795 0.30499095 0.10746498 2.7764368
-0.032097094 -0.33734614 1.1429493 1.8410939 0.113446206 0.4098473 0.32619414 3.4060907
0.24115449 0.06510365 0.16659737 0.5336154 0.48602027 0.052706197 0.31223962 4.0371447
0.025910765 2.7559834 -0.2216711 0.017217815 -0.00915581 -0.2552087 0.30786616 -0.32259652
-0.14764565 -0.28456187 -0.58369076 -1.0992757 0.42568547 0.13079506 -0.39074296 -0.81695616
-0.16521218 -0.93683165 -0.013736554 -0.5934105 0.7179618 3.1592004 -0.31647918 -0.34533837
0.1308296 3.2315874 0.21348798 2.1561923 -0.40552786 -0.81969196 0.5723319 2.9774146
-0.017357375 0.26849332 0.48276967 -0.6885571 0.5346383 1.1301099 0.26360202 1.9301174

model.0.bias f4 [512]
00000000: ce4c c13d 6471 213e 2abc d93d fb9e e5be
00000010: fe6e 1dbe afd2 f0bd d636 aabe 9681 d3be
00000020: 5ff2 063f e6b8 73bd 9047 313e 3ec6 e1be
00000030: 0696 123f 1c9a b73e 7ecf cc3e 0b0c 293e
00000040: a285 19be 27b7 023f 165d c1be 218e 28bf
00000050: 67cc 25be 3274 98be 93b6 1dbe 3a76 6fbe
00000060: bd71 d43e b492 80be 6977 98bd 9e00 8e3e
00000070: e077 0dbc 75d7 b03e 271d 8d3d 7f83 2b3e
00000080: 72ca 28bf 7e28 b73e f974 19bf 7d7e 13bd
00000090: feff c3be 0d29 43be 2a31 14bf fc5a aebe
000000a0: 68eb 003f 3419 433e 7a52 adbd b194 28bf
000000b0: 8878 6ebe 4672 2cbe 8542 15be bad2 c03d
000000c0: f551 0d3f 72a8 e3be 19a3 f0be 5327 2cbe
000000d0: fb84 a43d 2c8d 433e 6f8a 2abf 33ce b13e
000000e0: 9021 d73e cc24 1fbe 0710 1c3e 393a 8c3e
000000f0: 77e2 35bf 522b 5c3e b0bf c13d 88cd 16bf
00000100: e340 adbe 7b16 d93e e72b c9bd 794a 02bf
00000110: c66b 2cbf 268e 033d e722 9b3e c758 2fbf
00000120: 0aed 103f c414 4fbe 020a 33bf 6155 473d
00000130: 8897 953e 2db9 fabe 6564 56bd d7c6 22be
00000140: 0930 d23e 1aca f4be 518a 63bc 876b a93c
00000150: 66ac 0bbf 9788 04be da72 84be f3df fdba
00000160: b70a 46bf c4e1 873e 936d cd3e e54e d53e
00000170: 1985 073f 1b8e 9d3b 2e99 873e 7e0b cebc
00000180: c764 96be f18b 20bb 4485 22bf b236 403e
00000190: 1195 83bd d211 853e 7533 1f3d 1bba 293d
000001a0: 144b 31bf 7835 3bbe 3988 fb3e 0842 8d3d
000001b0: d9d6 123d 42db 11bf e010 4fbe b6b5 7fbe
000001c0: c32d 06bf a40b edbe d705 c7be b1d3 503e
000001d0: a7f5 673e 031b f9bd de2d 40be 6461 cdbe
000001e0: 9591 8dbd 6838 743e 651f b23e 9541 0a3e
000001f0: 5544 e2bc 3c6f f0be 6a6f 063f 2d73 9b3e
00000200: c932 54be acf8 86be fdb1 07bf fb29 8fbd
00000210: 6463 a8bd 6304 a7bc b186 34bf 0e24 0abe
00000220: ffea 843e 639c 18be 17d8 cebe e0e3 82be
00000230: 6028 0dbf 3126 6c3e 5cff 24bf 8c42 23be
00000240: cbde 473e 0c76 16bf 4d3c 833e ff10 07be
00000250: 8def 153e 6762 0ebe b94a 25bf e2b8 85bd
00000260: a71d 2f3e 783e bfbe b231 6dbe 160b 27be
00000270: c304 023f 4db6 75be 52ec 203e e50f 29bf
00000280: cd2b c63e 7918 15bf ac55 5dbd c70e b2be
00000290: 0849 ba3d ef1b c7be 6c02 9bbd e25f 1ebf
000002a0: 9a2f afbe 860e 9f3c c0a1 11bf bbeb 0f3f
000002b0: 5f49 d3bd 8218 13bf d13b b1be b7ac 973d
000002c0: 1781 9b3e 849f 5cbe 16ed 70bc 69ab 553e
000002d0: 57a0 dcbe cf76 7abe 9237 093f a33d d1bd
000002e0: bf48 08bf db88 18bf a80f 0c3f e7d2 1cbf
000002f0: 5b06 833e cf8a 4d3e 8c86 f9bd f434 0cbe
00000300: 8290 07bf 2815 23bf aa01 29bf e735 123e
00000310: 4553 823e ff93 963d c32d 0fbf 6b39 0abf
00000320: 2c08 2abf 8039 0e3f e0be fa3c bc64 ec3e
00000330: d7c8 0cbf d322 c6be 4f96 22be afe6 f4bd
00000340: 8cca 56be b590 013f 0a69 033d 7123 ac3e
00000350: 2e24 7bbe 9382 66bd 7163 463e bc74 e2be
00000360: 261c d23e a19e 32bf d5cf 77be 19ee 043f
00000370: 2df6 c2bd 3c82 ef3d d70d e33e a428 4ebe
00000380: eae5 0ebf 5fae 0d3e 00c8 05be 3123 4a3e
00000390: 69ea 033e dfab 04bd ce7f 8d3e 7516 a23e
000003a0: db43 15bf 9cde e63e 3be1 1bbe 3bc2 d83e
000003b0: 96c9 e2be aed1 e3be 6795 34bf 78d4 07bd
000003c0: 60af 99be bf0b 1abf 87bb c8be 9729 8abe
000003d0: d010 8cbd 3ce3 a9bd 39c4 21bf 4a5e 23bf
000003e0: 5e07 40bf a855 51be 7574 8c3e 6876 423e
000003f0: b088 34bf 08bb 2dbe 70ff 04be 4482 abbe
0.094384775 0.15765911 0.106315926 -0.44847855 -0.15374371 -0.11758935 -0.33244962 -0.41309804
0.5271358 -0.059502505 0.17312455 -0.4409656 0.5726017 0.35859764 0.40002054 0.165085
-0.14992383 0.5106072 -0.3776633 -0.6584187 -0.16191255 -0.2977615 -0.15401678 -0.23384944
0.41493025 -0.25111926 -0.07444651 0.27734846 -0.008634537 0.3453938 0.06890326 0.1674938
-0.6593391 0.3577308 -0.5994411 -0.0360093 -0.38281244 -0.19058628 -0.5788752 -0.3405379
0.503592 0.19052583 -0.08462997 -0.65851885 -0.23288167 -0.16840467 -0.14576156 0.09415193
0.5520318 -0.4446445 -0.46999434 -0.16811876 0.080331765 0.19096822 -0.6661748 0.3472763
0.42017794 -0.1554138 0.15240489 0.2738817 -0.7104868 0.215009 0.094603896 -0.58907366
-0.33838567 0.42399964 -0.09822827 -0.50894886 -0.6735195 0.032117985 0.30300066 -0.6849484
0.5661169 -0.20222765 -0.69937146 0.048665408 0.29217172 -0.48969403 -0.052341837 -0.15896164
0.41052273 -0.4781044 -0.013887958 0.020681156 -0.54559934 -0.1294273 -0.25868875 -0.001936911
-0.773601 0.26539433 0.4012266 0.41661754 0.52937466 0.0048082 0.26484054 -0.025151964
-0.29373762 -0.0024497474 -0.634846 0.18770865 -0.064249165 0.25990158 0.038867433 0.04143725
-0.69255185 -0.18282115 0.49127367 0.0689736 0.035849426 -0.56975186 -0.20221281 -0.24971661
-0.52413577 -0.46297944 -0.38871643 0.20393254 0.22652303 -0.12163355 -0.18767497 -0.40113366
-0.06912533 0.23849642 0.34789577 0.1350158 -0.027620474 -0.46959865 0.52513754 0.3036131
-0.20722498 -0.26361597 -0.53005964 -0.06990429 -0.08222082 -0.020387834 -0.7051802 -0.13490316
0.25960538 -0.14903407 -0.40399238 -0.2556448 -0.5513973 0.23061444 -0.6445215 -0.15943354
0.19518583 -0.58773875 0.25631943 -0.13190077 0.14642163 -0.13904725 -0.6456714 -0.06529404
0.17101155 -0.37352347 -0.23163489 -0.16312823 0.50788516 -0.23995323 0.15715149 -0.6603988
0.38705292 -0.5824047 -0.05403678 -0.347769 0.09095961 -0.388885 -0.07568821 -0.61865056
-0.34216005 0.019416105 -0.56887436 0.5621907 -0.10316729 -0.5745927 -0.3461595 0.074059896
0.30371925 -0.21545225 -0.014704963 0.20866169 -0.4309108 -0.24459384 0.5360042 -0.102168344
-0.53236 -0.59583825 0.5471139 -0.6125931 0.25590786 0.20072483 -0.12183866 -0.13692075
-0.52954876 -0.63704157 -0.66018164 0.14278375 0.25454155 0.07352447 -0.559292 -0.5399386
-0.6641872 0.5555649 0.030608594 0.46170604 -0.5499396 -0.38698444 -0.1587765 -0.11958062
-0.20975703 0.5061143 0.032082595 0.3362079 -0.2452552 -0.05627687 0.19373871 -0.44229686
0.410371 -0.697733 -0.24200375 0.5192581 -0.095196106 0.11694762 0.44346496 -0.2013269
-0.5581957 0.13836049 -0.13064575 0.19739987 0.12882389 -0.03239047 0.2763657 0.31657758
-0.58306664 0.45091712 -0.15222637 0.42335686 -0.44294423 -0.4449591 -0.7054047 -0.03316161
-0.30016613 -0.60174173 -0.39205572 -0.26984856 -0.06839144 -0.08295295 -0.63190037 -0.6381575
-0.7501124 -0.20442832 0.274326 0.18990481 -0.7052107 -0.16965878 -0.12988067 -0.33497822

model.2.weight f4 [256, 512]
00000000: 3652 a43b ca6b 4cbd 1349 273d 00a0 fcb9
00000010: d116 48bd 067e da3b 0024 093c 8e3f c83c
00000020: 9e78 4ebd 5f68 0b3d 82be bb3b 32fe 28bd
00000030: 11c9 f5bc 68b7 09bd 8d04 87bd ac1d 333c
00000040: 1189 1a3d 36e0 da3b 2a62 853c 33d0 043d
00000050: 3dac 30bd ce29 03bd 0ecb 77bc 020d dcbc
00000060: 943f 5e3b 18b4 133c ef59 7fbd 5251 1fbd
00000070: 3d4f 52bd 1fcc 72bd 0e19 393c 8622 83bb
00000080: 1e54 943c baec f13b 5cd2 75bc ec08 5ebd
00000090: 8e8f 01bd 75f9 cebb 0c3c fdbc 48d5 0cbc
000000a0: d059 99bd 9841 d0bc 88e7 14bd a0ce edbb
000000b0: a2bb febb 9e61 8abd b0f7 92bd 8b2c fd3b
000000c0: 4d74 8bbd bc7a 4c3c be61 c03c 56b0 ebba
000000d0: bcd0 56bd a011 50bd 40a3 183b 5a9f 433b
000000e0: 6003 37bd 5787 dcbc e4ff 0bbc 60a9 d5bc
000000f0: f647 9f3c a0ae 8cbd 6931 86bd 70ab 8d3c
00000100: a796 1ebd d956 12bc dd80 29bd 503f 553c
00000110: ff10 34bd 81e4 a23b e9a2 063c 0896 8e3b
00000120: 59dd 7bbb 95b3 243d 7b79 053d 34c8 86bc
00000130: 8c47 b2bc 9c68 1abc 506e 59bb b862 25bc
00000140: d555 34bc c27d e13c d005 8ebd 6963 04bd
00000150: 91d1 1cbd 72e8 96bc 1be2 32bd 4b6d ccbc
00000160: 06d6 d93c 8f88 263d 84c0 42bc b8ad 64bd
00000170: bd0d b3bb 2e8d 5cbc 85e0 8ebc 426d 89bc
00000180: 6568 05bd 23d4 75bc ee8f fcbc cba6 b6bc
00000190: d025 063b 89da 1d39 afd2 9abc fcff 54bd
000001a0: 4fa2 2b3d 893c 173d 1573 62bd af62 233c
000001b0: 9f91 24bd 8fb0 a8bc 73aa 08bd 68f5 00bc
000001c0: 1e02 a63c a3ba efbc 24e4 113c e68f cebc
000001d0: 3278 953b e77f 033d 89e2 2cbd 4401 1b3c
000001e0: f002 d6bc 176f 75bd 7ffb 52bd da14 9a3a
000001f0: 39e1 adbc ce52 ef3c f96e b5bb 9880 c9bc
00000200: e0ba 343b b44c 393c 4d12 223d fbd8 73bb
00000210: cadd 89bd 61a3 f4bb a653 5dbc 45e0 343d
00000220: 5562 40bd 8810 353c b6a9 a43c 7f7a 7dbc
00000230: 60b8 fe3b d782 d8bc 896c d1bc 7101 01bc
00000240: 3c65 53bd dcae 4c3c 5b79 2dbd 13ce 143d
00000250: 30aa 85bd 8009 f4b9 885a b93b 5c85 923c
00000260: b060 72bb 3ad0 953c 195f adbb e497 ebbc
00000270: 8e23 bdbc 4731 1b3d 9ccf e7bc 022f 9b3c
00000280: ff97 16bd b867 c9bb 451e a7bc 6538 1bbd
00000290: 694f 6ebc 89ab b6bc aed1 0abd b1a7 c6bc
000002a0: 2d2e 2e3d 29c4 acbc 183d eebb 5f67 74bd
000002b0: 2db0 80bd da7f e53c 80a4 99ba 1b69 66bd
000002c0: e534 99bd 5b10 18bd 9290 1cbd ed81 8cbd
000002d0: f130 c4bc 3592 82bc 9021 183c 8390 a1bc
000002e0: 3aac 2bbd cc0f 63bc 5000 98bd 3c1e 4a3c
000002f0: a1fb 69bd c9de e6bc 2cbe f93c d3c0 143d
00000300: 5c96 f8bc a1c0 043d 3fd8 20bd ece8 ffbc
00000310: 0ca1 8abd 0d04 09bd 10d0 53bb 9a32 a0bc
00000320: 0e96 c63c 5490 ea3b d1bc 70b8 365e 29bd
00000330: 4ca9 0fbd 19fc 84bc e917 2fbc 4572 49bd
00000340: b1c9 1b3d 1154 d2bc 9e5b 83bd 2310 343c
00000350: a01f f53a 0edc aabc 7278 aabc f889 963b
00000360: f227 1bbd 51be 2b3d 782a ffbb 75ec 35bd
00000370: a51a 1abd 4ccd 17bd 0047 923b 20d6 0cbd
00000380: 8631 fcbc d38e 80bd 564d 04bb 9ab4 3dbb
00000390: 128e 80bd 8029 0cba bd48 88bd adf5 bebc
000003a0: 787d f9bb db6b dfbc c622 63bc b849 593b
000003b0: 54a3 1dbc aa81 7cbc b24a c0bc 1f71 183d
000003c0: 7829 cabb d51e 92bc 846c 3fbc 7e75 5bbc
000003d0: 588a 28bd a3c9 29bd 6801 bdbc 854c 223d
000003e0: 220f 2ebd b0a4 8bbc e06e 12bd ba86 7dbc
000003f0: c8ad 8ebb e033 9d3b 39cf 553c ef25 a3bc
0.005014683 -0.049907483 0.040841173 -0.00048184395 -0.048849884 0.006667855 0.0083703995 0.024444368
-0.050408 0.034035083 0.0057294974 -0.041258045 -0.030003102 -0.033622175 -0.06592665 0.010932367
0.037728373 0.00667956 0.01628216 0.032425117 -0.04313301 -0.03202229 -0.015124096 -0.026861671
0.0033912407 0.009015106 -0.062341627 -0.038895912 -0.0513451 -0.059276696 0.011297477 -0.0040019182
0.018106516 0.0073829563 -0.015003767 -0.054207727 -0.031631045 -0.0063163587 -0.030912422 -0.008595772
-0.074878335 -0.025421903 -0.036353618 -0.0072572976 -0.0077738324 -0.067569 -0.07176149 0.007726257
-0.06809292 0.012480434 0.023484107 -0.0017981629 -0.05244516 -0.05079806 0.0023290664 0.002984962
-0.044680953 -0.026920004 -0.008544896 -0.02608174 0.019443493 -0.068692446 -0.06552393 0.017293662
-0.038717892 -0.008931839 -0.04138266 0.013015583 -0.04396152 0.0049710874 0.008217552 0.004351381
-0.0038431494 0.040210325 0.032586556 -0.016452886 -0.021762632 -0.009424355 -0.0033177324 -0.010094337
-0.011006792 0.027525786 -0.069347024 -0.032321367 -0.038285796 -0.018421385 -0.043672662 -0.024954459
0.026591312 0.040657576 -0.01188672 -0.055829734 -0.005464284 -0.013461394 -0.017441044 -0.016775731
-0.03257026 -0.015004191 -0.03083035 -0.02229633 0.0020469315 0.00015054097 -0.01889929 -0.05200194
0.041902836 0.036922965 -0.055285532 0.0099722585 -0.040177938 -0.020592002 -0.033365678 -0.007871009
0.020264681 -0.0292638 0.008904491 -0.0252151 0.0045614475 0.0321044 -0.04220823 0.009460751
-0.026124448 -0.059920397 -0.051509377 0.0011755482 -0.021225559 0.029214289 -0.0055369106 -0.024597451
0.0027577206 0.011309791 0.039568234 -0.0037208188 -0.06731756 -0.0074657653 -0.013508713 0.044159193
-0.046968777 0.011051305 0.020100456 -0.0154711 0.007773444 -0.026429577 -0.025564449 -0.007873879
-0.051610216 0.012492862 -0.04235206 0.03632934 -0.06526601 -0.00046546385 0.005656544 0.017885856
-0.00369839 0.018287767 -0.0052908775 -0.02875895 -0.023088243 0.03788879 -0.028297238 0.018943314
-0.03676605 -0.0061463974 -0.020400176 -0.03789558 -0.0145453 -0.022298591 -0.033891372 -0.024249883
0.042524505 -0.02108963 -0.0072704665 -0.059668895 -0.06283603 0.028015066 -0.0011721998 -0.05625258
-0.07480792 -0.037124973 -0.03822381 -0.06860719 -0.023949118 -0.015938858 0.009285346 -0.019722229
-0.041912295 -0.013858747 -0.074219346 0.01233631 -0.057124738 -0.028182404 0.030486189 0.036316704
-0.030345134 0.032410268 -0.03926873 -0.031238995 -0.067689985 -0.03345113 -0.003232006 -0.019555379
0.024241474 0.0071583185 -5.7396308e-05 -0.041349612 -0.035073563 -0.01623349 -0.010686853 -0.04918124
0.038034145 -0.025674852 -0.06413959 0.010990175 0.0018701442 -0.020856883 -0.020809386 0.004594084
-0.03787989 0.041929547 -0.007787045 -0.044414956 -0.037623066 -0.03706102 0.0044640303 -0.034383893
-0.030785333 -0.062772416 -0.0020187697 -0.0028946758 -0.06277098 -0.000534676 -0.06654499 -0.023310507
-0.007613834 -0.02727311 -0.013863271 0.0033155512 -0.00962146 -0.015411774 -0.023473118 0.037217256
-0.0061694942 -0.017836967 -0.011683587 -0.013394712 -0.04114756 -0.04145206 -0.02307196 0.039623756
-0.0424949 -0.017046303 -0.03575027 -0.015474016 -0.0043542124 0.0047974437 0.013049894 -0.01991555

model.2.bias f4 [256]
00000000: 9688 4abd 57e3 313d cfbe 0bbd 5799 7f3d
00000010: 3d1a 9abc 09e5 90bd 9aa7 a73d f65f 54bc
00000020: 719a 6d3e e331 f9bc aed1 45bd 65c8 9abc
00000030: 43c9 023e 2e3a 6bbd dc7f b0bc 3d38 59bc
00000040: a8b5 5abc 2e45 ea3d 85d3 8fbd 4fdb 24bd
00000050: e05d 2ebb 7769 163b 0761 1d3e 3753 27bb
00000060: bf09 3eba 87bc 32bc dc99 bfbb b05e 44bc
00000070: fa02 8e3c ad2c 96bc 9b4f 31bd 7a6a 1abc
00000080: 8689 59bd dbeb 09bd 2812 e0bc 7e80 02bd
00000090: c072 7cbb ff11 a2bc a80a 8ebd fc49 e03b
000000a0: 5367 3e3b 7a83 b43b 51e0 1abd 05c1 bbba
000000b0: 4070 823c a8f6 683e c720 493c 7140 093c
000000c0: 0805 d93c 1b94 14bd d5e1 5fbd 1f1d 1bbd
000000d0: cac2 aabc 01a0 aabc 25be ba3c 28c7 0e3c
000000e0: 5bca aebc 2bb6 803c bc3f a3bc d5f3 243e
000000f0: a795 1abd 85b5 18bd b3cb 00bd 0563 b63c
00000100: 4dd7 c83d deac 95bc 03e9 89bd 3e15 103e
00000110: 2ca3 08bc 50e7 633c 7a6d 68bd 2b4a 01bc
00000120: e381 9abd 5860 d53b 8c1a 83bc 711a 97bd
00000130: edbc 3dbd cbb4 68bd 5317 053e 6f9d a03b
00000140: ab0c ca3c e113 c33b 8272 2c3c 7735 65bb
00000150: 5c3d cfbc f01e 403d a7ff bf3c e943 cf3b
00000160: 6f9c 24bd 94ee 2e3b 7d3a e8bc 5417 e2bc
00000170: 6864 08bc ab11 0fbc 2458 fd3c 8c5a debc
00000180: 11db 873d 58ff 0f3d 727e 57bd 4cb5 a1ba
00000190: 1548 fcbc 1c4b c23b ad4a 44bd a825 2f3d
000001a0: ecb7 7fbc 13e2 3d3a 11fe 11bd 825b 78bc
000001b0: 20bc c23b fc36 12bd 85df e0bc bf9f 32bd
000001c0: 3025 c5bc 8ed0 9e3c d299 93bd d1ed 33bd
000001d0: 5e05 d13c d9fe 8b3c 9095 ae3b 10d4 c0bc
000001e0: f587 2dbd 8d08 5fbd 2a43 f8bc 48da 103d
000001f0: 3a61 fc3c 3389 93bd ba83 593e 5d05 ad3c
00000200: 9e84 87bc 4518 4cbd 6058 de3a 7fe9 f43c
00000210: a369 81bd 84d7 aebc a8f6 53bd e42a bd3b
00000220: 6c0f 8f3c 0045 4d3c f019 2abb 9b00 13bc
00000230: e70b 5f3c e328 e2bc ceb4 163d 509d 8c3b
00000240: ded6 fa3b 4ba5 1d3e f18e 69bc 433c 36bc
00000250: 3eeb 22bd a978 dd3c ee31 fdb9 f4a8 dd3c
00000260: c7d4 2cbc 4627 4bbd e63b 3ebc dbff 943d
00000270: 983a e1bb 5494 02bd 02a3 3ebc b2f7 70bd
00000280: 264a 99bc 872d dfbc 5d31 31bd 66c8 bc3c
00000290: dc30 aabc ca15 51bd f642 5b3e aa6d 61bc
000002a0: 1e19 8f3c b35b 29bd 7360 8bbc 38d8 1fbc
000002b0: 1815 35bd d872 b6bc c980 ab3d 0035 07bc
000002c0: d8c8 ffbc 1817 e53c 1b7f e33d 7921 153c
000002d0: 498e 0a3d a5e8 68bd 4220 6f3e 4ba2 e7bc
000002e0: 7647 9e3c 07a2 233b a7cb 4bbd 2363 4e3e
000002f0: b49d d13c 967c 5cbc 72a5 9e3c c542 493c
00000300: 66f0 963b af6e 7bbd e3ea 55bd 63b0 bdbb
00000310: e505 43bd 3ac8 1fbb 979a 1fbb 93d3 66bc
00000320: b37a 0d3d 89e6 bebc 2cdd 31bc f2a3 123d
00000330: 878b 1aba b99a 563e defb 8c3c 2267 bc3c
00000340: 94b9 cbbc d228 efba 1a9e 38bc b9f7 d63c
00000350: 6691 8fb9 f18f 7dbb 7229 c53c c2e2 9ebc
00000360: 6e33 003c 4b2c 003e 7501 22bb 8de9 7f3c
00000370: 3a7d 33bd 5f0f 973d 4fa7 e03c 6344 93bc
00000380: 544f 8c3c 8a37 05bd 7d11 38bd 02fe 8b3c
00000390: 502f e6bb ca6b 30bd 8aad 5a3b 2e58 57bb
000003a0: 19e8 b03c d5a0 56bc ad93 153d 7829 593c
000003b0: 8cdd 013d ab10 063e eac1 f6bc 19ab 0bbd
000003c0: 8d6c 103d bff7 8d3c dc9d 3fbd 6041 343b
000003d0: 0637 533d a712 08bd faaf 71bc 8be0 febc
000003e0: c956 3b3e ed00 76bd b082 0bbc 613f 19bd
000003f0: 641d 4abd 6a16 243b bd88 25bd 2c61 203c
-0.049446665 0.0434297 -0.034117516 0.062402096 -0.01881134 -0.07074935 0.08186264 -0.012962332
0.23203446 -0.030419296 -0.04829567 -0.018894384 0.12772088 -0.05742853 -0.021545343 -0.013258037
-0.013348974 0.11438976 -0.07022766 -0.04024821 -0.0026606247 0.0022951046 0.15369044 -0.0025531778
-0.0007249377 -0.010909206 -0.005847199 -0.011985466 0.017335404 -0.01833185 -0.04328881 -0.0094248
-0.05310967 -0.033672195 -0.027352408 -0.03186082 -0.0038520545 -0.019783972 -0.06935626 0.006844757
0.0029053285 0.0055088373 -0.03781158 -0.0014324492 0.015922666 0.22750342 0.012275881 0.00837718
0.026491657 -0.036274057 -0.05465873 -0.03786957 -0.020844836 -0.020828249 0.022795746 0.008714475
-0.021336725 0.015711864 -0.019927852 0.1610864 -0.037740376 -0.037282486 -0.031444263 0.022264013
0.0980669 -0.018270906 -0.067338966 0.14070603 -0.008339684 0.01391013 -0.05674503 -0.007891218
-0.07544305 0.006511729 -0.01600387 -0.0737809 -0.04632275 -0.056813043 0.12997179 0.00490158
0.024664244 0.0059532975 0.010525348 -0.0034974494 -0.025297813 0.046904504 0.023437334 0.006325234
-0.04018825 0.0026692497 -0.028348202 -0.027599014 -0.00832472 -0.00873224 0.030925818 -0.027142785
0.066335805 0.035155624 -0.052610822 -0.0012337356 -0.03079609 0.005929364 -0.04792278 0.04276052
-0.015607815 0.00072434655 -0.035642687 -0.015158536 0.0059428364 -0.03569697 -0.027450332 -0.043609377
-0.024065584 0.019386556 -0.07207073 -0.04392797 0.025515255 0.017089294 0.005327888 -0.02353862
-0.042365987 -0.054451514 -0.030305464 0.03536442 0.03080808 -0.07203903 0.21241656 0.021120721
-0.016542729 -0.049827833 0.0016963594 0.029896496 -0.06318977 -0.021343 -0.0517489 0.005772935
0.017463408 0.012528658 -0.0025955401 -0.008972312 0.013613678 -0.027607387 0.036793523 0.004291214
0.0076550087 0.15395086 -0.014255271 -0.011122766 -0.039775126 0.027035074 -0.0004829312 0.027058102
-0.010548777 -0.049598 -0.011610961 0.07275363 -0.00687344 -0.031879738 -0.011635544 -0.05882997
-0.018712115 -0.027243389 -0.043259967 0.023044776 -0.020775251 -0.05104617 0.21412262 -0.013759056
0.017468031 -0.041347217 -0.017013764 -0.00975614 -0.04420957 -0.022271559 0.08374173 -0.008252382
-0.0312237 0.027965114 0.11108228 0.009102219 0.0338271 -0.056862492 0.23352149 -0.02827563
0.019321185 0.0024968402 -0.049754765 0.20155005 0.025587894 -0.013457438 0.019366 0.0122839855
0.0046062944 -0.061384853 -0.05222596 -0.005788849 -0.047613043 -0.002438082 -0.0024353617 -0.014088529
0.034540843 -0.023303287 -0.010855954 0.03580088 -0.0005895425 0.2095746 0.017209943 0.022998396
-0.024868764 -0.0018246418 -0.011268163 0.02624117 -0.00027383416 -0.0038690532 0.024067614 -0.019395236
0.007824762 0.12516896 -0.0024720107 0.015619648 -0.043820597 0.07375979 0.027423529 -0.017976945
0.01712767 -0.03252367 -0.044938553 0.017088894 -0.007024683 -0.043071546 0.0033367597 -0.0032858956
0.021595048 -0.013099869 0.036517788 0.013254516 0.031705424 0.13092296 -0.030121762 -0.03409872
0.035259772 0.017330049 -0.046781406 0.0027504787 0.051566146 -0.033220913 -0.014751429 -0.03111293
0.18294825 -0.060059477 -0.008515045 -0.03741396 -0.049344435 0.0025037774 -0.040413607 0.009788793

model.4.weight f4 [128, 256]
00000000: d0bf 603d a42e e2bc 702a 56bc 56ab 8bbd
00000010: e730 1d3d 9896 433d 0de1 50bc f039 bfbb
00000020: a60f fe3c 5780 973c 74d0 e33c 3048 bbbc
00000030: 675a 0ebc 16a1 203d 2848 13bc b085 d8bb
00000040: b8bc fbbc d97e 063d e615 633d 5cb1 063d
00000050: 1046 db3b a0fe 883b f8b3 04bd 9473 2fbd
00000060: 50e3 543c 92c3 52bd 6476 893c d2a6 5bbd
00000070: f895 90bc f088 42bd 81d2 5bbc c26b 733d
00000080: 3d44 023d cb5b 28bd 18de 29bd 706a 153d
00000090: 30c1 f6bb 20fc 5fbd f442 76bd 1ec7 0cbd
000000a0: 5be5 35bd d8a9 393d 4462 af3c c0a7 a43c
000000b0: fc82 a3bd 995b c83c 17c2 32bd 74a5 6cbd
000000c0: aa1b 903b cc04 0e3d ca5f 74bd d880 133c
000000d0: 9809 633d e909 533c 9e90 c5bc d885 013c
000000e0: c471 b4bc dd9d c23c 45f2 21bd eb33 f6bc
000000f0: d6e1 1ebd 7948 38bb 3035 ecbb 68da 8fbc
00000100: 7e31 f53c 508f 28bd 1c38 273d ca49 6dbd
00000110: ce49 163d bf48 5c3d f8b7 2fbc dc9d 3ebd
00000120: 50ae 043d dee7 08bd 10db b93b eaf0 3dbd
00000130: 0ee9 2f3d 4a35 473d ad50 ecbc 1790 853c
00000140: b3af 23bd 24c8 f93c 97fe f9bc 5c30 a63c
00000150: 219c fbbc bd4d bdbd e7fc 59bd 2c3a a1bc
00000160: 50c9 ddbc d1a8 39bd 08d0 e83c 7cce 773d
00000170: c870 5bbc a802 65bc 9e1a 3c3b ba06 313d
00000180: e174 47bd 1224 63bd 70e5 90bb cc92 363d
00000190: 4a15 963b ccb0 5b3d 81ea 02bc fb5e c93c
000001a0: b0fa 423d dc0b 5dbd 865d 5a3d 00c0 29ba
000001b0: 60d7 343d 1c10 c9bc b615 18bd a01f 73bd
000001c0: c423 1d3d 80fd 3dba 149e fb3c 7068 25bc
000001d0: 9841 06bd a27d 63bd 281e d1bc 4c5f f2bc
000001e0: 60d2 123c a102 84bb b2ad 15bd 38f4 c1bc
000001f0: d83f 0f3c c64f 333d 0f1a 8fbd a232 903b
00000200: ddc6 173d 1904 7d3c 748c eabc e00f 623d
00000210: f65a 6ebd 0c67 d3bc f9e7 2d3d ba50 a13c
00000220: d0f4 77bd 9f65 093d f09c 803b 901a 35bd
00000230: 51fc 35bd e04a 0cbc ecf9 e8bb a025 243d
00000240: 2c3f bbbc 8a35 88bd 9ef1 863c 3cad f0bc
00000250: d8ee 573c 954b 633c 52a5 02bd 9aa8 3fbd
00000260: 302a e03b 1d0b 46bd 62dc 42bd 6a1f 70bd
00000270: f082 363d 585f f73c e014 fbbb 6aab 73bd
00000280: 4c3d 3f3d 50da f33b b362 23bd 6c1b 013d
00000290: cab7 40bd 4b04 6ebd 2e93 e73b fe00 683d
000002a0: f8e3 2dbc 1af7 12bc 6c36 083d 4436 f43c
000002b0: e21e 733c a029 623d e934 66bc 8c1e d9bc
000002c0: e818 603d 5cc0 613d f94a 7fbb 174c 8c3c
000002d0: a0ef 8e3c 5a93 0c3d d9e0 283c 44f8 203d
000002e0: 306a f53c 6b20 76bd a014 5b3d f9d0 3bbd
000002f0: c8c1 21bc 7f7b f2bb 6f26 633d f449 33bd
00000300: 0182 0a3d 90c8 7d3c ba47 74bd 649b 523d
00000310: 3f8f 1f3c bc49 ce3c 42d6 7cbd 9258 0fbd
00000320: a3ac 113c 8a00 183d 009d acbb de5a 66bd
00000330: cc72 ba3c 7ae3 033d d441 a4bc 2048 46bc
00000340: 6df2 28bc aac5 4c3d b4b3 d5bc 74fe b43c
00000350: 5442 f8bc 3405 4ebc 80c4 72bb 2e4e 42bd
00000360: 789e 76bd 1a87 e8bc 6c6c d0bc 61bc 5abc
00000370: e6a9 f3b8 3893 52bd 302f b4bc 16da 80bc
00000380: 6dd5 21bd 143f 373d e226 703a d8cd d73c
00000390: 22db 333d 08a0 563c 0001 d6b9 4cbf e0bc
000003a0: 1856 38bb 6019 633c 51c2 5bbd e5ad 14bd
000003b0: 5b6f cbbc 8d67 78bd 6e4c 4f3d e103 82bd
000003c0: 28a9 5ebc 6e49 d0bb 50d0 4c3c 4296 fc3c
000003d0: 4425 bb3c c2a6 5f3d 50e0 d23c fe88 53bd
000003e0: 8517 92bd 6b32 5b3d fadb 383d 2a9a 6cbd
000003f0: 98b6 e93c a14a 52bd c01f 9bbc a62c bc3c
0.054870427 -0.02761013 -0.013071641 -0.06819789 0.038376715 0.04775104 -0.012748969 -0.005835764
0.031013321 0.018493814 0.02780936 -0.02286157 -0.008688546 0.039216124 -0.008989371 -0.0066077337
-0.030729637 0.032835815 0.055440806 0.032883987 0.0066917017 0.0041807443 -0.032398194 -0.042834833
0.012993649 -0.05145604 0.016780086 -0.05362589 -0.017649636 -0.047493875 -0.013416887 0.059428938
0.03180336 -0.041103166 -0.04147157 0.03647846 -0.007530354 -0.054683805 -0.060122445 -0.03436958
-0.044408184 0.04532799 0.021409161 0.02009952 -0.07983968 0.02445774 -0.04364213 -0.057774976
0.004397829 0.034672543 -0.059661664 0.009002887 0.05542907 0.012880781 -0.02411681 0.007905446
-0.022026904 0.023756916 -0.039537687 -0.030054053 -0.038789593 -0.002811937 -0.007208489 -0.017560199
0.029930826 -0.0411523 0.040824994 -0.0579317 0.03669148 0.053780314 -0.010725014 -0.046537265
0.0323928 -0.03342425 0.0056718662 -0.04637233 0.042946868 0.048634805 -0.028847063 0.016304059
-0.03996248 0.030490942 -0.030516906 0.020286731 -0.030714097 -0.09243343 -0.053219702 -0.019681059
-0.027073532 -0.04532701 0.02841951 0.060499653 -0.013393588 -0.013977684 0.0028702389 0.043219306
-0.04869545 -0.05545432 -0.0044218823 0.04457359 0.0045801746 0.053635404 -0.00799048 0.024581423
0.047602355 -0.053966388 0.053311847 -0.00064754486 0.04415071 -0.024543814 -0.03713008 -0.05935633
0.038364187 -0.0007247552 0.030715026 -0.010095701 -0.0327774 -0.055539735 -0.025527075 -0.029586457
0.00896129 -0.0040286337 -0.036542602 -0.023676023 0.008743249 0.04377725 -0.06987392 0.004400567
0.037054885 0.0154428715 -0.028631426 0.05519092 -0.058192216 -0.025805973 0.042457554 0.019691814
-0.060536206 0.03354418 0.0039249584 -0.044214785 -0.04443008 -0.0085627735 -0.007109871 0.040074944
-0.022857271 -0.06650837 0.016472634 -0.02937948 0.013179503 0.013873001 -0.031895943 -0.04679165
0.0068409666 -0.048350442 -0.047573455 -0.05862371 0.044558465 0.03019683 -0.0076624006 -0.059489645
0.046689317 0.0074417964 -0.03988905 0.031520292 -0.047050275 -0.058109563 0.0070671057 0.05664157
-0.010613434 -0.008970046 0.033255026 0.029811032 0.014838906 0.055215478 -0.014050701 -0.026503824
0.054711252 0.05511509 -0.00389546 0.017126126 0.017448246 0.034320213 0.010307514 0.039299265
0.02995786 -0.06008951 0.053486466 -0.04585359 -0.009872861 -0.007399976 0.055456575 -0.0437717
0.033815388 0.015489712 -0.059638716 0.051417723 0.009738742 0.025181644 -0.06172777 -0.034996577
0.008891257 0.03710989 -0.0052677393 -0.056239 0.022759818 0.03219936 -0.02005092 -0.012102157
-0.010311705 0.049993195 -0.026086666 0.022093989 -0.030305065 -0.012574483 -0.0037043393 -0.04743784
-0.06020972 -0.028384734 -0.025442325 -0.013350577 -0.00011618789 -0.05140993 -0.021995157 -0.015728991
-0.03951018 0.04473789 0.00091610674 0.026343271 0.043910153 0.013099678 -0.00040818006 -0.027434967
-0.0028127488 0.01386103 -0.05365211 -0.03629865 -0.024833372 -0.06064563 0.05061 -0.06348396
-0.013590135 -0.0063564098 0.012500837 0.030833367 0.022844918 0.054602392 0.025741726 -0.051644318
-0.07133392 0.05351488 0.04513166 -0.05776421 0.02852945 -0.051340703 -0.018936038 0.022970509

model.4.bias f4 [128]
00000000: b86b 88bc 23f8 0cbd 361f a2bd c71b 39bd
00000010: b40a 1c3c 877b 063f 305f d33d a2f9 0dbd
00000020: 10a9 5c3c 8392 9f3d 782d 4f3d c888 6e3d
00000030: 0dd3 2bbd a08d 6e3e 9c6c 00be bab0 9e3e
00000040: d863 c5bd 0829 633d a371 853b d0a5 a2bd
00000050: e5d5 bbbd 98c4 c23e 1774 62bd c0e9 0d3c
00000060: 28a1 7f3e d31e 183d 5ec7 82bd 012e 8cbd
00000070: f7ca 3e3e c43b 60bc acc2 95bd e50a 323b
00000080: e9c1 4ebd 939c 003e 54c6 613c a898 42bc
00000090: df18 58bd 44e8 803e e658 dc3d 5d26 9e3c
000000a0: 0201 393c b529 7ebc d223 473b dca6 cf3d
000000b0: b0cf 753d 765d 0d3d 675e 513e 6d80 8c3c
000000c0: 3e47 e13c 3b14 adbb c24c 76bd f6be 563e
000000d0: a8a3 67bd f74a 1bbd 930f 2e3d 2773 1ebd
000000e0: 7cde 9cbd dc51 1dbd 742c adbd bccb 9ebd
000000f0: 676b a83d 8b70 8d3d 38fa 33bd 7d56 7fbd
00000100: 9631 353c 7ce5 4bbc b8d5 a9bc 5369 023d
00000110: 7047 e13d 2923 be3e 9acd 263d 4e88 26bd
00000120: 82be 6c3d ce44 da3e 8f5a 0bbc c760 7cbd
00000130: d6cb 383d ddc3 203c d5e7 533d 4ed5 72bd
00000140: f2f7 94bd 64b3 98bb 4fa9 9ebc 577c 3fbc
00000150: 8f14 163d 309c b63e 81f5 8bbd 9a56 ffbc
00000160: c0b9 b33c be5f 24bd 8f6b 4fbd 2d6e 3bbd
00000170: 54a2 6abd f1fd 38bd 72d8 7d3e ba3c 88bc
00000180: 135e aabd f27f 67bd cc81 36bd ca49 5dbb
00000190: 55be a03e 71c2 cdbd beae d2bd d0a6 0abd
000001a0: fa43 753c c485 16bd c8dc 78bc a988 8fbd
000001b0: 3d34 e43e a1fe 54bd bb62 7cbd f49f 3c3e
000001c0: dcac dd3d 45f4 96bd 101f 36bd 21d3 c8bc
000001d0: bd12 ff3c 7c17 fc3c b9a5 073c feaf 45bd
000001e0: 9409 1e3e 10fe e43d 001f 6f3c 22df 9f3c
000001f0: bf18 f03e 77ac 3abc 9f6d e33e e2d6 91bd
-0.016652927 -0.03441633 -0.07916109 -0.045192506 0.009524036 0.5253224 0.1032089 -0.034661897
0.013468042 0.07791617 0.05058047 0.058235914 -0.04194932 0.23296213 -0.12541431 0.30994207
-0.09638184 0.055459052 0.0040723844 -0.079417825 -0.091716565 0.38040614 -0.055286493 0.008661687
0.2496382 0.03713877 -0.063856825 -0.06844712 0.18632112 -0.013686124 -0.07312521 0.0027167138
-0.050477896 0.12559728 0.013780195 -0.011877216 -0.052758094 0.25177205 0.107591435 0.019305402
0.011291744 -0.015512873 0.003038634 0.10139248 0.06001252 0.03451296 0.20446168 0.017151082
0.027499791 -0.0052819527 -0.060131796 0.20971283 -0.05655256 -0.03791329 0.04249532 -0.038684037
-0.07659623 -0.038408145 -0.084557444 -0.07753703 0.0822361 0.069062315 -0.0439398 -0.06233834
0.0110591855 -0.01244485 -0.020731792 0.031838726 0.10999954 0.371362 0.04072342 -0.040657334
0.05779887 0.4263062 -0.008505478 -0.06161573 0.045116268 0.009812322 0.051734764 -0.059285454
-0.07273854 -0.004660057 -0.019367842 -0.01168736 0.0366407 0.35666037 -0.068339355 -0.031169225
0.021939158 -0.04013037 -0.050639685 -0.04575937 -0.057283714 -0.045164052 0.24789599 -0.01663052
-0.083187245 -0.056518503 -0.044557378 -0.0033765906 0.31395212 -0.100468524 -0.10287236 -0.03385049
0.01496982 -0.036748663 -0.015189357 -0.07008488 0.44571105 -0.052000646 -0.061617594 0.18420392
0.10823986 -0.073708095 -0.044463217 -0.024514737 0.031136865 0.030772917 0.008279257 -0.048263542
0.15433341 0.11181271 0.014594793 0.019515578 0.4689388 -0.011393658 0.44419572 -0.07121064

model.6.weight f4 [3, 128]
00000000: 4615 a13d 85cd 0a3d e0cc af3c 7604 5fbd
00000010: 391d 443c 01e7 a1be b76a bb3e 6383 cb3c
00000020: 305e 57bd 5b9f 5b3d 1ad2 e7bc efbf 89bc
00000030: 3c40 943d b4e5 60bf c3b0 2c3d 6725 92be
00000040: 49c0 e13d 15ae 0fbd 52b6 cdbc 7e69 563c
00000050: d69b 7c3d 7457 8abe 1738 f9bc 6b35 a63d
00000060: 32ba 8ebe dfc0 b1bd 6a63 9ebc db4a 1abd
00000070: ffc1 95be 6987 eebc 3049 03bc b0fb 69bd
00000080: babf 46bd e607 febe b4a3 dfbc e012 f33b
00000090: 3918 573d e1b8 e2be 12dd 803d 1e91 06bc
000000a0: 41e2 923d 4710 173d b3f8 40bd f4cb fdbe
000000b0: 215d 89bc efe5 dd3c a7ee 90be 7aec 343c
000000c0: c18d 8e3d 69cd 2fbb bf4d b33d 0116 023f
000000d0: efc1 c0bb 567d d3bb 0780 0bbc 92e0 493d
000000e0: 7555 00bc 3c38 82bc c6e4 c4bc 5f13 7cbd
000000f0: 18c3 78bc 561d 2fba 7519 74bc 50d0 913a
00000100: 60c3 3b3b 4834 eabc b01f 5abc b2be 9d3c
00000110: 85ac 093f f053 7dbe c062 12bb b230 423d
00000120: e920 e9bc 1b57 55be 7145 1d3d cd9c e0bc
00000130: 5922 dabc 943f 7ebd ce42 853d d947 033c
00000140: d77f 18bd f49b 61bd 791e 65bd a367 74ba
00000150: 528e 803d 4882 55be 41eb 9ebd 12ae a73d
00000160: 9b26 b7bc 3f30 4b3c 928b 1dbd 5e10 e93c
00000170: e1aa f7bc 823b 823d c809 97be 10b6 59bc
00000180: a673 5b3d d0ef 23bc e5fd 283d 2698 903a
00000190: a1b3 63be 9a09 12bd 881a 173a d5e3 18bd
000001a0: d8a5 debb 3ce7 c1bc 91a4 e2b9 706f 9bbb
000001b0: 0109 99be baf3 973c 478f 753d 4bc6 9bbe
000001c0: 4225 fb3e b8b6 f6bc 1efd 783d 3260 c33e
000001d0: 58c5 1abc 3094 55bd 8a78 47bd 0fce 13bb
000001e0: fca9 73be 8273 eb3e b434 983c ce22 8d3d
000001f0: a14b 83be c4b6 58bc 9fb4 72be 0c2b 673d
00000200: a4b0 103d 995c 833c 907d 713c 37f3 7d3a
00000210: eb47 043c 3bc7 99be 08e8 053f c77c 73bc
00000220: b433 d8bc b314 453d ba34 15bd ff97 dd3b
00000230: fee9 29bd 51aa 36bf 36cb 08bd e224 94be
00000240: 70f7 91bd d065 76bd 09e3 8f3c 415c 7cbc
00000250: 4189 40bd 4645 7ebe c254 5dbc 1197 a63d
00000260: 3faf b1be 2043 843d 5461 053d bb28 00bc
00000270: b265 9dbe f6e8 cfbb b85d 19bd 049b dc3c
00000280: 8185 b93c 85ef c5be be40 1a3c 4e00 333d
00000290: b61c 73bd 3a8d 1fbf 6a8d ee3e 4745 723d
000002a0: 8b7b 5f3d 9ba6 1d3d e67f 67bd 03e4 a4bc
000002b0: 44dc a53b 933d 9f3d ec39 c0be 9dd1 213c
000002c0: fe5b fcbb 2728 44bc 8444 d33c 13bb 1b3f
000002d0: 1e76 953d 3d03 883c 3fcb a5b8 8c92 a8bc
000002e0: e223 bebd 82a0 7ebd 0031 fe3a 58a5 d8bc
000002f0: ca56 1eba 2d5e 5dbc 085d 673b b578 803c
00000300: 00a7 5e3b 66a8 0d3c 0098 413d 7907 f0bb
00000310: d3cc d13e 3e32 74be 91fd a53d 1fe9 01bd
00000320: e395 3f3c 7287 5ebe c78e 88bd 555b 083d
00000330: c1ee 033d 2bcf 0a3d fb7d b6bd c30f 90bc
00000340: 8a73 7b3d cf60 8d3d e272 3a3d 3bdc d03c
00000350: ffb5 30bc e4aa 46be e8bb 4d3c 795a a53d
00000360: 2984 d9bc 2814 84bd 0a55 33bd 7a27 1a3d
00000370: afcc 8dbc 8261 0abd 5931 a9be a524 83ba
00000380: 68c7 6a3d 0977 35bd 3607 743d ed5e e33c
00000390: 85ec b7be 361b 1cbc 1d56 493c 3663 113c
000003a0: 1983 fa3b 6a25 723d c4e1 c53c 3041 6bbd
000003b0: 2b93 96be 1515 3fbc acc3 773c 6e77 a1be
000003c0: 2000 cf3e 705c 0dbc f651 953c 480d b83e
000003d0: 2a94 4f3b 6961 6cbd 42b1 933c fa7d 1c3c
000003e0: 3eae 24be a723 083f 5087 ed3b 0014 6cbd
000003f0: f644 8abe 2c58 103d 2f03 87be 07b6 fbbc
0.07865386 0.033887405 0.021459997 -0.054447614 0.011969858 -0.31621554 0.36604854 0.024842924
-0.05258006 0.05361877 -0.028298426 -0.016815154 0.07238814 -0.878505 0.04216076 -0.2854416
0.110230036 -0.035078127 -0.025111351 0.013086675 0.061672054 -0.27019846 -0.030422254 0.081156574
-0.2787643 -0.08679365 -0.019334514 -0.037669044 -0.2924957 -0.029117303 -0.008013055 -0.057124794
-0.04852269 -0.496154 -0.02729974 0.0074180216 0.052513335 -0.44281676 0.06292166 -0.00821331
0.07172061 0.036880758 -0.047112178 -0.49569666 -0.01676804 0.02708718 -0.28307077 0.0110427085
0.06960631 -0.0026825315 0.08755063 0.50814825 -0.0058824937 -0.00645415 -0.008514411 0.049286433
-0.007832875 -0.015895955 -0.024034869 -0.06154191 -0.015183233 -0.00066800916 -0.014898648 0.0011124704
0.0028650388 -0.028589383 -0.013313219 0.01925597 0.5377887 -0.24739051 -0.0022336692 0.04740972
-0.028458076 -0.2083401 0.038396303 -0.027418518 -0.026627706 -0.06207235 0.065068826 0.008012735
-0.037231293 -0.05508037 -0.055937264 -0.00093233044 0.062771454 -0.2085048 -0.07759715 0.08187498
-0.022357276 0.0124016395 -0.038463183 0.028450187 -0.030232849 0.063590065 -0.2949965 -0.013288036
0.053577088 -0.010005906 0.041257758 0.0011031672 -0.22236492 -0.035653688 0.00057641463 -0.037326653
-0.0067946725 -0.023669831 -0.0004322869 -0.004743509 -0.29889682 0.018548835 0.059951093 -0.30424723
0.49051863 -0.030116424 0.060788266 0.3815933 -0.0094464645 -0.052143276 -0.04869894 -0.002255324
-0.23795313 0.45986563 0.018579818 0.06891404 -0.25643638 -0.0132271685 -0.23701714 0.056437537
0.035324708 0.016035365 0.014739409 0.0009687426 0.008073787 -0.30034813 0.52307177 -0.014861292
-0.026391841 0.048115443 -0.036427237 0.006762504 -0.041482918 -0.7135363 -0.033396922 -0.2893439
-0.07127273 -0.06015569 0.017564313 -0.015402854 -0.047005896 -0.24831113 -0.013508977 0.081342824
-0.34704015 0.064581156 0.032563522 -0.007822211 -0.3074165 -0.00634491 -0.037442893 0.026929386
0.022646667 -0.386593 0.00941485 0.043701462 -0.059353553 -0.6232487 0.46592265 0.0591481
0.05456118 0.038488965 -0.056518458 -0.020128256 0.005061658 0.07775416 -0.3754419 0.009876636
-0.007701396 -0.011972464 0.025789507 0.6083233 0.0729792 0.016603107 -7.905671e-05 -0.020577691
-0.09284188 -0.06216479 0.0019393265 -0.02644603 -0.0006040154 -0.013511223 0.0035303254 0.015682558
0.0033974051 0.008646106 0.0472641 -0.0073251096 0.4097658 -0.23847291 0.081050046 -0.031716462
0.011693451 -0.21731356 -0.066678576 0.033290226 0.032210115 0.033888977 -0.089107476 -0.01758564
0.061389484 0.069032304 0.045519717 0.02549564 -0.010785579 -0.19401127 0.012557007 0.08073897
-0.026552277 -0.06449157 -0.04378227 0.037635304 -0.017309515 -0.033784397 -0.33045462 -0.0010005428
0.057319075 -0.044302974 0.05957719 0.027755225 -0.35922638 -0.009527972 0.012288597 0.008873751
0.0076450226 0.059117712 0.024155505 -0.057435215 -0.29409155 -0.011662741 0.015122335 -0.3153643
0.40429783 -0.008627996 0.018227559 0.35947633 0.0031674006 -0.057710085 0.018028859 0.0095515195
-0.16082093 0.531794 0.0072487965 -0.05763626 -0.27005738 0.035240337 -0.26369616 -0.030726446

model.6.bias f4 [3]
00000000: c85c e4be 91d4 f8be 641f d9be
-0.44602036 -0.48599675 -0.42406762
