2021-22/PrimerSemestre/Reinforcement/PEC2/DQN.pth (torch, 666959 bytes, 8 tensors)

model.0.weight f4 [512, 2]
000000 22 ba 02 3f 15 a7 8c be 52 ca a1 be b0 f1 fd 3e
       0.51065266 -0.27471223 -0.3159967 0.49598455
000010 09 9b 22 bf 90 e3 c9 bf 69 82 d8 be c2 ee 34 c0
       -0.63517815 -1.5772572 -0.42286995 -2.8270726
000020 83 ee f5 be 05 f9 19 be 11 68 24 be 7e 40 34 be
       -0.48033533 -0.150364 -0.16055323 -0.17602727
000030 9e e1 d1 3e 7a d0 71 be 32 ab 0a be 4a 0f 34 40
       0.40992445 -0.23614684 -0.13541868 2.8134332
000040 f0 71 44 3e 3d b0 04 3f 1a 72 a7 3e 83 18 0e bf
       0.19184089 0.5183142 0.3270424 -0.5550615
000050 5d 66 07 3f 16 bc 32 bf b3 2e 1e 3f 80 2c 60 bc
       0.5289057 -0.69818246 0.6179001 -0.013682485
000060 18 05 45 3e f0 3a 66 40 c0 44 02 bf f6 4c cf 3e
       0.19240224 3.5973473 -0.50886154 0.40488404
000070 dc 84 29 3e 87 82 09 bf cc e1 2b bf a3 0d c6 3e
       0.16554588 -0.53714794 -0.67141414 0.3868228
000080 81 8b 79 be f0 fe 47 bf d4 e0 c0 3e 22 0d ed bd
       -0.24369623 -0.7812338 0.3767153 -0.115747705
000090 c0 ab 0f bf 00 39 40 c0 16 cf f1 be e7 3a b0 be
       -0.56121445 -3.003479 -0.47228307 -0.3441994
0000a0 9e 1d 94 be c4 ac 59 3e 79 38 e7 be 01 15 2b 3f
       -0.28928846 0.21257311 -0.45160273 0.66828924
0000b0 f0 5a 02 be 1e a8 a8 be 1e ca dd be dd cc 94 bf
       -0.12730002 -0.32940763 -0.43318266 -1.1625019
0000c0 04 68 30 3e 63 4c ec be 49 74 98 be 80 ea 8d 3e
       0.17227179 -0.46152028 -0.2977622 0.27717972
0000d0 60 34 2a 3d fa 2f a9 3e df 07 b6 be 8b 29 97 be
       0.041553855 0.33044416 -0.3555288 -0.29523882
0000e0 67 fb 8a 3e fa 85 9c 3d 75 d7 32 be 27 e6 79 c0
       0.2714493 0.076427415 -0.17465003 -3.9046724
0000f0 55 58 18 3f e0 8c 0c 3d 36 de e3 3e 0d 42 93 be
       0.59509784 0.034314036 0.4450547 -0.2876133
000100 10 40 3c bf af b6 0b c0 89 b7 ce bd be 76 a7 be
       -0.7353525 -2.1830251 -0.100936 -0.3270778
000110 c0 f4 6f be 9f 70 cf 3e 3a d1 cd 3e 4c 0a 01 3e
       -0.23433208 0.4051561 0.4019869 0.12601584
000120 3a a7 11 3e ba 3e 05 3f 78 da af bd 41 12 16 c0
       0.14223948 0.5204884 -0.085865915 -2.3448641
000130 5c 1f a5 3e 29 b8 ff bf 26 7c fa 3e 76 6d f7 3e
       0.32250488 -1.9978076 0.48922843 0.483257
000140 dd f4 16 bf b7 82 59 c0 26 6e a5 3e 53 3c 0b 3f
       -0.5896738 -3.3986032 0.323106 0.5438892
000150 bb aa c6 be f0 1d be bd 05 36 18 3f 00 7e 11 bf
       -0.38802132 -0.09283054 0.5945743 -0.56832886
000160 7d 1d 18 bf ba 78 c4 bf d4 78 f4 3e 80 45 bb 3f
       -0.59419996 -1.5349343 0.47748435 1.4630585
000170 e5 d5 f0 3e 3a 09 d9 3d a8 8e 17 3f 08 5a 5f 3d
       0.4703819 0.10597463 0.5920205 0.05452922
000180 a0 d5 3c be ff 4c b1 be f7 f6 20 3f a3 a6 08 3f
       -0.18440866 -0.34629056 0.6287684 0.5337927
000190 48 58 2a 3f 36 19 06 3d 2a 61 1e bd c0 2d de 3f
       0.66540956 0.032738887 -0.03866688 1.7357712
0001a0 5e 40 d7 be d0 bc 27 bf 3a ef 8b be bc 37 36 3f
       -0.42041296 -0.6552248 -0.27330953 0.71178794
0001b0 f4 38 7d be db b0 2f bf 1a ea 01 bf aa fe 28 c0
       -0.24728757 -0.68629235 -0.50747836 -2.6405435
0001c0 88 c8 25 be 46 f8 5b bf a3 e1 34 3f 71 d5 9d bf
       -0.16189778 -0.8592571 0.70656794 -1.2330762
0001d0 5c 5d 00 bf 0f 1f 08 bf be b7 86 be ce 30 29 bf
       -0.50142455 -0.5317239 -0.2631206 -0.66090095
0001e0 8e 66 04 bf 68 c3 aa 3d 62 e5 9b be 45 95 18 bf
       -0.51718986 0.08338052 -0.30448443 -0.5960277
0001f0 7c a8 96 bc 1f 80 3b 40 06 30 56 be 45 e1 f0 3d
       -0.018390886 2.929695 -0.20916757 0.11761717
000200 67 03 d8 be ea 35 91 3e 5c c7 9c be a0 14 d9 3d
       -0.42190096 0.28361446 -0.3062085 0.10599637
000210 13 51 95 3e 70 41 84 40 d0 b7 9b 3e 52 11 1e bf
       0.29163417 4.132988 0.30413675 -0.6174518
000220 80 db 04 3d 7f bc 29 bf 98 2b 7e 3e ee d1 df 3e
       0.032435894 -0.6630325 0.24821317 0.4371485
000230 20 81 61 be 80 36 59 be c0 a9 c2 bd b0 ad 6f 3d
       -0.22021914 -0.21212196 -0.095050335 0.05851525
000240 ab 2c 0a 3f b9 b2 d1 bf 0f 3f bd 3d 84 a9 02 3d
       0.5397441 -1.6382667 0.09240543 0.031899944
000250 12 6c d1 3e 96 3a e8 be f7 db 2b bf fd d8 96 3e
       0.40902764 -0.45357198 -0.67132515 0.29462424
000260 7a 57 5f 3f e2 e4 25 40 38 1c 9d 3d d0 6a 63 bf
       0.87242854 2.592095 0.07671398 -0.8883486
000270 78 ce ad be 1b 61 a3 bf 80 61 a0 3d a9 ae ae be
       -0.33946586 -1.2764009 0.07831097 -0.3411763
000280 65 30 ef be 75 19 f4 3e 80 b0 9e bb 26 2a 00 bf
       -0.4671661 0.47675672 -0.004842818 -0.50064313
000290 4b dc 0e 3e 30 2d 61 40 7f 40 24 3e 7c c6 ba bf
       0.13951223 3.518383 0.16040228 -1.4591823
0002a0 45 38 c6 3c 1b 2c f7 3f 6e 23 fd be 9d 7f ce be
       0.024196753 1.9310335 -0.49441093 -0.40331736
0002b0 ad e2 d6 be f6 08 7a 3e ca fc 61 be e5 67 91 3e
       -0.41969815 0.24417481 -0.22069088 0.28399578
0002c0 ce 38 84 3e 60 46 cc 3c 3b ac 17 3f 93 c3 93 40
       0.2582459 0.024935901 0.5924718 4.617624
0002d0 4e b4 84 3d f2 ff 45 bf d1 e7 90 be e3 f9 01 40
       0.06479703 -0.77343667 -0.28301862 2.0308769
0002e0 5b 32 c0 be 1f 7b 15 be e3 80 d7 3d 39 65 56 bf
       -0.37538418 -0.14597748 0.1052263 -0.83748204
0002f0 b6 71 16 3f c9 7f 82 40 18 2b e1 3d d5 9f 6c 40
       0.5876726 4.078099 0.109945476 3.6972554
000300 41 af bb be 12 16 e6 be 9e 97 7f be b6 14 80 3d
       -0.36657146 -0.44938713 -0.24960181 0.0625395
000310 51 95 bc 3e ab c4 ed 3e a1 cf 81 3f a1 fd 51 40
       0.3683267 0.46439108 1.0141488 3.2811053
000320 40 76 2c bd 69 93 3a 40 3e 74 c1 3e 50 04 2b bd
       -0.04210496 2.9152472 0.37783998 -0.04175216
000330 be 51 d6 be 3f 22 c4 be c0 d7 6a 3c 7d de 0f 3f
       -0.4185924 -0.38307378 0.014333665 0.56198865
000340 0c 78 81 3e 60 b9 78 3d e6 5f ba be d2 83 10 c0
       0.252869 0.060723662 -0.3640129 -2.2580457
000350 ff 22 ca 3d 2c 81 11 bf 89 c7 25 be ec e4 98 bf
       0.09869956 -0.56837726 -0.16189398 -1.1944861
000360 a7 c5 19 3f 0b 53 9a 3e 3e 52 c2 3e ac 19 8e 3e
       0.6006722 0.30141482 0.3795337 0.2775396
000370 11 ad 22 bd 5e 80 1f bf d5 c2 9e 3e 6e bc 7e 40
       -0.03971583 -0.6230525 0.3100802 3.9802508
000380 40 8e 4d bd 99 30 c0 be 9b f7 06 bf 4e 30 b5 bf
       -0.05018449 -0.37537077 -0.52721566 -1.4155366
000390 dc 4a 6c 3e 15 0f 1a 3f 08 c5 ce 3d 16 50 a4 3e
       0.23075432 0.60179263 0.100961745 0.3209235
0003a0 8a 56 14 bf cc 76 89 3c 84 54 c9 3d 4b 23 2a 40
       -0.5794455 0.01678028 0.09830573 2.658404
0003b0 0d 1d 98 bd 38 8d 95 bc 55 b0 1a 3e f5 cb 4f 40
       -0.07427416 -0.018255815 0.15106328 3.2468235
0003c0 ce dd 69 be 70 93 7c be 6d c9 bd be 42 dc a8 3e
       -0.22838518 -0.24665618 -0.37067738 0.32980543
0003d0 a0 a6 80 be cd 7d 16 40 c1 92 02 3f 32 43 a8 3e
       -0.25127125 2.3514283 0.5100518 0.32863766
0003e0 7b 75 1b be 3a e5 2d 40 79 a5 d4 3e 3b a1 7b bf
       -0.15181534 2.7171159 0.41532496 -0.98292893
0003f0 40 cd 0f bf 2a 52 86 c0 52 c4 b2 3e a0 97 29 be
       -0.5617256 -4.19753 0.34915406 -0.16561747

model.0.bias f4 [512]
000000 ae 69 0d 3f dc cd d2 3e 2e 2b e5 be d8 c3 6e be
       0.5523938 0.41172683 -0.44759506 -0.23316896
000010 4c cc 1e bf c7 9a 51 be b0 47 11 bf e7 c0 71 bd
       -0.6203048 -0.20469199 -0.5675001 -0.059021857
000020 b0 e4 8e be 38 7f 16 bf 33 f8 0d 3f a5 96 05 bf
       -0.2790885 -0.5878787 0.55456847 -0.5218299
000030 49 68 bd bd e8 84 29 bf 90 32 f2 bd 52 dd f9 be
       -0.092484064 -0.66218424 -0.1182605 -0.48801666
000040 f3 83 12 3f 49 24 01 3f 41 e3 9f be c5 d4 2a bf
       0.5723259 0.5044599 -0.31228068 -0.6673091
000050 cc fb 0f bf b4 ca 22 bf 88 47 fe be 6a ff 1a be
       -0.56243587 -0.6359055 -0.4966395 -0.15136495
000060 fc 29 36 be 5f e2 c2 be b0 7e f6 bd f2 24 f8 bc
       -0.17789453 -0.38063332 -0.120358825 -0.030291054
000070 c9 2e ee 3e ac 1a 18 be d3 4c 2d bf cc 33 16 bf
       0.4652007 -0.14853925 -0.6769535 -0.58672786
000080 07 f0 0e bf 28 5b 1a 3e ec 5f 0c 3f dc 65 5c be
       -0.55835 0.15073836 0.54833865 -0.21523231
000090 82 5f c5 bd 57 72 53 be 6f 9f 50 3e 39 d7 05 bf
       -0.09637357 -0.20649086 0.20373319 -0.5228153
0000a0 f4 63 4d be 80 a8 d3 3e 84 b8 f1 be 64 fc 2c bf
       -0.2005766 0.41339493 -0.47211087 -0.6757262
0000b0 eb 0f 5b be 70 8b 0f 3e dc 74 35 3e ab e0 68 3e
       -0.21392791 0.14018035 0.1772036 0.22741954
0000c0 b3 2d 02 bf 2e f3 18 bf 2d f6 87 3e 4f f0 25 bc
       -0.5085098 -0.5974606 0.26555005 -0.010128095
0000d0 61 6a 12 bf 99 d7 c4 bc dd 2a 05 3e 97 50 e5 be
       -0.5719357 -0.024028586 0.13004632 -0.44788048
0000e0 45 9d f2 3e 31 ad 0c be 0b c2 25 bf 3e d5 05 bf
       0.47385612 -0.13737942 -0.6474921 -0.52278507
0000f0 07 98 21 bf 78 f7 d8 be fc cd d7 bd 5b a7 dd 3e
       -0.631226 -0.42376304 -0.10537335 0.43291745
000100 30 96 c6 3e 94 54 21 bf 3b 0a f5 bd 4e b0 12 3f
       0.3878646 -0.6301968 -0.11964842 0.5730027
000110 00 8c 76 be 84 5d 05 bf 4b e6 16 bf dc b9 24 be
       -0.24076843 -0.5209582 -0.5894515 -0.16086525
000120 3b d1 45 3e 5a a8 eb 3e 80 4c 6c be 8d 8c f5 be
       0.19318096 0.4602688 -0.23076057 -0.47958794
000130 78 a1 82 3c 5e b2 1b 3e de 6b 9c be 87 ff 28 bf
       0.015946135 0.1520476 -0.30551046 -0.66014904
000140 df 3c 9b 3e 96 1f 33 bf d4 86 0d 3c d6 a4 fe 3d
       0.30319878 -0.6997007 0.008638103 0.12433784
000150 c6 6a a4 3c 64 10 e1 be 8e 67 08 3f 0b b6 87 be
       0.020070445 -0.43957818 0.5328301 -0.26506075
000160 ce 72 f0 be 55 ea 23 be 12 65 7d 3e 4e a6 5b be
       -0.4696259 -0.1600736 0.24745587 -0.21450159
000170 9b b2 27 bc f6 ab 82 3e fd 56 35 be bc 4a 68 bb
       -0.010235454 0.2552182 -0.17708965 -0.0035444936
000180 89 77 2b bf 35 d2 b9 be cc 42 05 3f 43 2a 95 3d
       -0.6697927 -0.36293188 0.5205505 0.072834514
000190 bf 2c 1c bb 5c f4 31 bf 1c f8 e3 3e 74 33 c8 be
       -0.0023830382 -0.6951349 0.4452523 -0.39101756
0001a0 20 3e 98 be 38 c4 ec bd fc 9d b7 3e 98 4e 4f 3e
       -0.29734898 -0.11560863 0.3586272 0.20244825
0001b0 16 ae 4b 3e e0 c4 18 bf e6 40 c5 3e ba a5 f6 bd
       0.19890627 -0.5967541 0.38526076 -0.120433286
0001c0 09 46 22 bf ee 93 a3 be 98 8c f2 be ea bb 07 bf
       -0.63388115 -0.319488 -0.4737289 -0.5302111
0001d0 6a 13 3b bf 96 35 b7 3b e8 8e dc bd 3a f9 9d bd
       -0.730765 0.0055911047 -0.10769445 -0.07713552
0001e0 3d 45 bc be a4 83 66 3e 7b ad 67 be 01 e2 00 bf
       -0.36771575 0.22511154 -0.22624771 -0.50344855
0001f0 05 21 27 be ba ee d6 3e 02 51 eb be a7 1e ac be
       -0.1632119 0.4197901 -0.45960242 -0.33617136
000200 bf 19 53 3e 0a ce bc be b5 5c c1 3d 7c 9b cd 3d
       0.2061529 -0.36875945 0.094415106 0.10039422
000210 4a 91 45 3e 99 5c 68 3e 59 f8 08 bf b5 82 9f be
       0.19293705 0.22691573 -0.5350395 -0.3115441
000220 58 45 12 bf 80 25 bc bd de 64 2f bf 1c 7d 3a bd
       -0.5713706 -0.0918684 -0.68513286 -0.04552947
000230 21 9f 5e 3d 99 d1 b2 bd 59 73 df 3e 02 92 e9 bd
       0.054350976 -0.08731384 0.4364269 -0.11404802
000240 91 37 64 be 1e 0a ac bd d0 8e e0 bd 39 d0 1e 3e
       -0.22286822 -0.08400367 -0.10964739 0.15509118
000250 73 d2 03 bf e8 eb 2c be 42 75 17 3f 06 bc da 3e
       -0.51492995 -0.16886866 0.59163296 0.42721575
000260 6c 0d 31 bf fc 5e ea 3e 28 7a 01 3f 5f 6b 6f bb
       -0.69161105 0.45775592 0.5057702 -0.0036532504
000270 2a 08 42 be 97 ba 48 be 7c 3e f6 3b 1d c3 2d bf
       -0.18948427 -0.19602428 0.007514773 -0.67875844
000280 6b c5 36 bd e8 24 9e 3e 7d 79 9c be f9 e9 16 bf
       -0.044621866 0.30887532 -0.30561438 -0.58950764
000290 58 44 ea be bb 1f 95 be ff 77 22 be c0 b1 fa be
       -0.45755267 -0.2912577 -0.15866087 -0.48963737
0002a0 1f bc 2e bf 93 27 11 be e7 24 5d be 74 b6 22 3e
       -0.682558 -0.14175253 -0.21596108 0.15889913
0002b0 d4 54 d9 3e 9b 03 cc 3e fa 1a ba bd dc e9 c7 be
       0.4244753 0.398465 -0.090871766 -0.39045608
0002c0 ea a5 bc be b3 8a 92 be 7d 0f c0 be 82 d9 1a be
       -0.36845332 -0.28621444 -0.37511817 -0.15122035
0002d0 25 00 8a 3e 0f f5 b7 bc aa c8 80 be 96 7f d0 bd
       0.26953235 -0.02245572 -0.25153095 -0.10180585
0002e0 a9 12 af bd 74 fc 60 3d 11 f9 fd 3e e8 b2 18 3e
       -0.08548481 0.054928258 0.49604085 0.14911997
0002f0 0c 30 75 be d0 90 eb 3e c3 ef fa 3e 25 bf b2 3d
       -0.2394411 0.4600892 0.4901105 0.08727864
000300 cd 8d 72 3e cf e6 5a bd 8e 4b 0e bf 87 ff 92 be
       0.23686905 -0.053442772 -0.5558404 -0.28710577
000310 4d c9 d9 be e0 14 86 3e 6c b9 eb be 53 1c f4 bc
       -0.42536393 0.261878 -0.46039903 -0.029798662
000320 07 71 6a 3e 1c 36 f2 3e 24 03 03 bf e3 0b 8b be
       0.22894679 0.47306907 -0.5117667 -0.27157506
000330 1e c4 dd 3d d5 e6 ed 3e e5 fb e8 3d 8a dd af 3e
       0.10828422 0.46465173 0.1137617 0.34348708
000340 38 9a 0a bf d0 77 16 3f 83 b6 0b be 02 fd 39 3e
       -0.5414157 0.5877657 -0.13643841 0.18162921
000350 cb f8 c3 3d 91 bb 51 3d ac 5f a7 3e 06 74 19 3e
       0.09568938 0.051204268 0.3269018 0.14985666
000360 78 6b da 3b 13 bd 0c bf 43 59 cb bd 20 78 fa bd
       0.0066656433 -0.54976004 -0.09929135 -0.12229943
000370 9c 3d 0b be 21 a8 8a bd db d4 6b be 0c 3e 68 be
       -0.13597721 -0.06770349 -0.23030417 -0.22679919
000380 a6 28 b9 be 69 3b 0e 3e 0a 2b 13 bf 0e c3 2c bf
       -0.36163825 0.1388985 -0.5748755 -0.6748513
000390 90 8e ea 3e 95 ec dd 3d 4a 06 ae be 50 16 eb bd
       0.45811892 0.1083614 -0.33989173 -0.11478865
0003a0 df 5b 3d be ef b0 75 be 1b 37 26 bf e3 dc a3 3e
       -0.18492077 -0.23993276 -0.64927834 0.3200446
0003b0 2d 06 00 3e 41 dd 36 bd e9 a0 19 bd 12 a6 12 bf
       0.12502356 -0.044644598 -0.03750697 -0.57284653
0003c0 71 6a 96 be 39 1f 22 bf 3c 0c c9 bd 46 fb 02 3f
       -0.29378083 -0.6332889 -0.09816787 0.5116466
0003d0 a0 4d 35 3d 0c 1a 02 be 7f 62 99 3e 54 df 79 3e
       0.044263482 -0.12705249 0.2995796 0.24401599
0003e0 d4 50 b8 3d 8e 41 1d bf af 0a bb be e2 5c 5b bb
       0.08999792 -0.61428154 -0.36531588 -0.003347211
0003f0 61 8c 90 3e a6 c5 03 be 50 fb 62 be 87 7e 9e be
       0.282321 -0.12868366 -0.2216618 -0.30955908

model.2.weight f4 [256, 512]
000000 25 48 20 bd 2b 4e 82 bc 2a ec 36 be 7d 99 9a bd
       -0.039131302 -0.015906414 -0.17863527 -0.07548807
000010 9c c6 54 3c 7b 9f 86 bc 94 0d 76 bc 86 40 7e bd
       0.012986805 -0.016433468 -0.015017886 -0.062073253
000020 d0 38 96 bb 00 fc 75 3b 66 2c 51 3c 80 d0 75 bb
       -0.0045844093 0.0037534237 0.012766933 -0.003750831
000030 41 d1 04 3d 60 f3 b3 bb 27 30 32 bd 96 66 2c be
       0.032426123 -0.005491659 -0.043502953 -0.16836008
000040 ec 55 ac 3c 54 97 36 bd 9e 4c b4 bd ff d7 03 bd
       0.021037064 -0.04457791 -0.08803676 -0.03218841
000050 bc 44 6e 3c 90 56 3b bc f4 8c 57 bc 51 ba 4b bd
       0.014542755 -0.011434212 -0.013156164 -0.049738232
000060 fd 07 2f 3d 28 26 1e bd 20 63 b2 ba d1 07 18 bd
       0.042732228 -0.038610607 -0.0013609864 -0.03711683
000070 7b f7 a3 3c af c2 4d 3c d0 2a 30 bc 22 b1 15 bd
       0.020015469 0.012558623 -0.010752395 -0.03654588
000080 54 41 eb bb a2 73 4e bd 11 cd ab bc 3f 7c 30 3d
       -0.0071794186 -0.050403245 -0.020971807 0.04308724
000090 0a 2e ca bc 42 5d 09 bd 31 86 0a bd 49 34 13 3d
       -0.024680156 -0.033536203 -0.03381938 0.035938535
0000a0 84 5c 57 bc dc 18 4c 3b ea f0 0f bd 54 b8 7a bc
       -0.013144616 0.0031142747 -0.035141863 -0.015302736
0000b0 ed 6f 0a bd 94 ac 85 bd 42 8c 6b 3a f2 77 8d bd
       -0.033798147 -0.06527057 0.00089854386 -0.069076434
0000c0 2a de e3 bc a4 8e 2f 3c 6f dc 41 bd cf 90 25 bc
       -0.027815897 0.0107151605 -0.047329362 -0.010105326
0000d0 bb ad 21 3d 9f b5 5d bd 6a 2e 9a 3b df b5 0f be
       0.039472323 -0.054128285 0.00470524 -0.14034222
0000e0 21 e9 43 bd f6 f4 3e bd 98 76 b9 bc 56 0c fb 3c
       -0.04782975 -0.04662033 -0.022639558 0.03064553
0000f0 93 7d ea bc 10 0b 36 3c fe a4 9d 3c 99 6e 3d bd
       -0.028624332 0.011111036 0.019243713 -0.046248052
000100 26 1c 07 bb 86 c5 68 bc 48 fc c3 3b 0e e5 0d bd
       -0.0020616143 -0.0142072495 0.005981002 -0.03464227
000110 08 b6 04 bc 5d 9b 24 3d 80 45 b0 39 78 c7 a9 3b
       -0.00810004 0.04018723 0.00033621117 0.005181249
000120 60 94 0c bd 71 23 25 bd 0e 6d 67 bc 3f 69 1a 3d
       -0.03432119 -0.040317003 -0.014125122 0.037698027
000130 99 b2 f5 bc 82 11 a6 bc fc 01 a2 bd d0 ec 38 3c
       -0.029992389 -0.02027202 -0.07910535 0.011286929
000140 ee 36 81 bd a0 23 ed ba 39 06 47 bd b2 a8 6c bc
       -0.06309305 -0.0018092282 -0.04858992 -0.014444517
000150 02 18 0a 3c 9c 2b 82 bd f3 a6 3c bd 2a 82 56 3c
       0.0084285755 -0.06355974 -0.046057653 0.013092557
000160 3e fc 7c bc 6f d4 14 3d 17 a1 74 bd 42 53 14 bd
       -0.015440999 0.036335405 -0.05972394 -0.036212213
000170 e6 b5 54 3c cd d5 ab bc 3d 07 12 3d 09 52 a0 3c
       0.012982821 -0.020975972 0.035651434 0.019570367
000180 80 1f eb 3b eb 1a 2f 3d bd 8b a5 3c ab bc 26 bc
       0.007175386 0.04275028 0.020208234 -0.010176818
000190 de 46 2f bd e3 d9 0f 3d 7c 44 b6 bc 18 52 e0 bb
       -0.042792194 0.035119902 -0.022249453 -0.006845724
0001a0 f7 56 33 3d e4 80 94 bc 08 f6 6c bb 08 bc 88 3b
       0.043784108 -0.018127866 -0.0036157388 0.0041728057
0001b0 92 f7 71 bd 21 8f 0e 3d 58 ec 41 3c c0 cc 6c bc
       -0.059073992 0.034804467 0.011836134 -0.014453113
0001c0 da 2b d6 3c f3 5e f0 bd a0 ee 03 3b ef a2 b7 bc
       0.026143957 -0.1173686 0.0020131245 -0.02241656
0001d0 0f 47 1c 3d e7 76 8c bd c7 85 2c 3d cd 15 0a 3d
       0.038153704 -0.06858616 0.042119768 0.033712197
0001e0 7e c6 21 bd e4 4a a2 bc e5 0a 98 bd a8 ac c5 3b
       -0.039495938 -0.019811101 -0.07423953 0.006032545
0001f0 35 1f 88 3b 69 21 08 3b 25 4f e9 3c 16 5e b8 bc
       0.004154111 0.0020771867 0.028480122 -0.022505801
000200 79 45 3f bc c2 3a 9c 3c 2a c9 45 bd 03 ba fc bb
       -0.011674278 0.019070987 -0.048287548 -0.007712604
000210 7e 43 dc 3b 3d 7e a1 bc f2 03 d5 3c 02 12 ff 3c
       0.006721913 -0.019713515 0.026002858 0.031136516
000220 d8 36 30 bc 0a 66 b0 bc 30 c7 42 3c 87 1f 10 bd
       -0.010755263 -0.021533031 0.01188831 -0.035186317
000230 50 06 99 3b c9 7c ef bc ea c3 26 bd ac 23 75 3d
       0.004669942 -0.029234307 -0.040714182 0.059848472
000240 d3 d4 97 bd 98 fe 7b 3c d8 f3 db bc 00 d3 2c bd
       -0.0741364 0.015380524 -0.026849672 -0.042193413
000250 b2 de eb 3c c9 e8 24 bd e9 c5 29 3c c6 29 95 3c
       0.028792713 -0.040261064 0.010362127 0.018208396
000260 e5 21 22 3d ff 05 ab bc 67 4a b2 3c 55 ae 1e 3d
       0.039583106 -0.020876883 0.021763993 0.038740475
000270 2d 1c 30 bd 35 fd 31 bd 2c 90 fa bc d5 91 95 bc
       -0.04299562 -0.043454368 -0.030586325 -0.018258015
000280 e9 58 ce 3c 8b f7 54 3c 99 e8 aa bc f6 32 14 bd
       0.02518888 0.012998472 -0.020862864 -0.036181413
000290 b8 8b d8 bb b9 86 16 3d 42 32 9a bc 6b 8f 11 3d
       -0.0066084526 0.036749575 -0.018822793 0.035537165
0002a0 50 e1 4b 3c f0 97 4e bd d4 bf 9a bc 0f f0 02 bd
       0.012443855 -0.050437868 -0.018890299 -0.03196722
0002b0 d7 96 1b bd 83 47 ed 3b 98 92 16 bd ba 43 93 bc
       -0.03798565 0.007241191 -0.036760896 -0.01797663
0002c0 3a da 9c bc 45 7f 0a 3d 67 a8 17 3d 06 31 67 bc
       -0.019147027 0.03381278 0.037025835 -0.014110809
0002d0 06 ba 09 bd 36 0b f4 bb 80 b9 ce 3c c0 6e 32 bd
       -0.03362467 -0.0074476255 0.025234938 -0.04356265
0002e0 67 34 da bc cc 9b 73 bd 89 cc 66 bb 1d 92 2c bd
       -0.026636316 -0.05947475 -0.0035217127 -0.042131532
0002f0 ba 11 fe 3c 36 c2 88 bd 6f b1 60 bd 06 3c 67 3b
       0.031014312 -0.06677668 -0.054856714 0.003528358
000300 7d 04 85 bd 47 28 96 3c 02 4c 9b 3c 40 fa 98 ba
       -0.06494997 0.018329753 0.018957142 -0.001167126
000310 a8 ad 07 3c bc ba 0a bb 5f 90 9c bc 52 fa b9 bc
       0.008281149 -0.0021168431 -0.01911181 -0.02270237
000320 71 02 47 bd ef 0d bd bb bc 37 20 3c e4 d4 39 bc
       -0.048586313 -0.0057694833 0.009778913 -0.011342261
000330 0b 63 24 bd af bf 80 3c fd da 49 3c 03 22 ca bc
       -0.040133517 0.015716402 0.012320277 -0.024674421
000340 ae 0c b5 3c 8f 03 05 bc 05 b2 39 3d 7e e7 a5 ba
       0.022100773 -0.008118524 0.04533579 -0.0012657491
000350 1d c6 aa bb 3b ed 65 bc 04 f6 90 3c 5c f8 15 bd
       -0.005211605 -0.014033611 0.017695434 -0.036613807
000360 91 ef 37 bd 29 49 0c 3d 64 7b 01 bd c0 e7 73 3b
       -0.044906203 0.03424946 -0.031611815 0.0037216991
000370 f0 31 0a bd 39 df 90 bb 77 2f d7 bd 6c 8b 55 3c
       -0.03373903 -0.0044211415 -0.105071 0.013033729
000380 b9 d3 1b 3d fc d4 1e bc 42 ec cd bb b4 43 90 3c
       0.03804371 -0.009694334 -0.0062842676 0.017610408
000390 dd 07 10 bd 36 24 97 bd 49 b9 df bc 5f 42 05 3c
       -0.03516375 -0.073799536 -0.02731003 0.0081335
0003a0 a5 c8 7c 3b 2e 60 88 bb 61 20 fb bc f2 75 c9 bc
       0.0038571742 -0.004161856 -0.030655088 -0.024592374
0003b0 fc 90 15 bd 38 b0 83 bd 3b b8 8b 3b 60 8e 77 bc
       -0.03651522 -0.064300954 0.0042639053 -0.015109628
0003c0 c7 bd 1a 3d 94 ad 94 3c 0a f6 f1 3c ee df be bc
       0.037778642 0.018149175 0.029536266 -0.023300137
0003d0 7c 69 8a bd 0e 47 19 bd a4 63 1a bd c0 02 11 bd
       -0.06758401 -0.03742128 -0.03769268 -0.035403013
0003e0 ee 3e a2 bd b5 83 37 bd 3d c6 09 3d 76 dc 65 bc
       -0.07922159 -0.04480334 0.03363632 -0.014029613
0003f0 2f db 07 bd 4c 95 73 3c 8a 2c 27 bd 05 52 2a 3d
       -0.033168014 0.014867138 -0.04081396 0.041582126

model.2.bias f4 [256]
000000 bf 8b 4a bd 9a b0 0a 3d e0 24 ec 3c 8d 54 bf 3b
       -0.04944968 0.033859827 0.028826177 0.0058389367
000010 a0 73 ea bc 11 82 4d 3e aa a5 37 bd a6 dc c9 bc
       -0.028619587 0.20069148 -0.044835724 -0.024641346
000020 d9 c2 09 3e ad cd 49 3c b6 57 00 3d 96 2f 7e bc
       0.13453235 0.012317103 0.031333648 -0.015514275
000030 be 22 0c 3d cb 70 f1 bb ab 9e 7b bd 88 df 81 bb
       0.03421282 -0.0073681823 -0.061430614 -0.0039634146
000040 23 3d d1 3d af 99 66 bc 04 9f d0 bc 36 29 12 bd
       0.10216739 -0.014074727 -0.02546645 -0.035683833
000050 5b 89 7c 3b cc c9 af 3b fe 86 46 bd af fa f5 3d
       0.0038534019 0.0053646322 -0.048468582 0.12010705
000060 14 c1 97 3c 44 b9 35 3c d3 81 21 bb 5e 82 0e bd
       0.018524684 0.011091534 -0.0024644032 -0.034792297
000070 a0 b3 b7 3d 74 2b df bc 78 da 85 bb b6 09 40 bd
       0.089698076 -0.0272424 -0.0040848814 -0.04688426
000080 37 59 30 3c b3 a8 0d 3c 8e 2f a9 3c 98 f9 d7 bc
       0.010763458 0.008646178 0.020652559 -0.026364133
000090 47 28 0e 3d 0d d4 fe 3b 4c dd bf bc 1d 6f e0 3c
       0.03470638 0.0077767433 -0.023420952 0.027396733
0000a0 28 23 29 bd d9 66 cb bc d3 f6 34 bd e4 52 09 3c
       -0.041293293 -0.024829315 -0.044180702 0.008381579
0000b0 96 28 2f 3d ca 20 85 bb c6 8f f1 3c e7 91 12 bd
       0.042763315 -0.0040627467 0.029487502 -0.035783675
0000c0 f5 bb 82 bc 9e fa 2a bd 81 6a 22 bb 48 7f 00 bd
       -0.015958766 -0.041742913 -0.002478272 -0.031371385
0000d0 50 07 a2 3a f2 56 04 bd f7 50 26 3c 4f e7 42 ba
       0.0012361798 -0.03230948 0.010151139 -0.00074349804
0000e0 23 8a 42 3b 60 90 5c bd 61 6d 01 bc c7 cd 17 3c
       0.0029684387 -0.053848624 -0.007899613 0.00926537
0000f0 3d 42 40 bd a6 3a 90 bc 57 10 f0 bc 28 18 95 3b
       -0.04693817 -0.01760609 -0.029304666 0.004549999
000100 49 c5 50 bd de c4 f9 3b a5 92 9c bc ce 2a 0d 3c
       -0.050969396 0.0076223454 -0.019112894 0.008616162
000110 e4 b7 29 bc 52 3a d5 3a 60 63 de bb 03 35 03 3d
       -0.010358784 0.0016267991 -0.0067867488 0.032032978
000120 e7 46 06 bd 90 68 d3 3c df 6c 8c bd f6 8a 24 3d
       -0.03278246 0.025806695 -0.06856703 0.040171586
000130 9a d5 ab 3c eb fd 95 bc cf 75 ec 3c 77 3e c4 bb
       0.020975877 -0.018309554 0.02886477 -0.0059888917
000140 e6 51 d0 3b 8f 92 87 bc c5 c4 42 bd 4d ff 0a bd
       0.0063574193 -0.016549377 -0.047550935 -0.03393488
000150 aa 4e df bc d0 03 22 bb c3 a2 0c 3d bc 2e af bc
       -0.02725919 -0.002472151 0.03433491 -0.02138459
000160 3d 36 10 bd 46 52 37 3c cc 0c 17 bd 92 ab 1f 3b
       -0.035207976 0.011189049 -0.03687744 0.0024363738
000170 56 1e 2f bc 8b fa 05 3e b2 9d de 3c 0c 9f 46 bd
       -0.010688385 0.13083856 0.027174804 -0.048491523
000180 07 4a 93 bb 02 49 8a bc c7 5b 8e bd f2 c2 3a bd
       -0.0044949087 -0.016880516 -0.06951099 -0.04559607
000190 9f 27 9e bc 8c 1d 52 bc a0 19 01 bc 4b de f8 bc
       -0.019306002 -0.012824427 -0.007879645 -0.030379435
0001a0 b2 13 15 bd e7 01 8f bc f6 a0 69 bd f2 44 12 bb
       -0.036395736 -0.017456962 -0.05703827 -0.0022318927
0001b0 2c 77 15 3e 7a c6 0a bd 40 7a 1a bd f5 5d 88 bd
       0.14596242 -0.03388069 -0.037714243 -0.06658546
0001c0 19 01 9a b9 30 23 79 3d d9 ff 37 bc 48 fc b0 3b
       -0.00029373987 0.060824573 -0.011230432 0.005401168
0001d0 04 3a 69 3c 18 d6 92 3c c8 bc ab bb a1 08 4f bd
       0.014235023 0.017924353 -0.0052410103 -0.05054534
0001e0 d9 51 ca bc 50 19 e4 bb 5a 56 53 3b a8 a7 38 3d
       -0.024697231 -0.0069610253 0.0032247514 0.045081764
0001f0 48 d7 83 3c 00 ba 9e bc fe b8 28 bd 46 19 23 bd
       0.016093865 -0.019375801 -0.041192047 -0.039819025
000200 7c 58 5d 3c 26 63 f8 3c cc 0a 39 bd b6 6b 41 3e
       0.013509866 0.030320715 -0.045176312 0.18888745
000210 7f 15 85 bc 06 10 16 3e 3f 00 37 bc 14 16 cb bc
       -0.016245602 0.1465455 -0.011169492 -0.024790801
000220 d8 68 bb bc 75 be db bc 25 1a 36 3a 3e 6a d5 3d
       -0.022877142 -0.026824215 0.0006946645 0.10420655
000230 79 dc d6 3d 60 fb dc 3b 91 fc 29 3c 12 5f b6 3d
       0.104912706 0.0067438334 0.010375158 0.08904852
000240 03 d2 0b 3d 32 12 1c 3c 53 b0 d2 bc 69 64 b1 bc
       0.03413583 0.0095258225 -0.025718844 -0.021654325
000250 a1 8d 1f bd 13 24 a3 bc 91 cd 07 3c 45 49 16 bd
       -0.038953427 -0.019914662 0.008288757 -0.03669097
000260 52 79 e7 3c f0 aa cf bb 3f 54 80 bd 1f 9b b1 bc
       0.028256092 -0.006337516 -0.06266069 -0.021680413
000270 77 d5 4f 3d 6b 50 ff bc 38 ec 63 3e 0d 4f 69 bc
       0.050740685 -0.031166276 0.22258079 -0.014240039
000280 f4 90 b2 3c 81 69 c5 bb 50 50 7a 3a 88 fb fb bb
       0.021797635 -0.00602454 0.00095487107 -0.007689897
000290 87 bd 03 3e 21 78 32 bd ca 2c 1a 3e 72 67 3f 3d
       0.12865268 -0.043571595 0.15056148 0.046729513
0002a0 22 92 b3 3c 5f 93 41 3e f0 4d f1 3b 54 5e 32 bc
       0.021920267 0.18903874 0.007364027 -0.010886747
0002b0 d3 72 39 bd b2 c9 cb 3c cd c6 a6 3d 61 bc 11 bd
       -0.04527552 0.02487645 0.08143387 -0.035580043
0002c0 b2 ad a4 bc d0 9e 40 3c 2d 97 24 3b 72 75 70 bc
       -0.020102356 0.011756614 0.0025114522 -0.014676439
0002d0 e0 60 5f 3c 16 a5 b5 bc bf ab 61 bc 6c ad f0 3c
       0.013633937 -0.022173446 -0.013773858 0.029379569
0002e0 71 44 e8 3c c3 97 c4 3c c5 62 52 bd aa 20 a6 bc
       0.028352948 0.023998147 -0.051363725 -0.020279247
0002f0 8c cf 1a bc 80 77 f4 3c c9 c1 16 bd a5 01 5c bc
       -0.009448897 0.029842138 -0.0368059 -0.013428126
000300 11 75 28 bd db 58 00 bd dc d2 3f bd a8 65 3c 3b
       -0.04112727 -0.03133474 -0.04683195 0.0028747115
000310 9f fc fb 3a 32 2c f1 bc 47 ad ea bc a4 f1 23 bc
       0.0019225067 -0.02944002 -0.028647078 -0.010006342
000320 18 28 54 3d 1a e2 76 3b e3 d9 98 bc f2 e1 d1 bc
       0.05179605 0.0037671388 -0.018658584 -0.025620434
000330 b7 8b 1c bd 80 84 37 3e a5 6b 8b bc 57 37 15 bc
       -0.03821918 0.17921638 -0.017019102 -0.009107432
000340 2e 21 17 3d 7e db e9 bc ab 03 c2 3d 71 65 23 3c
       0.036896877 -0.028547045 0.09473356 0.009972916
000350 52 6c 93 3d 4a b1 c0 3c 78 9d 95 3c 81 d3 ae bc
       0.07198395 0.023522038 0.018263564 -0.021341087
000360 78 61 8d bb 99 6a 3d bd 8c b1 11 bc 98 0b 0d bc
       -0.0043145977 -0.046244238 -0.008892428 -0.008608721
000370 21 8a e0 3b 30 db 1c 3b a7 a6 03 3d da 91 2e bd
       0.0068524037 0.0023934357 0.032141354 -0.042619564
000380 ac 81 bb bc b5 49 2e bd 34 dd 9a bc 92 bf 21 bd
       -0.02288898 -0.04255076 -0.018904306 -0.039489336
000390 dd 69 c4 3c e8 17 36 bc 39 51 f5 3c 8c ef 4f 3e
       0.02397626 -0.011114098 0.029945957 0.20306224
0003a0 16 09 05 bc b1 66 8f bb 87 4a 12 bd ce c2 56 3e
       -0.008119842 -0.0043762554 -0.035715606 0.2097275
0003b0 f0 07 8f 3c 5b 41 25 3e b3 50 d5 3d 30 da 0f bd
       0.01745984 0.16138212 0.10415783 -0.03512019
0003c0 c8 2c 1e bd df 08 0d 3d 5a 86 db 3c e2 fa b2 3c
       -0.038616925 0.03443229 0.026797462 0.021848146
0003d0 2d 9f ce bc 43 fa 06 3c 2c 15 f3 bc 4b 7f df 3c
       -0.025222385 0.008238378 -0.029673181 0.027282378
0003e0 2c f8 46 bc 31 3b e5 bd 3c 9d 76 3c a2 6c d8 bc
       -0.01214413 -0.111929305 0.015052136 -0.026418988
0003f0 7a a0 02 bd 8a 79 19 bd c5 dd 08 bd 89 cb 68 3a
       -0.031891324 -0.037469424 -0.03341462 0.0008880427

model.4.weight f4 [128, 256]
000000 d3 4f 55 bd cc 21 8a bc a0 59 49 3b a7 ce 01 3c
       -0.05207808 -0.016861819 0.0030723587 0.007922805
000010 6f 5d 43 3b 93 15 86 bd b4 4e ab 3c 67 cb b1 3a
       0.002981033 -0.06547084 0.020911552 0.0013564647
000020 ac 96 7e 3c fc a6 d5 bb c1 98 5d 3c 80 46 26 bd
       0.015538853 -0.00652015 0.013525189 -0.040594578
000030 76 b7 26 3d 98 8b 15 bc ff 83 64 bc 18 ad 14 bc
       0.040702306 -0.00912752 -0.013947486 -0.009074472
000040 9c 58 b4 bc a7 ef cb 3c 18 37 3a 3d 50 16 a8 bb
       -0.022014908 0.024894549 0.045462698 -0.005129613
000050 1e ae 8f 3c 64 d1 4a 3d 86 a9 18 3d 3e 7e 50 3c
       0.01753908 0.049516097 0.037271045 0.012725411
000060 1c 34 ef bc 44 8e 5f bd b0 83 ef bb 08 7c 5c 3c
       -0.029199652 -0.054579034 -0.0073093995 0.013457306
000070 62 69 38 bd 50 50 06 bd 1a f7 10 bd 4c 7c c2 bc
       -0.045022376 -0.032791436 -0.035391904 -0.02374091
000080 e5 49 72 bd 38 99 bd bc 04 d7 ce 3c 0e 41 6e 3d
       -0.059152503 -0.02314435 0.025249012 0.05816751
000090 81 ff 01 3d a0 b3 c2 bc d2 6d 1e 3c 1a de eb 3c
       0.03173781 -0.023767292 0.009669738 0.02879243
0000a0 60 e0 f0 bc 72 48 13 bd 84 4a ae 3b fc 70 0b 3d
       -0.029403865 -0.03595776 0.0053189415 0.034043297
0000b0 86 f4 32 bd 00 b5 22 3c 78 83 7a bc 79 d5 3b 3c
       -0.043690227 0.009930849 -0.015290134 0.01146447
0000c0 60 b2 54 3c f4 f5 ac bc d0 d2 f6 3b 6c e1 69 bd
       0.012981981 -0.021113373 0.007532455 -0.057099745
0000d0 73 0d 16 3d 68 2f 61 bd 22 d3 23 3d a8 89 57 3d
       0.03663392 -0.05497685 0.039996274 0.052621514
0000e0 cb 54 46 3b 44 05 9e 3c 4a c3 88 bd 4b a6 ff bc
       0.0030262943 0.01928962 -0.066778734 -0.031207224
0000f0 36 a3 4e 3d f0 65 26 3d d2 f4 d0 bc bc c3 c5 bc
       0.05044862 0.04062456 -0.025507364 -0.024141185
000100 bc 00 d0 3c d6 42 3f bd 10 10 83 bc af 54 41 bd
       0.025390975 -0.0466946 -0.01599887 -0.0471999
000110 70 d9 5d bd 0c fa 10 3d 2c 4b 18 3d 72 50 06 3d
       -0.054162443 0.035394713 0.037181064 0.032791562
000120 d0 26 f7 3c 02 e4 24 3c b2 91 36 3d f1 d4 81 bc
       0.030169874 0.010064127 0.04457254 -0.015848609
000130 a8 5d d6 bc 32 df 34 3d 16 dd ce 3c 6a 06 32 bd
       -0.026167706 0.044158168 0.025251906 -0.04346315
000140 e8 38 56 3d a6 1f a5 bc a0 c6 d1 bc cb ab 57 3d
       0.052300364 -0.020156693 -0.025607407 0.05265407
000150 f8 41 46 3c 80 3f bf ba 1d 77 8e bd f8 ac 47 3d
       0.012100689 -0.0014591068 -0.06956313 0.04874894
000160 8a f6 36 3c 90 56 63 3d f4 90 a2 3c 14 8d 8a bc
       0.011167178 0.055502474 0.01984451 -0.016912974
000170 6d c7 29 3d d1 0d ec bc 6b 41 88 bd b8 2b 20 bd
       0.041449953 -0.028815182 -0.066531025 -0.039104193
000180 58 59 07 3d 12 20 49 3d 13 4c 83 bd 28 fa a1 bc
       0.03304419 0.04910285 -0.064109944 -0.019772604
000190 2c 14 8f bc f0 9b f3 3b 70 84 3f bc 00 34 7f 3c
       -0.017465673 0.0074343607 -0.01168929 0.015576363
0001a0 20 1b 44 bc 38 51 f2 3c 28 af 63 3d 2f dc 4c ba
       -0.011969358 0.029579744 0.055586964 -0.00078147923
0001b0 d3 86 95 bd 00 49 a6 3a 89 11 39 3d da 91 18 3d
       -0.07301106 0.0012686551 0.04518274 0.03724847
0001c0 d8 39 52 3c 45 c7 06 bd ea 8e b0 bc 43 e1 e9 bc
       0.012831174 -0.032904882 -0.021552522 -0.028549796
0001d0 be c1 0e 3d 3e 5b 5e 3d 50 f2 74 bc 71 b2 69 bb
       0.034852736 0.054286234 -0.01495035 -0.0035659338
0001e0 80 5d b0 3b 60 30 53 bd e7 dd 21 bd 6c 52 86 bd
       0.00538224 -0.051559806 -0.039518263 -0.065586895
0001f0 08 5c 5d bd 34 fd bf bc 17 3c 88 bd 42 af 59 3d
       -0.054042846 -0.023436166 -0.06652086 0.053145654
000200 40 73 62 3b 3a 98 4d ba e1 fc 33 3d 1a 81 26 bb
       0.0034553558 -0.0007842813 0.043942336 -0.002540654
000210 98 03 45 bd f0 c7 ec 3c 29 88 ae 3c a0 30 51 bd
       -0.04809913 0.028903931 0.02130516 -0.051071763
000220 d0 80 86 3c 1c 12 c6 bc 0e 9e 17 3d 16 b2 61 bd
       0.016418844 -0.024178557 0.037015967 -0.055101477
000230 3d 8b 26 bd 8b e9 da bc 0a c6 69 bd b8 94 7c 3c
       -0.04066013 -0.02672269 -0.05707363 0.015416317
000240 70 5e 3b 3d f0 f6 51 bc 50 ba 41 bc 7c 41 26 bd
       0.04574436 -0.012815222 -0.0118242055 -0.040589795
000250 75 bc 6c 3c 19 5a 73 bd e6 15 68 bc fb 9a 1b 3d
       0.0144492285 -0.059412096 -0.014165377 0.037989598
000260 80 64 d8 3b 5c e6 48 3d f2 95 37 3d 70 49 04 3d
       0.0066037774 0.049047813 0.044820733 0.032296598
000270 60 c7 0b bd 36 c5 21 bd ab 87 a6 3c 9a 54 a2 3c
       -0.034125686 -0.039494716 0.020328363 0.019815732
000280 bf db 42 3d b5 d2 00 bd 61 ad ea 3c 69 0c 1a bc
       0.047572847 -0.031450946 0.028647127 -0.009402373
000290 69 fd 60 3c e8 a7 48 3d 15 bb b2 3c 8e 98 3d bb
       0.013732293 0.048988253 0.021817723 -0.002893004
0002a0 c8 e8 6f bd 84 cf 2d bc f0 1f 46 bd 30 95 06 3c
       -0.058571607 -0.010608558 -0.0483703 0.00821428
0002b0 cf 71 89 bc d6 78 2b bd 0f cf 8c bd 1e 79 4b 3d
       -0.016777901 -0.041863285 -0.06875431 0.049676053
0002c0 34 15 aa bc 4e 84 26 bd d4 cc e0 bc e0 fe be 3b
       -0.020762064 -0.04065352 -0.02744142 0.0058287233
0002d0 80 ad df 3c 9a a0 7f 3d f6 1c 33 3d d8 19 74 3c
       0.027304411 0.06240902 0.04372879 0.01489874
0002e0 8f 0a 83 bd 8c f2 36 3d c4 21 24 bd 84 8a 52 bd
       -0.06398498 0.044664904 -0.040071264 -0.05140163
0002f0 aa d7 66 3d f5 3a 04 bd 80 e1 45 ba 20 13 7d 3c
       0.056358017 -0.03228279 -0.0007548556 0.015446454
000300 62 81 83 bc 1c f8 8d bc c9 43 3b bd 8a 34 de bc
       -0.016052905 -0.017330222 -0.04571894 -0.027124662
000310 e2 e4 04 3d f8 85 55 3d 34 c6 d6 3c c6 24 14 3d
       0.032444842 0.052129716 0.026217557 0.036167882
000320 66 ca 33 3d bb 25 f4 bc 02 44 6f bd a4 00 93 3c
       0.043894194 -0.029803148 -0.058414467 0.017944641
000330 29 92 60 3d 19 6b 89 bd 8a b1 21 bd db f3 01 bc
       0.05482689 -0.067098804 -0.039475955 -0.007931675
000340 fd 60 ee bc ed e2 d3 3c 70 b6 d1 3c c9 eb 5c 3d
       -0.029098982 0.025865043 0.025599688 0.0539358
000350 ad 84 48 3b a9 de c2 3c 3c 29 6e 3d 10 3f 0f bd
       0.003059666 0.023787813 0.058144793 -0.03497225
000360 60 b4 5b bd 82 7a 67 bd f8 67 c2 3c bc aa 0b bd
       -0.053638816 -0.056513317 0.023731217 -0.034098372
000370 6e ee d5 bc 40 75 84 ba 72 de 49 bb 50 36 36 bc
       -0.026114669 -0.0010105744 -0.0030802754 -0.011121348
000380 fc 9e 35 3d 9c 5f 1d 38 4c 75 4d bd f4 73 8e bc
       0.044341072 3.752076e-05 -0.05016069 -0.017389275
000390 ee 93 b8 3c 50 6a f1 bc 14 02 14 bd 26 8e 1c 3d
       0.022531476 -0.029469639 -0.036134794 0.0382215
0003a0 44 f8 9e bc 1f bc 2d 3d aa 33 8a 3c d3 fa 5e bd
       -0.019405492 0.042415734 0.016870338 -0.054438423
0003b0 33 67 62 bc 73 41 23 bc 93 b9 b1 bc 32 e0 5c 3d
       -0.01381855 -0.009964335 -0.021694934 0.053924747
0003c0 1e 5e 81 bd 07 2a 0d bd 24 f1 1b bc 28 ce a4 bc
       -0.063167796 -0.03446391 -0.009517942 -0.020117834
0003d0 c8 38 74 bc 6d 6f 13 3d e6 81 75 3d f6 9b 01 3c
       -0.014906116 0.035994936 0.059938334 0.007910719
0003e0 84 9e d9 bc d0 74 63 3d 9a 57 19 3d 68 1d 53 3c
       -0.026564844 0.055531323 0.03743706 0.012885429
0003f0 2e b8 af bc 34 c8 0c bd 60 b5 98 3c f8 25 5b 3c
       -0.021450128 -0.034370616 0.018641174 0.013375752

model.4.bias f4 [128]
000000 70 ef 1c bd e8 9a 14 bd a6 82 24 bd 89 4f 32 3e
       -0.038314283 -0.036280543 -0.04016366 0.17413153
000010 90 9e 62 bd d2 80 81 bc e9 28 ba 3e f7 98 db bc
       -0.055327 -0.015808497 0.36359337 -0.026806338
000020 a9 33 8b bd 97 35 68 bd ef 29 76 3e 74 b8 fc 3c
       -0.06796963 -0.056691732 0.24039434 0.030849673
000030 38 da c4 bc 86 6b 53 bd be d9 ec 3b 67 16 c8 bd
       -0.024029836 -0.051616214 0.0072281053 -0.09769898
000040 8e 99 81 3e e6 44 21 3e b4 a5 53 3d 38 56 70 3c
       0.25312465 0.15748939 0.0516717 0.014668994
000050 c9 70 9f 3c 39 dc 69 bd f4 8d 7e 3c b0 99 95 bd
       0.01946296 -0.057094786 0.015536774 -0.07304704
000060 fb 2d 0c 3e c1 69 93 bd 61 b5 dd 3e cb b9 e3 3c
       0.13689415 -0.07197905 0.43302444 0.027798554
000070 81 07 47 bd 1d 6c a0 bc 58 1c 9f bc cf 8f b1 3b
       -0.04859114 -0.019582802 -0.019422695 0.0054187546
000080 c6 fa c0 3e b1 aa 10 3e 55 2b 30 3e 7c 82 03 bd
       0.37691325 0.14127614 0.1720403 -0.03210686
000090 b0 16 32 3d 24 19 78 bd 01 fe 96 bd df e8 bb bd
       0.043478668 -0.06057085 -0.07372666 -0.09175276
0000a0 b2 11 c8 3e 54 74 1d bd bc 5e 29 3c 72 be 31 bd
       0.39076 -0.038441017 0.010337528 -0.043394513
0000b0 b8 89 51 bd ba a2 1f 3d c4 1c 54 bd 6f c8 9c bd
       -0.05115673 0.038973548 -0.051785246 -0.07655417
0000c0 22 c3 e6 bc 31 f4 2a bd d4 e6 e9 3e 63 2d 8a bd
       -0.028169218 -0.041736785 0.4568392 -0.06746938
0000d0 ed 0d a4 bd e2 90 d7 bc 97 47 6f bd 29 be 9b bd
       -0.08010469 -0.026314203 -0.058417883 -0.076046295
0000e0 e1 04 e4 bc b0 b0 af 3d 09 7e ed 3c 53 03 b0 bd
       -0.027834358 0.08578622 0.028990762 -0.08594384
0000f0 84 4c df bd fb 8d 71 3e 0a fe 23 3e bd 4d 05 bd
       -0.10903266 0.23589318 0.16014877 -0.03254484
000100 b5 77 64 bd 34 40 7a 3d 49 a6 7e bc 86 fd b9 bc
       -0.055778224 0.061096385 -0.015542575 -0.022703897
000110 67 d6 e8 3c 90 72 88 bc e7 1b 88 3c a5 f7 b0 bb
       0.028422548 -0.01665619 0.016614867 -0.0054006153
000120 b0 5f 4d bc b2 7f 26 3e dd ba bf 3d 1e 63 fb bc
       -0.012535021 0.1625965 0.09361813 -0.030686911
000130 f7 22 8f bc 6c f2 92 3e f4 62 15 3e d4 97 55 bb
       -0.017472727 0.28700578 0.14588529 -0.0032591717
000140 52 0b a5 bd 69 bb 8b bd 27 61 b1 3e 23 05 95 bd
       -0.080588 -0.06822855 0.34644434 -0.072763704
000150 db 85 96 3c 89 1c 3c bd 08 9b a6 3e ba bf 3e 3e
       0.018374374 -0.04592565 0.32540154 0.18627825
000160 01 18 03 be b8 1e 10 3c 3b 48 8d 3e cd ea 51 3e
       -0.12802126 0.008796386 0.2759417 0.20499726
000170 97 09 d1 bc a7 02 a8 bd 28 1e a4 bc 28 14 45 bc
       -0.025517268 -0.08203631 -0.02003391 -0.012028731
000180 08 d2 0a bd 40 3a 82 3e 14 3f b1 bc be 31 b4 3d
       -0.033891708 0.25435066 -0.021636523 0.0879855
000190 89 17 7c 3e cb b3 1d 3b 23 a6 df bc 6d bb 93 3e
       0.24618353 0.0024063464 -0.0273009 0.28853932
0001a0 60 b2 4e bc fd a9 c6 bb ff 08 0e 3e af ad de 3b
       -0.01261577 -0.0060627447 0.13870619 0.006795607
0001b0 3f f6 4c 3e d3 6b 45 3e 6e 02 87 bd ad 9d ac 3e
       0.2001581 0.19279413 -0.0659226 0.33714047
0001c0 aa ca 65 3e 50 86 04 bd a5 d4 91 3c f6 ff 1b bd
       0.22440591 -0.032354653 0.017801592 -0.0380859
0001d0 6e 62 ae bd fe 5e 01 bd 2a 1e 44 3b a4 38 04 39
       -0.08514868 -0.031584732 0.0029925206 0.00012609601
0001e0 9a 5d 1b bd 75 c4 6e bd 4a c9 43 bd 10 45 67 bc
       -0.037931062 -0.058292825 -0.047799386 -0.014115587
0001f0 f4 a5 53 bd ca 16 3f bd 65 78 d3 bd cd e3 34 3d
       -0.051671937 -0.046652593 -0.10325698 0.04416256

model.6.weight f4 [3, 128]
000000 0c 6c 89 3d 3a 95 d3 bc 86 8d 25 3d 6e a3 dd 3d
       0.067100614 -0.025827993 0.04041817 0.10822187
000010 c9 45 a5 3d 49 6f 24 3d c9 57 eb 3e 96 a9 10 3d
       0.08069951 0.040145192 0.45965412 0.03531798
000020 d2 3f e9 3b 52 3d eb 3c 07 64 97 be f5 7c 31 bd
       0.0071182037 0.028715763 -0.29568502 -0.04333206
000030 c9 4f 5f 3c c6 15 8e bd 27 a8 be 3c 7a 4d 15 3c
       0.013629862 -0.06937747 0.02327354 0.00911271
000040 f5 26 a8 be 1b a3 95 be e6 f7 a4 3b a1 37 e2 3c
       -0.32842222 -0.29226002 0.0050344346 0.027614417
000050 78 d0 9f bd 70 a3 ab bb d1 5d 8c 3d 40 55 0e bc
       -0.07803434 -0.005237989 0.068538316 -0.008687317
000060 df 62 2c be 89 e8 be bc e5 b8 8a be 96 96 2d bd
       -0.16834591 -0.02330424 -0.27094188 -0.042379938
000070 c1 3f 9d bd de c5 34 3d 1b 88 bd bc 14 81 8d bc
       -0.07678176 0.044134013 -0.02313619 -0.017273463
000080 06 78 82 be 41 f0 11 be 35 37 1a be c4 cc 75 3d
       -0.25482196 -0.14251806 -0.15060122 0.060009733
000090 1f f3 88 3d 00 36 32 3c 8e 59 22 3e f8 e2 90 3d
       0.06686997 0.010877132 0.15854475 0.07074541
0000a0 67 ff 92 be bb 0c 47 bd 4d 19 9a 3d 05 1e a7 3d
       -0.28710482 -0.048596125 0.07524357 0.08160023
0000b0 49 8c 85 3d 7e b7 ae bd 4b b0 91 3d db 60 27 bc
       0.06520898 -0.08531092 0.07113703 -0.010215963
0000c0 4b c5 39 bd 5d fc 1c 3d 40 22 9b be db d8 e0 bc
       -0.04535417 0.03832661 -0.30299568 -0.027447155
0000d0 92 2f a9 bb 4d ea 03 3d 6e c8 0c 3d 70 97 1f bd
       -0.0051631415 0.03220587 0.034370832 -0.03896278
0000e0 68 13 3e 3c 50 35 6e 3c 3e aa 16 bd 63 ed 5c 3a
       0.0116013065 0.014539078 -0.03678345 0.00084277074
0000f0 67 e0 9a bd fa 86 65 be 0e 85 59 be 95 c6 58 bc
       -0.075623326 -0.2241477 -0.21242163 -0.013230939
000100 f7 f7 b6 bd ea 9f ad bd c7 07 ea bc 3c 0e 43 bd
       -0.08934014 -0.08477767 -0.028568162 -0.047620997
000110 fa 23 d0 bb 51 6f d0 bb ea 46 2d bb 40 35 27 3c
       -0.006351945 -0.006360926 -0.0026439973 0.010205567
000120 9b 60 8e 3d 0b 58 0a be a6 61 58 3c 90 9f 35 3d
       0.0695202 -0.13510148 0.013206875 0.044341624
000130 22 e1 58 bd 09 1e 75 be a1 fd 25 be 8f f0 3a 3d
       -0.05294908 -0.23937239 -0.16210033 0.04563957
000140 fa 02 5f bb 62 4e 57 3d 2f d3 59 be a8 66 63 3c
       -0.0034028874 0.052564986 -0.21271966 0.013879456
000150 1d 3c 9e bc 8a 61 1e 3c 3a d8 fb be b4 95 42 be
       -0.019315774 0.00966681 -0.49188405 -0.1900242
000160 4a 64 5d bd 85 21 93 3d 0c d8 1c be 01 7f f1 be
       -0.05405072 0.07184128 -0.1531679 -0.4716721
000170 af 6c 56 bd 25 0d 8e 3d 90 8e e0 3b b6 91 69 bd
       -0.052349743 0.06936101 0.0068529323 -0.057023726
000180 c4 3c d7 3d 73 61 5b be 92 27 07 bd 29 7c d2 3c
       0.10509637 -0.21423893 -0.03299672 0.02569397
000190 f9 7b 7c be 99 2f 9f 3d dc 5a 8e bd 1d ff 53 be
       -0.24656667 0.077727504 -0.06950924 -0.20702787
0001a0 50 45 4e bc 26 70 49 bd fc 21 90 bd 27 eb eb 3d
       -0.012589768 -0.04917922 -0.07037732 0.11519461
0001b0 29 96 d6 3e 97 7f 7c be e4 36 86 3d b0 56 61 be
       0.41911438 -0.24658047 0.06553438 -0.22005725
0001c0 e7 72 6f 3f cb 14 07 3d ac 79 fe 3c fe b8 89 bc
       0.935347 0.032978814 0.031063877 -0.016811844
0001d0 37 3c 0f 3d 15 37 7e bd 2f 0b 12 bd bc c0 8e 3c
       0.034969535 -0.06206425 -0.035655197 0.017425887
0001e0 f9 51 b6 bb 67 f6 8f 3d 82 c1 59 3d 40 04 9f 3d
       -0.005563971 0.070294194 0.05316306 0.077644825
0001f0 f2 4f 4e 3c 37 89 e0 bb fd cb c8 ba 24 01 b5 3c
       0.012592303 -0.006852295 -0.0015319582 0.02209527
000200 f7 d6 75 3c 70 c4 fd bc d9 70 da bc 51 5d 71 bd
       0.015004865 -0.030977458 -0.026665138 -0.058926884
000210 f0 b4 55 3d cd 80 a0 3b 02 ad 0f 3f a8 2d 97 bc
       0.05217451 0.0048981667 0.56123364 -0.018454388
000220 5b 9c f6 bc 5e 72 ad bc 25 6d 95 be 34 44 c5 3c
       -0.030103853 -0.021172699 -0.29184833 0.024080373
000230 00 26 03 3d 25 89 f4 3c 5a 25 94 bd e8 24 7d bd
       0.03201866 0.029850552 -0.07233687 -0.061802775
000240 06 e5 e4 be 43 8d 8f be 82 5c 2b bd 25 ff 7f 3d
       -0.4470598 -0.28037462 -0.04183627 0.062499184
000250 0e 5a 8a 3d c6 6e ec 3b d0 8e 8f bd 00 5e 5c bc
       0.06755458 0.0072153537 -0.07009661 -0.013450146
000260 50 c1 31 be 41 5e d1 3a 45 f9 8a be 10 42 81 3c
       -0.17358899 0.0015973524 -0.27143303 0.015778571
000270 59 09 6d 3d 2b 20 a6 3d ba 46 68 3d 44 5c 0f 3d
       0.057870243 0.08111604 0.056708075 0.0350001
000280 5f 4c 85 be 11 90 d2 bd 4f b7 7a be 36 61 a1 3d
       -0.2603483 -0.10281385 -0.24483989 0.0787987
000290 58 ab 0d 3d 3b 1a 1b 3d 18 4c 8a 3d 25 c2 f2 bc
       0.034587234 0.037866812 0.06752795 -0.029633591
0002a0 9d 05 85 be 79 f3 b8 3a 75 bf 66 3d 0c 5e 59 bc
       -0.25980845 0.0014110646 0.05633493 -0.013267051
0002b0 0d 52 a1 bd 0c 59 83 bd c0 73 49 3b 58 dc a0 3d
       -0.07876978 -0.06413469 0.0030739158 0.07854527
0002c0 58 d7 41 3d ab 8b 95 bd 4f f1 93 be b0 db f4 3c
       0.04732451 -0.0730203 -0.2889504 0.029889911
0002d0 e9 33 4d 3b 12 71 a8 bd bf 18 43 bd c2 6b 34 3d
       0.0031311458 -0.082246915 -0.04763102 0.04404808
0002e0 86 b9 72 bc 8a 37 86 bc 20 96 98 3d 5e ef 5d bd
       -0.01481474 -0.016383905 0.07450509 -0.054183356
0002f0 b3 0c 93 bb e7 89 61 be 70 60 19 be 01 a9 81 3d
       -0.004487598 -0.22025262 -0.14978194 0.06331063
000300 a5 5d 40 bb 6c fc b9 bc a4 7f 6a 3b c0 14 66 3d
       -0.0029352691 -0.022703372 0.0035781646 0.056172132
000310 cc 31 06 3e 04 c7 9a 3c 40 1d 8c bd e9 ff 57 bd
       0.13104934 0.018893726 -0.068415165 -0.05273429
000320 6e 08 9d bd ef 51 3d be c5 32 6b bb 99 87 30 bc
       -0.076676235 -0.18488286 -0.0035888415 -0.0107745165
000330 2c 6d 22 3d a2 8e 2f be 48 0c 6e be f7 2d 1f 3c
       0.039654896 -0.17144254 -0.23246872 0.009715549
000340 e9 d4 41 3c c7 91 8b 3d de 4d 55 be 75 a4 23 3d
       0.011830547 0.06814914 -0.20830485 0.03995176
000350 3e 6c 27 bd 7e 12 15 3d c5 e4 f8 be fa 16 fd bd
       -0.040874712 0.03639459 -0.48612037 -0.12357898
000360 b4 0c 6e bb 80 0d 4d ba fc dd 33 be b0 0e ae be
       -0.003632349 -0.0007822141 -0.17565149 -0.3399558
000370 86 40 d5 bd 3d d1 51 3d e3 0c 83 3d f6 3b 00 3d
       -0.104126975 0.051224936 0.06398942 0.031307183
000380 a9 a9 65 bd d0 2b 50 be 6b 60 05 3d 21 c0 e6 3c
       -0.056070004 -0.20329213 0.032562654 0.028167786
000390 73 5f 7e be e7 94 b2 bd 41 a8 fc 3c 27 57 69 be
       -0.24841098 -0.08719807 0.030841948 -0.22787152
0003a0 32 8a 74 bd 44 5f 1d 3d 08 bb 1e be 13 7f 1e 3d
       -0.059702106 0.03842093 -0.15501034 0.038695406
0003b0 99 23 07 3f 99 72 60 be e6 4c 05 bd e5 a1 41 be
       0.5278869 -0.21918716 -0.03254404 -0.18909414
0003c0 da 94 52 3f bf 0c cf 3b a2 b4 d8 3c 61 6d 4c bd
       0.8225838 0.006318658 0.02645332 -0.049909
0003d0 28 1c dc 3b ef 88 62 3d 1c ab b6 bb e9 f4 37 3d
       0.0067172237 0.05530637 -0.005574597 0.0449113
0003e0 5b 04 93 3d 95 f2 a3 3a 68 86 88 bd c7 35 c2 bc
       0.07178565 0.0012508208 -0.06666261 -0.023707284
0003f0 c5 15 a5 3d 89 7a a8 bc 83 04 93 3d d3 02 cb bc
       0.08060793 -0.020566242 0.07178595 -0.02478162

model.6.bias f4 [3]
000000 4e 0d 01 bf cd c0 ed be 3b f2 2f be
       -0.50410926 -0.46436158 -0.17182247
