2021-22/PrimerSemestre/Reinforcement/PRA1/DQN.pth (torch, 715087 bytes, 8 tensors)

model.0.weight f4 [512, 25]
00000000: df76 6ebd 2ea7 dbbd 2dfe 3d3e 1cb4 a73d
00000010: 7373 083e 98ec 21bc 27d0 5abd 194a 443d
00000020: 6957 fabc c896 e5bc 2e8b b23d 9fd9 ae3d
00000030: 235a 2d3e f6be 943d bcd7 9e3d dd80 f2bc
00000040: 2f62 ae3d dcb5 f13d 50f5 d53d a8c7 8abc
00000050: 0127 50be 51d1 48be 69eb 46be f218 d2bc
00000060: 0488 ea3d a3c5 99bd da32 ff3c eba4 92bd
00000070: c9fa 93bb 630d 923e fd92 b2bc e1a1 3e3f
00000080: 1b36 90be be84 0a3f bb9b e43b eb15 253e
00000090: 85ce dd3e eb5a ed3d bb5a 193f 198d 383e
000000a0: 3398 ebbd 285b a23e 3500 4c3c 8ce7 3a3f
000000b0: 47a0 c7be 5574 2ebe 0f75 a63e 6394 2d3c
000000c0: 3c8b 953f af1c febd 1eeb 0fbd 5ecc 7cbd
000000d0: c454 8f3d 5471 3cbe 38d0 4f3e dbd5 38bd
000000e0: 7d1c 123e 5e19 16be ee79 2e3f 0f43 d53d
000000f0: 0e3f 8abd e1f3 4f3e 5b62 8cbe 675c 0d3f
00000100: 712b ae3e 71ab 303d b9db 5b3e 3ebc 27be
00000110: 5459 8d3f 71c4 96be a0cc 5ebe 25d7 193e
00000120: 3982 47be f3f5 963f 0ae8 7d3e 8f1a 4a3e
00000130: 583f 45be 0a56 c1bd 20b8 72bd 5077 38be
00000140: e846 91bc 7629 90bd cf86 053e 554b 1a3e
00000150: 83e7 b2bd 6b56 12be 40c9 a2bd 08b1 52bd
00000160: 6c7b 61bd 59b7 263e 24ca 713d 3642 fe3d
00000170: 4421 6c3d 4906 223e b4f0 383d daf7 1ebe
00000180: 2370 1cbe f378 b9bd 3344 e5bd 7418 5ebd
00000190: 1f4a abbc 571e 3dbe 98d5 6d3d fba2 c23c
000001a0: 2ca9 2cbe 2f3c a33c 2d0f bebd 4805 d43b
000001b0: 4cb8 86be 5ef4 54be 8e95 053e 77d4 413e
000001c0: 0124 4bbd 4bc0 083e 396a 99be afea f23c
000001d0: 0bae 6a3d 62b5 9ebc a758 f2bc dc76 61be
000001e0: 6868 4c3d b593 3f3d f94e 36bd 4221 20be
000001f0: b168 84bd 983c 2bbe 60ce 0f3d 727f 26be
00000200: e8f1 f63c 06ad db3d 9545 14be 8aa9 cdbd
00000210: 700a 81bc 6379 bbbd a089 493d 2b3d 1fbe
00000220: 8694 23be a1e6 393e 18e0 903c 4b27 453e
00000230: d549 2cbe e0f5 3abe a058 3dbe b6f4 833d
00000240: 6aa4 0abe 2633 12be a07b 1f3c 0737 bfbd
00000250: 50d5 9c3c d10b 2b3e 0a00 2d3e 58ee c0bc
00000260: f69b 1e3d 4ad9 2b3e 4541 253a 38ee 133e
00000270: 9703 c43c 9e48 e23c ff02 7ebe afd3 d33d
00000280: 6820 273e 5984 35be 87e4 3e3e 1749 403e
00000290: c47f eabd e011 0a3d d1b8 84bd c8b2 10be
000002a0: 0c25 43be 1521 0c3e 17c9 e5bd 393b fd3d
000002b0: 7e91 d23c 5e1e ae3d 2454 ae3d c222 42be
000002c0: ad5e 9b3b c3b7 b6bc 75eb 373d 0699 d7be
000002d0: 9f35 953d a87c b03e 2283 d1bc 6d58 a33d
000002e0: 254b 09be fb06 e9bc c7f5 1ebd 0f33 ef3d
000002f0: c6f1 423e 7393 393e cb09 d7bd ec14 abbd
00000300: 3441 23be 2114 273e 8644 fd3c 9892 0d3e
00000310: 94ae 2b3e 72fa c63d 9a87 8abd 749e 1d3e
00000320: 2d79 e5bd b4df ce3d 115b a9bc 692c 3abe
00000330: 3c06 063e 4c09 13be 1e3e 20bf a07b 183e
00000340: 813f 99be 8568 8fbe 9ca2 053e 71ca 783e
00000350: 0dd9 44be 5168 2e3e 1179 61be e956 92bd
00000360: 635e 113e f18d 24be b52a 0d3e d242 643d
00000370: 1051 293e e6dd 723d 43db 14be 59ab 0bbd
00000380: 0792 cebc fd41 42be a119 243e 65c4 3f3e
00000390: 0074 0abb 4aad 8b3d e49e 0cbe ed99 acbd
000003a0: 1197 443e 93fa 3c3e 057e 2cbe e3d0 c2bd
000003b0: 5cbe 80bd 2c68 7fbd 452f 0b3e 981e 433d
000003c0: a2fc e83d 402e fd3b 5861 383d 934c 31be
000003d0: a71f 3d3e 3a34 83bd e84a 2dbd e0c6 033d
000003e0: 8061 723c 1865 dc3c 47fc eb3d f574 3cbc
000003f0: d9e7 2e3e 312b 49bd d849 7a3e dc88 c13c
-0.058218833 -0.10725246 0.18553992 0.0818865 0.1332529 -0.0098830685 -0.053421166 0.047922228
-0.030559259 -0.028026 0.08717953 0.08537602 0.16928916 0.072629854 0.07755992 -0.029602462
0.08514821 0.11802265 0.1044718 -0.016940907 -0.20327379 -0.19611098 -0.1942574 -0.02564666
0.11451724 -0.07508399 0.031152178 -0.07160362 -0.00451598 0.28525838 -0.021798605 0.7446576
-0.2816628 0.541088 0.0069765723 0.16121642 0.43321624 0.11589607 0.5990407 0.18022574
-0.11503639 0.31710172 0.012451221 0.7300956 -0.3898947 -0.17036565 0.32511184 0.01059446
1.1683116 -0.12407815 -0.035136335 -0.061718337 0.0699859 -0.18402606 0.20294273 -0.045125823
0.1426868 -0.14658114 0.681548 0.10413181 -0.06750308 0.20307876 -0.2741879 0.5521912
0.34017518 0.04313225 0.21470536 -0.16380402 1.1042886 -0.29446748 -0.21757746 0.15023477
-0.1948327 1.1793808 0.24795547 0.19736694 -0.19262445 -0.09440239 -0.059257627 -0.18014264
-0.017734006 -0.07039158 0.13039707 0.150678 -0.087355636 -0.14290778 -0.07948542 -0.05143836
-0.055049345 0.16280879 0.059030667 0.124149725 0.057648912 0.1582271 0.045151427 -0.15524235
-0.15277152 -0.09056272 -0.111946486 -0.05422254 -0.020909367 -0.18468605 0.058065027 0.023759356
-0.16861409 0.019926159 -0.09280238 0.006470356 -0.26312482 -0.20796344 0.13045332 0.18928705
-0.049594883 0.13354604 -0.29963854 0.029652921 0.057294887 -0.0193736 -0.029583288 -0.22017998
0.049904257 0.046771724 -0.044508908 -0.15637687 -0.06465281 -0.16722333 0.035108924 -0.16259554
0.030144647 0.10726361 -0.14479668 -0.10042103 -0.015752047 -0.09154012 0.049203515 -0.15550677
-0.15974626 0.18154384 0.017684981 0.1925327 -0.1682504 -0.18257856 -0.18490839 0.06443159
-0.13539281 -0.14277324 0.009734064 -0.093366675 0.019144684 0.16703726 0.16894546 -0.023551151
0.038722955 0.16782108 0.00063039764 0.14446342 0.023927493 0.027622517 -0.2480583 0.1034311
0.16320956 -0.17726268 0.18641864 0.18777882 -0.114501506 0.033708453 -0.064805634 -0.141307
-0.19057101 0.13684495 -0.112199955 0.123648115 0.025704142 0.08501886 0.08512142 -0.18958572
0.004741511 -0.022304421 0.044902284 -0.42108935 0.07285618 0.34470105 -0.025575224 0.0797585
-0.13407572 -0.028445711 -0.03880861 0.116796605 0.19037542 0.18122654 -0.10499915 -0.083536
-0.15942842 0.16316272 0.030916464 0.13825452 0.16765815 0.097157374 -0.06764145 0.15392476
-0.11204753 0.10101262 -0.020673307 -0.18181004 0.13088316 -0.14359015 -0.62594783 0.14890909
-0.29931262 -0.2800943 0.13050312 0.24295975 -0.19223423 0.17031981 -0.2201884 -0.07145483
0.14196162 -0.16069771 0.13785823 0.055727787 0.16534829 0.05929365 -0.14536767 -0.034098957
-0.025216116 -0.18970485 0.16025402 0.18727262 -0.002112627 0.06820162 -0.13732487 -0.084277965
0.19198252 0.18454961 -0.16844948 -0.09512498 -0.06286308 -0.062355205 0.1359225 0.0476366
0.11376311 0.0077264607 0.04501471 -0.17314367 0.18469106 -0.06406446 -0.042307764 0.032172084
0.014793754 0.026903674 0.115227275 -0.011502494 0.1708063 -0.049113456 0.24442232 0.02362483

model.0.bias f4 [512]
00000000: df61 e73c e3cc 02be e0b4 1b3e 1665 e83d
00000010: e746 793d 9271 ba3d 2ea6 ca3d c97d 16be
00000020: f1c3 ddbd 8691 86bd 1614 4ebe 2c37 7e3d
00000030: e85b 06bd 8097 01be 0343 e0bc cc94 d9bc
00000040: 0705 4cbe 2fbc eb3d 12e7 16be b3e8 06be
00000050: d44f 70bd e1a1 423e f13d d13d 8d31 4a3e
00000060: 9985 1c3e a4b0 47bc dc86 0c3e ad33 063e
00000070: 1a5a 11be f320 28be c808 6fbd d71e 35be
00000080: 379d 8e3d 43f6 9dbc 7055 cfbd a054 34be
00000090: 5607 35bc 067c 3dbd 0465 ea3d c568 47be
000000a0: ddab 1c3e 4aec d73d 47b4 3abd ab79 f13d
000000b0: 253f bc3c 11f5 f8bd dd30 313d 0fa4 0d3e
000000c0: fa56 e63d d001 cf3d 5bb3 fd3d a868 32be
000000d0: 5e9b ce3d e815 ec3b 94c9 9b3d de2c b73d
000000e0: 8c3e 6abe 80d9 0f3c 1a05 febd 12bb 82bc
000000f0: 15e8 d9bd 7fe6 333e 45d9 9bbc 5719 bdbd
00000100: b9fc 41be 00a6 47bb 9309 c239 439a 2c3e
00000110: 6749 343e 6917 9e3d f65f 28be 7604 c63d
00000120: 497d 063e f069 97bd 9436 ff3d 279d 9d3d
00000130: 1304 a2bc ffe3 2cbe e3e9 2d3d 27fb 723b
00000140: 1646 843d d7a1 a2bc 6e77 eebd 30f4 bfbc
00000150: 2465 f0bd ace5 623d 87a9 763d 53c4 8cbd
00000160: 43ab 2fbe 0216 98ba 632a 073e f4ad 18be
00000170: 0377 3ebe da04 35be 3ba0 ffbd 4835 da3d
00000180: 4e3e e73d a460 c8bd 0e7e 39be fc5d 573d
00000190: 711d d53d 2976 cebc a53b 8b3d 48fb ab3d
000001a0: 2b90 203e 4a5a 0ebe 676b ffbd 7ed3 1ebe
000001b0: b1b7 c73d a84d ea3d 57c5 adbd 7a63 d6bd
000001c0: 004f d43c 490a bfbd 2634 a8bc 2aba b0bd
000001d0: b035 04be c874 bcbd 6d79 5b3e 68b4 7abd
000001e0: 91fb d93d 87ff 9dbb 5f21 183e 7364 ed3d
000001f0: 92cb ba3d 6a36 eebd 5a85 15bd 9eaf d43d
00000200: e410 b53c c001 d2bd e479 2c3d 52ee 97bd
00000210: 7e9a 503d 6dc5 debd 9ff4 38be e0d8 0a3c
00000220: 2dc1 d8bd 47bf 82bc 4c6e a03c 284f 353d
00000230: 2ee2 5cbc 1043 64bc 807e 36be 750a e03c
00000240: cddf 9a3c 424c 9e3d 9d68 bcbd d2b2 fd3d
00000250: a01a 00bc 83cf ab3d b969 093e d73c 2d3d
00000260: bd91 203d 5986 eeba 6d45 963d 36c2 04be
00000270: d261 f23d 5ed5 193e 1751 a2bd 101a 0fbe
00000280: d58b 03be 13c9 013e e675 4a3d 8f6f 023e
00000290: 7241 01be 90c4 13be 05c9 c2bd 3364 8c3b
000002a0: ac62 c33d 7723 433d d6c8 da3d dda7 c4bd
000002b0: 295f 29be 76e5 00be 1a30 193d ccbb a13d
000002c0: 7130 25bd a31a a7bd 2088 1abd 7381 f0bd
000002d0: 6350 763d 3b03 7fbd e131 49bb c9e5 db3c
000002e0: 2a39 a53d 912c 8c3d 3044 463c 727e 1ebe
000002f0: b96c f0bb 1948 fcbc b220 ca3d a9c9 f93d
00000300: a64a 183d 8793 3fbe 2ea1 28be 6187 043e
00000310: cfb1 063e 105e 9fbd a442 a23d 6a53 20be
00000320: 591b a03d 16cf f6bd 177b 55bb 330b b0bd
00000330: 91e8 1cbe 8afb 92bd 68a3 1e3e 6007 ac3b
00000340: a84d 073e 8259 bdbd a3f1 e03d 07f2 7cbd
00000350: ae7e 10bd c467 bc3c bfac a4bc 9743 4d3d
00000360: dd46 07be 2875 adbc 2b70 d63d bc7d 14be
00000370: d5b0 ae3c 1259 1b3e 79bf ffbc fe64 8dbd
00000380: 99e7 0a3e fe60 24be a3db 3cbe 9b3d 11be
00000390: c898 3abe 5e13 883d 9ab7 46be 8b6f d5bb
000003a0: f04d ea3d 5c27 213e 7ce1 7abd fa4b 603e
000003b0: ee84 16bd ffb5 42be bdf7 9dbd f2d3 0abe
000003c0: f41d 92bd 20ce 133c fde1 04be d010 b7bd
000003d0: 853e 24be 99c2 a73b c82f 27bb 10c2 bcbd
000003e0: e0d4 4c3d 3634 b7bd 1132 8cbd 4e46 0dbe
000003f0: 59b4 49be 2c1d e9bd fb1c 723d efbb b5bd
0.02824491 -0.1277347 0.15205717 0.113474056 0.060858633 0.09103693 0.098949775 -0.1469642
-0.108283885 -0.06570725 -0.2012485 0.062064335 -0.032802492 -0.12655449 -0.027375704 -0.02656021
-0.19923793 0.115105025 -0.14736584 -0.13174705 -0.05866988 0.19007064 0.102168925 0.19745465
0.15285338 -0.0121881105 0.1372332 0.1310565 -0.14194527 -0.16418819 -0.058357984 -0.17687546
0.0696358 -0.019282466 -0.10123718 -0.17610407 -0.011049112 -0.046260856 0.114450485 -0.1947356
0.15299936 0.105431154 -0.045582082 0.117907844 0.022979328 -0.12156118 0.04325949 0.13832115
0.11247058 0.101077676 0.12387725 -0.17422736 0.10088228 0.00720476 0.07606807 0.089441046
-0.22875422 0.008779883 -0.12403317 -0.015958343 -0.10639969 0.17568396 -0.0190245 -0.09233349
-0.18944062 -0.0030463934 0.00037009697 0.16855721 0.17606126 0.07719309 -0.16442856 0.096688196
0.1313373 -0.07393253 0.12461582 0.0769599 -0.019777333 -0.16883849 0.04245938 0.0037075968
0.0645868 -0.019852562 -0.11643873 -0.023431867 -0.11738041 0.055394813 0.060220268 -0.068733834
-0.17155175 -0.0011603239 0.13199763 -0.14910108 -0.18600087 -0.17677632 -0.124817334 0.10654694
0.112911806 -0.09784058 -0.18114492 0.052579865 0.10406006 -0.025202828 0.06798486 0.083975375
0.15679996 -0.1390163 -0.12471657 -0.15510365 0.09751833 0.11440593 -0.08484905 -0.104681924
0.025916576 -0.093281336 -0.020532679 -0.08629258 -0.12911105 -0.09201962 0.21433039 -0.061207205
0.106436856 -0.004821721 0.1485648 0.11591425 0.09120859 -0.116314724 -0.036504127 0.10385059
0.02210278 -0.1025424 0.04210843 -0.07418503 0.050928585 -0.108775 -0.18062066 0.008474559
-0.1058372 -0.015960349 0.019583844 0.044264942 -0.01348166 -0.013932005 -0.17821693 0.027348736
0.018905545 0.07729389 -0.09199641 0.12387623 -0.007818848 0.08389189 0.13419236 0.04229435
0.039201487 -0.0018197998 0.07337461 -0.1296471 0.11835064 0.150228 -0.07925623 -0.13974786
-0.1284631 0.1267436 0.049428843 0.12737869 -0.12622622 -0.14430451 -0.09510998 0.0042844056
0.095403045 0.047641244 0.10682838 -0.0960233 -0.16540207 -0.12587532 0.03739939 0.078971475
-0.0403294 -0.081593774 -0.037727475 -0.117434405 0.060135256 -0.06225894 -0.0030699896 0.026842969
0.08067544 0.06844438 0.012101218 -0.15477923 -0.0073371795 -0.030796098 0.098695174 0.12196667
0.037180565 -0.18708621 -0.16467735 0.12942268 0.13153766 -0.07781613 0.07922867 -0.1565682
0.07817716 -0.12051217 -0.0032574588 -0.08595886 -0.15323092 -0.071768835 0.15492022 0.0052499026
0.13213217 -0.09245588 0.109835885 -0.061754253 -0.03527706 0.022998698 -0.020101903 0.050113287
-0.13210626 -0.021174029 0.10470613 -0.14501089 0.021324554 0.15170696 -0.031219231 -0.06904028
0.1356491 -0.16052625 -0.1844316 -0.14183657 -0.18222344 0.06644319 -0.19405976 -0.006513541
0.11440647 0.1573767 -0.061250195 0.21903983 -0.036747865 -0.19014739 -0.07713268 -0.13557413
-0.07134619 0.009021312 -0.12976833 -0.089387536 -0.16039474 0.0051196334 -0.0025510658 -0.09216702
0.0500077 -0.08945505 -0.06845487 -0.1379635 -0.19697703 -0.11382517 0.05910967 -0.08873736

model.2.weight f4 [256, 512]
00000000: 4be4 87bc 6a3b 89bc 0b10 34bd 7aa7 1ebd
00000010: a7c5 bdbc 6ff4 cbbc 0648 0cbd ebd6 ad3b
00000020: d328 d6bc da68 5fbc 52bf 183c 3424 453c
00000030: 8e7f 00bd e2f2 8f3d ebde 5bbd 0df9 8abd
00000040: 8225 c33c e9a4 a6bc 891c 9cbc b773 88bd
00000050: 14eb 2c3c c0d2 063c 8f59 043d eda2 b13b
00000060: 168c 79bd 117a a4bd fe1f 8dbc 5136 08bd
00000070: d898 95bb 669b fd3c e06e 543c 39e3 8bbc
00000080: 03cb 21bc 4d45 a3bc 60a6 773c c43c 84bd
00000090: 3221 95bc 6c15 183c e090 e5bc 216f dabc
000000a0: 9892 b13b d159 d93c d586 0abc 0e62 11bd
000000b0: 27b7 80bd 7a4c 07bd 2598 31bc 2035 37bd
000000c0: 9ccd 79bc 7b19 81bd 6783 0fbd ef27 90bc
000000d0: d79c e2bc 2b08 8abd 34e7 87bc 0090 8f3a
000000e0: c90b 2dbc f66f 23bd 4a1e 32bd dbea b53c
000000f0: 4708 bb3c bb74 0f3d a457 38bd e131 20bd
00000100: e00e ab3d 24fe 1ebc d2c8 46bc c0c3 51bb
00000110: d120 8abd fd70 1fbd 1186 1b3d 09be 0dbd
00000120: a8af 72bd 1ec6 94bc 16f2 3abd cc6a 45bc
00000130: d33c 73bc 75ab 163d e7d1 30bd 7457 b8bc
00000140: d0a2 3dbd 3f1e 7cbd 9570 2a3b 64a2 203c
00000150: cd4d 61bc 8dab 58bd 7092 78bd db87 dcbc
00000160: c811 ebbc 7ee8 24bd 8dea 5f3c 8d8d efbc
00000170: 488e f53b 18ba b73b 44c5 42bd 397d 23bd
00000180: 4ca9 093c 9530 0a3c bf7d e03c cb31 eabc
00000190: 9838 16bc ebe0 1c3d a58e 61bc 1797 78bd
000001a0: bc76 71bd 98ec 85bd ba83 903c 56b6 b33c
000001b0: c89c d7bc 035c 42bc 77d5 95bc 3cf2 1abc
000001c0: 19f1 02bd a6ac 7abb 70a2 6ebc d312 1abd
000001d0: e6b3 8f3c a5d9 e33b 89a3 33bc 166d df3c
000001e0: 1321 8ebd a1ac 4c3d a037 97bd 6187 85bd
000001f0: 4879 2e3c 2f55 d73b c6e1 f33c 1218 fc3c
00000200: 1823 8fbc 0b68 22bd 6630 6b3c 62a5 9b3c
00000210: c67d 08bd f65b 003c 16c8 f0bc 5a4a bf3c
00000220: 68b5 82bb a13d 36bd d317 703d daa8 813c
00000230: 454c 93bd 0b2d a33b b758 0c3d b4a0 85bd
00000240: e21c 9bbc b08f 9b3c 4812 183c 64c8 1cbc
00000250: 9825 883b cfdc dcbc 6245 61bd c740 7bbc
00000260: 311a e7bb 6bdc 67bd 2a34 c3bb 08e0 ddbb
00000270: 1e7f e93c 753a 4abb 2c1c eebc 90ea afbb
00000280: 64b4 15bd 40c5 e5bb c0c2 853b 4180 0cbd
00000290: 80c5 2ebb db4b 1b3d e566 d53a 71be 28bd
000002a0: 41de e6bb 8523 cabc 34d7 0fbd 48f9 0fbd
000002b0: ba7d 4abd 0b89 863b 1653 6ebd 2a88 ecbb
000002c0: 4b74 54bd 90a9 1a3b 74e9 13bd 1418 26bd
000002d0: 1870 673c 8fcb a73b 7cd1 93bd f3f4 30bd
000002e0: 8c48 1f3c d37c 4cbd 184e e03b 158c cabc
000002f0: b6f9 0e3d c68d 2abd ad3f 90bd 7ccc 033c
00000300: f3ce 93bd ab15 33bd d61a afbc 3806 1e3d
00000310: b691 4abc f7f1 273d 2d93 d5bc b7ab 9dbc
00000320: e3c4 b93c 3cb9 a43d 8f25 b7bc 34fc 343c
00000330: 58fa b3bc 0c2e a6bd c789 29bd a425 323c
00000340: 84be f53b fd07 023d 8b76 3abb 4755 14bd
00000350: 5f7b 24bd f013 b23b 1c4b 673c dc09 9ebd
00000360: e9b0 0d3d e4bd 2ebc 9d90 f63c 3249 8bbb
00000370: b508 83bd 0c66 ed3b fb4c d5bb 590e 4abd
00000380: 3c35 f2bc e27b bebc 99c8 193d 00ab 14bd
00000390: 2c12 61bc db4f 4e3d 3fc9 0b3d 8cab 13bd
000003a0: 0c23 2dbd d7ab 4b3c b9f6 04bd c3d3 433d
000003b0: e579 06bd 941d 833b 1d75 df3c b23c df3c
000003c0: 836e 18bd 9774 bcbc 3a48 aabc 4a48 64bd
000003d0: ddb0 dfbc f15a 9ebd 9f92 69bd bfd3 253d
000003e0: 2caf c2bb 6113 f0bc 25af 90bd 7e42 92bc
000003f0: 4e99 f03c 3341 92bd 196d 883c 9cd3 7bbd
-0.01658835 -0.016751964 -0.043960612 -0.038733937 -0.023165537 -0.024896828 -0.034248374 0.0053051612
-0.026142513 -0.013635838 0.009322958 0.012032557 -0.031371646 0.07028748 -0.053679388 -0.06785784
0.023821596 -0.020342307 -0.019056575 -0.06662696 0.010554094 0.008228958 0.032311972 0.0054210336
-0.060924612 -0.08031095 -0.01722717 -0.033254925 -0.0045653395 0.030957889 0.012965888 -0.017076122
-0.009875062 -0.019930506 0.0151153505 -0.064569026 -0.018204305 0.009282451 -0.028023183 -0.026664319
0.0054190867 0.026532086 -0.008454998 -0.035493903 -0.062849335 -0.033031918 -0.010839497 -0.0447284
-0.015246775 -0.06303688 -0.035037424 -0.017597167 -0.027662678 -0.06739839 -0.016589738 0.001095295
-0.010561892 -0.039901696 -0.043485917 0.022206714 0.022831095 0.035023432 -0.045005456 -0.03911007
0.083524466 -0.0097041465 -0.01213284 -0.0032007545 -0.067445405 -0.038926113 0.037969653 -0.03460506
-0.05924955 -0.018160876 -0.045641027 -0.012049388 -0.014846045 0.036784608 -0.04316893 -0.022502638
-0.04629785 -0.061552282 0.0026007046 0.009804342 -0.013751459 -0.05289798 -0.06068653 -0.02692025
-0.028695002 -0.040260784 0.013666761 -0.029242301 0.007493768 0.005606901 -0.04755141 -0.039914344
0.00840218 0.008434434 0.02740371 -0.028588196 -0.009168766 0.038300436 -0.013766919 -0.060690966
-0.058951125 -0.06539267 0.017640937 0.02193753 -0.026319876 -0.011862758 -0.018290265 -0.009457167
-0.03196821 -0.003824988 -0.014565095 -0.03761561 0.017541837 0.0069534355 -0.010964283 0.027273696
-0.06939902 0.04996932 -0.073836565 -0.06519962 0.010649033 0.006571434 0.029770743 0.030773196
-0.017472789 -0.039650004 0.014354801 0.01899976 -0.033323072 0.007834425 -0.029392283 0.023350883
-0.0039889105 -0.044492368 0.05861647 0.015827585 -0.07192282 0.004979735 0.034264293 -0.06524792
-0.01893467 0.018989414 0.009281702 -0.009569261 0.004154872 -0.026960758 -0.05499781 -0.015335268
-0.007052683 -0.05660669 -0.005957146 -0.0067710914 0.028502997 -0.0030857597 -0.029066168 -0.005368538
-0.036548987 -0.0070120394 0.004082054 -0.034302 -0.0026668012 0.03791414 0.0016281275 -0.041197244
-0.0070455377 -0.02467514 -0.035117343 -0.035149843 -0.04943631 0.0041056923 -0.058184706 -0.0072183805
-0.051868718 0.0023599602 -0.03611131 -0.040550306 0.014125846 0.0051207016 -0.0721769 -0.04320235
0.009721886 -0.04992373 0.006845247 -0.024725 0.03490611 -0.041639112 -0.07043395 0.008044358
-0.07217207 -0.043721836 -0.021375101 0.03858015 -0.012363842 0.04100224 -0.026071155 -0.01924692
0.02267689 0.08043143 -0.022356777 0.011046458 -0.02196996 -0.081142515 -0.04139116 0.010873232
0.007499518 0.0317459 -0.0028452005 -0.03621414 -0.04015672 0.0054345056 0.014117029 -0.07716724
0.034592543 -0.010665391 0.030098254 -0.004250669 -0.06398145 0.007244831 -0.006509421 -0.04933009
-0.0295664 -0.023252431 0.03754482 -0.03629589 -0.013737243 0.050369125 0.03412747 -0.03605227
-0.04226975 0.0124311065 -0.032461856 0.047809374 -0.03283109 0.0040013287 0.027277524 0.027250621
-0.037214767 -0.023004813 -0.020786393 -0.055733003 -0.027306015 -0.077321894 -0.057024594 0.04048514
-0.0059412923 -0.029306116 -0.07064656 -0.017853972 0.029369976 -0.07141342 0.016653584 -0.061481103

model.2.bias f4 [256]
00000000: c244 9bbc 3b4f e13b 5a42 f73d a850 3c3d
00000010: 7bde 173d 713a 83bd be5b 41bd 5268 93bc
00000020: 6e28 3dba fbdb 5abd 4976 7abd 9fb9 97bc
00000030: 8295 44bd 40f4 f33a bd5d 403d 86f0 913b
00000040: 7d15 b23c 9f03 22bd 60a4 ecbb 246b c7bc
00000050: 86aa 3abd 4e63 7ebd 6146 08bd aecb e73d
00000060: 63ba adbb c56d 32bd 506e 84bd d075 82bd
00000070: 11fd 163d 8d8a 2dbd a372 233d e83b 44bd
00000080: 0f09 4d3d 3cea c03d c78d 08bd f736 22bd
00000090: 49eb 363e cc07 6cbd 1039 253c 03bf 20bb
000000a0: f285 28bd 0081 7739 5b6f d03c 0378 cebc
000000b0: f671 36bc 6e8e 663b 0f63 173d 8746 15bc
000000c0: 2f13 413b 3656 9ebc b35f 9d3d c559 d63c
000000d0: 810d 84bc cd8f 553d aacf 033e 8df7 15bb
000000e0: 262d f2bb 62d5 6ebb 6967 98bc fe0c 143e
000000f0: 6ffa 103d 1a3d 94bc 8702 1bbd facd 99bd
00000100: ab89 823d 027a 073e 8573 393c 62a3 3dbd
00000110: 77d4 c73d e374 0cbd 5161 e83c 6a4f aebc
00000120: 304b a6bc 974c 983d b84b acbc 25b9 aa3d
00000130: 6599 cd3c 492c 903d 45cb 023d d8f9 24be
00000140: d92b 13bd e0ab 45bd 555d b43b 6448 c2bb
00000150: 9ee1 923c c35e d6bc 6b1f 293d 27b9 3ebd
00000160: 6ae4 c13b 7340 06bd a260 8bba 3bbd b7bb
00000170: 161a 1ebd fc9b f3bb 2242 99bc eedf 09bc
00000180: 925d 563d 609a d8bc 4a42 37bb 2637 a83c
00000190: 66c5 213d 3688 dbbc 09a4 8bbc 7419 0d3c
000001a0: 5c69 003a b6f9 53bd cb56 53bd 644b 36bd
000001b0: 0962 613d c6da 273d 28d9 73bd 2804 c43c
000001c0: 62f6 14bd 13e4 443d f983 ca3d 26f6 5e3b
000001d0: 1ca4 2a3c d1e8 69bc b3e2 72bc d63c e6bc
000001e0: 748c 5a3d 149b acbd 3b09 8b3c 04ab c0bc
000001f0: 33b3 ec3c 59d1 7bbc 007b 28bd c263 693d
00000200: 83dd e3bc 4ec1 c5bc f324 8ebc 65f5 483c
00000210: adae f3bc 0f94 1abc eab4 e03c 37e8 8f3c
00000220: 98e3 ca3d 3715 8a3b 9cc2 9fbd 79be 6cbc
00000230: f832 a93c 7ca8 5f3d 7805 303d be5d 8ebd
00000240: d531 0c3c e9d7 c8bc 40fd 8dbd 20e6 3338
00000250: 695e 1a3e d3af 773d db9d cebc 3d1f 843d
00000260: 864c 533c 46db 6abc 4ce1 6a3d 4d9e 6c3d
00000270: 7adf cf3d acc2 693d 5080 ffbb b7db f6bc
00000280: 2878 25bc e8ef 08bb b3a5 45bd 2efe bcbd
00000290: 7ebb 36bd 8050 18bb a45c 10bd b770 953d
000002a0: d1c0 b83d e2d8 11bd 6e6f b03c cb9b 11bd
000002b0: f743 353b 7f39 2dbd a580 143c 85ce a13d
000002c0: b79f 29bd 45ea bc3c 4257 2fbe 9f6c ea3d
000002d0: 828d 2a3c b433 183e 4f84 11bd 6a07 ea3d
000002e0: 82c5 5c3b ea22 c33c af67 b9bc 0c6b ccbc
000002f0: a3f4 e53d 861a 44bd 3ed1 f7bc 00e8 efbb
00000300: c6e3 bd3d b56d bb3d 1f4e bc3c f5c6 f9bc
00000310: 7900 863c 7860 1c3d f310 b0bb 9688 c23b
00000320: fd70 4ebd b6fc c83c 7bdd e53d 233f 21bd
00000330: b057 39bb a0d7 ae3c 7f6d c93d 6100 e03b
00000340: b208 cdbc a7cd 0f3d 753d 58bd 4342 f6bc
00000350: e6d0 debc 4918 1fbc 8003 283b 7034 4f3c
00000360: bd0a 7ebc 9d78 313c 9a08 f4bc f62a 7f3d
00000370: 8cb4 013c f0df 003d f19e 83bc daa4 a33c
00000380: 3d00 83bd 18d3 8bbc 075b 10bd c931 1d3d
00000390: 4d3d 533d 9646 e5ba 8e52 abbb ad9e 0fbd
000003a0: 8348 873c 704f 51bc 7a53 b53d 92eb 6dbc
000003b0: ee44 dfbc 4b7a 2a3c b8be 8c3d 8396 e1bd
000003c0: 5427 0d3c cba7 523d 70ab d6bc 171c 413d
000003d0: 9df6 f43c 1c75 d9bc 85f4 28bc cdc2 933d
000003e0: e307 d3bc c1b6 05bd 92a7 d6bc 165f 19bc
000003f0: 56e1 ce3b 6467 5c3b 69d5 1d3d ef6a f2bc
-0.018953685 0.0068759 0.120732024 0.045975357 0.03707741 -0.06407631 -0.047206633 -0.01799408
-0.00072158023 -0.053432446 -0.06114796 -0.018521128 -0.047994144 0.0018612221 0.046964396 0.0044537215
0.021738762 -0.039554235 -0.0072217435 -0.02434308 -0.04557278 -0.062106423 -0.033270244 0.11318146
-0.00530176 -0.043561716 -0.06466353 -0.06370127 0.036862437 -0.04236846 0.039904248 -0.047908694
0.050057467 0.09419677 -0.033338334 -0.0396032 0.17863192 -0.057624623 0.010084406 -0.0024527914
-0.041143365 0.00023603812 0.025443723 -0.02520371 -0.011135569 0.003518011 0.036959704 -0.009111053
0.0029460897 -0.019328218 0.07684269 0.026165852 -0.01611972 0.052139092 0.12872186 -0.0022883147
-0.007390636 -0.0036443104 -0.018603997 0.14458081 0.035395082 -0.018095542 -0.037844207 -0.0750999
0.06373914 0.13230136 0.011319046 -0.046298392 0.09757321 -0.03429116 0.028366717 -0.021278102
-0.020299524 0.07436483 -0.0210322 0.08336095 0.025097558 0.07039697 0.031932134 -0.16110933
-0.03593049 -0.048259616 0.00550429 -0.00592904 0.017929848 -0.026168233 0.041289728 -0.046563294
0.0059171217 -0.032776307 -0.0010633657 -0.005607275 -0.038599096 -0.0074343663 -0.018708292 -0.008415205
0.05233533 -0.0264408 -0.0027963095 0.02053411 0.039494894 -0.026798349 -0.017045991 0.0086120255
0.0004898512 -0.051751815 -0.051596444 -0.04450549 0.055025134 0.040980123 -0.05953327 0.023927763
-0.03636778 0.04806907 0.09888453 0.0034021228 0.010415103 -0.014276699 -0.014824557 -0.02810518
0.053356603 -0.08428016 0.016972175 -0.023519047 0.028894043 -0.015369737 -0.041132927 0.056979902
-0.027815586 -0.024140026 -0.017351603 0.012265538 -0.029746378 -0.009434714 0.027430017 0.017566783
0.09906691 0.004213955 -0.07800791 -0.014449709 0.020654187 0.05460404 0.042973965 -0.06951474
0.008556803 -0.024517016 -0.06933069 4.2891246e-05 0.15075077 0.060470413 -0.025221756 0.06451271
0.012896663 -0.014334505 0.057343766 0.057768155 0.10150047 0.05707042 -0.0077972785 -0.030134065
-0.010099448 -0.0020894948 -0.048253726 -0.092281684 -0.0446124 -0.002324134 -0.0352446 0.07296889
0.09021152 -0.035607226 0.021537509 -0.035548966 0.0027658918 -0.04229116 0.009063874 0.079007186
-0.04141208 0.023060927 -0.1712313 0.11446499 0.010409715 0.14863473 -0.03552657 0.11427195
0.003368706 0.02382036 -0.022632448 -0.024953388 0.112283014 -0.047876857 -0.030251142 -0.0073213577
0.0927196 0.09151784 0.02298647 -0.030490378 0.016357647 0.038177937 -0.0053731143 0.0059366925
-0.050400723 0.024534564 0.11223885 -0.039366852 -0.0028281026 0.021343052 0.09835338 0.0068359827
-0.02502856 0.035108235 -0.052792985 -0.030060893 -0.02719922 -0.00971038 0.0025636852 0.012646779
-0.01550549 0.010831979 -0.029789258 0.06229683 0.007916581 0.031463563 -0.016067 0.019976068
-0.0639653 -0.01706843 -0.03524306 0.038377557 0.051572133 -0.001749235 -0.005228347 -0.035063434
0.016514068 -0.012775287 0.088538125 -0.014521496 -0.027254548 0.0104051335 0.06872314 -0.11015036
0.008615334 0.05142955 -0.026204795 0.04714593 0.02990275 -0.0265451 -0.010312204 0.0721489
-0.025760597 -0.03264499 -0.02620295 -0.009361049 0.006313483 0.0033630962 0.038533602 -0.029592006

model.4.weight f4 [128, 256]
00000000: 172d ec3c fa38 083d 7a6e 07bd 95d7 e4bc
00000010: 27d0 d0bc 20af 763c 997f ec3c 22ac a7bb
00000020: 8dec c1bc 28fb fa3c 0e07 69bd aa4e 463d
00000030: 9789 bf3c ad33 a7bc dfe6 183c ca16 4e3d
00000040: 56ff 1e3d f93c 77bd 60bd 7cbc a5a0 85bd
00000050: 424a 253d a06f 983c 20f0 6ebd 7d44 59bd
00000060: 9ae4 59bd 794c 753d 6c93 b63c 209b 713d
00000070: ccb2 ba3c 606a 7a3c 20bd b33c b464 863b
00000080: 6b7d 3f3d 686b a03c 5a58 2e3d e8b4 903c
00000090: aaa9 2cbd 1007 063d e47a 0dbd 770b d13c
000000a0: d564 293d 3a2d 78bd 5cd4 5cbd b6b6 53bd
000000b0: 9c22 e13c 36b9 993c 1ede 063d db55 e939
000000c0: 61ce 923b 00c5 813c 2799 13bd 5ac5 173d
000000d0: 13e0 f9bc a954 c53c f4e6 e23b 9f31 6cbd
000000e0: c4e2 91bc 788d 5cbd bea3 e83c e724 2cbd
000000f0: 5051 9e3b b823 e2bc 389e 693d 561c e93b
00000100: 0fab 163d 4a29 743b 446f 893b e0ee bdbc
00000110: e48f 243d 0ff8 7abd 9d6a 563d 004c 383c
00000120: 9f6e 1b3d 965e 3d3d 661f 2b3c a4b7 3abd
00000130: 7c3b 363d 5402 2dbd 96b6 243d 74e4 6e3d
00000140: f82b 25bc c86f 37bd 4871 6fbd ee6d f0bc
00000150: 0866 e0bb 0da9 693d 8285 553d 556a 5b3d
00000160: f25e 4ebd ea34 60bd d062 bfbc ec8d 48bd
00000170: 1d51 b73c b422 513d d43c b33c d6ba 573d
00000180: 2650 8a3c 9045 e83b d5a0 b8bc bcbd 133d
00000190: 2c90 a03c 7fcd 623c 4628 253d e2da 39bd
000001a0: 355f 3f3b e440 91bd bed3 32bd 3659 cc3b
000001b0: 0fd8 43bd e2fc 91bd f768 3e3d cce0 aebc
000001c0: 0024 d238 a61c 5dbd 9450 4fbd 0471 97bc
000001d0: b821 72bd 108b f7bc 45ab 3fbd 047f d53c
000001e0: 7563 ce3c a925 2abd a9dc 87bd c50d 053d
000001f0: 7afc 71bc f698 423d 5040 143c f153 91bd
00000200: 4c95 f53c 9470 c2bc 997f 0d3d 3471 1cbd
00000210: d444 5a3d b6e2 65bd caae 5cbd 1649 70bd
00000220: 7053 8cbd dbfb aa3c e010 50bb d02a 3a3d
00000230: 7c24 6dbd c27f 063d e5db c7bb 2886 013c
00000240: e12c 36bc fefd 573d 1c19 e43c 1a87 96bc
00000250: d8a5 91bd fdbd 123c 1420 50bd a12e 84bd
00000260: 3760 8a3c 08bb 0cbb 2c26 b73b 5a0d 91bd
00000270: c9e7 d83b 2185 7a3c 685d 92bc d851 5a3c
00000280: 4e49 443d 1e47 013d c001 12bd e4a1 88bd
00000290: 85c6 46bd 8ce7 b33c bf83 35bd c1f1 313d
000002a0: 4185 853b 408f d83c 8b09 6abc d06e bb3c
000002b0: 130b 92bd 888c 013d 761d 233d 7831 ba3b
000002c0: 8011 fdbc bfe3 74bd 8237 0a3c 0981 5c3c
000002d0: 70f2 2fbb 4136 1dbd dfbb e7bc 30b0 f6bc
000002e0: c080 2bbb d3af 2f3d 73cb 33bd 403b 20bb
000002f0: 1ec3 173d c80c 29bc 8c2f 413d 3a69 51bd
00000300: 4333 4fbc 431e ec3c fe16 58bd 5c41 c93c
00000310: 2044 42bc 7006 5f3c 9899 f23c 44f9 ccbc
00000320: 3eef 13bd cda6 bf3c 385f 4c3d b38b 1c3d
00000330: 4477 0a3d f989 7e3b fb2a 40bd a008 c2bc
00000340: c3bc f9bc cad2 ef3c 7a31 0abd efa4 39bd
00000350: 2887 acbc 7058 663d a8cd 373c 3017 b2bc
00000360: 3aa2 03bd 7c54 b73c 33a1 f7bc 5de9 55bd
00000370: 8e61 1c3d c2aa 003d 7030 d1bc de27 253d
00000380: be70 20bd e579 5f3d a0eb 90bc 87f0 ecbb
00000390: 132d 48bc f49d c13c b662 99ba fbef 1f3d
000003a0: d4d3 7dbd 71ee 28bd 3e2b 2e3d dfc2 fe3c
000003b0: 90fb acbb 0472 8b3c 00db 053d 32a9 07bd
000003c0: a01a 1abd 2f65 9bbc 28d0 473d bfde 78bd
000003d0: 8cfa 363d 7461 22bd b18f 97bb 2762 513d
000003e0: e0ba abbb 3804 42bd 9ddb 64bd dfd6 7fbd
000003f0: 594d dfbc 51d9 923c 10f4 423d e82e c63a
0.028830094 0.033257462 -0.033064343 -0.027934829 -0.02548988 0.0150564015 0.028869437 -0.0051169554
-0.023672367 0.030637339 -0.056891493 0.048414864 0.023381038 -0.020410383 0.009332388 0.050314702
0.038817726 -0.060360882 -0.01542601 -0.06524781 0.04035402 0.018607914 -0.05833447 -0.05304383
-0.053196527 0.059887383 0.022287093 0.05898583 0.022790335 0.015284151 0.021940768 0.00410136
0.046750467 0.019582465 0.042564727 0.017664388 -0.04215399 0.03272158 -0.034541026 0.025518162
0.041355927 -0.060590006 -0.05391346 -0.05168792 0.027482323 0.018765073 0.03292667 0.0004450519
0.0044801687 0.015841007 -0.03603473 0.037053443 -0.030502355 0.02408822 0.0069245044 -0.05766451
-0.017808326 -0.053845853 0.02839839 -0.04202738 0.0048314705 -0.027604923 0.057035655 0.0071139736
0.036784228 0.0037256056 0.004194172 -0.023185194 0.040176287 -0.061271723 0.052347768 0.011248589
0.037947293 0.046232782 0.010444498 -0.04558529 0.044490322 -0.04223855 0.04021319 0.05832334
-0.010081284 -0.044784337 -0.058457643 -0.029349294 -0.0068481006 0.057045985 0.052129276 0.053568203
-0.050383516 -0.054737963 -0.023362547 -0.048963472 0.022377545 0.051058486 0.021879591 0.052668415
0.01688392 0.0070883706 -0.022537628 0.036069617 0.019599997 0.013842939 0.04032161 -0.04537476
0.0029201035 -0.07092455 -0.043658964 0.0062362207 -0.04781347 -0.07128312 0.04648682 -0.021347426
0.00010020286 -0.0539824 -0.050613955 -0.018486507 -0.059114188 -0.030217677 -0.046794195 0.026061542
0.02519391 -0.04153982 -0.066338845 0.032483835 -0.014769668 0.047509156 0.009048536 -0.07096089
0.029978417 -0.023735322 0.034545515 -0.038193896 0.053288296 -0.05612441 -0.05387763 -0.05866345
-0.06851852 0.020872047 -0.003174834 0.045450985 -0.057896122 0.032836683 -0.0060992115 0.0079055205
-0.011119098 0.05273246 0.027844004 -0.018374968 -0.0711171 0.00895643 -0.050811842 -0.06454206
0.016891582 -0.0021473784 0.0055892672 -0.07082625 0.006619428 0.0152905295 -0.017866805 0.013325177
0.04792147 0.031561963 -0.0356462 -0.06671503 -0.048529167 0.021960996 -0.044315096 0.043443445
0.004074723 0.026435494 -0.014284502 0.022879988 -0.071310185 0.03162816 0.039823018 0.0056821667
-0.030892134 -0.059787508 0.008436086 0.013458499 -0.0026847385 -0.03838182 -0.028287826 -0.03011331
-0.002616927 0.04289229 -0.043895196 -0.0024449378 0.037051313 -0.010317989 0.047164485 -0.051125742
-0.012646499 0.028823024 -0.052756302 0.024567299 -0.011857063 0.013612375 0.029614255 -0.025021203
-0.03611683 0.023394966 0.049895495 0.038219165 0.033805147 0.0038839562 -0.04691599 -0.023685753
-0.030485516 0.029275317 -0.03373859 -0.04532331 -0.021060541 0.056236684 0.011218466 -0.021739572
-0.032137133 0.022379152 -0.030228233 -0.052224506 0.038178973 0.031412847 -0.025535792 0.040321223
-0.03917002 0.054559607 -0.01769048 -0.0072308215 -0.012217778 0.023634888 -0.0011702392 0.039047223
-0.061969593 -0.04124302 0.042521708 0.031098781 -0.005279012 0.01702214 0.032679558 -0.03312034
-0.037623048 -0.018969147 0.048782498 -0.060759302 0.044672534 -0.03964372 -0.0046252836 0.051118996
-0.005240783 -0.047367305 -0.055873502 -0.062460776 -0.027258562 0.01792589 0.047596037 0.001512018

model.4.bias f4 [128]
00000000: 8260 c1bc 0b3a 80bd b316 85bd 6d42 003e
00000010: d1ad c93d e8de 283c 3711 82bd 46af e33d
00000020: 4b6d 213e 296a 3a3e 0296 3e3e cbea 3e3d
00000030: 6477 4b3e f155 de39 126a 8dbc ccc6 843c
00000040: 0ec8 ea3d 2740 b63c 4836 3f3d d8f4 94bd
00000050: 7298 31bc 1461 603d 4d6e 2cbd 59c0 87bc
00000060: f32c 043e 5c3b 293e dd4b 6fbb aa3c 11bd
00000070: 0bc9 32bd b81e 8fbd 4047 313c c0c1 c4b8
00000080: 23e4 403b 3a0c 513c 188f 783d 0322 b7bd
00000090: d95d a639 46c7 bd3b ee01 173e 0d47 0e3d
000000a0: 1e8f 023e 3f07 163e 2656 5e3e 8ab7 aebd
000000b0: 1609 3fbd e79b 3bbd 5c39 7abd 3c58 d43d
000000c0: f934 42bd 0643 6abd d0ce 5abd 4673 453e
000000d0: 5c79 e63d 94b4 ea3d ed57 2b3b 2e03 d53c
000000e0: 94a9 4c3d 9168 06bd 02b8 dbbb 26a4 27bd
000000f0: 929d 2a3e 4e77 88bd 0940 4b3c ec4e b2b9
00000100: cd38 84bb 23e4 3b3e 9b69 593e ceed 563e
00000110: 965a 013e 76e5 4c3e 1f8e 1f3d 0b85 4c3c
00000120: 80ca c53c 8f7b e93d 8f80 003e b1b7 cebd
00000130: 10a4 8dbd b425 263e 132c 2c3d e518 553c
00000140: 7a10 023e 5b94 a9bc c3ab 9ebd a7f3 aabd
00000150: b929 4a3e b085 00bd afaa 3a3d ddc6 163e
00000160: fd00 0ebd 4124 a8bb 6e75 99bd 816d 033d
00000170: 44d3 e2bc 49a2 0b3c d4d3 9dbc e662 e839
00000180: 7691 4d3e 31d1 15bc 2417 153e f19a 15bd
00000190: cfd6 243e 6990 07bd 6ffd 57bd aac5 7ebd
000001a0: 24e5 d63d 8a93 2a3d 4741 c33c d95d 953c
000001b0: feb7 06bd 14a7 28bd b7ae 86bc c390 343e
000001c0: 60da afbc 9d38 b6bd 7acf fb3c 6251 1cbc
000001d0: 15a4 0d3d 6fef d9bb 7f5b 00bd cc6f 553e
000001e0: da87 073e 6359 59bc d0fc a23d ca11 6abd
000001f0: 28af 2ebc 1658 123c b6db a13c f88e 6cbd
-0.023605589 -0.06261071 -0.0649847 0.1252534 0.09847606 0.010307051 -0.0635094 0.11117415
0.15764348 0.1820456 0.18611911 0.046610635 0.19869763 0.0004240717 -0.017262492 0.016208075
0.11463939 0.022247387 0.046682626 -0.07273263 -0.010839568 0.05478008 -0.04209738 -0.01657121
0.12907772 0.1652655 -0.0036513724 -0.035458244 -0.04364876 -0.06988281 0.01082021 -9.382097e-05
0.0029432855 0.012759263 0.06068334 -0.08942034 0.0003173191 0.0057915775 0.1474683 0.034735728
0.12749907 0.14651202 0.2171255 -0.08531101 -0.046639524 -0.045802977 -0.06108986 0.10368392
-0.0474138 -0.057192825 -0.053419888 0.19282255 0.11253616 0.11460224 0.0026144937 0.026002493
0.04996641 -0.032814566 -0.006705285 -0.04092803 0.16661671 -0.066633806 0.012405404 -0.00034009607
-0.0040350915 0.18348746 0.21231692 0.20989153 0.12632212 0.20009407 0.038953897 0.012482892
0.024144411 0.1140052 0.12549041 -0.1009363 -0.06916058 0.1622532 0.04203422 0.013006424
0.12701598 -0.020700624 -0.07747605 -0.08347254 0.19742478 -0.031377494 0.045572933 0.14724298
-0.03466891 -0.005131275 -0.07493101 0.032086853 -0.02768863 0.0085225785 -0.019266047 0.00044324173
0.2007502 -0.009144113 0.14559609 -0.036524717 0.16097568 -0.033096705 -0.052731927 -0.062200226
0.10492924 0.04164461 0.023834838 0.018233227 -0.032890312 -0.041174963 -0.016440732 0.17633347
-0.021466434 -0.08897517 0.030738581 -0.009540888 0.03458031 -0.006650857 -0.031337257 0.20843428
0.13235417 -0.01326594 0.079583764 -0.05714587 -0.010661878 0.008932134 0.019758087 -0.057753533

model.6.weight f4 [5, 128]
00000000: fb38 cfbc d130 ab3d 52d9 0a3d 8cbf 9d3d
00000010: c937 813d 7978 8d3d 59ce d7bc cf15 b2bc
00000020: d056 fe3d b9e2 98bc a7ef 5c3b 89f0 3bbd
00000030: e621 8f3d 8938 f1bb bb28 6dbd 4f2d 703c
00000040: 5be0 0cbe 96b0 c13d fb46 223d 8018 06ba
00000050: 296b ce3d d8d8 f53c ca85 24bb 33f7 cfbc
00000060: 2504 773d 2bbe 873d e608 ddbc 4df2 91bd
00000070: 6638 933d 529d b4ba 3f2b 853d 9171 35bd
00000080: 43bc 8f3b ae7c 3abd 92ba 833e 98ba 92bc
00000090: ac66 a6bc 4f91 4c3d 9ab1 b53d c438 94ba
000000a0: 5416 1c3e b253 b53d a835 02bf 7457 133d
000000b0: 2473 6fbd db9b e3bc 391e d0bc 8c7d 17bf
000000c0: e7c0 0cbc 6eb7 2abd 3823 e73c f7d2 023d
000000d0: 0b73 8239 1cdd 493d e29a 94bd 22f6 91bd
000000e0: cbb0 77bd a772 40bd 5d7d 65bd 4705 563d
000000f0: b716 723e 6df0 943d c16f 35bd 5901 663d
00000100: f285 22bd 3be2 c63d c959 c13d 81cb 933d
00000110: a625 77bc 26a1 eebe 00f9 b9bc 2775 313d
00000120: 3ac9 8cbd a32d d63c 0340 9b3d aed9 1abc
00000130: c7f6 f5bc d7b7 373d a7df a3bd f506 a03c
00000140: 78a6 adbe 9edc a0bd 89a3 a23d c648 6d3d
00000150: bd8c 8f3d f2e9 a33d 1700 e63c 61ac 4f3e
00000160: 960a 8dbd a05a a0bd fd73 94bd 1e65 de3c
00000170: 157f 2ebd ed46 083d b99a 1cbc 3523 a2bd
00000180: c856 1bbe 9f6a 04bd 89fa e63d 5f43 74bd
00000190: 7a37 f23d c3c3 ab3c 6d3a 33bc 6c06 a43d
000001a0: 39e8 f53d 9461 68bd 5c60 76bd 78f1 bebd
000001b0: a3b5 aabd faaf 7dbd c99f 59bc 423a 3abc
000001c0: a743 be3d 1788 73bd df06 afbc 90cd 56bc
000001d0: 9ea0 57bd 5295 20bd 1497 8bba 172c 013d
000001e0: 19b6 893d 6e89 7abd a509 05bc c8b3 40bc
000001f0: 3c85 76bd 389d 87bd 3d9f 903d acae c4ba
00000200: bbf3 48bd 5be2 a2bd fc02 b13c 4c23 413d
00000210: bda3 073d d5b3 9a3d f6b6 603d 943a 1a3e
00000220: 60cd db3d 9613 df3d 1e55 c13d 9ad8 643c
00000230: f36c 7a3d 3d6d c8ba beb4 9f3d 4cf6 a03b
00000240: 4a5d 3abe 4321 ab3b 2d20 bf3c 1ffd 9e3d
00000250: d87e 343d 3577 9b3b 4ddf 8bbc 9993 31bd
00000260: 821e 903d a71a babb cd70 89bc 6887 a4bd
00000270: eaaf 843d cd13 9c3d 67b0 49bb 9ba9 22bd
00000280: ffa2 8ebc 71f8 903c c226 a43d 669d 94bd
00000290: 646b 8abd 0f25 493c f57f 613d 6ec6 c2bc
000002a0: 3781 8f3e 6a69 ac3d f0e1 14bf 1483 fa3c
000002b0: ec0f 9d3c d658 c03c ae55 1dbd 5a8c 083e
000002c0: c705 b33c a83a a4bd d643 18bc 44f1 a93c
000002d0: 3444 863d 3be0 043d e486 263d 0c73 93bc
000002e0: a013 a3bc 17ff b5bc cf30 45bd 33b1 abbc
000002f0: e2a1 6a3e e8dd 073d a6f3 86bd ac7d 76ba
00000300: 71f8 9ebd 9ea5 ce3d 2e3c f23d ea1a d43d
00000310: 98e0 ae3d b987 ffbe f399 96bd 1841 90bc
00000320: a33b 943c 57d8 8d3d 2319 533d 103b b13d
00000330: 4059 9bbd 3262 473d 67c6 64bd 4b0b 1d3d
00000340: cc35 e43d 5d04 5bbd c342 a83c f829 75bd
00000350: 0489 ce3d 0834 52bd ae2a 1b3d cec0 ef3d
00000360: 76d2 8b3c fd66 ba3d 4f7d 87bc 04f5 65bd
00000370: 76e0 09bd c457 73bd cc1e eb3c 5787 1fbd
00000380: 2ab5 80be 80e9 da3c 2287 db3d 962c a7bd
00000390: 8b65 8c3d 037e 0bbd f3ef 3a3d 49c8 8cbd
000003a0: e867 393c 3583 123c e9e4 463c 3314 813d
000003b0: affe fe3c 8487 0c3d 38b7 00bd 25b8 c73d
000003c0: 50a6 0bbc 26a8 cc3d 5d14 c33d 9994 8cbd
000003d0: d31c 86bd 7b9a 173d 661b bebc 2f87 7b3d
000003e0: b4cc a83d 198e 2cbc f29e d23c ce87 79bd
000003f0: 1849 e93c 13d2 71bd fc53 623d 6fb0 573d
-0.025295725 0.0835892 0.03389866 0.0770255 0.06309468 0.06907744 -0.026343511 -0.021738915
0.12418902 -0.018662797 0.003371218 -0.04588369 0.069888875 -0.007361476 -0.05790017 0.01465924
-0.1375746 0.09457509 0.039618474 -0.0005115345 0.10079033 0.030010626 -0.0025104159 -0.025386428
0.060306687 0.066280685 -0.026981782 -0.07126293 0.071884915 -0.0013779795 0.06502389 -0.04429776
0.004386456 -0.04552906 0.2572828 -0.01791124 -0.02031263 0.049943265 0.088717654 -0.0011308421
0.15242893 0.08853854 -0.5086312 0.035972074 -0.058459416 -0.027784279 -0.025405036 -0.59175944
-0.008590913 -0.04167884 0.028215036 0.031939473 0.00024881246 0.049283132 -0.07256104 -0.07127024
-0.060471337 -0.04698434 -0.05602776 0.052251127 0.23641478 0.0727242 -0.04429603 0.05615363
-0.03967852 0.09711119 0.09440953 0.0721655 -0.01508466 -0.46607322 -0.02270174 0.043324616
-0.068743184 0.026144808 0.07580569 -0.009451313 -0.0300249 0.044853058 -0.08001643 0.019534567
-0.33916068 -0.078545794 0.07941348 0.05793073 0.070092656 0.08003606 0.028076215 0.20280601
-0.06886785 -0.07829785 -0.072486855 0.027147826 -0.042601664 0.033270765 -0.009558373 -0.079168715
-0.15169823 -0.032328244 0.112782545 -0.059634563 0.118269876 0.02096737 -0.010939223 0.080090374
0.120071836 -0.056733683 -0.06015049 -0.093234 -0.08335426 -0.061935402 -0.013282725 -0.011366429
0.092902474 -0.059455957 -0.021365581 -0.013110533 -0.05264341 -0.039204903 -0.0010649883 0.031536188
0.067241855 -0.06116622 -0.008119975 -0.011761613 -0.060185656 -0.06621784 0.07061622 -0.001500567
-0.049060564 -0.0795333 0.021607868 0.047152802 0.033115137 0.075538315 0.054861985 0.15061408
0.107325315 0.108924076 0.09440063 0.013967657 0.06113906 -0.0015291345 0.07798146 0.0049121734
-0.1819965 0.005222471 0.023330772 0.07763123 0.04406628 0.004744435 -0.017074252 -0.04335365
0.07037069 -0.0056794467 -0.01677742 -0.08033639 0.064788654 0.07620964 -0.003077531 -0.03971253
-0.017411707 0.017696591 0.08015205 -0.07256584 -0.067587644 0.012276902 0.05505367 -0.02377626
0.2802827 0.08418544 -0.58157253 0.030580081 0.019172631 0.02347986 -0.03841179 0.1333479
0.02185334 -0.08019 -0.009293517 0.020744927 0.065559775 0.032440405 0.040655985 -0.017999195
-0.019906819 -0.022216363 -0.04814225 -0.020958519 0.22913316 0.03317061 -0.06589441 -0.0009402882
-0.0776223 0.10090183 0.118278846 0.10356696 0.085389316 -0.49908236 -0.07353582 -0.017609164
0.018094843 0.06926029 0.051537644 0.086538434 -0.075853825 0.04867763 -0.055853274 0.038340848
0.111430734 -0.053470958 0.020539647 -0.059854478 0.100847274 -0.051319152 0.0378825 0.117066965
0.017068129 0.09101675 -0.016539244 -0.05614187 -0.03366133 -0.05940987 0.028701209 -0.03894743
-0.25138217 0.02672267 0.10719134 -0.08162801 0.06855305 -0.03405572 0.04563899 -0.06874139
0.011316277 0.008942415 0.012139537 0.06302681 0.031127302 0.034308925 -0.03142473 0.0975192
-0.008523539 0.09993009 0.09525368 -0.0686428 -0.065484665 0.03701256 -0.023206424 0.061408218
0.08242169 -0.010531926 0.025710557 -0.06092053 0.028477237 -0.059038233 0.055255875 0.052658495

model.6.bias f4 [5]
00000000: fbcb be3d 2a51 eb3d 1343 f53d 172a 563c
00000010: c5af 353e
0.0931625 0.1149009 0.11975684 0.013071558 0.17742832
