2021-22/PrimerSemestre/Reinforcement/PRA1/DQN.pth (torch, 715087 bytes, 8 tensors)

model.0.weight f4 [512, 25]
0	0xbcf35d91	-0.029707702
1	0x3db35966	0.08757286
2	0x3d999f32	0.07501067
3	0x3e1161dd	0.14197488
4	0x3deb7bc1	0.114982136
5	0xbdc01006	-0.09378056
6	0xbe4258f1	-0.18979241
7	0xbf1e419c	-0.6181886
8	0xbc0d8b50	-0.008639172
9	0x3d385b4a	0.045008935
10	0xbe2e7671	-0.1703737
11	0xbdb601fa	-0.08887096
12	0x3cbfd9be	0.023419257
13	0xbe370bf3	-0.17875652
14	0xbc998e31	-0.01874456
15	0xbc0d347b	-0.008618469
16	0x3e2fee78	0.17180812
17	0xbc1d2997	-0.009592435
18	0xbe086499	-0.13319625
19	0xbce63b29	-0.028104382
20	0x3d9c9940	0.076464176
21	0x3dd825cc	0.10554084
22	0xbb8022cb	-0.0039103976
23	0xbe27fc7b	-0.16404907
24	0x3e239adb	0.15977041
25	0x3ae68d06	0.0017589636
26	0x3ccbdfa0	0.024886906
27	0xbe72b9ca	-0.23703685
28	0x3cb19304	0.021676548
29	0xbe36e121	-0.17859317
30	0x3afecf1a	0.0019440383
31	0xbe6df3aa	-0.23237482
32	0x3eaf3098	0.34216762
33	0xba2c9736	-0.00065838115
34	0x3eb00e13	0.34385738
35	0xbcb74b35	-0.022374729
36	0x3e2cd7d9	0.16879214
37	0xbd2553fa	-0.04036329
38	0xbd164355	-0.036685307
39	0x3e0a3a1d	0.13498731
40	0xbdceba3d	-0.10094116
41	0xbc84d9e3	-0.016217178
42	0xbd3f36dc	-0.046683177
43	0xbe112995	-0.14176019
44	0x3e69a499	0.22816695
45	0x3e03a253	0.1285489
46	0x3e1c44ba	0.15260592
47	0xbd688ddf	-0.056775924
48	0xbdc35ecd	-0.09539566
49	0x3e91f2a1	0.28505424
50	0xbcfc726c	-0.03081628
51	0x3e146d33	0.14494781
52	0xbcc82382	-0.024430994
53	0x3e3a80a8	0.18213141
54	0xbda13735	-0.07871858
55	0x3d91fa56	0.07127826
56	0x3beed727	0.0072888318
57	0xbe290e3d	-0.16509338
58	0x3e8ddbf9	0.27706888
59	0x3d2564ec	0.04037945
60	0xbd42f74d	-0.047599126
61	0x3e8afa32	0.2714401
62	0xbe778932	-0.2417343
63	0x3ea429f6	0.32063264
64	0x3d9b9fbd	0.07598827
65	0xbd9b2a98	-0.075764835
66	0xbddefff7	-0.10888665
67	0xbe53fd54	-0.20702106
68	0xbdecf1a6	-0.11569528
69	0xbdd4310d	-0.10360918
70	0xbda5e6f8	-0.081006944
71	0xbce0141d	-0.02735334
72	0x3e29aa76	0.16568932
73	0xbe189ad1	-0.14902808
74	0xbe7b585a	-0.24545422
75	0x3ddfddfa	0.109310105
76	0x3c09b760	0.008405536
77	0xbe4bc357	-0.19898735
78	0xbe2e591a	-0.17026177
79	0xbe2c9d6e	-0.1685693
80	0xbdb383b3	-0.08765354
81	0x3d948352	0.0725161
82	0xbdbef2e0	-0.093236685
83	0x3dced392	0.100989476
84	0xbd4dd318	-0.050250143
85	0xbe363c48	-0.17796433
86	0x3d19d988	0.03756097
87	0xbdc369c0	-0.095416546
88	0x3cf95970	0.030438155
89	0x3dc3773e	0.09544228
90	0xbe388805	-0.18020637
91	0x3db8f98a	0.09031971
92	0x3e0de26b	0.13855903
93	0xbdc8f853	-0.09812989
94	0x3dab3aa2	0.08360793
95	0x3e025ce3	0.12730746
96	0xbe446e9b	-0.19182818
97	0x3dbe014a	0.092775896
98	0xbe29b553	-0.16573076
99	0x3d460f00	0.04835415
100	0x3e01a7df	0.12661694
101	0x3df621ec	0.12018189
102	0xbe53fe82	-0.20702556
103	0xbdcfc613	-0.101452015
104	0x3df0e63f	0.11762666
105	0xbc1fcc1b	-0.009753252
106	0x3ddbdd79	0.10735602
107	0xbe1eee90	-0.15520692
108	0x3d1e0c3b	0.038585883
109	0xbd40331a	-0.046923734
110	0xbe2b90ed	-0.16754504
111	0xbcbb1715	-0.022838155
112	0xbd4552b9	-0.048174594
113	0x3dc5dfe6	0.09661846
114	0xbe1da939	-0.15396585
115	0xbdd99f5c	-0.106260985
116	0x3e411f82	0.18859676
117	0x3e23028e	0.15918943
118	0x3c870594	0.016482152
119	0x3d5efba0	0.054439187
120	0x3d7d45ef	0.061834272
121	0x3ddf25ad	0.10895858
122	0x3de3c43c	0.11121413
123	0xbe0a0a08	-0.13480389
124	0x3e6857bf	0.22689722
125	0xbdcf2553	-0.10114541
126	0x3bbcbc40	0.005759746
127	0x3ce5cb40	0.028051019
128	0xbd43b760	-0.047782302
129	0x3ded0552	0.115732804
130	0xbd821186	-0.063509986
131	0xbe203e40	-0.15648746
132	0x3d625d04	0.055264488
133	0x3e25ef65	0.16204603
134	0xbe0bbcf8	-0.13646305
135	0xbda0374a	-0.078230456
136	0xbdab2393	-0.083563946
137	0xbde03b2d	-0.10948787
138	0xbd2765a8	-0.04086843
139	0xbe21482d	-0.15750189
140	0x3da809c2	0.08204986
141	0x3d20ef54	0.03929074
142	0x3c5987b0	0.013276979
143	0xbde34ec0	-0.11099005
144	0xbc08cee0	-0.008350104
145	0xbe3c9b63	-0.1841865
146	0xbd5c1f98	-0.053741068
147	0xbdabb12d	-0.08383403
148	0xbd968520	-0.0734961
149	0x3e1f3d49	0.15550722
150	0x3d5fa295	0.05459841
151	0x3c268cad	0.010165376
152	0xbe136d6d	-0.14397211
153	0xbcc310f8	-0.023811802
154	0xbd9c0c42	-0.076195255
155	0x3d2b2253	0.04178078
156	0xbd0ada52	-0.033899613
157	0xbdd415bc	-0.10355708
158	0xbe01da00	-0.12680817
159	0xbe64b775	-0.22335608
160	0x3c38eeb8	0.011287384
161	0xbdf77386	-0.12082581
162	0xbdcf3f4f	-0.10119497
163	0x3daf2118	0.08551234
164	0xbe2de788	-0.16982853
165	0x3d68661d	0.056738008
166	0xbd2c2f91	-0.04203755
167	0xbd08369e	-0.033255212
168	0xbe4b3bb1	-0.19846989
169	0x3e0d491b	0.13797419
170	0xbdf2bdc0	-0.11852598
171	0x3d86fa66	0.065907285
172	0x3ab8fd69	0.0014113608
173	0xbdaf0825	-0.08546475
174	0xbd587e91	-0.052855078
175	0x3d901859	0.07035894
176	0x3d504888	0.05085042
177	0x3d9a884c	0.07545528
178	0x3e34a706	0.1764184
179	0x3db18e08	0.086696684
180	0xbe1596f4	-0.14608365
181	0xbf027472	-0.5095893
182	0x3f0798f6	0.52967775
183	0xbec682e3	-0.38771734
184	0x3ef88fdd	0.4854726
185	0x3d887662	0.06663205
186	0x3d370cf7	0.0446901
187	0xbccdb6a2	-0.0251115
188	0x3e35d33e	0.17756364
189	0x3d428d12	0.047497816
190	0xbe00e3d8	-0.12586915
191	0x3c821878	0.015880808
192	0x3da43663	0.08018186
193	0xbe5a8c9c	-0.213427
194	0x3c8c6cdf	0.017141758
195	0xbc818843	-0.015812045
196	0x3df87305	0.12131313
197	0x3cf492a8	0.029855087
198	0xbe6206c2	-0.2207289
199	0xbdf6348e	-0.12021743
200	0xbdb5e823	-0.08882167
201	0x3d22de38	0.039762706
202	0x3e46da4b	0.1941921
203	0x3e1d2649	0.15346636
204	0x3d95e372	0.073187724
205	0xbd47f5f4	-0.048818544
206	0x3d69678c	0.056983516
207	0xbd2e8140	-0.04260373
208	0x3dde0372	0.10840501
209	0x3e14b9cb	0.14524
210	0xbe3ace28	-0.18242705
211	0x3cfacfa8	0.030616596
212	0xbe416eb5	-0.18889888
213	0x3e22ccd1	0.15898444
214	0x3c87fd50	0.016600281
215	0xbe4c2265	-0.19934995
216	0xbe0e120b	-0.1387407
217	0x3e3ab173	0.18231754
218	0xbe389c63	-0.18028407
219	0x3c299460	0.010350317
220	0xbdce2170	-0.100649714
221	0x3e15f153	0.14642839
222	0xbd330a4c	-0.04371099
223	0x3e1a6a7f	0.15079688
224	0x3d6e1ab4	0.058130935
225	0xbd9cfa6e	-0.07664953
226	0xbdb5a221	-0.08868814
227	0x3e01671e	0.12636992
228	0x3dabc4e2	0.08387162
229	0x3c906bb9	0.017629491
230	0x3e0bd032	0.13653639
231	0x3d05f69c	0.03270589
232	0xbe1b7d02	-0.15184405
233	0xbe39a1e7	-0.18128167
234	0xbde1fcfd	-0.11034582
235	0x3e3006c0	0.17190075
236	0x3d256077	0.0403752
237	0x3e115e76	0.1419619
238	0x3dcfb53b	0.10141989
239	0xbd08b7d5	-0.03337844
240	0x3e0830bc	0.1329984
241	0xbd9d8f44	-0.076933414
242	0x3dda2c76	0.106530115
243	0xbe210c14	-0.15727264
244	0x3d206b31	0.039164726
245	0x3e3eaa7e	0.18619725
246	0x3da046fc	0.07826039
247	0x3e0ba0ce	0.13635561
248	0x3e2578c3	0.16159348
249	0x3c82ad5b	0.015951803
250	0xbca7895e	-0.020451244
251	0xbd8f18ff	-0.069871895
252	0x3e36758c	0.17818278
253	0x3e10dddc	0.14147133
254	0x3e10eaa8	0.14152014
255	0xbcab95cc	-0.020945452

model.0.bias f4 [512]
0	0x3dc28bf5	0.09499351
1	0xbe2edd2a	-0.17076555
2	0x3e089f91	0.1334212
3	0xbe29ea23	-0.16593222
4	0x3def8c65	0.116967
5	0xbd894870	-0.067032695
6	0x3da2e60f	0.079540364
7	0x3c9304eb	0.017946681
8	0xbc982dd8	-0.018576548
9	0xbd41d3a9	-0.047320995
10	0x3de56dc7	0.11202579
11	0x3d56cba2	0.052440293
12	0xbd95b374	-0.073096186
13	0xbdc880a3	-0.097901605
14	0xbe031d42	-0.1280413
15	0xbd544d30	-0.051831424
16	0x3bcac030	0.0061874613
17	0x3d6ee5fe	0.058324806
18	0x3e20077d	0.15627857
19	0x3e0934c3	0.13399033
20	0xbe4921c7	-0.19641791
21	0xbe0c67de	-0.13711497
22	0xbd79f48b	-0.06102423
23	0x3e28615b	0.16443388
24	0x3dc69b23	0.09697559
25	0x3dc1fa32	0.09471549
26	0xbe30fbd4	-0.17283565
27	0x3df8f582	0.12156202
28	0xbe4869b5	-0.19571574
29	0xbe02a9db	-0.12760107
30	0x3e1fd4b8	0.1560849
31	0x3d99fb2d	0.07518611
32	0x3e165e83	0.14684491
33	0x3e023b18	0.12717855
34	0x3d9130be	0.07089375
35	0xbda65154	-0.08120981
36	0xbd5c8378	-0.053836316
37	0x3e0c4f08	0.13702023
38	0xbcf75e96	-0.03019647
39	0xbdfa1ac0	-0.122121334
40	0x3e021001	0.12701418
41	0xbd191b7e	-0.037379734
42	0xbda9a98d	-0.08284292
43	0x3c37fd6e	0.011229856
44	0x3c7e5850	0.015523985
45	0xbe4b632a	-0.19862047
46	0x3d33c898	0.043892473
47	0xbde866fa	-0.11347766
48	0xbe36bbad	-0.1784503
49	0xbe2e3187	-0.1701108
50	0xbddfbb69	-0.109244175
51	0xbe128448	-0.14308274
52	0x3e064847	0.13113509
53	0x3d7a8764	0.061164275
54	0xbd9c5346	-0.07633071
55	0xbe1376e5	-0.14400823
56	0xbc11ecb9	-0.008906537
57	0xbda8e77b	-0.082472764
58	0x3e13c9c9	0.14432444
59	0xbdb08453	-0.08618989
60	0x3d0bf818	0.034172148
61	0xbdf11820	-0.117721796
62	0x3db980d6	0.09057777
63	0x3da5933d	0.08084724
64	0xbdda05ba	-0.106456235
65	0xbe22a08a	-0.15881553
66	0x3dd4c8e4	0.10389879
67	0xbe060307	-0.13087092
68	0xbc883f1d	-0.016631657
69	0xbcf41f72	-0.02980015
70	0x3dc3a803	0.0955353
71	0x3db542b4	0.08850613
72	0xbdc944c3	-0.098275684
73	0x3cea8828	0.028629377
74	0xbe371b1f	-0.1788144
75	0x3dbacf05	0.09121517
76	0xbe37bb33	-0.17942505
77	0xbdadff93	-0.084960125
78	0x3d106c74	0.03525968
79	0x3dc8a8e0	0.09797835
80	0x3c93787a	0.018001784
81	0xbdeb22ae	-0.11481224
82	0xbe37a99c	-0.17935795
83	0xbda974a0	-0.082741976
84	0xbe374657	-0.17897926
85	0xbc7c5d57	-0.015403113
86	0x3d907e81	0.07055379
87	0x3d4a35ec	0.04936783
88	0x3c9700dc	0.018433027
89	0xbcb1d209	-0.021706598
90	0xbcd825e8	-0.026385263
91	0xbde78b2c	-0.11305842
92	0xbd9de1ea	-0.07709105
93	0x3e25cd61	0.16191627
94	0xbda6c180	-0.08142376
95	0xbd8a5540	-0.067545414
96	0xbd5c4892	-0.053780146
97	0xbdd74614	-0.10511413
98	0xbd89e100	-0.067323685
99	0x3e12c807	0.14334117
100	0x3e3acc1d	0.18241926
101	0xbe001b56	-0.12510428
102	0x3e3937a6	0.18087634
103	0x3dd8540e	0.10562907
104	0xbc164ff7	-0.009174339
105	0x3d136d48	0.03599289
106	0xbe40a555	-0.18813069
107	0x3e293213	0.16523008
108	0x3e330b05	0.17484672
109	0x3e09d35c	0.13459533
110	0xbe41b42e	-0.1891639
111	0xbe09a375	-0.1344126
112	0xbe7a5cac	-0.24449414
113	0xbd27cf14	-0.04096897
114	0xbd9edf6e	-0.077574596
115	0x3e05b397	0.1305679
116	0x3c1e7eaf	0.009673758
117	0x3ce3bb30	0.027799219
118	0xbddb81f6	-0.107181475
119	0x3cb5281e	0.022113856
120	0xbce3d610	-0.027812034
121	0x3e20cb24	0.15702492
122	0xbd13c113	-0.0360728
123	0x3b6357a7	0.0034689696
124	0x3e176baf	0.14787172
125	0xbdf053be	-0.117347226
126	0xbe49f73b	-0.19723217
127	0xbe23039a	-0.15919343
128	0xbd948c17	-0.072532825
129	0x3d569d98	0.052396387
130	0x3df344a2	0.11878325
131	0x3ddb10ca	0.10696562
132	0xbdcf9c68	-0.10137254
133	0xbde2ebd1	-0.11080135
134	0x3cc37250	0.02385822
135	0xbe3d55ed	-0.1848981
136	0xbdc9c577	-0.098521166
137	0xbc69f219	-0.014278912
138	0xbe3b376e	-0.18282863
139	0x3de19f35	0.110166945
140	0x3d5753df	0.05257022
141	0xbdcd1178	-0.100130975
142	0xbdb1868e	-0.086682424
143	0x3d371f29	0.04470745
144	0x3d978c8e	0.073998556
145	0xbd49d6cc	-0.049277112
146	0x3cae09e3	0.021244949
147	0xbe247453	-0.16059999
148	0x3cb2968c	0.021800302
149	0xbe0a3582	-0.13496974
150	0xbd99bd2b	-0.07506784
151	0xbe3b3b3b	-0.18284313
152	0x3e57cd47	0.21074401
153	0xbe1c48fe	-0.1526222
154	0xbe4a0feb	-0.19732635
155	0x3a36667d	0.0006958021
156	0x3dba6682	0.09101583
157	0xbe337694	-0.17525703
158	0xbe216bf5	-0.15763839
159	0xbd6180ed	-0.055054594
160	0xbdb82e00	-0.08993149
161	0x3e2d9c1e	0.16954085
162	0xbcdb91cc	-0.02680292
163	0x3c9f2f6c	0.019431792
164	0xbdb2f4b3	-0.08738079
165	0xbd4dd5c0	-0.050252676
166	0xbe042c9c	-0.12907642
167	0xbde5ab49	-0.11214311
168	0xbe156795	-0.14590295
169	0x3bba0d60	0.005677864
170	0x3e0d3a5d	0.13791795
171	0xbdd9bc2e	-0.106315956
172	0x3ddee939	0.108843274
173	0xbd0ba707	-0.034094837
174	0x3d493b27	0.049128678
175	0xbccef189	-0.025261657
176	0x3ccaf895	0.024776736
177	0x3db3337a	0.08750053
178	0xbdccc5e2	-0.09998681
179	0x3b2b18c0	0.0026107281
180	0x3c83ab86	0.016073
181	0xbaf6f580	-0.0018841475
182	0x3d63f3cc	0.055652425
183	0xbd36dc4c	-0.044643685
184	0x3d10234c	0.03518991
185	0xbe18c0dd	-0.14917322
186	0xbe282ebc	-0.16424078
187	0xbe3f908c	-0.18707484
188	0xbe34112d	-0.17584677
189	0x3deaf549	0.11472566
190	0x3a09ed18	0.0005261465
191	0xbde632b8	-0.112401426
192	0x3e10edee	0.14153263
193	0x3d10c3d2	0.035343
194	0xbe14eb41	-0.14542867
195	0xbcef349f	-0.029199896
196	0xbd0ae163	-0.03390635
197	0x3e01415e	0.12622592
198	0x3dfef69c	0.12449381
199	0xbd2c41ad	-0.04205482
200	0xbc814569	-0.015780168
201	0x3b92e5bf	0.0044829543
202	0x3da9ffc4	0.083007365
203	0xbc55e6e1	-0.013055534
204	0xbc317af4	-0.010832537
205	0xbcf4f560	-0.02990216
206	0xbe4855fa	-0.19564047
207	0x3de88c6f	0.113549106
208	0x3ddb50d2	0.107087746
209	0xbe04aa25	-0.1295553
210	0xbd4fe846	-0.050758623
211	0x3d75c073	0.059997987
212	0x3e2f9fa5	0.17150743
213	0x3e0c586f	0.1370561
214	0xbd712b60	-0.058879256
215	0xbe0ff484	-0.14058119
216	0xbdee80cd	-0.116456605
217	0xbe0dafcd	-0.13836594
218	0x3e47c061	0.1950698
219	0xbcad509b	-0.0211566
220	0x3e0ba02d	0.13635321
221	0x3c100c8d	0.008792055
222	0x3e1051cd	0.14093705
223	0xbc401cac	-0.011725586
224	0x3e008a17	0.12552677
225	0xbe105eba	-0.14098635
226	0xbdd0b274	-0.10190287
227	0x3db03499	0.08603782
228	0xbda8781a	-0.082260326
229	0x3d92970b	0.071577154
230	0xbe2eb223	-0.17060141
231	0xbcd3eb4f	-0.02586904
232	0xbc8a056a	-0.016848285
233	0xbe2ddbba	-0.1697835
234	0xbca25f38	-0.019820794
235	0xbe31cf8f	-0.17364334
236	0xbe4d1190	-0.20026231
237	0x3d98ce03	0.074611686
238	0x3dbd50e5	0.09243945
239	0x3d917d0e	0.071039304
240	0x3d67da1c	0.05660449
241	0xbd2a07b4	-0.041511253
242	0xbde2c0d4	-0.11071935
243	0xbe4780ed	-0.19482775
244	0x3e261539	0.16219033
245	0x3c805e3c	0.015669934
246	0xbe2734a4	-0.16328675
247	0x3d0fb6c7	0.03508642
248	0x3d3e1747	0.046408918
249	0x3e047771	0.12936188
250	0x3e2d2b4b	0.16911046
251	0xbde353da	-0.11099978
252	0x3dccb3aa	0.09995206
253	0x3e1564cb	0.1458923
254	0x3e3e77dd	0.18600412
255	0x3dc8f8fb	0.09813114

model.2.weight f4 [256, 512]
0	0xbc52197e	-0.012823461
1	0x3d41b8c5	0.04729535
2	0x3d501110	0.050797522
3	0x3d185c6d	0.03719752
4	0xbce0610d	-0.027390027
5	0x3cde7c4e	0.027158882
6	0x3b835dc6	0.0040089814
7	0xbc017a7e	-0.00790274
8	0x3d085731	0.033286277
9	0xbc5ed4c0	-0.013600528
10	0xbd1a035f	-0.03760087
11	0x3d76b7c2	0.06023384
12	0x3b74c320	0.003734775
13	0x3d006557	0.031346645
14	0xbd8104aa	-0.06299718
15	0xbdc3ac44	-0.095543414
16	0xbcd304d7	-0.025759144
17	0x3c8b887e	0.017032858
18	0xbcda37b3	-0.026637888
19	0x3d67a279	0.05655143
20	0xbc829923	-0.015942162
21	0x3d2f28bf	0.042763468
22	0xbd9a083e	-0.07521103
23	0xbe0b98a2	-0.13632444
24	0xbcce68d7	-0.025196476
25	0xbc938c19	-0.01801114
26	0xbdbac1a8	-0.09118968
27	0xbea8f6cb	-0.33000788
28	0xbda5997c	-0.080859154
29	0xbc1e17a4	-0.009649191
30	0x3c06f90d	0.008238089
31	0xbbf8dda0	-0.007594779
32	0x3d34d73a	0.04415057
33	0x3d218da1	0.03944171
34	0xbc267f88	-0.010162242
35	0x3d0912cc	0.03346519
36	0xbcf46b92	-0.02983645
37	0xbe1658cf	-0.14682315
38	0x3e2ce2db	0.16883413
39	0xbd443fa5	-0.04791226
40	0x3bf01960	0.0073272437
41	0xbc1e255e	-0.009652464
42	0x3c37f358	0.011227451
43	0xbd09e804	-0.033668533
44	0xbcba3d9b	-0.022734454
45	0xbd29744c	-0.041370675
46	0xbc3f94f3	-0.011693227
47	0xbde9c41f	-0.1141436
48	0xbce3d734	-0.027812578
49	0xbcd85986	-0.026409876
50	0xbb5c446a	-0.0033610114
51	0x3c25fd6c	0.010131221
52	0x3d195f20	0.037444234
53	0xbcf84171	-0.030304642
54	0xbc7e9299	-0.015537881
55	0x3c302efd	0.01075339
56	0x3d3357f9	0.04378507
57	0xbdc607c3	-0.09669449
58	0xbe9beb9a	-0.30453187
59	0xbd0abc08	-0.033870727
60	0xbc8fe3be	-0.01756465
61	0x3ccf842a	0.025331575
62	0xbcaa7b67	-0.020810796
63	0x3a646f59	0.0008714102
64	0x3c8904c6	0.016725909
65	0x3d7bc185	0.06146385
66	0x3da82258	0.082096756
67	0x3cc1acc6	0.023641955
68	0xbd8a9344	-0.0676637
69	0xbd277746	-0.040885232
70	0x3d26ba42	0.040704973
71	0xbd36fce0	-0.044674754
72	0x3c3fff0b	0.011718522
73	0xbd063b57	-0.032771435
74	0x3e016497	0.12636028
75	0xbdbdd979	-0.09269995
76	0x3c8a395d	0.016873056
77	0xbe260a59	-0.16214885
78	0xbca294c2	-0.019846324
79	0x3d0e5776	0.034751378
80	0x3d2954b3	0.04134054
81	0x3c117501	0.008877994
82	0x3d7b4be8	0.061351687
83	0x3ccc4936	0.024937253
84	0xbd57c6ee	-0.05267995
85	0xbd44b932	-0.04802818
86	0x3c9dab81	0.019246818
87	0x3d63ab51	0.055583302
88	0x3cabc57c	0.020968191
89	0xbe0a98d4	-0.13534862
90	0xbd26b1fe	-0.04069709
91	0xbd96b9a3	-0.07359626
92	0x3d6aabe5	0.057292838
93	0xbd16eb5b	-0.036845546
94	0xbc837bd6	-0.01605026
95	0xbdafbe7d	-0.08581255
96	0x3dd73687	0.10508447
97	0x3bad72fa	0.0052932473
98	0x39c258a8	0.00037068618
99	0xbcce9bba	-0.02522074
100	0x3c8ad61a	0.016947795
101	0xbd0b6657	-0.034033146
102	0x3bcab617	0.0061862576
103	0x3dbd0575	0.092295565
104	0x3cfd58e0	0.030926168
105	0x3d169e39	0.036771987
106	0xbc47f360	-0.012204021
107	0x3ba8331f	0.0051330472
108	0x3ccd2deb	0.02504631
109	0xbc38c3b7	-0.011277131
110	0xbb85445c	-0.004066987
111	0xbd60520e	-0.054765753
112	0xbd55ae4e	-0.052168183
113	0xbc16a074	-0.009193528
114	0xbc53b7be	-0.0129222255
115	0xbd42dc0c	-0.047573134
116	0x3d21f66b	0.039541643
117	0xba67a8ef	-0.0008837124
118	0xbd1331ad	-0.035936046
119	0x3da51406	0.0806046
120	0xbec623c1	-0.38699153
121	0x3dad467c	0.084607095
122	0xbd431803	-0.04763032
123	0x3cb88e62	0.02252883
124	0xbd1f2147	-0.038850095
125	0xbbc66c05	-0.0060553574
126	0xbd847f8c	-0.0646964
127	0xbcac7a5b	-0.021054437
128	0xbc9abd38	-0.018889055
129	0x3a8df748	0.0010831142
130	0x3c2baf20	0.010478765
131	0xbd08eb7a	-0.033427693
132	0x3d9219e0	0.071338415
133	0xbc87b5c5	-0.016566167
134	0xbc35b2d0	-0.0110899955
135	0x3d63ec9f	0.05564558
136	0x3c11f7a0	0.008909136
137	0xbca1a8d7	-0.01973383
138	0xbbd86d01	-0.006604791
139	0xbd846856	-0.06465213
140	0xbd23cd1b	-0.039990526
141	0x3d46b680	0.04851389
142	0xbe2a93d6	-0.16657957
143	0xbd2a93ef	-0.041644987
144	0x3c65a501	0.014016391
145	0xbd06ccb2	-0.032910056
146	0xbd6deda8	-0.058087975
147	0xbc8a924a	-0.01691546
148	0x3c6b90e6	0.014377808
149	0xbe0dbf2f	-0.13842462
150	0x3d445783	0.04793502
151	0xbd24952e	-0.04018133
152	0xbe5ba4fa	-0.21449652
153	0x3c1dddb0	0.009635374
154	0x3c7cce3c	0.0154300295
155	0x3d8c9849	0.068649836
156	0x3be3c21f	0.0069506313
157	0x3d0e14af	0.034687694
158	0xbdc035dd	-0.093852736
159	0x3c8a8b94	0.01691226
160	0xbba0e4f0	-0.004910104
161	0xbb498497	-0.0030749196
162	0x3cdcb5a4	0.026942082
163	0x3deacbb8	0.114646375
164	0xbd0c3e50	-0.034239113
165	0xbcb0ec17	-0.021596951
166	0xbab63d20	-0.0013903715
167	0x3d8dd9fe	0.06926344
168	0x3d26ce4b	0.04072408
169	0xbcff6824	-0.031177588
170	0x3e1515cd	0.14559098
171	0xbc99f05a	-0.018791366
172	0xbca7b776	-0.020473223
173	0x3e22a8cb	0.15884702
174	0xbd0b2048	-0.033966333
175	0x3d9181e9	0.071048565
176	0x3c8ba41c	0.017046027
177	0xbdf4c80a	-0.11952217
178	0xbb5f5235	-0.0034076099
179	0xbaa955e0	-0.001291927
180	0xbca6188d	-0.020275379
181	0x3c14d728	0.0090845
182	0x3c975ed6	0.018477838
183	0x3ba1afe6	0.004934299
184	0xba0df300	-0.0005414933
185	0x39506900	0.00019875541
186	0xbdd7f1ad	-0.10544143
187	0x3d61f68d	0.05516677
188	0xbe141b3c	-0.14463514
189	0xbcfaa4db	-0.030596187
190	0xbd61dffe	-0.055145256
191	0xbdc8c99b	-0.09804078
192	0xbd9b5352	-0.075842515
193	0xbb9b9a56	-0.004748623
194	0x3c7b4244	0.015335623
195	0xbe0531c8	-0.13007271
196	0x3caa8f89	0.020820396
197	0x3d3688d2	0.044564076
198	0xbdb3d6b9	-0.087811895
199	0x3d1177ff	0.035514828
200	0x3e083d26	0.13304576
201	0xbc61bd1a	-0.0137779955
202	0x3d3c1ed0	0.045927823
203	0x3b93b9c1	0.0045082276
204	0x3dae734f	0.08518087
205	0xbd7f1e0e	-0.06228452
206	0x3c55fee4	0.013061259
207	0x3e2445a1	0.16042186
208	0xbccaee1e	-0.024771746
209	0xbd9516c7	-0.07279735
210	0xbc1d8864	-0.009615038
211	0x3c5dec8c	0.013545167
212	0x3d92be22	0.07165171
213	0x3d81b001	0.06332398
214	0xbc9bd74c	-0.01902356
215	0xbd23cbec	-0.039989397
216	0x3c2e25fc	0.010629173
217	0x3c58cf94	0.013233084
218	0xbc43fcd4	-0.011962134
219	0x3d21755d	0.039418567
220	0x3deb6322	0.114935175
221	0xba20e3e4	-0.0006137474
222	0xbc694292	-0.014237063
223	0xbba05a58	-0.0048935823
224	0x3d96b9c6	0.07359652
225	0x3b4aafe0	0.0030927584
226	0xbdb68480	-0.08911991
227	0x3d1edbca	0.038783826
228	0x3dce1a58	0.100636184
229	0xbaf36daf	-0.0018572117
230	0x3ce5ab12	0.028035674
231	0xbcc7da70	-0.024396151
232	0xbcdb0646	-0.02673639
233	0xbcf3fac6	-0.029782664
234	0xbcf29707	-0.029613031
235	0xbb8370a4	-0.0040112305
236	0xbcc4c1ac	-0.024018131
237	0xbc28f98a	-0.010313401
238	0xbcd7d9da	-0.026348997
239	0xbc8d5939	-0.017254459
240	0xbcad5bab	-0.021161875
241	0x3d108395	0.035281736
242	0xbdef79a9	-0.11693127
243	0xbcb06701	-0.021533491
244	0xbe0f728b	-0.14008538
245	0xbe316661	-0.1732421
246	0x3d826b6f	0.063681476
247	0xbc35e9c3	-0.011103096
248	0xbc96c02f	-0.018402187
249	0xbd0ec7c6	-0.034858488
250	0xbca2d07a	-0.0198748
251	0xbc6ac824	-0.014329944
252	0x3d01af87	0.031661537
253	0xbd15dd59	-0.036588047
254	0x3c87a4cf	0.016558079
255	0x3b49a27d	0.0030767017

model.2.bias f4 [256]
0	0xbc3260d8	-0.010887347
1	0xbc9bbe34	-0.019011594
2	0xbd5fe026	-0.054657124
3	0xbc98e1b8	-0.018662319
4	0xbb3d0c40	-0.0028846413
5	0xbbb25702	-0.005442501
6	0xbd5a34c4	-0.053272977
7	0x3d48497e	0.048898213
8	0x3cd01f9e	0.025405701
9	0x3c5549f4	0.01301812
10	0x3cd5d58d	0.026102806
11	0x3cac44ca	0.021028895
12	0x3dacb823	0.08433559
13	0xbce599c1	-0.028027417
14	0x3cc15236	0.023598772
15	0xbce46704	-0.027881153
16	0x3d985cab	0.0743955
17	0xbaddc77b	-0.0016920412
18	0xbb38d9b0	-0.0028205924
19	0x3d9ceba3	0.07662132
20	0x3ca64e08	0.02030088
21	0xbb975c95	-0.004619191
22	0x3caa3250	0.020775944
23	0x3d1aa356	0.037753426
24	0x3c9f1ef6	0.019423943
25	0x3c1abb01	0.009443999
26	0x3d6ef7c1	0.058341745
27	0xbd13fa1a	-0.036127187
28	0x3d8da30b	0.069158636
29	0x3cf8d2f3	0.030374026
30	0x3dafadfa	0.08578105
31	0xbbd16938	-0.006390717
32	0x3c17dcaf	0.009268924
33	0xbd0edfa3	-0.034881245
34	0xbd3d1344	-0.04616095
35	0xbcce2172	-0.025162432
36	0xbcf29aab	-0.029614767
37	0x3d4a6fbc	0.049422964
38	0x3bbd2d0c	0.0057731923
39	0xbcfd8336	-0.030946355
40	0xbd255497	-0.040363874
41	0xbb8cbe18	-0.004295122
42	0xbca6d17d	-0.020363564
43	0x3dfc0ae9	0.123067684
44	0xbca40bc6	-0.020025145
45	0x3dce2cf5	0.100671686
46	0x3c56d1da	0.013111556
47	0x3cdb0204	0.02673436
48	0xbc5cbc77	-0.013472668
49	0xbd13ffdc	-0.03613268
50	0x3b7b9a5c	0.0038391566
51	0x3cb8464d	0.02249446
52	0xbcae6c1a	-0.021291781
53	0x3d4b3978	0.049615353
54	0x3d0e976f	0.034812387
55	0x3cbbbdb6	0.02291761
56	0x3b5859dd	0.0033012547
57	0x3da38953	0.07985177
58	0xbd0db377	-0.03459498
59	0x3bedd1b0	0.0072576627
60	0xbd06a0ce	-0.0328682
61	0x3d93f7be	0.072249874
62	0xb9122181	-0.00013936126
63	0x3cfa51cf	0.030556588
64	0x3d5540cf	0.05206376
65	0xbcc08576	-0.02350114
66	0xbcb556e1	-0.022136154
67	0x3d471e1d	0.048612703
68	0x3ce3329a	0.02773409
69	0xbd166bf1	-0.036724035
70	0xbcb812f7	-0.02246998
71	0xbc29fc18	-0.010375045
72	0x3ce10d10	0.027472049
73	0x3cc6baca	0.02425899
74	0x3ba428dc	0.0050097536
75	0x3c9687da	0.018375326
76	0x3cdbb0fd	0.026817793
77	0x3a1cbf02	0.000597939
78	0xbd5fdf3c	-0.054656252
79	0x3bfb3056	0.007665674
80	0x3d802b06	0.06258206
81	0xbcf246bd	-0.029574746
82	0xbcf024fa	-0.029314507
83	0xbc530c34	-0.012881327
84	0xbd59ee81	-0.05320597
85	0xbcd619f0	-0.026135415
86	0x3e01b6b3	0.1266735
87	0xbcf2441a	-0.029573489
88	0x3c47b888	0.012189992
89	0xba3b49d9	-0.0007144488
90	0xbcc0b807	-0.023525251
91	0x3d18d874	0.0373158
92	0xbc1391c1	-0.009006918
93	0xbd3509ef	-0.044198927
94	0xbcb40caf	-0.021978704
95	0x3c5d3de6	0.013503527
96	0xbd285875	-0.041099984
97	0x3a9326fc	0.0011226828
98	0xbd83d084	-0.064362556
99	0xbccdb69e	-0.025111493
100	0x3c4da444	0.012551371
101	0xbc100434	-0.008790065
102	0x3dae3f0f	0.08508121
103	0x3cc67c48	0.024229184
104	0xbd8c4c9c	-0.068505496
105	0x3a75f911	0.0009383122
106	0x3d5d158e	0.053975634
107	0xbd720a5c	-0.05909191
108	0xbcab89be	-0.020939704
109	0xbcc557d0	-0.024089724
110	0xbc904a6f	-0.017613618
111	0xbc6807fe	-0.014162062
112	0xbd49079f	-0.049079534
113	0x3da07d55	0.07836405
114	0xbd49ed70	-0.049298704
115	0x3ce1f19c	0.027581029
116	0xbd09a116	-0.03360089
117	0xbccd6da9	-0.025076704
118	0xbc2e8a31	-0.010653065
119	0x3d3f0f78	0.04664561
120	0xbd822419	-0.06354541
121	0xbd2c10d7	-0.042008247
122	0x3d3583ee	0.04431527
123	0xbd8bab52	-0.06819786
124	0xbd041b49	-0.032252584
125	0xbd36b48a	-0.04460577
126	0xba6a0436	-0.0008927019
127	0x3bca141e	0.006166949
128	0x3ca466d2	0.02006856
129	0x3da45b7f	0.08025264
130	0xbc8b914e	-0.01703706
131	0x3d814d69	0.06313593
132	0x3d312c98	0.04325542
133	0xbb446729	-0.0029968715
134	0xbc9e077c	-0.019290678
135	0xbd2fa3a8	-0.042880684
136	0x3d1bb879	0.038017724
137	0x3c4af048	0.012386389
138	0xbcf377e0	-0.029720247
139	0xbd90dab9	-0.07072968
140	0xbc63ab41	-0.013895811
141	0xbd4541fb	-0.048158627
142	0xbb115532	-0.0022176025
143	0x3cb852bb	0.022500386
144	0xbd232766	-0.039832495
145	0x3c095512	0.008382099
146	0xbd00b4be	-0.03142237
147	0xbb0785ae	-0.0020679045
148	0xbd1c9542	-0.03822828
149	0xbcf33d2f	-0.02969226
150	0x3c9ecbfa	0.019384373
151	0xbd22ff96	-0.039794527
152	0x3d93904e	0.07205258
153	0x3d2d2cf1	0.042279188
154	0xbc688321	-0.01419142
155	0xbd3500f5	-0.044190366
156	0xbcf4accc	-0.029867552
157	0xbcc522ff	-0.024064539
158	0x3d140114	0.03613384
159	0x3d0a3883	0.0337453
160	0xbbd0108f	-0.00634963
161	0x3d989657	0.0745055
162	0xbd115a0a	-0.03548626
163	0x3c91e3b7	0.017808778
164	0x3ceea307	0.029130472
165	0xbd1ac162	-0.03778208
166	0xbd300816	-0.04297646
167	0xbd85f5bd	-0.065410115
168	0xbd131cfe	-0.03591632
169	0x3ccd5d82	0.025069002
170	0x3ce097d4	0.027416147
171	0xbbcd4e3b	-0.0062654293
172	0x3da740fc	0.08166692
173	0xbd39608d	-0.045258094
174	0xbbdd63d3	-0.0067562847
175	0xbce9b097	-0.028526587
176	0x3d79105b	0.060806613
177	0xbb91e7b0	-0.004452668
178	0x3db3133f	0.08743905
179	0xbbd49c18	-0.0064883344
180	0x3d64d015	0.055862505
181	0x3d87ddc9	0.06634099
182	0x3d577e0c	0.052610442
183	0xbc8025d7	-0.015643043
184	0xbd1543cb	-0.036441606
185	0x3c43d21d	0.01195195
186	0x3c239ac9	0.009985634
187	0xbd72a136	-0.059235774
188	0x3d9c80a0	0.07641721
189	0xbc99045f	-0.018678842
190	0x3c7043a2	0.014664562
191	0x3d117220	0.03550923
192	0x3da5cd40	0.08095789
193	0xbcac654b	-0.021044394
194	0xbcc02b3a	-0.023458112
195	0x3bd0cdd1	0.0063721915
196	0x3cbb09e9	0.022831874
197	0x38d73442	0.00010261733
198	0x3d0438d6	0.032280765
199	0xbd155e62	-0.036466964
200	0xbd80d303	-0.06290247
201	0x3dbbf53a	0.09177633
202	0xbc872c15	-0.016500512
203	0xbd193d0e	-0.037411742
204	0xbbac7b4e	-0.0052637225
205	0x3dd952a4	0.106114656
206	0x3c386d2d	0.011256498
207	0x3cd92ede	0.026511606
208	0x3d35aa17	0.044351663
209	0x3c083dc7	0.00831551
210	0x3dc5e8a3	0.096635126
211	0xbcc73cdd	-0.024321014
212	0xbc0d8ec6	-0.008639997
213	0xbd2a5320	-0.04158318
214	0xbd1ce558	-0.038304657
215	0x3b5b2283	0.0033437319
216	0xbb811d19	-0.0039402363
217	0x3d993a90	0.07481873
218	0xbd56fb2c	-0.05248563
219	0xbc82c0d9	-0.015961098
220	0xbd2f58bf	-0.042809244
221	0xbd5b1e47	-0.05349567
222	0x3cc96c87	0.024587883
223	0x3df207d3	0.118178986
224	0x3c0ac09b	0.008468772
225	0xbd00bb99	-0.031428907
226	0xbc8450f7	-0.016151888
227	0xbccc09e3	-0.024907058
228	0x3ccf622d	0.025315369
229	0xbd179247	-0.037004735
230	0x3d8cb33f	0.06870126
231	0xbc9e7f68	-0.019347861
232	0xbc76ba1d	-0.015059021
233	0xbd11a3e9	-0.035556708
234	0xbd6159f7	-0.055017438
235	0xbc96f285	-0.01842619
236	0x3cafedcb	0.021475693
237	0x3db70b03	0.08937647
238	0xbd5e8eee	-0.054335527
239	0x3d222349	0.03958443
240	0xbc6d624c	-0.014488768
241	0x3d146fa5	0.036239285
242	0xbcab5819	-0.020916032
243	0xbd40617d	-0.046967972
244	0x3c9db42b	0.01925095
245	0x3cf359dc	0.029705934
246	0x3c68eada	0.014216149
247	0xbcd103bd	-0.025514478
248	0xbd53d5c8	-0.05171755
249	0xbd557cb7	-0.05212089
250	0x3d0cdc72	0.03438992
251	0x3dbbbe52	0.0916716
252	0xbd7cc177	-0.06170794
253	0x3d8c5b8a	0.06853397
254	0xbd813783	-0.06309416
255	0xbd038fea	-0.03211967

model.4.weight f4 [128, 256]
0	0x3da94111	0.082643636
1	0x3d33dc8a	0.043911494
2	0xbcc1f41c	-0.02367597
3	0xbd0ab0b7	-0.033859935
4	0x3c15ac90	0.00913538
5	0xbcfb7122	-0.030693594
6	0xbc1770f3	-0.009243238
7	0x3beba76a	0.007191588
8	0xbcf287ef	-0.029605834
9	0xbce3f4ef	-0.027826754
10	0xbb49009a	-0.0030670525
11	0xbc1200c8	-0.008911319
12	0xbd09bc05	-0.033626575
13	0x3cf45778	0.029826865
14	0x3d412a6c	0.047159597
15	0xbcd8a166	-0.026444148
16	0x3c94996d	0.018139565
17	0xbd3e5833	-0.046470832
18	0xbc0280e7	-0.007965303
19	0x3d6d2f4e	0.05790644
20	0x3c2bfdea	0.01049755
21	0xbcf8f00c	-0.0303879
22	0x3cbb7e73	0.022887444
23	0x3d6eabcb	0.058269303
24	0x3d1cfe62	0.038328536
25	0x3d5fd3cd	0.05464535
26	0xbd0a0c52	-0.033703156
27	0x3ce3e739	0.027820216
28	0x3da53abb	0.080678426
29	0xbc803fbd	-0.015655393
30	0xbd48440b	-0.048893016
31	0x3d0b7052	0.034042664
32	0x3cc33692	0.023829732
33	0x3b73307b	0.0037107754
34	0x3cd14a51	0.025548132
35	0xbd074357	-0.033023205
36	0x3b6a2e02	0.003573299
37	0xbd01e80a	-0.03171543
38	0x3e4701e3	0.19434313
39	0x3c94cd81	0.018164398
40	0xbcaef1cc	-0.021355532
41	0x3acc5000	0.0015587807
42	0xbc672b89	-0.014109501
43	0xbd3061f9	-0.043062184
44	0x3c1d0862	0.009584518
45	0x3d9bf901	0.07615853
46	0x3d16d9c4	0.03682877
47	0x3c45d9e6	0.012075877
48	0xbcd58deb	-0.026068648
49	0x3cbf485d	0.023349935
50	0x3d412c41	0.047161344
51	0x3c8ea79c	0.017413907
52	0x3d6a907c	0.057266697
53	0xbb625e4d	-0.003454107
54	0xbcdf4938	-0.027256593
55	0x3c321444	0.0108690895
56	0xbc989215	-0.018624345
57	0x3de427bf	0.111403935
58	0x3c91492d	0.017735088
59	0x3d321f00	0.043486595
60	0xbc55dcd0	-0.013053134
61	0x3c6af146	0.014339751
62	0x3d6490c8	0.055802137
63	0x3b54c457	0.003246566
64	0x3d933bef	0.07189166
65	0xbd40c6ba	-0.04706452
66	0xbd18287c	-0.037147984
67	0xbc158541	-0.0091260085
68	0xbc5223af	-0.01282589
69	0xbd0fe40b	-0.035129588
70	0x3ccdcc15	0.025121728
71	0x3cd64496	0.026155751
72	0x3cd9e0ce	0.026596453
73	0xbd484d0e	-0.04890161
74	0xbd3d3cda	-0.04620061
75	0x3d93d754	0.07218805
76	0x3d45f88f	0.048332747
77	0xbd02f3a9	-0.031970654
78	0xbcb6c58d	-0.022310996
79	0x3bfd8299	0.0077365157
80	0xbc7cbf4e	-0.01542647
81	0xbc1a9780	-0.0094355345
82	0xbd1d9a61	-0.038477305
83	0x3cc6a029	0.024246292
84	0x3d8288c4	0.06373742
85	0xbd82c063	-0.06384351
86	0xbdc178ea	-0.09446891
87	0x3c015578	0.0078939125
88	0xbd6b1416	-0.057392202
89	0x3c28fa16	0.010313531
90	0x3d1d40dc	0.038391933
91	0xbc10c981	-0.008837105
92	0xbc53a1eb	-0.012917022
93	0x3c9625a5	0.018328497
94	0xbd7ce6af	-0.061743435
95	0xbcbddd5f	-0.023176847
96	0x3d5b5ad4	0.053553417
97	0x3b12c34f	0.0022394245
98	0xbc1a46d7	-0.009416304
99	0x3d495bec	0.04915993
100	0xbd03088b	-0.03199057
101	0xbc66991f	-0.014074593
102	0xbd3a3494	-0.0454603
103	0x3e25b303	0.16181569
104	0xbd9a27ec	-0.07527146
105	0xbc038acd	-0.008028698
106	0xbc16ee2b	-0.009212057
107	0xbcdda605	-0.027056703
108	0xbd19be6a	-0.03753511
109	0x3d5e3437	0.054249015
110	0x3cdf08d5	0.027225891
111	0x3d62b5d8	0.0553492
112	0x3ce4bff2	0.027923558
113	0x3d121744	0.03566672
114	0x3d20a6a9	0.03922144
115	0xbd2579ee	-0.040399484
116	0xbd1c763d	-0.0381987
117	0x3d05ff82	0.032714374
118	0xbcef3872	-0.02920172
119	0x3d6e6d41	0.05820966
120	0x3c7287a8	0.014802851
121	0x3d518bd4	0.05115874
122	0x3dd6a41e	0.104805216
123	0xbcf2e3db	-0.029649666
124	0x3cf2945d	0.02961176
125	0x3c3c639b	0.011498357
126	0x3c507146	0.012722319
127	0x3ca96603	0.020678526
128	0xbc5b29c1	-0.013376654
129	0x3dd74751	0.105116494
130	0x3cbc23d5	0.022966305
131	0x3d893785	0.06700043
132	0x3d19a80f	0.03751379
133	0xbd4233a2	-0.047412522
134	0xbd5de94a	-0.05417756
135	0xbcacfac2	-0.021115664
136	0x3d7341c9	0.05938891
137	0x3b1f7c5a	0.0024335594
138	0x3bbf0cbc	0.0058303755
139	0xbdc7c128	-0.097536385
140	0xbc7e089e	-0.015504984
141	0x3d4ca628	0.049963146
142	0xbd3b487d	-0.045723427
143	0x3cf714a8	0.030161217
144	0x3d6635bf	0.0562036
145	0x3d6c1ee8	0.057646662
146	0x3d96065c	0.07325432
147	0xbd87436c	-0.066046566
148	0x3ca1e476	0.019762259
149	0x3d6e63b3	0.05820055
150	0x3d5d5cdd	0.05404364
151	0x3d0a5fd0	0.03378278
152	0xbb967e73	-0.0045927106
153	0x3d56b248	0.052416116
154	0x3e140b7d	0.14457507
155	0x3d7e8c4d	0.06214552
156	0xbd5c075c	-0.053717956
157	0xbcb95638	-0.02262412
158	0xbc621aa3	-0.013800296
159	0xbc4bfb20	-0.01245001
160	0xbd390905	-0.045174617
161	0x3c0a8070	0.008453473
162	0x3ad1eec0	0.0016016588
163	0x3d851e52	0.06499924
164	0x3ccac324	0.024751253
165	0xbc19dbb1	-0.009390757
166	0x3bca9330	0.006182097
167	0x3cd86ac1	0.026418092
168	0x3aab8fb3	0.001308909
169	0xbd5c6d04	-0.053814903
170	0x3c972e9e	0.018454846
171	0x3b525757	0.0032095516
172	0x3d324f0f	0.043532427
173	0xbd1973e4	-0.037464038
174	0xbd278689	-0.040899787
175	0xba86bf40	-0.0010280386
176	0x3d6c4ba1	0.057689313
177	0xbd205af0	-0.039149225
178	0xbeade27f	-0.33961865
179	0x3cc96e28	0.02458866
180	0xbd0abb15	-0.03386982
181	0x3d34445c	0.044010505
182	0xbd0408cd	-0.032234956
183	0x3c4ae80b	0.012384425
184	0xbd09e8fd	-0.03366946
185	0xbd102e47	-0.035200384
186	0x3d03bd79	0.032163117
187	0x3b313d2e	0.0027044523
188	0xbcd9dad5	-0.026593605
189	0xbca19eab	-0.01972898
190	0x3d03e767	0.032203104
191	0xbbe09914	-0.006854186
192	0x3b527fee	0.003211971
193	0x3d28c4eb	0.04120342
194	0xbbf9f20b	-0.0076277307
195	0xbcba91d5	-0.022774616
196	0xbd2e38af	-0.042534526
197	0x3d163629	0.036672745
198	0x3d39a32b	0.045321625
199	0x3ca5a513	0.020220315
200	0xbd13e08e	-0.036102824
201	0x3d81b3bc	0.0633311
202	0x3d696187	0.056977775
203	0x3d4bdebb	0.04977296
204	0xbd20c702	-0.03925229
205	0x3e00282d	0.12515326
206	0xbc190f1b	-0.00934198
207	0x3ccb0fe4	0.02478785
208	0x3ce64077	0.028106911
209	0x3c613347	0.013745136
210	0x3d1a3224	0.037645474
211	0x3d560f40	0.052260637
212	0xbd6eb107	-0.058274295
213	0xbccf7e9c	-0.025328927
214	0x3d8270ba	0.06369157
215	0x3d1bfd19	0.03808317
216	0xbca433f2	-0.0200443
217	0x3df6285f	0.12019419
218	0x3cece439	0.028917419
219	0xbc1aed8f	-0.009456052
220	0x3ce0a5d3	0.027422821
221	0x3ccb120f	0.024788884
222	0xbc359106	-0.01108194
223	0x3db9e95a	0.090777114
224	0xbcc7a53f	-0.024370788
225	0x3d9cf6bf	0.076642506
226	0xbbb09d80	-0.005389869
227	0x3d42d550	0.047566712
228	0xbcc4faa4	-0.024045296
229	0xbd0ca5ec	-0.034337923
230	0x3d296d3f	0.04136395
231	0xb97709f5	-0.00023559465
232	0x3b9ef131	0.0048505296
233	0xbc95b3ac	-0.01827415
234	0x3c07775e	0.008268205
235	0xbdaecb02	-0.085348144
236	0xbcebe627	-0.028796269
237	0x3c6ae0f5	0.0143358605
238	0x3d3030e4	0.043015376
239	0xbcab0dad	-0.020880545
240	0x3be0544c	0.0068459865
241	0x3cd6caa8	0.02621968
242	0xbd1ed09a	-0.038773157
243	0xbc670c5b	-0.014102067
244	0xbce1fce2	-0.027586404
245	0xbd2ef45d	-0.04271351
246	0x3c00e286	0.007866507
247	0xbce3656a	-0.027758319
248	0x3c22470a	0.009904632
249	0xbced021e	-0.028931674
250	0xbcf04ff3	-0.029334998
251	0x3d534771	0.051581804
252	0x3d4f780a	0.050651588
253	0x3e05709c	0.13031238
254	0x3cb6d82f	0.022319881
255	0xbd2ad736	-0.041709147

model.4.bias f4 [128]
0	0x3e045506	0.12923059
1	0x3da96455	0.0827109
2	0xbcc09d06	-0.023512375
3	0x3d3eb26d	0.04655688
4	0xbd40a82e	-0.04703539
5	0x3ca5bbc5	0.020231137
6	0x3d53f971	0.051751558
7	0xbbbc684b	-0.0057497374
8	0xbda8141c	-0.082069606
9	0x3cd98816	0.026554149
10	0xbc557d81	-0.013030411
11	0x3dc2bcfd	0.09508703
12	0xbc0d8c66	-0.008639431
13	0x3c930588	0.017946973
14	0x3d1592f5	0.036517102
15	0xbc6fe3df	-0.014641731
16	0x3cb1ea5a	0.021718193
17	0x3dbb26c0	0.0913825
18	0x3d53cf57	0.051711407
19	0xbd92a232	-0.071598426
20	0x3d32e0e8	0.04367152
21	0x3cd5ce1a	0.026099253
22	0x3b2444ad	0.0025065348
23	0xbd064b88	-0.032786876
24	0xbd633299	-0.055468176
25	0x3e1abae7	0.1511036
26	0xbcc38670	-0.023867816
27	0x3e1dbeb7	0.15404783
28	0x3e1a8a07	0.15091716
29	0xbcb82130	-0.022476763
30	0xbb80912d	-0.0039235563
31	0x3e04485e	0.12918231
32	0x3ccf991c	0.025341563
33	0xbd2b2566	-0.041783713
34	0x3e013555	0.12618001
35	0xbd1f1792	-0.038840838
36	0x3dcef16b	0.101046406
37	0x3cb4bde8	0.02206321
38	0x3db57dd7	0.08861893
39	0xbd6acca6	-0.057324074
40	0xb8262ca9	-3.9619077e-05
41	0xbd39d9ac	-0.045373604
42	0xbd79cd1a	-0.060986616
43	0xbcf17677	-0.029475434
44	0xbc52c4ac	-0.012864273
45	0x3e3e275e	0.18569705
46	0x3ddddf6a	0.108336285
47	0xbd9a8bd1	-0.07546199
48	0x3d05b909	0.032647166
49	0x3d9d4897	0.07679861
50	0x3db87391	0.090064175
51	0xbd85736d	-0.06516156
52	0x3e311c6d	0.17296
53	0x3c2838e6	0.010267472
54	0xba7a89a2	-0.0009557252
55	0x3d06ad7e	0.0328803
56	0xbb18ec1c	-0.0023334092
57	0x3ce0338c	0.02736833
58	0x3df63acc	0.12022933
59	0xbd62c91f	-0.055367585
60	0x3e071ca2	0.13194516
61	0xbdbbab3e	-0.09163521
62	0x3bf663c8	0.007519219
63	0xbd494a56	-0.049143158
64	0xbdb8f40c	-0.09030923
65	0xbd06ead2	-0.032938786
66	0x3d904e8b	0.07046231
67	0x3d95e228	0.073185265
68	0xbd2a62e0	-0.0415982
69	0x3e161d26	0.14659557
70	0x3d9c313d	0.07626579
71	0xbd0893e4	-0.033344164
72	0xbd2cb6ad	-0.0421664
73	0xbbbe64ef	-0.005810372
74	0xbd317026	-0.043319844
75	0xbd70835c	-0.058719024
76	0x3ce12c08	0.027486816
77	0x3d8b4548	0.06800324
78	0x3d27710e	0.0408793
79	0xbce5a36e	-0.02803203
80	0xbd912908	-0.07087904
81	0x3df15590	0.11783898
82	0xbc3cccf2	-0.011523472
83	0x3d85775e	0.06516908
84	0x3de55e61	0.11199642
85	0x3c718302	0.014740707
86	0x3c76c959	0.015062653
87	0x3d914f79	0.07095236
88	0xbd87f29f	-0.06638073
89	0x3df3803e	0.11889695
90	0xbdb3c015	-0.08776871
91	0x3da68423	0.08130672
92	0xbd38506f	-0.044998582
93	0xbcb16db0	-0.021658748
94	0xbda49163	-0.08035543
95	0x3ab0714d	0.0013461501
96	0xbc89872b	-0.016788086
97	0xbdbb4fd8	-0.09146088
98	0x3de6997d	0.11259744
99	0x3d401f8e	0.046905093
100	0x3d77309c	0.060349092
101	0xbd15ee23	-0.036604058
102	0xbcbb5f20	-0.022872508
103	0xbcc7f8e9	-0.024410682
104	0xbac5ec40	-0.0015100315
105	0xbcdf3a9b	-0.027249625
106	0x3d995bb1	0.07488192
107	0x3cb4433a	0.022004712
108	0xbd83c412	-0.06433882
109	0xbd8cc8f0	-0.06874263
110	0x3d5c5a2f	0.053796943
111	0x3c435e4b	0.011924337
112	0xbc0478b0	-0.008085415
113	0x3d2103e9	0.03931037
114	0x3b81d866	0.0039625643
115	0xbcee6b24	-0.029103823
116	0x3cefe75a	0.029285122
117	0x3d172a7f	0.03690576
118	0x3d8ae6ef	0.06782328
119	0x3e24de60	0.16100454
120	0x3c81a5a3	0.015826052
121	0x3cf641f4	0.030060746
122	0xbd14e58d	-0.03635173
123	0xbcbfeb3d	-0.0234276
124	0x3b5b07ec	0.003342147
125	0xbd8b0d2a	-0.0678962
126	0x3bc7d51f	0.006098404
127	0xbc7ae4c9	-0.015313336

model.6.weight f4 [5, 128]
0	0x3df345a2	0.11878516
1	0x3d30cc19	0.043163393
2	0xbc82cd3c	-0.015967004
3	0x3e0aa443	0.13539223
4	0x3d722df4	0.059125856
5	0x3d796009	0.060882602
6	0x3d36036c	0.044436857
7	0xbd085d41	-0.03329206
8	0x3d4528be	0.048134558
9	0x3da74fec	0.08169541
10	0xbcc400d0	-0.023926169
11	0x3d6027c0	0.05472541
12	0x3daa04ac	0.08301672
13	0xbcfc031b	-0.0307632
14	0x3cc8b5d3	0.024500763
15	0xbcaf9d9a	-0.021437455
16	0xbd39adcc	-0.04533176
17	0xbba76af2	-0.0051091844
18	0x3debf79f	0.11521839
19	0x3db100fb	0.08642765
20	0x3d0e3b07	0.03472426
21	0xbd225e76	-0.039640866
22	0xbd0b57a1	-0.034019116
23	0xbd13a0e5	-0.036042113
24	0xbc9988d3	-0.018742
25	0x3d9851de	0.0743749
26	0x3d24063e	0.040045016
27	0x3d8c4f30	0.06851041
28	0x3ddc9d87	0.107722335
29	0x3da69023	0.08132961
30	0xbd98e055	-0.07464663
31	0x3d0d61f3	0.03451724
32	0x3dae4fd7	0.08511322
33	0x3c3c3a51	0.011488513
34	0x3c2f20dd	0.010688988
35	0xbd2e20dd	-0.04251181
36	0x3df6e073	0.12054529
37	0x3d378daa	0.044812836
38	0x3db64580	0.08899975
39	0x3db44811	0.08802808
40	0xbd8063ca	-0.06269033
41	0x3e00170f	0.12508796
42	0x3d2ad818	0.04170999
43	0xbd40101b	-0.04689036
44	0x3d9f6ed7	0.07784813
45	0x3d9021ff	0.07037734
46	0x3c89f3c8	0.016839877
47	0x3c70fae1	0.014708252
48	0xbcff0131	-0.031128498
49	0x3d23cdf0	0.03999132
50	0x3d837d59	0.064203925
51	0x3ca694a0	0.020334542
52	0xbb00a241	-0.001962796
53	0x3be9cb09	0.0071347994
54	0x3d308c0c	0.04310231
55	0x3d731b51	0.059352223
56	0xbd92443c	-0.07141921
57	0xbcd47720	-0.02593571
58	0x3cede797	0.029041095
59	0xbcc842c6	-0.024445903
60	0x3ded1653	0.11576524
61	0x3df28bb1	0.1184305
62	0x3d01104e	0.03150969
63	0xbd610972	-0.05494065
64	0x3d047a98	0.032343477
65	0xbba6caf0	-0.00509011
66	0x3d955230	0.07291067
67	0xbd62bb3c	-0.055354342
68	0x3c97e6dd	0.018542701
69	0x3d7db5d4	0.061940983
70	0x3b86ecc3	0.0041175797
71	0xbc941043	-0.01807416
72	0x3ac2bd42	0.0014857429
73	0x3cf18560	0.029482543
74	0xbd7d282b	-0.061805885
75	0x3d1b25dd	0.037877906
76	0xbd1849a8	-0.03717962
77	0x3de3cd74	0.111231714
78	0x3df055ba	0.11735101
79	0xbb9a9787	-0.0047177705
80	0xbd699d0a	-0.05703453
81	0x3dc90e27	0.098171525
82	0x3e10c7ee	0.14138767
83	0x3d69ce3e	0.057081454
84	0x3c7f847f	0.015595554
85	0xbd940dfd	-0.072292306
86	0xbc7be8ba	-0.015375311
87	0x3d937fa0	0.07202077
88	0x3c08088e	0.008302821
89	0x3ded5958	0.115893066
90	0x3d807671	0.06272591
91	0x3bc5d5e9	0.006037463
92	0x3d97e779	0.07417197
93	0x3ccb4ccc	0.024816893
94	0x3c5a5160	0.013325065
95	0x3c031e04	0.008002762
96	0x3ca0d2fd	0.019631857
97	0x3d7f248f	0.062290724
98	0x3da9919d	0.08279727
99	0xbccb623b	-0.024827113
100	0x3d468f5c	0.048476562
101	0xba46f745	-0.00075899466
102	0xbc6c4daa	-0.014422813
103	0x3d263570	0.040578306
104	0xbd0495e0	-0.032369494
105	0x3cc3f36e	0.023919787
106	0x3c24bb6a	0.010054449
107	0xbaa050de	-0.0012231132
108	0x3d824b25	0.06361989
109	0x3d350a79	0.04419944
110	0xbd3c062d	-0.045904327
111	0x3da398a4	0.07988098
112	0x3d4da38e	0.050204806
113	0x3d2e52e3	0.042559516
114	0x3db51230	0.088413596
115	0x3dad57b5	0.084639944
116	0x3d8915cd	0.06693611
117	0x3e4efd3f	0.20213793
118	0x3dc2ca19	0.09511203
119	0x3e08d316	0.13361773
120	0x3cd9fb7a	0.026609171
121	0x3c69d879	0.0142728025
122	0xbce95319	-0.028482007
123	0x3d6eb06e	0.058273725
124	0xbadad508	-0.0016695568
125	0x3da0cf14	0.07851997
126	0x3d82ad43	0.06380703
127	0x3ccc36fd	0.024928564
128	0x3d95e2e3	0.07318666
129	0xbaefe7e2	-0.0018303359
130	0xbd559cfe	-0.052151673
131	0x3ddb8e04	0.10720447
132	0xbcaf2d22	-0.021383826
133	0xbe35327d	-0.17695041
134	0x3d0bbc48	0.034115106
135	0xbd81a528	-0.06330329
136	0x3cd52564	0.026018806
137	0x3d957a95	0.07298771
138	0x3d854f46	0.06509261
139	0xbe21614d	-0.15759774
140	0x3dadf2fc	0.08493611
141	0x3d48a285	0.048983116
142	0x3cbae123	0.022812432
143	0x3cf8c03c	0.030365102
144	0xbd807fd7	-0.062743835
145	0x3e0b7fe1	0.13623
146	0x3aa7eb75	0.001281126
147	0x3b33a43f	0.002741113
148	0x3d740645	0.05957629
149	0x3cc2b894	0.023769654
150	0xbd89b30c	-0.067236036
151	0xbc08a51d	-0.008340147
152	0xbd2fc040	-0.042907953
153	0x3dd8198d	0.105517484
154	0xbda2132d	-0.07913814
155	0x3e0b1a8d	0.13584347
156	0x3dcfebf1	0.10152424
157	0x3d50d442	0.050983675
158	0xbc7a0241	-0.015259326
159	0x3db45c15	0.08806626
160	0xbd84e307	-0.064886145
161	0x3cffaec7	0.03121127
162	0x3d7e3eab	0.062071484
163	0xbd906703	-0.07050898
164	0x3ca216ec	0.01978632
165	0xbae38979	-0.0017359696
166	0x3c0b11ed	0.008488161
167	0x3dd89121	0.10574556
168	0xbd7437dc	-0.059623584
169	0x3c508cb5	0.01272886
170	0xbd30fec0	-0.0432117
171	0x3d26319e	0.040574662
172	0x3dc76881	0.097367294
173	0x3de950b5	0.11392347
174	0x3d694343	0.05694891
175	0xbb911260	-0.0044272393
176	0xbd71eb1f	-0.05906212
177	0x3db3f4ef	0.08786952
178	0x3d431c44	0.047634378
179	0x3dd16c35	0.10225717
180	0x3ddaaf36	0.1067795
181	0x3da1bfc7	0.07897907
182	0xbd4d0210	-0.050050795
183	0x3c30a86e	0.010782344
184	0xbda7bf29	-0.08190758
185	0x3dada154	0.084780365
186	0x3ce8f6b3	0.028437948
187	0xbcf48d9e	-0.029852685
188	0x3de9b86c	0.11412129
189	0x3d4a54fd	0.049397457
190	0x3d1b617c	0.037934765
191	0x3d1e5fa2	0.03866542
192	0x3d729cfa	0.059231736
193	0xbb577134	-0.003287387
194	0xbb804821	-0.0039148484
195	0xbb2e62e6	-0.002660924
196	0xbd60e5a9	-0.05490652
197	0x3d2012f7	0.039080586
198	0x3d8f6090	0.0700084
199	0xbc96347b	-0.018335572
200	0xbd4f9fd0	-0.05068952
201	0xbca6c940	-0.020359635
202	0xbda7242b	-0.08161195
203	0xba6cba03	-0.00090304035
204	0x3d6d8502	0.057988174
205	0x3cd36154	0.025803246
206	0x3d9d3228	0.07675582
207	0xbcd325a3	-0.025774783
208	0xbd198e1b	-0.037489038
209	0x3ca97fda	0.020690847
210	0xbe16752c	-0.14693135
211	0x3d9bc846	0.076065585
212	0x3d984448	0.074348986
213	0xbd8b3241	-0.067966945
214	0xbd7b322c	-0.061327145
215	0xbe6a0b04	-0.22855765
216	0x388ae800	6.623566e-05
217	0x3cf2d84a	0.02964415
218	0x3b81be5d	0.0039594606
219	0x3d858aff	0.06520652
220	0xbdbc8bea	-0.09206374
221	0xbdabb978	-0.08384985
222	0xbcba485e	-0.022739585
223	0x3c51cd74	0.0128053315
224	0xbd40aea0	-0.047041535
225	0xbd36b568	-0.044606596
226	0x3d4f974d	0.0506814
227	0x3e0ad392	0.1355727
228	0x3ded7b46	0.11595778
229	0xbcfeea92	-0.031117711
230	0x3d3ff39e	0.04686319
231	0xbb4c4bdf	-0.0031173152
232	0xbda133d0	-0.078712106
233	0x3c8eba9d	0.017422969
234	0x3d886f09	0.06661803
235	0x3cd7c95d	0.026341135
236	0xbd8a9801	-0.06767274
237	0xbc5a29bb	-0.013315613
238	0xbda3d6bd	-0.079999425
239	0x3b80e4a9	0.0039335084
240	0xbd524bb2	-0.05134172
241	0xbc2aa56a	-0.010415414
242	0x3b5f82ce	0.0034105065
243	0xbd6b258b	-0.05740885
244	0x3dae38de	0.0850694
245	0xbcf052e7	-0.029336406
246	0x3c940380	0.018068075
247	0x3da6e68f	0.08149444
248	0x3d15b6d1	0.0365513
249	0x3e026faf	0.12737916
250	0x3d5df846	0.05419185
251	0xbc147ef1	-0.009063468
252	0x3db94158	0.090456665
253	0x382d8498	4.13699e-05
254	0x3daaf118	0.08346766
255	0xbc5f48e4	-0.013628218

model.6.bias f4 [5]
0	0x3cfbe57a	0.030749071
1	0x3c5f7218	0.013638042
2	0x3e1736c2	0.14766982
3	0xbc65a12a	-0.014015475
4	0x3e412dfc	0.18865198
