2021-22/PrimerSemestre/Reinforcement/PRA1/DQN.pth (torch, 715087 bytes, 8 tensors)

model.0.weight f4 [512, 25]
0	0xbe127bd7	-0.14305054
1	0x3dff1afe	0.1245632
2	0xbe0372bd	-0.12836738
3	0x3d0c32c2	0.034228094
4	0xbc79b06e	-0.015239818
5	0x3e304bd5	0.17216428
6	0x3cc2725a	0.023736168
7	0xbe78a9f2	-0.24283579
8	0xbd460f37	-0.048354354
9	0xbcc58c98	-0.024114892
10	0x3d0373b9	0.032092784
11	0xbe1bd372	-0.15217379
12	0x3ecec7a9	0.40386704
13	0xbe4196ff	-0.18905257
14	0x3eca8c4c	0.39560163
15	0xbd09229d	-0.033480275
16	0x3d0f83f8	0.035037965
17	0xbe14991c	-0.14511532
18	0x3de826c2	0.113355175
19	0x3d8e85db	0.06959125
20	0xbd68201f	-0.056671258
21	0xbd857ba9	-0.06517727
22	0xbd2a0486	-0.04150822
23	0x3d43fd35	0.0478489
24	0x3da860fb	0.082216226
25	0xbdbc2d95	-0.091883816
26	0xbdd05cc5	-0.101739444
27	0xbdddc124	-0.10827854
28	0x3ddde902	0.10835458
29	0xbdf96f9d	-0.12179492
30	0x3d9810fb	0.07425114
31	0xbdb8589f	-0.09001278
32	0xbc657437	-0.014004759
33	0xbe2f9594	-0.17146903
34	0xbe392b0d	-0.18082829
35	0x3dd0a867	0.1018837
36	0xbcab59a4	-0.020916767
37	0xbd56db3a	-0.052455164
38	0xbe1810de	-0.14850184
39	0x3cc7a2a8	0.024369553
40	0xbe3b21dc	-0.18274635
41	0xbe3a01b6	-0.18164715
42	0xbd705f23	-0.05868448
43	0x3d9f525c	0.07779381
44	0x3e18b033	0.14910965
45	0xbc214194	-0.009842295
46	0x3e295c3b	0.1653909
47	0xbd9a8cc9	-0.07546384
48	0xbd72c46a	-0.059269346
49	0xbdd07438	-0.10178417
50	0xbe49321e	-0.19648024
51	0x3d868aa4	0.06569412
52	0x3dc5b486	0.09653573
53	0xbde0c2b1	-0.109746344
54	0xbe9604b2	-0.29300457
55	0x3e2313b6	0.15925488
56	0xbec4dd64	-0.38450158
57	0x3e28fd5f	0.16502903
58	0x3cd64c43	0.026159411
59	0x3d497753	0.049186062
60	0x3d8bf50c	0.06833848
61	0x3d998246	0.07495551
62	0xbe3688a9	-0.17825569
63	0x3f05049f	0.51960176
64	0x3e96c62d	0.2944807
65	0xbe433e08	-0.19066632
66	0xbcee97bd	-0.029125089
67	0x3d8a6141	0.06756831
68	0x3eead1b0	0.45863104
69	0x3e44630a	0.19178405
70	0x3e1e01a2	0.1543031
71	0xbe7a7bad	-0.24461241
72	0x3e704dd5	0.2346719
73	0x3efd1115	0.49427095
74	0x3e5da7a1	0.21645977
75	0xbe2f9e98	-0.17150342
76	0xbd9ff18b	-0.078097425
77	0xbdc8f89f	-0.09813046
78	0x3d596722	0.05307687
79	0x3ea4ae1e	0.3216409
80	0x3e140a40	0.14457035
81	0xbe9ac513	-0.3022848
82	0x3e2b4ec2	0.16729262
83	0xbe738322	-0.23780492
84	0x3d2d4a96	0.04230746
85	0x3ca5a9ff	0.020222662
86	0xbfa60363	-1.2969784
87	0x3e57ec66	0.21086273
88	0xbd2c5f59	-0.042083118
89	0xbdf45f2b	-0.11932214
90	0xbe25f05c	-0.16204971
91	0x3dadf567	0.084940724
92	0x3e524f27	0.20538007
93	0xbc62a63e	-0.013833581
94	0xbe8fafe6	-0.28063887
95	0x3d393f82	0.04522658
96	0xbe2f4f8e	-0.17120191
97	0x3e31b267	0.17353211
98	0xbd485033	-0.04890461
99	0xbc6f9f86	-0.014625436
100	0xbd841edf	-0.06451201
101	0x3e0109df	0.12601422
102	0xbe6750b8	-0.22589386
103	0x3e1f30c1	0.15545942
104	0xbc5178bb	-0.012785132
105	0x3e1aee4b	0.15129964
106	0xbde847a8	-0.11341792
107	0xbda846b3	-0.0821661
108	0xbe83eb51	-0.2576547
109	0xbced55cc	-0.028971575
110	0xbd4802a2	-0.048830636
111	0x3d79fb17	0.061030474
112	0xbdd519c7	-0.10405307
113	0x3dcb0e6c	0.0991486
114	0xbe3fdf89	-0.18737616
115	0x3e28d527	0.16487561
116	0x3db91922	0.09037997
117	0x3dfd28e5	0.12361316
118	0xbe0d4919	-0.13797416
119	0xbd218eb5	-0.039442737
120	0xba1d2a7a	-0.0005995404
121	0x3e2452ea	0.16047254
122	0xbe16ab6a	-0.14713827
123	0x3db83449	0.089943476
124	0xbca81b86	-0.020520937
125	0x3cca2058	0.024673626
126	0xbd1c08a0	-0.038094163
127	0xbe109380	-0.14118767
128	0x3d5e7d5c	0.05431877
129	0x3df0b146	0.11752562
130	0xbda9b4da	-0.08286448
131	0xbbcae200	-0.006191492
132	0xbdf633e3	-0.12021615
133	0x3d9b504e	0.07583676
134	0x3bd2e440	0.006435901
135	0xbd5b8c48	-0.05360058
136	0xbd207978	-0.03917834
137	0x3dd2cfca	0.10293539
138	0xbe27cfae	-0.16387817
139	0x3b537f80	0.003227204
140	0xbd226520	-0.03964722
141	0xbe012666	-0.12612304
142	0xbdfa59ed	-0.12224183
143	0x3e1bf847	0.15231429
144	0x3e450781	0.19241144
145	0xbe429e1b	-0.19005625
146	0xbe3c5c12	-0.18394497
147	0xbdfb5d87	-0.12273698
148	0x3e380f71	0.1797464
149	0xbd853100	-0.06503487
150	0x3d7c133d	0.061541785
151	0x3dd12763	0.102125905
152	0xbd9a7b2f	-0.07543027
153	0xbe5bac76	-0.21452507
154	0xbe8f24d2	-0.2795778
155	0x3cce8e41	0.025214316
156	0x3ebaa1fd	0.36451712
157	0x3d03ea87	0.032206085
158	0x3eae4aa5	0.34041324
159	0x3ea0d347	0.31411192
160	0xbdb38e19	-0.08767337
161	0x3e5c661a	0.21523324
162	0x3ec4c251	0.38429502
163	0x3d7abc7e	0.061214916
164	0x3eb1dd0e	0.34738964
165	0xbe196dca	-0.14983287
166	0xbdd84c1a	-0.1056139
167	0xbd77f3b2	-0.06053514
168	0xbe2bd60a	-0.16780868
169	0x3e97b6a2	0.29631525
170	0x3e09ffde	0.13476512
171	0x3cfa8eab	0.030585608
172	0x3e0687d1	0.13137747
173	0xbd1d780d	-0.038444567
174	0x3e3b483a	0.18289271
175	0xbe574c02	-0.21025088
176	0xbe5dd5ed	-0.21663637
177	0x3de65f99	0.112487026
178	0xbc11cea5	-0.008899366
179	0x3e814bb6	0.25253075
180	0xbd442840	-0.047889948
181	0x3c34f5ed	0.011044961
182	0xbe083cd5	-0.13304456
183	0xbe2c70dd	-0.16839929
184	0xbea7991e	-0.32734007
185	0x3e0f606a	0.14001623
186	0x3e5de026	0.21667537
187	0xbd9d2a6e	-0.076741084
188	0xbe051426	-0.12995967
189	0xbdf2800f	-0.118408315
190	0x3de75823	0.112961076
191	0x3c1728fa	0.009226078
192	0xbd306f84	-0.0430751
193	0xbd59305c	-0.053024635
194	0xbe43f85b	-0.19137709
195	0x3e05de2e	0.13073036
196	0x3dc47427	0.09592467
197	0x3df64f50	0.120268464
198	0xbe6fb8dd	-0.23410363
199	0xbebee911	-0.3728719
200	0xbe3214ba	-0.17390719
201	0x3e0ed745	0.13949306
202	0xbc420c00	-0.011843681
203	0x3e16d54d	0.14729805
204	0xbc3b9eb0	-0.011451408
205	0xbd4f8ed8	-0.050673336
206	0x3d6ebe74	0.0582871
207	0xbd3fd254	-0.046831444
208	0xbbf7b4c0	-0.007559389
209	0xbd808f50	-0.06277335
210	0xbd023d28	-0.031796604
211	0xbd6c28a0	-0.05765593
212	0x3c9f0180	0.019409895
213	0x3d01eb40	0.031718493
214	0xb994f000	-0.00028407574
215	0x3d8a7ec6	0.06762461
216	0x3d8abef2	0.06774701
217	0xbd8ec994	-0.06972042
218	0x3db7d82a	0.08976777
219	0xbdc2afdd	-0.095061995
220	0xbe3db1c5	-0.18524845
221	0x3dbe7b0e	0.093008146
222	0x3b026000	0.0019893646
223	0xbe02dce2	-0.12779573
224	0x3d9e1eb2	0.077206984
225	0xbe32a65e	-0.17446277
226	0xbcd23d3c	-0.025663964
227	0xbe185af7	-0.1487845
228	0xbd1b5c2c	-0.0379297
229	0x3e36e878	0.17862117
230	0x3d8eedd8	0.06978959
231	0x3d5d981e	0.05410015
232	0xbde2c3f7	-0.110725336
233	0xbe3a3459	-0.18184032
234	0xbd688802	-0.056770332
235	0xbae646c4	-0.0017568697
236	0x3b827f39	0.0039824513
237	0xbd8ddadb	-0.06926509
238	0xbd0cca4c	-0.034372613
239	0x3e12f5e5	0.14351614
240	0x3cee20a9	0.029068308
241	0xbe45f5cc	-0.19332045
242	0xbe19c363	-0.1501594
243	0x3cd3050d	0.025759244
244	0x3e412d34	0.188649
245	0x3cf6ab6f	0.030111043
246	0x3c9f1410	0.019418746
247	0xbce3cdc6	-0.027808081
248	0x3de89c33	0.11357918
249	0x3e35c06b	0.17749183
250	0xbe1c616c	-0.15271538
251	0x3cfd0fac	0.030891262
252	0x3abdd41c	0.0014482769
253	0xbe50f723	-0.20406775
254	0x3db3db74	0.08782092
255	0x3db0cd7d	0.08632944

model.0.bias f4 [512]
0	0xbe05a04d	-0.13049431
1	0x3c9c1ce5	0.019056747
2	0xbcb8c0bb	-0.022552839
3	0x3c8137b5	0.015773633
4	0xbdff499d	-0.124652125
5	0xbe4a7443	-0.19770913
6	0xbe3c01e0	-0.1836009
7	0x3d3f4da8	0.04670492
8	0x3bc4b460	0.0060029477
9	0xbe26e154	-0.16296893
10	0xbcb8b852	-0.022548828
11	0xbc945077	-0.018104775
12	0xbd8f0f64	-0.069853574
13	0x3d5af95d	0.053460468
14	0x3c9b3a49	0.018948691
15	0x3d977524	0.0739539
16	0x3d1b84d4	0.03796847
17	0x3e2f440f	0.17115806
18	0xbd72235c	-0.059115753
19	0xbc8a2011	-0.016860994
20	0xbe476253	-0.19471101
21	0xbd4e43b4	-0.050357535
22	0x3e137773	0.14401035
23	0xbcadb050	-0.021202236
24	0x3de2948b	0.110634886
25	0x3e36c95f	0.17850254
26	0x3dbdae84	0.09261802
27	0xbe1882ad	-0.14893599
28	0xbdc9ec64	-0.09859541
29	0x3daf9342	0.08573009
30	0xbcebdd82	-0.028792147
31	0x3a627c9a	0.0008639783
32	0xbdb5067c	-0.088391274
33	0xbd574dd8	-0.052564472
34	0xbe657f59	-0.2241186
35	0xbe1cf84d	-0.15329094
36	0x3e235491	0.15950228
37	0x3d77436a	0.060367025
38	0xbe0a3acc	-0.13498992
39	0x3db6b731	0.0892166
40	0xbda8de0d	-0.08245478
41	0xbe09df74	-0.13464147
42	0xbe3ca8f2	-0.18423823
43	0xbd6cc7be	-0.057807676
44	0x3c99e628	0.018786505
45	0xbdc0d50b	-0.09415635
46	0x3d3903ec	0.045169756
47	0x3d7124b2	0.058872886
48	0xbd399fa8	-0.045318276
49	0xbe3f5754	-0.18685657
50	0xbd242808	-0.04007724
51	0xbd7a8df2	-0.061170526
52	0x3b87086a	0.004120876
53	0x3db31892	0.08744921
54	0xbe2ff318	-0.17182577
55	0xbe3681b8	-0.17822921
56	0x3d57c5fa	0.05267904
57	0xbe5f15e3	-0.21785693
58	0x3da7e7b2	0.08198489
59	0x3e113f21	0.14184238
60	0xbe06c92a	-0.13162675
61	0xbdcb960d	-0.09940729
62	0xbdf47cbe	-0.11937855
63	0x3e0f3899	0.13986434
64	0xbe1aa320	-0.1510129
65	0x3d0da5c0	0.0345819
66	0x3a8b6d80	0.0010637492
67	0xbe3139ff	-0.1730728
68	0x3d88ebde	0.06685613
69	0xbde3aa66	-0.11116485
70	0xbcbe8f55	-0.023261705
71	0x3ddca414	0.10773483
72	0x3d9ea28c	0.07745847
73	0xbe293c87	-0.16526996
74	0x3db50919	0.08839626
75	0x3e3c5165	0.18390425
76	0xbe1d759a	-0.15376893
77	0xbd98199c	-0.074267596
78	0xbd9a2ece	-0.075284585
79	0xbc3d484c	-0.011552881
80	0xbe660626	-0.22463283
81	0x3cd0259d	0.02540856
82	0x3e387ab4	0.18015558
83	0xbe260eea	-0.16216627
84	0xbcc1a970	-0.023640364
85	0x3d8f88b4	0.07008496
86	0xbce1b5be	-0.027552482
87	0xbe4c4bc2	-0.19950774
88	0x3dc6207d	0.096741654
89	0xbe1c1a6a	-0.15244451
90	0x3d2fd4e1	0.042927627
91	0xbe2680ab	-0.1626002
92	0x3c868580	0.01642108
93	0x3e044824	0.12918144
94	0xbdce15af	-0.100627296
95	0xbdd75cd1	-0.1051575
96	0xbd8aac26	-0.06771116
97	0x3de6afc0	0.112639904
98	0xbd3f2989	-0.04667047
99	0x3db9d8ab	0.09074529
100	0xbe0c5d68	-0.13707507
101	0xbe1e4c28	-0.15458739
102	0x3d3b377c	0.04570721
103	0xbe2bc3ed	-0.16773959
104	0xbc83fb5b	-0.016111067
105	0xbdf3de40	-0.11907625
106	0x3deda435	0.11603586
107	0x3b1ceb6a	0.0023944029
108	0xbe3dac31	-0.18522717
109	0xbd78cc00	-0.060741425
110	0xbe1a1326	-0.15046367
111	0x3e141c4f	0.14463924
112	0xbde6abc0	-0.112632275
113	0xbdb26ec3	-0.08712532
114	0x3ca75850	0.020427853
115	0xbda896a7	-0.0823186
116	0xbe0fe6ae	-0.14052841
117	0x3dec45ae	0.11536728
118	0xbe2e1245	-0.16999157
119	0xbe259e9e	-0.16173789
120	0xbe1aa993	-0.1510375
121	0xbdc85180	-0.0978117
122	0x3d176d76	0.036969624
123	0xbdcf318a	-0.10116871
124	0x3d174aa9	0.036936436
125	0x3deb18b7	0.11479323
126	0x3d28a259	0.04117045
127	0x3dffd6cc	0.12492141
128	0xbdd6d7fd	-0.10490415
129	0x3e30c0ac	0.17260998
130	0xbd0234e8	-0.031788737
131	0x3cd4680c	0.02592852
132	0xbd4331d8	-0.047654957
133	0x3e26e6b5	0.16298945
134	0xbe0fdbeb	-0.14048736
135	0xbc68c689	-0.014207491
136	0xbba2f208	-0.0049727
137	0xbc5a6b60	-0.013331264
138	0xbe442d96	-0.19158015
139	0xbdbb149c	-0.0913479
140	0xbe43bd95	-0.19115289
141	0x3c89c8a8	0.016819313
142	0x3b97b498	0.0046296827
143	0xbe3e9a3c	-0.18613523
144	0xbbcd0140	-0.0062562525
145	0x3de187d1	0.11012233
146	0xbdf153fd	-0.117835976
147	0x3dcf822c	0.1013225
148	0x3e0fe958	0.14053857
149	0x3d678cb8	0.056530684
150	0xbce1edb3	-0.027579164
151	0x3e2830a1	0.164248
152	0xbe46b0df	-0.19403408
153	0xbd98e912	-0.0746633
154	0xbe590aa0	-0.2119546
155	0x3dabe7a2	0.0839379
156	0x3e11a546	0.14223203
157	0x3d9be0fd	0.076112725
158	0xbcd7100a	-0.026252765
159	0xbe035946	-0.12827024
160	0xbe2ccf4d	-0.16875954
161	0xbe5964a8	-0.21229804
162	0xbd3d31ae	-0.046189956
163	0x3ddec1b9	0.108767934
164	0xbcb9639a	-0.022630502
165	0xbe033f06	-0.1281701
166	0xbca2a1e8	-0.019852594
167	0x3da8c432	0.08240546
168	0x3d77e068	0.060516745
169	0x3e11e50b	0.14247529
170	0xbe08c020	-0.1335454
171	0xbe02bf26	-0.1276823
172	0x3e0e188f	0.13876556
173	0xbc853e40	-0.016265035
174	0xbe3b214e	-0.18274423
175	0x3e0a3197	0.1349548
176	0x3c9936e7	0.018702937
177	0xbab75378	-0.0013986668
178	0x3d76b46a	0.06023065
179	0xbd953264	-0.07285002
180	0xbd958de0	-0.07302451
181	0xbb742a14	-0.0037256526
182	0xbc891037	-0.016731365
183	0xbc05efd0	-0.008174852
184	0x3e13da4d	0.14438744
185	0x3dedcb27	0.11611014
186	0xbdba2ad3	-0.09090199
187	0x3d2b0bd5	0.04175933
188	0xbcd4186f	-0.025890557
189	0xbd883821	-0.06651331
190	0xbe0e70a3	-0.13910155
191	0xbe2c49dd	-0.16825052
192	0xbdc985dd	-0.098399855
193	0x3d6f3064	0.05839576
194	0x3ca9223b	0.020646205
195	0xbe079559	-0.13240565
196	0x3d068f18	0.03285131
197	0x3d3d92d4	0.046282604
198	0xbd8838f1	-0.06651486
199	0x3e0326ce	0.12807772
200	0x3de5c684	0.112195045
201	0x3d526838	0.051368922
202	0x3d83d825	0.06437711
203	0x3e0a3d35	0.13499911
204	0xbe3692e2	-0.17829469
205	0xbc978001	-0.018493654
206	0xbe181d19	-0.1485485
207	0xbdf31630	-0.11869466
208	0xba61fa4a	-0.0008620365
209	0x3d8a6f76	0.06759541
210	0x3dcc3ef0	0.09972942
211	0x3d48a939	0.04898951
212	0xbd2278f7	-0.039666142
213	0xbbbeadf4	-0.0058190767
214	0x3e49a131	0.19690396
215	0xbda61d8f	-0.081111066
216	0x3e229710	0.15877938
217	0xbdeb4573	-0.11487856
218	0xbd330a91	-0.04371125
219	0x3c484ef6	0.012225857
220	0x3d4b6b14	0.049662665
221	0x3d7a77d4	0.061149433
222	0x3e2744c8	0.16334832
223	0x3e4dcccc	0.20097655
224	0xbc3c910e	-0.011509193
225	0x3e2ed00b	0.1707155
226	0x3dbe9274	0.093052775
227	0xbd584e3d	-0.05280899
228	0xbe4b4c9a	-0.1985344
229	0xbd1ceb48	-0.03831032
230	0xbde88f5d	-0.113554694
231	0xbe0dd05c	-0.13849014
232	0x3da1c68f	0.078992
233	0xbdf1bf9a	-0.11804123
234	0x3db5fc32	0.08885993
235	0x3e5398b7	0.20663725
236	0x3ca1bf6f	0.019744603
237	0x3b8b3120	0.0042477995
238	0x3e2eae09	0.17058577
239	0xbd60086f	-0.054695543
240	0x3dc94a68	0.09828645
241	0xbe271b74	-0.16319066
242	0x3dd07e04	0.101802856
243	0x3cbee4d2	0.02330247
244	0x3d2eb81e	0.042656057
245	0xbdb38b41	-0.08766795
246	0xbdf00b2c	-0.11720881
247	0x3da4634f	0.08026754
248	0x3d8f0d48	0.06984955
249	0x3e357354	0.17719775
250	0xbcb80dab	-0.022467455
251	0x3df4094e	0.11915837
252	0xbd39d90d	-0.04537301
253	0x3e17eacd	0.14835663
254	0x3d34e7f5	0.044166524
255	0xbe21b2be	-0.15790841

model.2.weight f4 [256, 512]
0	0xbd2ed3f8	-0.042682618
1	0x3a8f70c0	0.0010943636
2	0x3bf8adb6	0.0075890673
3	0x3d081381	0.033221725
4	0xbc007261	-0.00783977
5	0x3c803e10	0.015654594
6	0x3c673641	0.014112056
7	0x3a1740f4	0.00057698716
8	0x3c09b2c0	0.008404434
9	0xbb8ea460	-0.004353091
10	0x3be90aa7	0.0071118656
11	0x3cf959f0	0.030438393
12	0xbd33a5c3	-0.043859255
13	0xbd04eed5	-0.03245433
14	0xbd21ac70	-0.03947109
15	0x3ce6fbf2	0.028196309
16	0xbd358222	-0.044313557
17	0x3d059855	0.03261598
18	0x3c3dd6f6	0.011586895
19	0x3cfd9891	0.030956538
20	0x3d083ed7	0.033263054
21	0xbc57b3e4	-0.013165448
22	0xbd27f18f	-0.041001853
23	0xbc8bda32	-0.017071817
24	0x3cc7cef8	0.024390683
25	0xbcf84d91	-0.030310424
26	0x3bd6f0d6	0.0065594716
27	0xbbf04f93	-0.0073337047
28	0x3c91ca26	0.017796587
29	0xbca2437c	-0.01980757
30	0xbbe63f88	-0.0070266165
31	0x3c7ea390	0.015541926
32	0x3c8a20da	0.016861368
33	0xbb9fcf38	-0.0048769973
34	0x3b615faa	0.0034389296
35	0xbd0254a8	-0.031819016
36	0x3d100a22	0.035165913
37	0xbc4d6c06	-0.012537962
38	0x3cd3dbe6	0.025861692
39	0x3d11874c	0.03552942
40	0xbb4224f0	-0.0029624067
41	0x3d261dfb	0.040555935
42	0xbd47f961	-0.04882181
43	0xbc4815aa	-0.012212196
44	0xbc3ccffc	-0.011524197
45	0x3cee4466	0.02908535
46	0xbbfd5bb0	-0.0077318773
47	0xbca09076	-0.019600134
48	0x3d2590ed	0.040421415
49	0xba89eb20	-0.0010522343
50	0xbd1a97a8	-0.037742287
51	0x3d161745	0.036643285
52	0xbce200a6	-0.0275882
53	0x3bad9725	0.005297559
54	0xbc65cd34	-0.014025975
55	0xbd2c39ce	-0.042047314
56	0xbcef8155	-0.029236475
57	0xbcbff78a	-0.023433466
58	0xbccc9558	-0.024973556
59	0x3cd704ab	0.026247343
60	0xbbd7d4f8	-0.006586667
61	0xbd17c701	-0.03705502
62	0xbd4f3ba1	-0.050593976
63	0xbd3cd87e	-0.0461049
64	0x3d02d407	0.031940486
65	0x3ccc5bf6	0.024946194
66	0x3cf624da	0.03004687
67	0x3c6d3cc8	0.014479823
68	0x3c5a8404	0.013337139
69	0x3cd23554	0.025660194
70	0x3cda7a7d	0.026669735
71	0xbba4d8da	-0.0050307335
72	0x3d0cbad3	0.034357857
73	0xbcbd0b9a	-0.023076821
74	0xbccf0da1	-0.025275053
75	0xbbfa7b2f	-0.007644079
76	0x3ac635a0	0.0015122183
77	0xbb9a8cc8	-0.0047164895
78	0xbcaa9b03	-0.020825868
79	0xbd389c0b	-0.04507069
80	0x3c804e01	0.015662195
81	0x3cde2dc2	0.027121428
82	0x3ce071c4	0.027397998
83	0x3ca9b38a	0.020715494
84	0xbc8c236b	-0.017106732
85	0x3ce6f35e	0.028192218
86	0x3c0c875c	0.008577194
87	0xbcc52f9a	-0.02407055
88	0xbc9426fe	-0.018085
89	0x3d029ba7	0.031886723
90	0x3cf3e610	0.029772788
91	0xbc9cd59c	-0.019144826
92	0xbcfe4ecd	-0.031043435
93	0xbc822bda	-0.01589005
94	0xbcc2da8b	-0.02378585
95	0x3ca1c54a	0.019747395
96	0x3c3c7819	0.011503243
97	0x3ca50eb0	0.020148605
98	0xbd4439b6	-0.0479066
99	0xbc800501	-0.015627386
100	0x3bcc2860	0.006230399
101	0xbc499d76	-0.012305608
102	0x3ce104c7	0.027468098
103	0x3bb37d60	0.0054775923
104	0x3b1711b7	0.002305133
105	0x3cb0f1be	0.021599647
106	0x3cb3056e	0.021853175
107	0x3c8e15f6	0.017344456
108	0x3c77173a	0.015081221
109	0x3c8b5a17	0.017010732
110	0x3c9ac31e	0.018891867
111	0xbc9ac981	-0.018894913
112	0xbd1c37ff	-0.03813934
113	0xbd1164a8	-0.035496384
114	0xbd2b03f5	-0.04175182
115	0xbbc4ce7e	-0.006006061
116	0x3ccc41be	0.024933692
117	0x3d24414d	0.04010134
118	0xbd1b5623	-0.037923943
119	0xbcf1af8e	-0.029502656
120	0x3cb460b2	0.022018764
121	0xbd2a1e85	-0.041533012
122	0x3c0d4774	0.008622993
123	0x3ae6a1f1	0.001759587
124	0x3b462e0c	0.0030239848
125	0xba1a961f	-0.00058970036
126	0x3c920c17	0.01782803
127	0xbcd993ce	-0.026559737
128	0xbca494ae	-0.020090427
129	0x3d141536	0.03615304
130	0x3c12f3c4	0.008969251
131	0x3d0b2e4d	0.033979703
132	0x3c52cff0	0.012866959
133	0x3d143c61	0.036190394
134	0x3cfe7ac6	0.031064402
135	0xbd5321e9	-0.05154601
136	0xbc6091c7	-0.013706631
137	0xbd2971ec	-0.04136841
138	0xbcae649d	-0.02128821
139	0xbd135130	-0.0359661
140	0xbd25644a	-0.040378846
141	0x3d344f31	0.044020835
142	0xbc9422b5	-0.018082956
143	0xbbf1374f	-0.0073613296
144	0x3aa0b6e0	0.0012261532
145	0xbbe094b1	-0.006853663
146	0xbcc68533	-0.024233436
147	0xbd3d88ca	-0.04627303
148	0x3b4dc3c7	0.003139721
149	0xbb07db7a	-0.0020730183
150	0xbbc0d1ad	-0.0058843703
151	0xbb7c38f0	-0.0038486086
152	0x3cd7d102	0.02634478
153	0xbbce19bb	-0.0062896884
154	0xbc270e90	-0.010196343
155	0x3c8cec3e	0.017202493
156	0x3c264d9b	0.0101503385
157	0xbc6e515a	-0.014545763
158	0x3ba755dc	0.005106671
159	0xbd2009a4	-0.039071694
160	0xbd16608a	-0.03671316
161	0xbd4d089d	-0.050057042
162	0xbd3624df	-0.044468757
163	0xbcc988a5	-0.02460129
164	0x3cd7c2af	0.02633795
165	0xbd4744cb	-0.04864959
166	0x3c7ca0c8	0.015419193
167	0x39fa5680	0.00047748163
168	0x3d0b9dd2	0.034086056
169	0xbcbf3a8c	-0.023343347
170	0x3d036194	0.03207548
171	0xbcc551e0	-0.024086893
172	0xbccda48d	-0.025102878
173	0x3c72e294	0.014824528
174	0x3bdd5851	0.006754913
175	0xbcfe82bd	-0.0310682
176	0xbcabbbe9	-0.020963626
177	0xbca75197	-0.020424647
178	0xbca0829b	-0.019593528
179	0x3d12983c	0.035789713
180	0xbcfa7d3a	-0.03057729
181	0x3ce1b595	0.027552405
182	0x3c1de015	0.009635945
183	0x3cc2bb52	0.023770962
184	0xbcec5d16	-0.02885298
185	0xbcdee55d	-0.027208978
186	0xbd2024cd	-0.039097596
187	0xbcd109d2	-0.025517378
188	0x3bf60c42	0.0075087855
189	0x3c390a56	0.011293968
190	0xba84b4bf	-0.0010124667
191	0x3b77b680	0.0037797987
192	0x3c7b1484	0.0153247155
193	0x3d2c87f5	0.042121846
194	0xbbc46a4b	-0.0059941164
195	0x3b8d6cd0	0.00431595
196	0x3d093c49	0.033504758
197	0xbd3adfac	-0.045623466
198	0x3c932376	0.017961245
199	0xbc867236	-0.016411882
200	0x3c222afd	0.0098979445
201	0x3c05b971	0.008161888
202	0xbc151711	-0.009099738
203	0x3c3c9fed	0.011512739
204	0xbd21bfe4	-0.03948964
205	0xbc219a30	-0.009863421
206	0xbc1fc690	-0.009751931
207	0xbbe4ed48	-0.006986294
208	0x3ce40e51	0.027838858
209	0x3d0a85a3	0.033818852
210	0x3bb1cfb7	0.005426373
211	0xbab23426	-0.0013595864
212	0xbcbcd1fa	-0.023049343
213	0xbd4bb179	-0.049729798
214	0xbcc6b787	-0.024257435
215	0xbb478eb6	-0.0030450053
216	0xbc742737	-0.014901928
217	0x3cf8df52	0.030379925
218	0xbca7cadf	-0.020482479
219	0xbcda30e0	-0.026634634
220	0x3d17ce55	0.037062008
221	0xbc2872a4	-0.010281239
222	0x3c866839	0.01640712
223	0x3cad7533	0.021174049
224	0xbd3f84d7	-0.046757545
225	0xbd1eb672	-0.038748212
226	0x3c43b3d8	0.011944734
227	0x3c789fcd	0.015174818
228	0x3ce3bdae	0.027800407
229	0x3c8c739e	0.017144974
230	0xbcb7a568	-0.022417739
231	0xbc3f7feb	-0.011688213
232	0x3c1dd7a6	0.009633934
233	0x3c81fb7e	0.015866991
234	0x3c405df0	0.011741146
235	0x3cb5bc75	0.02218459
236	0xbd33c14c	-0.043885514
237	0x3d19f877	0.03759047
238	0xbccffe31	-0.025389763
239	0xbc65bc83	-0.0140219955
240	0x3c03a15c	0.008034077
241	0x3c79c2f2	0.0152442325
242	0xbb805acb	-0.0039170734
243	0x3cee5d57	0.029097242
244	0xbc825989	-0.015911834
245	0xbc9bf929	-0.019039707
246	0x3c1da900	0.009622812
247	0xbb986f4f	-0.004651941
248	0xbd2197f9	-0.039451573
249	0xbc815158	-0.015785858
250	0x3c2fe8c5	0.010736649
251	0xbd0de0a5	-0.034638066
252	0xbc231b97	-0.009955308
253	0xbc8ff11a	-0.01757102
254	0x3ca6ae73	0.020346856
255	0xbcbec32c	-0.023286425

model.2.bias f4 [256]
0	0x3cdde6f8	0.027087674
1	0x3ccedaf7	0.025250895
2	0xbd801f7a	-0.06256004
3	0xbcb38aaa	-0.021916706
4	0x3c95ffdd	0.018310482
5	0xbd18274a	-0.037146844
6	0xbcda6f7d	-0.02666449
7	0xbd7a7e89	-0.06115583
8	0xbd2332ca	-0.039843358
9	0x3cd03cba	0.025419582
10	0xbd15da78	-0.0365853
11	0x3c984803	0.018589025
12	0x3b99d1e8	0.004694212
13	0xbd083f28	-0.033263355
14	0xbd06f2a9	-0.032946263
15	0xbc81325e	-0.015771087
16	0x3d04b396	0.03239783
17	0x3d3629f8	0.04447362
18	0xbcc6c8b3	-0.024265623
19	0x3cfdbbd4	0.030973352
20	0xbba36a71	-0.004987054
21	0x3c5f21d6	0.013618907
22	0xb9a13aa8	-0.00030752015
23	0xbd1af92f	-0.037835296
24	0xbc130dad	-0.0089754285
25	0xbd51174b	-0.051047605
26	0x3d06322a	0.032762684
27	0xbcf97b54	-0.030454315
28	0xbc790622	-0.015199216
29	0xbd2bddfa	-0.04195974
30	0xbd66f1c5	-0.056382913
31	0xbd586a09	-0.052835498
32	0x3b53d4b8	0.0032322835
33	0x3d5bb0c8	0.05363539
34	0xbd22f90c	-0.03978829
35	0x3bbfdfef	0.0058555524
36	0x3d8fc8ff	0.07020759
37	0x3d925f61	0.07147098
38	0x3c20af6d	0.00980745
39	0xbd1a6ef7	-0.03770348
40	0xbb88cfc3	-0.0041751578
41	0x3d40a4a3	0.04703201
42	0x3d32cddd	0.043653358
43	0x3cf52cb7	0.029928548
44	0x3c2ce426	0.010552442
45	0xbd11e0f6	-0.03561493
46	0xbd3a7f09	-0.045531306
47	0xbd976514	-0.07392326
48	0xbd134114	-0.035950735
49	0xbb822aa5	-0.003972369
50	0x3d04f4c5	0.032459993
51	0xbcce4200	-0.025177956
52	0x3bf4f3cf	0.0074753533
53	0xbd4b8d6e	-0.049695425
54	0x3d250c9d	0.040295232
55	0x3d9e3237	0.077244215
56	0x3b9ffb33	0.00488224
57	0xbd03c787	-0.032172706
58	0xbccd083a	-0.025028337
59	0x3d8a7474	0.06760493
60	0x3c9433a8	0.018091038
61	0x3cc24374	0.023713805
62	0x3d68635c	0.05673538
63	0xbd03d60d	-0.032186557
64	0xbc0cc5f2	-0.008592116
65	0x3c7368bf	0.014856516
66	0x3d3e37e9	0.04644004
67	0x3d2e6ab8	0.042582244
68	0x3d2ca06c	0.042145178
69	0x3cf6945c	0.03010004
70	0xbd13f94e	-0.036126427
71	0x3c7a32cc	0.0152709
72	0xbc431e62	-0.011909099
73	0xbdcd9565	-0.1003826
74	0x3e0495df	0.12947796
75	0xbd566aeb	-0.05234806
76	0xbcda7c55	-0.026670614
77	0x3c8c26cb	0.017108342
78	0xbc270113	-0.010193127
79	0x3d110446	0.035404466
80	0x3c49505c	0.012287226
81	0xbd38b7be	-0.045097105
82	0xbd178f3a	-0.037001826
83	0xb8e027d1	-0.00010688569
84	0x3cc088a5	0.023502657
85	0xbd02345f	-0.031788226
86	0xbc2d7008	-0.010585792
87	0x3ca319f1	0.01990983
88	0x3bf38dba	0.0074326666
89	0x3c855498	0.016275689
90	0x3d0c004d	0.034179974
91	0xbd82b0a8	-0.06381351
92	0xbc41dabd	-0.011831936
93	0x3cb18e55	0.021674315
94	0xbc58318c	-0.013195407
95	0x3cca89a4	0.024723835
96	0xbd22baa3	-0.039728772
97	0xbce106e2	-0.027469102
98	0xbd65865e	-0.056036346
99	0xbca4ca7a	-0.02011608
100	0x3ceea1fa	0.02912997
101	0xbca0fef5	-0.019652823
102	0xbbc4e923	-0.0060092374
103	0xbcc96051	-0.02458206
104	0xbd5f5c7e	-0.054531567
105	0x3d141191	0.036149565
106	0xbcd3dd34	-0.025862314
107	0x3ca89835	0.02058039
108	0x3c91b840	0.017788053
109	0x3cd521c3	0.026017075
110	0xbd82bf0e	-0.06384097
111	0xbca48576	-0.02008317
112	0x3902dfa9	0.00012481086
113	0xbb9638a8	-0.0045843907
114	0x3c8f16f7	0.017467005
115	0xbcb9203d	-0.02259838
116	0x3cc4b681	0.024012806
117	0x3d84d44a	0.064858034
118	0x3d1b7fe7	0.037963774
119	0xbdbdc12a	-0.09265359
120	0x3cd2700e	0.025688197
121	0xbd1f452c	-0.038884327
122	0x3dbcd820	0.0922091
123	0x3c7e7a14	0.015532035
124	0xbd196f10	-0.037459433
125	0xbcac0d02	-0.021002296
126	0x3b20f7d0	0.002456177
127	0xbc70f3b1	-0.014706538
128	0xbcb86144	-0.022507317
129	0x3ca040f4	0.019562222
130	0x3be3ae71	0.0069482853
131	0x3d9e3f1a	0.077268794
132	0x3d882b65	0.06648902
133	0xbd9b3431	-0.07578314
134	0x3c3c5b5e	0.011496393
135	0x3daaceb2	0.08340205
136	0x3caaf900	0.020870686
137	0xbc30a002	-0.010780336
138	0x3c8ffa92	0.017575536
139	0xbcc813c3	-0.024423486
140	0x3ca6e1f6	0.020371418
141	0xbb86b569	-0.0041109812
142	0xbb6fba40	-0.003657952
143	0xbc8d9cf4	-0.017286755
144	0xbd2dfe71	-0.042478982
145	0xbc62b5ee	-0.013837321
146	0x3b986315	0.0046504834
147	0x3a984beb	0.0011619305
148	0xbcdb1a8e	-0.02674606
149	0x3c68c8b2	0.014208006
150	0xbc2e3464	-0.010632608
151	0x39cb568c	0.0003878366
152	0xbd0ade01	-0.033903126
153	0xbbfdc60d	-0.0077445568
154	0xbcacb859	-0.021083998
155	0x3d85fe5d	0.065426566
156	0x3d98b41d	0.07456229
157	0x3ca201a1	0.019776167
158	0xbd41c287	-0.047304656
159	0x3c99cb7b	0.018773785
160	0x3c2dc24f	0.010605409
161	0xbcda150a	-0.02662136
162	0x3c80d4dc	0.0157265
163	0xbcaeb940	-0.021328568
164	0xbd1bdedc	-0.038054332
165	0x3d081a32	0.033228107
166	0xbd0c6ec1	-0.03428531
167	0xbc429b65	-0.011877869
168	0x3cd6d960	0.0262267
169	0xbbbc8cec	-0.005754104
170	0x3bd67876	0.006545122
171	0xbd8d401a	-0.06896992
172	0x3c6f04a0	0.014588505
173	0x3d166a67	0.036722567
174	0xbcddb628	-0.027064398
175	0x3db33900	0.08751106
176	0x3cd65376	0.026162844
177	0xbc309c2c	-0.010779422
178	0xbb28757d	-0.0025704794
179	0x3d72dbca	0.05929164
180	0x3d2f9e75	0.042875726
181	0x3c3bb3f7	0.011456481
182	0xbd88bae8	-0.066762745
183	0x3b8a3342	0.004217536
184	0x3cc1f8d2	0.023678217
185	0x3d846277	0.06464093
186	0xbc78177b	-0.015142317
187	0xbc7cbc28	-0.015425719
188	0x3c076201	0.008263112
189	0x3dac417e	0.08410929
190	0xbbd7dcab	-0.006587585
191	0xbca187c2	-0.019718055
192	0xbd38002f	-0.04492205
193	0xbc4548b6	-0.012041261
194	0xb8f0b17c	-0.00011477151
195	0x3d9fdeb7	0.07806151
196	0xbd3a2c2a	-0.045452274
197	0x3bff3748	0.0077885725
198	0xbd11c211	-0.035585467
199	0xbd2bd381	-0.041949753
200	0x3d6f6438	0.058445185
201	0x3dbb93b4	0.091590315
202	0x3da2efe4	0.07955912
203	0xbd09198a	-0.03347162
204	0xbc811900	-0.015758991
205	0xbd54c599	-0.051946256
206	0x3d965582	0.07340528
207	0xbcebcee1	-0.028785171
208	0x3cb421bc	0.021988742
209	0x3d0d90cf	0.03456193
210	0x3d86bda3	0.06579139
211	0xbbb06b92	-0.005383917
212	0x3bbd3a5f	0.0057747806
213	0xbd0be365	-0.034152407
214	0x3c08b943	0.008344951
215	0xba1e543c	-0.00060397736
216	0xbb5852e6	-0.0033008396
217	0xbd0770da	-0.033066608
218	0xbcaba216	-0.020951312
219	0x3d674ce9	0.05646983
220	0x3cc29488	0.023752466
221	0xbd02f2f2	-0.031969972
222	0xbd20a2c4	-0.039217725
223	0x3c88fb56	0.016721409
224	0xbd41250e	-0.04715448
225	0x3d0bc71c	0.034125432
226	0xbafd6fbb	-0.0019335666
227	0x3d023385	0.031787414
228	0x3cc129ea	0.023579556
229	0x3d0a57b8	0.03377506
230	0xbd07902d	-0.03309648
231	0x3c8335f9	0.016016947
232	0xbd2d7fc2	-0.042358167
233	0xbc05e193	-0.008171457
234	0xbd02f5bb	-0.031972628
235	0x3dbf0ffa	0.09329219
236	0xbbb1b177	-0.005422767
237	0x3cbecdf9	0.023291575
238	0x3c9a29e2	0.0188188
239	0x3d028e5a	0.03187404
240	0x3ccf988c	0.025341295
241	0x3c8197de	0.015819486
242	0xbc57076c	-0.013124328
243	0xbaf0e400	-0.0018378496
244	0xbd217bf4	-0.03942485
245	0xb81e77dc	-3.7781763e-05
246	0x3db1f807	0.086898856
247	0x3d95767c	0.0729799
248	0xbcd16fae	-0.025565948
249	0xbcb9e4a3	-0.02269203
250	0x3cb6e90c	0.022327922
251	0x3dd57405	0.104225196
252	0x3c35e592	0.011102097
253	0x3cc9d0e3	0.024635738
254	0x3c0f1dd0	0.008735135
255	0xbcd37bf9	-0.02581595

model.4.weight f4 [128, 256]
0	0xbcea6148	-0.02861084
1	0xbbf5e472	-0.0075040394
2	0xbcb90785	-0.022586593
3	0x3d8be9e5	0.06831721
4	0x3d3f14fa	0.046650864
5	0xbc924242	-0.01785386
6	0xbd42f76d	-0.047599245
7	0x3d1ec126	0.03875842
8	0xbd37710a	-0.044785537
9	0xbd4fab3d	-0.050700415
10	0x3cbe55be	0.023234244
11	0xbd3ac86c	-0.045601293
12	0x3d497eec	0.049193308
13	0xbc1db320	-0.009625226
14	0xbd0006b6	-0.0312564
15	0x3d90db82	0.07073118
16	0xbd00b8af	-0.031426128
17	0x3b223dd6	0.0024756095
18	0xbce9692c	-0.028492533
19	0xbd82d904	-0.06389049
20	0x3d74128c	0.059588
21	0xbc08d32e	-0.00835113
22	0x3cae5bf3	0.02128408
23	0xbd01b566	-0.031667136
24	0xbdb7bc46	-0.08971457
25	0x3c9e0cf8	0.019293293
26	0x3d5082cd	0.05090599
27	0xbd741116	-0.059586607
28	0x3d33db6e	0.043910436
29	0x3c62f05e	0.013851253
30	0x3d0116b2	0.031515785
31	0x3d2bb3d9	0.041919563
32	0xbd184870	-0.037178457
33	0xbcd7f5dc	-0.026362352
34	0x3cb19485	0.021677265
35	0x3c955124	0.018227167
36	0x3e380c34	0.17973405
37	0x3d935369	0.071936436
38	0xbd2c9321	-0.0421325
39	0xbbb06bcf	-0.0053839455
40	0x3c84ff60	0.016235054
41	0x3c8dc7b0	0.017307132
42	0x3d38d4d4	0.045124844
43	0x3d05818a	0.03259424
44	0xbd5709bd	-0.05249952
45	0xbc8b4c30	-0.017004102
46	0x3d5fae14	0.054609373
47	0x3d747b8b	0.059688132
48	0x3d493ca2	0.04913009
49	0x3d21f19a	0.03953705
50	0x3c378339	0.0112007195
51	0x3d720cf9	0.059094403
52	0x3cd863cb	0.026414772
53	0xbd09287c	-0.033485875
54	0x3d59c013	0.053161692
55	0x3d0dddb5	0.034635264
56	0x3d0240fe	0.031800263
57	0xbd293e63	-0.041319262
58	0x3ce1bad4	0.027554907
59	0x3d4428fe	0.047890656
60	0x3d4749fa	0.048654534
61	0xbcc2513e	-0.02372038
62	0xbb29e1fc	-0.002592205
63	0x3cf86019	0.03031926
64	0x3d810fa9	0.06301815
65	0xbbcb9e71	-0.006213956
66	0xbc7efe5f	-0.0155635765
67	0xbe48bce5	-0.19603308
68	0xbc53a0a0	-0.012916714
69	0x3ceaad7e	0.02864718
70	0xbd487257	-0.048937168
71	0xbddd6917	-0.1081106
72	0xbd685d8c	-0.05672984
73	0xbe663b4d	-0.22483559
74	0x3d0dadb4	0.034589484
75	0x3d620d5d	0.055188525
76	0x3caf9420	0.021432936
77	0x3b834483	0.00400597
78	0xbc9888c5	-0.018619904
79	0xbd557ef3	-0.05212302
80	0xbd5182bb	-0.051150065
81	0xbc09474a	-0.008378813
82	0x3c713dfe	0.014724253
83	0x3d8a55d7	0.06754654
84	0x3d7c32aa	0.061571755
85	0x3d0873d1	0.033313576
86	0x3d519b78	0.051173657
87	0xbd92050e	-0.0712987
88	0x3d18908c	0.037247226
89	0x3d32bbcb	0.043636125
90	0x3a8342df	0.0010014436
91	0xbba149a0	-0.004922107
92	0x3d9f6789	0.0778342
93	0x3d7755a9	0.060384426
94	0x3d6fefb4	0.058578208
95	0x3d6f29ec	0.05838959
96	0x3b409f80	0.0029391944
97	0xbd2793c9	-0.040912423
98	0xbd5ee877	-0.054420915
99	0x3bc719cf	0.0060760747
100	0xbd708641	-0.058721785
101	0xbd9fc3d6	-0.078010246
102	0x3bc651c5	0.006052228
103	0xbc9e5d8f	-0.019331722
104	0x3d1aa549	0.037755284
105	0xbd307516	-0.04308041
106	0x3cf75add	0.030194694
107	0x3d850162	0.064944044
108	0x3d8a683b	0.06758162
109	0x3cc2db5e	0.023786243
110	0x3d814f14	0.06313911
111	0xbc3ae55d	-0.0114072235
112	0xbba68be8	-0.005082596
113	0x3d1b91ba	0.037980773
114	0xbc991090	-0.018684655
115	0x3bbf5844	0.0058393795
116	0xbd3639f5	-0.044488866
117	0xbd62d9f0	-0.055383623
118	0x3cd82c5d	0.026388342
119	0xbda0c121	-0.078493364
120	0xbce6098a	-0.02808072
121	0xbd1740d8	-0.036927074
122	0x3d7b315c	0.06132637
123	0x3d395791	0.045249525
124	0xbe8593ab	-0.26089224
125	0x3d00d4f5	0.03145309
126	0x3d978566	0.073984906
127	0xbc3c09f8	-0.011476986
128	0x3d85734a	0.0651613
129	0xbbd9ca6e	-0.006646446
130	0x3d901f86	0.070372626
131	0x3d4f7b3f	0.050654646
132	0x3cbc1f91	0.02296427
133	0x3d03c109	0.032166515
134	0x3c917fca	0.01776113
135	0xbd354eec	-0.04426472
136	0x3d18aa7c	0.03727196
137	0xbd28792b	-0.04113118
138	0x3d34eb06	0.04416945
139	0x3ced670e	0.028979804
140	0xbd8f543b	-0.069984876
141	0xbda8c8ab	-0.082413994
142	0xbd68f7cc	-0.056876943
143	0x3b3ee96b	0.0029130827
144	0xbd5f3890	-0.0544973
145	0xbd73465e	-0.05939328
146	0x3a467eec	0.00075720134
147	0xbc2af3a7	-0.010434068
148	0x3c30da6b	0.010794262
149	0x3ca27015	0.019828836
150	0x3957de22	0.00020586749
151	0x3d776fae	0.06040924
152	0xbd218e3a	-0.03944228
153	0xbd42d9cd	-0.047570992
154	0xbc771ef2	-0.0150830615
155	0x3ce1bb53	0.027555143
156	0x3d083c55	0.033260662
157	0x3d2aad63	0.04166926
158	0xbc5fc880	-0.013658643
159	0x3c9ee2b7	0.019395215
160	0xbd3c688b	-0.045998137
161	0xbc324482	-0.010880591
162	0x3d49cda2	0.049268372
163	0xbcc12776	-0.023578387
164	0x3c056569	0.008141854
165	0xbcd1a98c	-0.025593542
166	0x3d20a2fc	0.039217934
167	0xbc9784e3	-0.018495983
168	0xbd282c7e	-0.041058056
169	0x3d44506c	0.04792826
170	0xbd5d7e5f	-0.054075595
171	0xbc98e120	-0.018662035
172	0x3c1abf5f	0.0094450405
173	0x3d8506ae	0.06495415
174	0xbd18db1b	-0.03731833
175	0x3dd514c2	0.1040435
176	0xbdd31bf7	-0.10308068
177	0xbd845bac	-0.064627975
178	0x3e32bf88	0.17455876
179	0xbca8e73f	-0.02061808
180	0xbca0a909	-0.019611852
181	0xbd568317	-0.05237111
182	0xbcdd12dc	-0.026986532
183	0x3c975681	0.018473865
184	0x3d0326a0	0.032019258
185	0xbcce83af	-0.025209276
186	0xbd4cd106	-0.050004028
187	0xbced8e3c	-0.028998487
188	0x3d1ebb91	0.038753096
189	0x3d856178	0.06512731
190	0x3cd11213	0.025521314
191	0x3bfb9500	0.0076776743
192	0xbd2e3b71	-0.042537156
193	0xbd60178c	-0.054709956
194	0x3cdb61d0	0.02678004
195	0xbe0bed46	-0.13664731
196	0xbc7abc7e	-0.015303729
197	0xbc2e17d0	-0.0106257945
198	0xbbc66ad4	-0.0060552154
199	0xbd1e253c	-0.03860973
200	0x3d8e3efb	0.06945606
201	0xbcffa715	-0.0312076
202	0x3d54c91e	0.051949613
203	0xbd1e5c84	-0.03866245
204	0x3d5d1e04	0.053983703
205	0x3d7808a9	0.060555134
206	0xbd8a3d6f	-0.06749999
207	0xbd210c29	-0.039318237
208	0x3cae1063	0.021248048
209	0xbc798228	-0.015228786
210	0x3d6ebc22	0.058284886
211	0xbd6cd0c2	-0.057816274
212	0xbd3fb784	-0.046805874
213	0xbaeb27db	-0.0017940955
214	0x3cc9a2c7	0.024613751
215	0x3c9ce6dc	0.019153051
216	0x3d292b64	0.041301146
217	0x3d14d4de	0.03633582
218	0xbd6b4d99	-0.05744705
219	0x3d5258c2	0.051354177
220	0xbc902aa1	-0.017598452
221	0xbc3cdfb5	-0.011527945
222	0xbd42b814	-0.04753883
223	0x3d053e31	0.032530013
224	0x3b850716	0.0040596826
225	0xbc0577df	-0.008146255
226	0xbdd225fd	-0.10261152
227	0xbc8d2aeb	-0.017232379
228	0xbd1001ef	-0.035158094
229	0x3d663df5	0.05621143
230	0x3c46c898	0.012132786
231	0x3c5aba95	0.013350149
232	0xbcfc0c1c	-0.030767493
233	0xbd20120b	-0.039079707
234	0x3c8f4666	0.017489623
235	0x3d33b82a	0.043876804
236	0xbd5a6312	-0.053317137
237	0x3d37e683	0.044897567
238	0xbd3c9388	-0.046039134
239	0xbcfea5cf	-0.031084923
240	0xbd5831bb	-0.0527818
241	0x3b955cb0	0.0045581684
242	0xbb11e06d	-0.0022259012
243	0x3d71abbe	0.059001677
244	0xbd66b562	-0.056325324
245	0xbd60f112	-0.054917403
246	0x3c1c8149	0.009552308
247	0xbc2e41cd	-0.010635805
248	0xbd1ea5ba	-0.038732268
249	0x3d107879	0.03527114
250	0x3bb581c9	0.0055391532
251	0x3b93264b	0.004490649
252	0xbb4f5100	-0.0031633973
253	0xbc87d13b	-0.016579261
254	0xbbd4acb8	-0.0064903162
255	0xbd53097c	-0.051522717

model.4.bias f4 [128]
0	0x3d197fef	0.037475523
1	0x3d828432	0.063728705
2	0xbd95fe1b	-0.073238574
3	0x3cc10dff	0.023566244
4	0xbd0cb757	-0.034354534
5	0xbd55a5fd	-0.052160252
6	0xbc78c6f2	-0.015184151
7	0x3d26dcc5	0.040737886
8	0xbb9c4d65	-0.0047699683
9	0xbd6df7f3	-0.05809779
10	0x3d8448e9	0.06459219
11	0xbc1a2810	-0.009408966
12	0x3e075d5b	0.13219206
13	0x3c0db378	0.008648746
14	0xbb5ac632	-0.0033382294
15	0xbd35284f	-0.044227894
16	0x3d366afe	0.04453563
17	0x3e077cfb	0.1323127
18	0xbd9b78a5	-0.075913705
19	0xbcd0d444	-0.025491841
20	0xbb4cc84d	-0.0031247318
21	0x3c94c337	0.018159492
22	0xbc99a7cc	-0.01875677
23	0xbc11d7c3	-0.008901539
24	0xbd7bc5a1	-0.06146777
25	0x3d757491	0.05992562
26	0x3cd5e385	0.026109466
27	0xbd917ac3	-0.07103493
28	0x3d7b3a18	0.0613347
29	0x3df97d72	0.1218213
30	0x3e1c260f	0.15248893
31	0x3d7fd0bf	0.062454935
32	0x3cafcc83	0.021459823
33	0x3d46ef6e	0.04856818
34	0x3df2a818	0.118484676
35	0xbd0949ea	-0.033517756
36	0xbd60149b	-0.05470715
37	0xbd710c92	-0.05884988
38	0x3b1cff3e	0.0023955847
39	0x3e260653	0.1621335
40	0xbcb7e69b	-0.022448828
41	0xbd85cce6	-0.06533222
42	0xbd8e95b0	-0.069621444
43	0xbd9bb58a	-0.07602985
44	0xbd4e303c	-0.05033897
45	0x3e1184e7	0.14210854
46	0x3c90eff8	0.017692551
47	0x3df1d5e8	0.118083775
48	0x3de6f620	0.11277413
49	0x3d3c5ad4	0.045985058
50	0x3ce95d44	0.028486855
51	0xbd0b639a	-0.034030534
52	0xbcc1e1ba	-0.023667205
53	0x3d43757a	0.047719456
54	0xbd77e38a	-0.060519733
55	0x3d16128f	0.036638793
56	0x3daa569a	0.08317299
57	0x3d01f526	0.031727932
58	0xbcac47fd	-0.02103042
59	0x3d37c9e7	0.044870283
60	0xbc9b4860	-0.01895541
61	0x3b867970	0.004103832
62	0xbd1458d4	-0.036217526
63	0x3c4ac980	0.012377143
64	0xbb582dea	-0.0032986351
65	0x3d3dfeec	0.04638569
66	0xbd757686	-0.059927486
67	0xbcb9dbc4	-0.0226878
68	0xbd5f39a3	-0.054498326
69	0x3d21b43f	0.039478537
70	0x3cc871a8	0.024468258
71	0xbd3452a2	-0.044024117
72	0xbd8a9e97	-0.0676853
73	0x3d47b225	0.048753876
74	0xbd01ae3f	-0.031660315
75	0x3dc3bd08	0.09557539
76	0x3d667656	0.056265198
77	0xbd2464cb	-0.040135186
78	0x3e1ecaac	0.15507
79	0xbd224cef	-0.03962415
80	0x3c0104ca	0.007874677
81	0xbd595848	-0.053062707
82	0x3d44e34d	0.048068333
83	0x3e3916fd	0.18075176
84	0x3bb30244	0.0054629166
85	0x3d597d74	0.053098157
86	0xbcd9476c	-0.026523314
87	0x3c97131c	0.01844173
88	0x3d31a9a0	0.043374658
89	0xbc51b938	-0.012800507
90	0x3e16e33e	0.14735124
91	0x3dbeae3f	0.093105786
92	0xbd92941e	-0.07157157
93	0x3d34e968	0.044167906
94	0xbcf6e83a	-0.030140031
95	0x3d18e4f8	0.037327737
96	0xbcd23a45	-0.02566255
97	0x3e10527d	0.14093967
98	0x3ad4c05c	0.0016231644
99	0x3bfd4a23	0.007729785
100	0x3cdd18b0	0.026989311
101	0x3ddcfee1	0.10790802
102	0x3e6f2335	0.23353274
103	0x3e21794d	0.15768929
104	0xbd3a70fd	-0.04551791
105	0x3c670e3d	0.014102516
106	0xbcb683f2	-0.022279713
107	0x3d47c04a	0.048767366
108	0xbcf39215	-0.029732743
109	0xbd524f5d	-0.051345218
110	0xbce6d011	-0.028175386
111	0xbd276a86	-0.040873073
112	0x3d00a8b3	0.031410884
113	0x3bf1b0b2	0.0073758
114	0xbd721f92	-0.05911214
115	0x3d4f9015	0.050674517
116	0x3d2e3620	0.042532086
117	0xbc87447c	-0.016512148
118	0x3e0b21c2	0.13587096
119	0x3cd16df6	0.025565129
120	0x3dd7700d	0.10519419
121	0x3c0ad7cd	0.0084743025
122	0x3dc6e096	0.09710805
123	0x3c5932fb	0.013256784
124	0x3cc9a4cb	0.024614712
125	0x3d424525	0.047429223
126	0xbd2e2b83	-0.042521965
127	0x3df63698	0.12022132

model.6.weight f4 [5, 128]
0	0x3deb985e	0.11503671
1	0x3a9c4e85	0.0011925256
2	0x3d762daf	0.06010216
3	0x3da15ac1	0.07878638
4	0xbbe1d2b6	-0.006891574
5	0xbd78cfd6	-0.060745083
6	0x3d3514f1	0.044209424
7	0xbb96cb99	-0.0046019075
8	0xbcea6567	-0.028612806
9	0xbd06687a	-0.03281448
10	0x3d581ed9	0.052763794
11	0x3d99e5a0	0.075145006
12	0x3d53ac71	0.051678125
13	0x3d1b54c4	0.037922636
14	0x3d08cdfd	0.03339957
15	0x3ca4ce3c	0.020117871
16	0xbd228893	-0.03968103
17	0x3c608599	0.013703727
18	0xbc608e64	-0.013705824
19	0x3b328e97	0.0027245635
20	0xbca822f5	-0.020524481
21	0x3d94a32d	0.07257686
22	0xbc6075d0	-0.013699964
23	0xbd4c4335	-0.04986878
24	0x3ca8ecdc	0.020620756
25	0x3d765917	0.060143556
26	0x3d876d2c	0.0661262
27	0x3cd83fc7	0.026397599
28	0x3df9fa6e	0.12205969
29	0x3daaa41f	0.08332085
30	0xbc529e0b	-0.012855063
31	0x3d9df519	0.07712764
32	0x3db9f7f2	0.09080495
33	0xbc34d0cf	-0.011036112
34	0x3ce5cab3	0.028050756
35	0x3ce3d7b0	0.027812809
36	0xbbbff637	-0.0058582085
37	0x3c6a193b	0.014288242
38	0x3d118e43	0.035536062
39	0x3e0041ab	0.1252505
40	0x3c207ef0	0.009795889
41	0xbbadbda0	-0.005302146
42	0x3cff7d97	0.031187816
43	0xbd8b2d8f	-0.06795799
44	0xbd941137	-0.07229846
45	0xbce2c66d	-0.027682507
46	0xbd3e5c11	-0.04647452
47	0x3d5653e1	0.052326087
48	0x3dfa7374	0.12229052
49	0xbd99d71f	-0.07511734
50	0x3d8b6f29	0.068083115
51	0xbd916ecf	-0.07101213
52	0x3d8b9691	0.06815828
53	0xbca1c0d5	-0.01974527
54	0x3c882fd9	0.016624378
55	0xbbb3e01d	-0.005489363
56	0x3ca74b5f	0.020421682
57	0xbe9f5b05	-0.3112413
58	0x3d95b0db	0.07309123
59	0x3d058720	0.03259957
60	0x3d2a4108	0.041565925
61	0x3d3691ca	0.04457263
62	0x3d6c8d08	0.057751685
63	0xbc9772bd	-0.018487329
64	0xbd333bcf	-0.04375821
65	0x3e01fad3	0.12693338
66	0x3ce79e07	0.028273595
67	0xbd1493da	-0.036273815
68	0xbd83bf64	-0.06432989
69	0x3dd135ce	0.102153406
70	0xbd632216	-0.05545243
71	0xbb9eabc0	-0.0048422515
72	0xbd779405	-0.060443897
73	0x3d00541f	0.031330224
74	0xbd794803	-0.06085969
75	0x3d9c984c	0.07646236
76	0xbc3d30d5	-0.011547287
77	0xbc670665	-0.014100646
78	0x3df36337	0.11884158
79	0x3da61d4b	0.08111056
80	0x3d2cc44d	0.042179395
81	0x3d4cd366	0.050006293
82	0x3d88b828	0.0667575
83	0xbe258715	-0.16164811
84	0x3bc131ce	0.0058958298
85	0xbd912e3a	-0.07088895
86	0x3c7f68bf	0.015588938
87	0x3dde143c	0.10843703
88	0xbccfaafc	-0.025350086
89	0x3d8b5795	0.06803814
90	0x3e8f88cf	0.28034064
91	0x3df177c3	0.11790421
92	0xbcdba3c1	-0.026811482
93	0x3d14375f	0.03618562
94	0xbd564877	-0.0523152
95	0xbef1102a	-0.47082645
96	0xbd096225	-0.033540864
97	0xbc3ff355	-0.01171573
98	0x3dc86251	0.09784377
99	0xbd5b1608	-0.053487808
100	0x3d3c57ae	0.045982055
101	0x3dcd662c	0.10029253
102	0x3d6eb57a	0.05827854
103	0x3de1e0fa	0.11029239
104	0xbc1c626c	-0.00954495
105	0xbcf6ab3d	-0.03011095
106	0xbd9254d0	-0.07145083
107	0x3e2ebb0c	0.1706354
108	0x3b99097d	0.0046703205
109	0xbda486cf	-0.08033525
110	0xbbd4308b	-0.0064755133
111	0xbd2b39f2	-0.041803308
112	0x3da9a0d8	0.08282632
113	0x3b783172	0.0037871269
114	0xbd50a9f3	-0.050943326
115	0x3d3ec64b	0.046575826
116	0x3ca76d30	0.020437807
117	0x3d0141c4	0.03155686
118	0x3dad1028	0.08450347
119	0xbd3c1105	-0.04591467
120	0x3e687131	0.22699429
121	0xbd0a7ee3	-0.033812415
122	0x3cf8ffcc	0.030395411
123	0xbd9a2feb	-0.07528671
124	0x3c62557c	0.013814326
125	0x3daa6691	0.08320344
126	0x3d01695a	0.03159461
127	0xbd3fa9bf	-0.046792742
128	0x3d5cffb1	0.053954784
129	0x3dda86bf	0.10670232
130	0xbc70b99c	-0.01469269
131	0x3d88327b	0.066502534
132	0xbc3045f5	-0.010758867
133	0x3c2b3590	0.010449782
134	0xba57915b	-0.0008223259
135	0xbc8fc7c7	-0.017551316
136	0xbc905b6d	-0.01762172
137	0xbd674bb3	-0.056468677
138	0xbcece43e	-0.028917428
139	0xbd389f9c	-0.04507409
140	0x3d677232	0.05650539
141	0x3d3c058d	0.04590373
142	0x3d80e3b6	0.062934324
143	0xbd791d68	-0.06081906
144	0x3cc1d35e	0.023660358
145	0x3dc67e4e	0.096920595
146	0xbbfcc00e	-0.0077133244
147	0x3dc454a2	0.09586455
148	0xbcd25c68	-0.025678828
149	0xbc2e5cb6	-0.010642221
150	0x3ad1bd54	0.0016001859
151	0x3d0ba570	0.03409332
152	0xbcdb7601	-0.026789667
153	0x3c1317dd	0.008977857
154	0x3d6bcf3a	0.057570674
155	0xbbc65b50	-0.0060533658
156	0x3d34598e	0.04403072
157	0x3d8d8cca	0.06911619
158	0x3ddf707b	0.10910126
159	0x3dc3d0ca	0.09561308
160	0x3d788a64	0.060678855
161	0x3d8a15cb	0.06742438
162	0x3c90967c	0.017649882
163	0xba163b80	-0.0005730912
164	0x3ceaa3f0	0.028642625
165	0x3d8dccf4	0.06923857
166	0x3db179e8	0.0866583
167	0x3d792946	0.060830377
168	0x3c02bfb0	0.007980272
169	0xbd1664a3	-0.03671707
170	0xbd3c39d8	-0.0459536
171	0x3dac20ad	0.0840467
172	0x3da3a24d	0.07989941
173	0x3cf03dae	0.029326286
174	0x3d1b06cf	0.03784829
175	0x3d7f81cf	0.062379654
176	0x3dbac269	0.09119112
177	0x3d1cad31	0.038251106
178	0x3d56bc44	0.052425638
179	0xbcfe690f	-0.031055955
180	0x3da37b07	0.0798245
181	0x3cfa1233	0.030526256
182	0x3cb55de4	0.022139497
183	0x3d24a6a7	0.040197995
184	0x3ccb3822	0.02480704
185	0x3e202da1	0.15642406
186	0xbd9aece0	-0.075647116
187	0x3ce5d052	0.028053436
188	0xbd028929	-0.031869087
189	0xbc8c1360	-0.017099082
190	0xbcb330f0	-0.021873921
191	0x3d12f179	0.035874818
192	0x3d1dc143	0.038514387
193	0x3daa2c7a	0.083092645
194	0xbda8716e	-0.0822476
195	0x3d749fa4	0.059722558
196	0xbd411944	-0.047143236
197	0x3de75d6b	0.11297115
198	0x3bf8f3c8	0.0075974204
199	0x3d931ee7	0.071836285
200	0xbd822012	-0.06353773
201	0xbd598753	-0.05310757
202	0x3d646145	0.055756826
203	0x3d2f0a44	0.0427344
204	0x3be52b31	0.006993674
205	0x3c082f92	0.008312123
206	0x3e31e134	0.17371064
207	0xbd7c24d9	-0.06155858
208	0x3c45a1dc	0.012062516
209	0x3b5b83c0	0.0033495277
210	0x3df06ac1	0.11739112
211	0xbeaad95d	-0.3336896
212	0xbd072811	-0.032997195
213	0x3b2531b4	0.0025206627
214	0xbca2c8c7	-0.019871129
215	0x3cf9c28f	0.03048828
216	0xbdab00e3	-0.083497785
217	0xbc510471	-0.012757407
218	0xbcbdade8	-0.023154214
219	0x3d9b1051	0.075714715
220	0xbb9995e7	-0.004687059
221	0xbc195ad5	-0.009360035
222	0x3d4664c4	0.04843594
223	0x3b8c5b37	0.0042833346
224	0xbd2ef1d0	-0.04271108
225	0x3d3ed8a0	0.04659331
226	0x3cd93e54	0.026518978
227	0x3d49494b	0.049142163
228	0xb91ead85	-0.00015132695
229	0x3cbe1574	0.023203589
230	0xbee334df	-0.44376275
231	0x3d89939f	0.067176096
232	0x3bdc6265	0.0067255967
233	0xbc71f566	-0.01476798
234	0xbdb8746b	-0.0900658
235	0x3e13b298	0.14423597
236	0x3d8e97b3	0.06962528
237	0x3d3583a9	0.044315014
238	0xbc082106	-0.008308655
239	0xbbe3e570	-0.0069548413
240	0x3d9b74ec	0.075906605
241	0x3bb38710	0.005478747
242	0xbca98a74	-0.020695902
243	0xbce0846a	-0.02740689
244	0x3cd9b4a2	0.02657539
245	0x3ccc44f2	0.02493522
246	0x3dd16568	0.1022442
247	0x3ddb1d2e	0.10698925
248	0x3e5cb862	0.21554711
249	0xbcd871f0	-0.026421517
250	0xbcc0d211	-0.023537667
251	0xbd68806c	-0.056763098
252	0x3dc48113	0.095949315
253	0x3db04d89	0.08608539
254	0x3d12add3	0.035810303
255	0x3d851440	0.06498003

model.6.bias f4 [5]
0	0x3cf4a8ad	0.029865587
1	0x3cd54014	0.026031531
2	0x3dab3555	0.08359782
3	0x3d7c6628	0.06162086
4	0x3e26a8c5	0.16275318
