2021-22/PrimerSemestre/Reinforcement/PRA1/DQN.pth (torch, 674127 bytes, 8 tensors)

model.0.weight f4 [512, 5]
0	0x3ec1241e	0.37722868
1	0xbed6214b	-0.41822276
2	0x3ed03b66	0.40670317
3	0xbe0157ae	-0.12631103
4	0x3d21d8cc	0.039513394
5	0xbd9b5b54	-0.07585779
6	0xbeac0daa	-0.33604175
7	0x3e999dc7	0.30003187
8	0x3e9a90ff	0.30188748
9	0x3e2ec34c	0.17066687
10	0xbde8e6f7	-0.11372178
11	0x3eba86a0	0.36430836
12	0xbe9abaf8	-0.3022077
13	0x3d1f08bd	0.038826693
14	0xbe24107a	-0.1602191
15	0xbede61c4	-0.43433964
16	0xbe9cdcd0	-0.30637217
17	0x3caa5b20	0.020795405
18	0xbdd1fcb8	-0.102532804
19	0x3e811bfa	0.25216657
20	0x3e181978	0.14853466
21	0xbe83a4a8	-0.2571156
22	0x3eaaf542	0.33390242
23	0xbe39a2bc	-0.18128484
24	0xbde5c970	-0.11220062
25	0xbc956d50	-0.0182406
26	0xbe8c00fc	-0.273445
27	0xbe1dd420	-0.1541295
28	0xbe680fcc	-0.22662276
29	0xbcbc34c0	-0.022974372
30	0x3ee3293a	0.4436739
31	0xbecfc96a	-0.40583354
32	0xbe8f5b5e	-0.27999395
33	0x3e60afbd	0.21942039
34	0x3ec2c825	0.38043323
35	0xbd6931f8	-0.05693242
36	0xbe8f7dde	-0.28025717
37	0xbea9803c	-0.33105648
38	0x3e4eb014	0.20184356
39	0xbcf337e0	-0.02968973
40	0xbeaf9c02	-0.34298712
41	0xbe847690	-0.25871706
42	0xbebe6ba8	-0.3719151
43	0x3d9ecdf8	0.07754129
44	0x3c31aa40	0.010843813
45	0x3df74dd0	0.120753884
46	0xbeca7b31	-0.39547113
47	0x3dacf6f0	0.08445537
48	0x3e1d2184	0.15344816
49	0xbee40cfb	-0.44541153
50	0xbe176568	-0.14784777
51	0xbedcf950	-0.4315896
52	0xbdec019c	-0.115237445
53	0xbed6aae6	-0.4192726
54	0x3ec7a108	0.38990045
55	0xbc93fabe	-0.0180639
56	0xbe0bc994	-0.13651115
57	0x3e44591e	0.1917462
58	0x3eacf0ad	0.3377737
59	0xbb370a56	-0.0027929745
60	0xbd81061f	-0.06299996
61	0x3e81e805	0.2537233
62	0xbecd63cf	-0.4011521
63	0x3ea8a00e	0.32934612
64	0x3eb34bb0	0.35018682
65	0xbe85ef8c	-0.26159322
66	0xbe342654	-0.17592746
67	0xbeac0ad3	-0.33602008
68	0x3ebe73bc	0.37197673
69	0xbd42b170	-0.0475325
70	0x3e1e1785	0.1543866
71	0x3e8a0ec1	0.2696438
72	0xbe3e7306	-0.18598565
73	0xbe30de73	-0.17272358
74	0xbe29d76b	-0.16586082
75	0x3e8742ee	0.2641825
76	0xbe947371	-0.28994325
77	0x3eb5e9dc	0.35529983
78	0x3eb48c8e	0.35263485
79	0x3ed7289d	0.42023173
80	0x3f01ef18	0.50755453
81	0xbe12a4d1	-0.14320685
82	0xbef27b12	-0.4735952
83	0xbe210f51	-0.15728499
84	0x3e57876a	0.2104775
85	0xbc9c3192	-0.019066606
86	0x3b8d64b9	0.0043149856
87	0xbe0cc731	-0.1374786
88	0x3d54e235	0.05197354
89	0x3ec17f0a	0.37792236
90	0x3eb646b3	0.35600814
91	0x3d3bdf26	0.045867108
92	0x3e401da5	0.18761308
93	0xbd3b3505	-0.04570486
94	0x3d245535	0.040120322
95	0xbd9fd9dc	-0.07805225
96	0xbe0a7f38	-0.13525093
97	0xbee33ae3	-0.44380865
98	0xbe007a1a	-0.12546578
99	0xbea7c34a	-0.3276618
100	0x3e8f0716	0.27935094
101	0x3db345d4	0.08753553
102	0xbe667df2	-0.22508982
103	0xbecb23c9	-0.3967574
104	0x3e9aa703	0.30205545
105	0x3ec32abd	0.38118544
106	0xbc4b0c26	-0.012393033
107	0xbe1a7375	-0.15083106
108	0x3e0db1d0	0.13837361
109	0x3dbae435	0.09125558
110	0xbeb7dc79	-0.35910395
111	0x3d9e39f6	0.07725899
112	0x3db58135	0.08862535
113	0xbeb9982c	-0.3624891
114	0x3e0c497f	0.13699912
115	0xbe7b3c5c	-0.24534744
116	0x3dd37be0	0.10326362
117	0xbeae9929	-0.34101227
118	0x3cbbe330	0.02293548
119	0xbe9fbc64	-0.31198418
120	0xbdd6b314	-0.10483375
121	0xbe1c933a	-0.15290537
122	0xbec7aa3a	-0.3899706
123	0x3deca8e0	0.11555648
124	0xbe90bb18	-0.2826774
125	0x3e4628ee	0.19351551
126	0x3e6b3a23	0.22971396
127	0x3dc1ca7e	0.094624504
128	0xbd00f874	-0.031486943
129	0x3ebb1843	0.36541948
130	0xbc2f2fc0	-0.010692537
131	0xbeddce77	-0.43321583
132	0x3e8fb840	0.2807026
133	0x3d69e2a0	0.057100892
134	0x3db29430	0.08719671
135	0xbe9a1028	-0.3009045
136	0x3e973c86	0.29538363
137	0xbdd81e28	-0.10552627
138	0xbec38897	-0.38190147
139	0x3e8fa984	0.28059018
140	0x3de4fbae	0.111808166
141	0xbea01f40	-0.31273842
142	0xbde667ae	-0.11250244
143	0x3e90314f	0.2816262
144	0x3cb622fa	0.022233475
145	0xbda2379b	-0.07920762
146	0x3e8e3c50	0.2778039
147	0xbec0442f	-0.3755202
148	0x3dd83cff	0.10558509
149	0xbdf8aba7	-0.12142115
150	0x3d431080	0.047623158
151	0xbeac95e8	-0.3370812
152	0xbed4ed3b	-0.41587242
153	0x3e44af00	0.19207382
154	0xbea4229a	-0.3205765
155	0x3e40bc38	0.188218
156	0xbe89fadc	-0.26949203
157	0x3e88f642	0.2675038
158	0xbeb5c4b3	-0.35501632
159	0xbeac51e0	-0.33656216
160	0xbdac2b54	-0.08406702
161	0x3e957e98	0.29198146
162	0xbeb50eb3	-0.35362777
163	0xbc66c120	-0.0140841305
164	0xbed8ca15	-0.42341676
165	0xbec006a8	-0.37505078
166	0x3ecb070a	0.39653808
167	0x3d4a7c40	0.0494349
168	0xbda94a0c	-0.082660764
169	0xbe9725a0	-0.29520893
170	0x3dfeb3aa	0.12436612
171	0x3eb4fcf6	0.35349244
172	0xbe768146	-0.24072751
173	0xbeb857e3	-0.36004552
174	0x3d9aec0c	0.075645536
175	0xbef28c1b	-0.47372517
176	0x3eca829e	0.39552778
177	0x3d6a49c2	0.057199247
178	0x3edd8ad8	0.43269992
179	0xbebf60a2	-0.37378412
180	0xbed949c1	-0.42439082
181	0x3ddc36b8	0.10752624
182	0xbe32a856	-0.17447028
183	0xbe915801	-0.28387454
184	0x3e2cea3c	0.16886228
185	0xbec9f36e	-0.39443535
186	0x3e355012	0.17706326
187	0x3eadff79	0.33983973
188	0x3ea2d3b6	0.31802148
189	0xbe807d3a	-0.2509554
190	0xbe8e5bae	-0.2780432
191	0xbdf0e00c	-0.117614836
192	0xbe2f1c42	-0.17100623
193	0x3e8ae404	0.27127087
194	0xbcb192b0	-0.021676391
195	0xbeb5c2d9	-0.3550022
196	0xbea0fbd2	-0.31442124
197	0xbe81b468	-0.25332952
198	0xbe202afc	-0.15641397
199	0xbe7ea470	-0.24867415
200	0xbe9f89eb	-0.3115991
201	0x3e585dbd	0.21129508
202	0xbc934f2f	-0.017982094
203	0xbe549fe8	-0.20764124
204	0x3de36c4d	0.11104641
205	0x3e21d034	0.1580208
206	0x3e777d9c	0.2416901
207	0x3d8b6d6d	0.06807981
208	0x3e4a1ada	0.19736806
209	0x3ef0b013	0.47009334
210	0xbf07707f	-0.5290603
211	0x3e4c30d5	0.19940503
212	0xbd89e675	-0.06733409
213	0x3e7cb69e	0.24679038
214	0x3d77ad27	0.060467865
215	0xbec9ee67	-0.394397
216	0x3ea5647a	0.3230322
217	0xbeffe403	-0.49978647
218	0xbcf0eb38	-0.029409036
219	0xbe324e8d	-0.17412777
220	0xbe912a8e	-0.2835278
221	0x3e4da191	0.20081164
222	0x3e2274a5	0.15864809
223	0xbe838d67	-0.2569382
224	0x3a9f8aa2	0.0012172053
225	0x3ea35664	0.31901848
226	0xbbdf2736	-0.006810094
227	0x3eab0cd0	0.33408213
228	0x3e3fa6be	0.18715951
229	0xbe9cecab	-0.30649313
230	0x3e0ba717	0.13637958
231	0xbe2b82a5	-0.16749056
232	0x3e2ded4a	0.1698505
233	0x3e876511	0.26444295
234	0x3e979d50	0.29612207
235	0xbe874aee	-0.26424354
236	0xbea9182c	-0.33026254
237	0x3dbdbae8	0.09264165
238	0x3e174d38	0.1477555
239	0xbebcd6f0	-0.36882734
240	0xbeaf076f	-0.3418536
241	0x3e7aa368	0.24476397
242	0xbc4fd340	-0.012684643
243	0xbea99cee	-0.3312754
244	0xbcba5640	-0.022746205
245	0xbe0a5890	-0.13510346
246	0x3e0ff110	0.14056802
247	0xbed6d875	-0.4196202
248	0x3e550f10	0.20806527
249	0xbdf1a554	-0.11799112
250	0xbec0ea07	-0.3767855
251	0xbec1005e	-0.37695593
252	0xbdd9b7c8	-0.106307566
253	0x3dab5a78	0.08366865
254	0x3cbd9fb0	0.023147434
255	0xbdb14b2c	-0.08656916

model.0.bias f4 [512]
0	0x3e81439f	0.25246903
1	0x3de6cc69	0.11269457
2	0x3dfdff30	0.12402189
3	0xbec3edb5	-0.38267294
4	0xbe6f2673	-0.23354511
5	0xbe4e3e3f	-0.20140933
6	0x3ca28af6	0.019841652
7	0xbdc0f3a8	-0.09421474
8	0xbec5fa9b	-0.3866776
9	0xbebfa079	-0.37427118
10	0x3d3c6080	0.045990467
11	0xbdd62f2c	-0.10458216
12	0x3e8a0b13	0.26961574
13	0xbdead9dc	-0.11467335
14	0xbe2dac9e	-0.1696038
15	0x3e884db8	0.26621795
16	0xbdcb4af5	-0.09926406
17	0x3ed8053a	0.42191488
18	0xbd00c09b	-0.031433683
19	0xbe83daa0	-0.25752735
20	0x3e6e3e1d	0.23265882
21	0xbe0e320a	-0.13886276
22	0x3e9adebc	0.30248058
23	0xbd8225cc	-0.063548654
24	0x3dee7190	0.11642754
25	0x3e9d388a	0.30707198
26	0x3dfe8028	0.124267876
27	0xbec2c1aa	-0.3803838
28	0x3ddc4274	0.107548624
29	0xbe16a2d7	-0.14710556
30	0xbe8239f8	-0.25434852
31	0xbd4c3258	-0.0498527
32	0xbecb75b6	-0.39738244
33	0xbe534f9d	-0.20635839
34	0x3e0e23b3	0.13880806
35	0xbd0f1e92	-0.034941263
36	0x3e8ab628	0.270921
37	0x3ed29c55	0.41134897
38	0x3e8fdc34	0.2809769
39	0x3df05d60	0.1173656
40	0x3e816a58	0.25276446
41	0xbeecaa72	-0.4622379
42	0x3e9a684a	0.3015769
43	0x3e439b97	0.19102322
44	0x3c9ac262	0.018891517
45	0x3e4a9633	0.19783859
46	0x3e3b837b	0.18311875
47	0x3db72160	0.08941913
48	0xbea7f31f	-0.32802674
49	0xbe90b3c7	-0.2826216
50	0x3e9d3350	0.3070321
51	0xbe9b878a	-0.30376846
52	0xbee0889f	-0.43854234
53	0xbdc1acb4	-0.09456769
54	0xbe6efe2c	-0.23339146
55	0xbed4a40f	-0.41531417
56	0x3ee5d4cb	0.4488891
57	0xbe794c49	-0.24345507
58	0x3e7904e3	0.2431827
59	0xbec9b522	-0.39396006
60	0x3dc7b9b7	0.09752219
61	0xbeb29efd	-0.34886923
62	0x3e9e0f5e	0.308711
63	0x3ebeb4a2	0.37247187
64	0x3c0c2a00	0.008554935
65	0x3ed330e3	0.41248235
66	0x3e194d2d	0.14970846
67	0xbdd04028	-0.10168487
68	0x3db80469	0.08985216
69	0x3e52d63f	0.20589541
70	0x3e844418	0.258332
71	0x3ee7ac38	0.4524858
72	0x3de788c9	0.113053866
73	0xbd3f8a68	-0.046762854
74	0xbe16b21a	-0.14716378
75	0xbe60ca1e	-0.21952102
76	0xbe8ade10	-0.27122545
77	0x3da5d758	0.08097714
78	0xbee93cb1	-0.45554116
79	0x3e559579	0.208578
80	0xbdaff6f4	-0.085920244
81	0x3ca585f1	0.02020547
82	0x3dae338d	0.08505926
83	0x3e9fa9cf	0.3118424
84	0xbd7bdab8	-0.061487883
85	0xbecfb99c	-0.40571296
86	0x3d8a9692	0.06767
87	0xbeb4845e	-0.35257238
88	0x3eb141e4	0.34620583
89	0x3bb0ab30	0.005391501
90	0x3eb01c23	0.34396467
91	0xbe78f632	-0.24312666
92	0x3ed7af60	0.42125988
93	0x3ea66e9a	0.32506257
94	0x3e419517	0.1890453
95	0xbed43f18	-0.41454387
96	0xbe17be4c	-0.14818686
97	0x3e3bcc7d	0.18339725
98	0xbe33d9be	-0.17563531
99	0x3e62311e	0.22089049
100	0x3d66d207	0.05635264
101	0x3ebcdab2	0.368856
102	0x3d6be900	0.057595253
103	0xbea76dfe	-0.32701105
104	0x3eaaf399	0.33388975
105	0x3ee6be16	0.450669
106	0x3e821672	0.2540775
107	0xbea86328	-0.3288815
108	0xbdd61026	-0.10452299
109	0x3e2dcd01	0.16972734
110	0xbe340f2f	-0.17583917
111	0xbec75f94	-0.38940108
112	0xbdeb072c	-0.11475977
113	0x3edaebdf	0.4275808
114	0xbdc48fcd	-0.0959774
115	0x3e223c0f	0.15843223
116	0x3ed7ea4e	0.42170948
117	0x3d168f42	0.036757715
118	0x3dd44190	0.103640676
119	0x3e09b3ea	0.13447538
120	0x3e0e0885	0.13870437
121	0xbe12f9be	-0.14353082
122	0xbd36a4d8	-0.0445908
123	0x3ed01121	0.40638068
124	0x3e8a0a5d	0.26961032
125	0xbce9aa9b	-0.028523734
126	0x3e181c18	0.14854467
127	0xbe8b3fbe	-0.2719707
128	0x3e394b7b	0.180952
129	0x3ed4a620	0.41532993
130	0x3cee0c08	0.029058471
131	0xbeef8398	-0.46780086
132	0xbdd109e4	-0.102069646
133	0xbdecba25	-0.11558942
134	0xbd25c1cb	-0.04046802
135	0xbe819c76	-0.25314683
136	0xbe563685	-0.20919235
137	0x3d35bf30	0.044371784
138	0x3ed8d0c3	0.42346773
139	0xbda1118c	-0.07864675
140	0xbe1a33df	-0.1505885
141	0xbd12b756	-0.035819374
142	0x3dc60438	0.096687734
143	0xbd910b21	-0.07082201
144	0x3daf2f89	0.085539885
145	0x3ec7b66e	0.3900637
146	0x3e34c704	0.17654043
147	0xbdbdf165	-0.09274558
148	0xbeabda52	-0.33565003
149	0x3d984ac8	0.074361384
150	0x3e75fc98	0.24022138
151	0x3e8a1457	0.26968643
152	0xbd5cb6d0	-0.05388528
153	0xbec2a60c	-0.3801731
154	0xbd2396fc	-0.03993891
155	0xbea357e7	-0.31903002
156	0xbdc24321	-0.0948546
157	0xbd0166fa	-0.031592347
158	0x3d9a6c1f	0.07540154
159	0x3dd7ba21	0.10533548
160	0xbe40e85c	-0.18838638
161	0x3c087b25	0.008330141
162	0xbd5a6eca	-0.053328313
163	0xbe668106	-0.22510156
164	0xbe23e145	-0.16003902
165	0x3d421eb8	0.047392577
166	0xbe4c97ba	-0.19979754
167	0x3ea276f2	0.31731373
168	0xbea87da7	-0.32908365
169	0x3d5f5413	0.05452354
170	0xbe1c6663	-0.15273432
171	0x3bfdad44	0.007741602
172	0x3ee1ba0b	0.44087252
173	0xbed847b4	-0.42242205
174	0x3e111f5d	0.1417212
175	0xbe8e96dc	-0.27849472
176	0x3b971040	0.0046100914
177	0xbdd2e44c	-0.102974504
178	0x3baa2c00	0.0051932335
179	0x3e31b859	0.1735548
180	0x3cc382b6	0.023866039
181	0xbd806b20	-0.062704325
182	0xbe9dbbc4	-0.30807316
183	0x3d85e6ba	0.06538148
184	0xbed2b166	-0.4115097
185	0xbdb5c27c	-0.088749856
186	0x3e345fee	0.1761472
187	0xbe9c4d90	-0.30527925
188	0xbd8f123c	-0.069859
189	0xbc980cad	-0.018560732
190	0x3e28c0ac	0.16479748
191	0xbe933fdc	-0.28759658
192	0xbd762876	-0.06009718
193	0xbe788aa5	-0.24271639
194	0xbd63e2fc	-0.05563639
195	0x3e98fac6	0.29878825
196	0xbe40ddae	-0.18834564
197	0xbee053ca	-0.43813926
198	0x3ea7fde6	0.32810897
199	0xbdc575ca	-0.09641607
200	0x3ebfe013	0.37475643
201	0xbde9edbd	-0.11422298
202	0x3ec733b2	0.38906628
203	0xbd08a57f	-0.033360954
204	0xbe82ad5f	-0.25522897
205	0xbd880651	-0.0664183
206	0x3e48f500	0.1962471
207	0xbdf24d98	-0.11831206
208	0xbecab096	-0.3958785
209	0x3eb0a1b4	0.3449837
210	0xbcc87fa0	-0.024474919
211	0x3eb3692d	0.3504118
212	0xbd74623c	-0.059663996
213	0xbe01dc6e	-0.12681744
214	0xbe4b1043	-0.19830422
215	0xbedaae21	-0.42710975
216	0xbeba7979	-0.364208
217	0x3ecf02c1	0.4043179
218	0xbe04adb8	-0.12956893
219	0x3ebcc66e	0.3687014
220	0x3e4c4f86	0.19952211
221	0x3d94f04f	0.07272398
222	0x3ea2be88	0.3178599
223	0xbcacecbc	-0.021108977
224	0xbe7aaea6	-0.24480686
225	0x3caa59d0	0.020794779
226	0xbd819d84	-0.06328872
227	0x3edfc99a	0.43708497
228	0xbe9d76f9	-0.3075483
229	0xbe7c19cc	-0.24619216
230	0xbde1973c	-0.11015174
231	0xbee37f55	-0.44433084
232	0x3d3395de	0.043844096
233	0xbe011cd4	-0.12608653
234	0xbe543f5c	-0.20727295
235	0x3b9a45d2	0.0047080303
236	0xbe1b3086	-0.15155229
237	0x3e3a0cf1	0.18168999
238	0xbeb6cf52	-0.35705048
239	0x3e483494	0.19551307
240	0xbea6ddfa	-0.3259123
241	0x3e35c190	0.1774962
242	0xbde2f958	-0.11082715
243	0xbe0b4591	-0.13600756
244	0x3e8cc38a	0.27492934
245	0xbea872ef	-0.32900187
246	0x3db63b99	0.08898086
247	0x3e582e7a	0.2111148
248	0xbe9d78f0	-0.3075633
249	0xbe375df8	-0.1790694
250	0x3e860262	0.26173693
251	0xbee0a9b4	-0.43879473
252	0x3db2afd0	0.0872494
253	0x3dee6896	0.11641042
254	0xbe800c7b	-0.25009522
255	0x3eb1e0f9	0.34741953

model.2.weight f4 [256, 512]
0	0xbd166e90	-0.036726534
1	0x3860a391	5.3558095e-05
2	0xbd1bc82c	-0.038032696
3	0xbb9c4b48	-0.0047697164
4	0xba2b9e00	-0.0006546676
5	0xbcc0d28d	-0.023537898
6	0x3c2fa908	0.0107214525
7	0x3d0b29ed	0.03397553
8	0xbd202c4c	-0.039104745
9	0xbcfc83b0	-0.030824512
10	0xbd1be854	-0.038063362
11	0xbc97b175	-0.018517235
12	0xbc933af1	-0.017972441
13	0x3d1f24f3	0.038853597
14	0xbc98812c	-0.018616281
15	0xbd283a68	-0.041071326
16	0xbd1df6cb	-0.03856544
17	0xbca15883	-0.019695526
18	0x3ce9ac43	0.028524524
19	0x3cab2f9a	0.020896722
20	0xbccb2e35	-0.024802307
21	0x3ca9dd46	0.020735394
22	0x3c03aa32	0.008036183
23	0x3ce4613a	0.027878392
24	0xbd0519c6	-0.032495283
25	0xbd44c76f	-0.048041757
26	0x3cbcdbd6	0.023054045
27	0xbc0c8c60	-0.00857839
28	0x3c19bc52	0.009383278
29	0xbd3f4c27	-0.046703484
30	0x3d07edff	0.033185955
31	0x3d1a7dc7	0.037717607
32	0x3d073cbf	0.033016916
33	0x3cba4d5a	0.022741962
34	0x3c8637bd	0.016384
35	0xb8821b22	-6.203937e-05
36	0xbcbd8233	-0.023133373
37	0x3b7a42b3	0.0038186728
38	0x3d264e59	0.040602062
39	0x3bd920c0	0.0066262186
40	0x3c9ad4d6	0.018900316
41	0x3c8808fe	0.01660585
42	0x3cae6e9c	0.021292977
43	0xbc527894	-0.012846131
44	0x3beee137	0.0072900313
45	0xbd029a24	-0.03188528
46	0x3c9d0da0	0.019171536
47	0xbcec5c06	-0.028852474
48	0xbcfea81b	-0.031086018
49	0xbd317c43	-0.043331396
50	0x3c355940	0.011068642
51	0xbcc25c0e	-0.023725536
52	0x3c1ee544	0.009698216
53	0xbc399f48	-0.0113294795
54	0x3ced8f46	0.028998982
55	0xbd040820	-0.03223431
56	0xbcc54528	-0.024080828
57	0x3c7130b4	0.014721084
58	0xbcef0a48	-0.029179707
59	0x3d16d0a1	0.036820058
60	0x3b0d46e7	0.0021557154
61	0xbd14895c	-0.03626381
62	0xbcf355c6	-0.029703986
63	0xbb10dd46	-0.0022104545
64	0xbcdd6942	-0.02702773
65	0x3c9b0a8f	0.018925933
66	0x3cac6474	0.021043994
67	0xbd410c8d	-0.04713111
68	0xbc3669b9	-0.011133605
69	0x3c1c902f	0.00955586
70	0x3c2c7328	0.010525502
71	0xbc3dca01	-0.011583806
72	0x3c585950	0.0132048875
73	0x3ae542bd	0.0017491203
74	0x3cf2994d	0.029614115
75	0x3cc7c528	0.024386004
76	0x3cbebbbe	0.023282882
77	0x3cfe450e	0.031038787
78	0x3bde8759	0.006791037
79	0x3c0f06a4	0.008729611
80	0xbd0234a6	-0.03178849
81	0xb969f567	-0.00022312031
82	0x3c18a4bd	0.00931662
83	0x3ca91c14	0.020643272
84	0xb9194100	-0.00014615431
85	0x3c229fb4	0.0099257715
86	0xbd3fff5a	-0.04687438
87	0x3ca0858a	0.019594926
88	0xbcad3253	-0.02114216
89	0x3c95244f	0.01820579
90	0xbb829acf	-0.00398574
91	0x3c3378eb	0.010954122
92	0x3bf6905f	0.0075245346
93	0x3cf09c10	0.029371291
94	0xbd56850a	-0.05237297
95	0xbd17570e	-0.036948256
96	0x3b2c6f70	0.002631154
97	0x3d0035bc	0.031301245
98	0xbcea16c8	-0.028575316
99	0x3ce64ee5	0.028113792
100	0xbd4cab86	-0.049968265
101	0xbd30d08d	-0.04316764
102	0xbd05d7c2	-0.032676466
103	0x3d263473	0.040577363
104	0xbbfaa804	-0.0076494236
105	0xbd10b73c	-0.035330996
106	0xba395c00	-0.0007070899
107	0xbc0d954c	-0.008641552
108	0xbd4731be	-0.048631422
109	0xbcf06c94	-0.02934865
110	0x3ce2d2dd	0.027688438
111	0x3c7973c1	0.015225352
112	0xbb1d60c0	-0.0024013966
113	0xbc77d8a5	-0.015127336
114	0x3b3048bd	0.0026898824
115	0x3cf19be4	0.02949328
116	0xbd4da9e7	-0.05021086
117	0xbd293289	-0.04130796
118	0x3c926daa	0.017874558
119	0x3cfb6c3d	0.03069126
120	0xbc9cd995	-0.01914672
121	0xbc8fd0a8	-0.01755555
122	0x3c836d8e	0.01604345
123	0x3c387995	0.011259456
124	0xbbee804d	-0.0072784782
125	0xbce63d83	-0.028105503
126	0x3cc2a62a	0.023760874
127	0x3d0de7c1	0.034644846
128	0xbd4d1238	-0.050066203
129	0xbd1a9dd5	-0.037748177
130	0x3d32effb	0.043685894
131	0xbca30b79	-0.019902932
132	0x3cc6ea0e	0.024281528
133	0xbca27a2a	-0.019833643
134	0x3c9b1f0e	0.018935706
135	0xbc4b15d4	-0.012395341
136	0x3cd5a1f6	0.026078206
137	0xbc1a48bc	-0.009416755
138	0xbd594eb9	-0.05305359
139	0x3b1a5c90	0.0023553707
140	0xbd0238c5	-0.03179242
141	0x3c22c891	0.009935514
142	0xbd053416	-0.032520376
143	0xbd307e43	-0.043089163
144	0x3cf6a088	0.030105844
145	0xbce19b48	-0.027539864
146	0xbb186bd0	-0.002325762
147	0x3c925d67	0.017866803
148	0x3cc92292	0.024552617
149	0xbcee8402	-0.02911568
150	0x3a956e80	0.0011400729
151	0x3bd7b9a1	0.006583408
152	0x3cde8a7e	0.027165648
153	0xbcfffc45	-0.031248221
154	0x3c7791a7	0.01511041
155	0xbcb29786	-0.021800768
156	0x3c95593c	0.018231027
157	0xbc21a30a	-0.009865532
158	0xbd12df8f	-0.035857733
159	0xbcc54a9b	-0.024083426
160	0xbcf483ca	-0.029847998
161	0x3c73b7f0	0.014875397
162	0x3ce86eca	0.02837314
163	0xbc6e59a8	-0.014547743
164	0xbd19c182	-0.03753806
165	0xbd564f64	-0.052321807
166	0x3ce1cb8a	0.027562875
167	0xbd3e866e	-0.04651492
168	0xbca197a5	-0.01972563
169	0x3cb9ed03	0.022696024
170	0xbd138685	-0.03601696
171	0x3bcc9c93	0.006244251
172	0xbd543119	-0.051804636
173	0x3d310907	0.0432215
174	0xbd1c2253	-0.03811867
175	0xbd322b7b	-0.043498497
176	0xb9866a80	-0.0002563782
177	0xbbeaac78	-0.007161673
178	0x3d1d63ff	0.03842544
179	0x3b434faf	0.0029802134
180	0x3c9e8a8c	0.019353174
181	0xbc936184	-0.017990835
182	0x3cb7068a	0.022341985
183	0xbd3e4bd4	-0.046459034
184	0xbc1d2b00	-0.0095927715
185	0x3c1932cc	0.00935049
186	0xbd4a4ecd	-0.049391557
187	0xbd011254	-0.03151162
188	0x3cf5365e	0.02993315
189	0xbd00f9d1	-0.031488243
190	0x3cf0f28a	0.029412527
191	0x39ef3986	0.0004562849
192	0xbd351f81	-0.044219498
193	0x3d28173d	0.041037787
194	0x3ce19e1f	0.027541218
195	0xbcd566cd	-0.026049996
196	0x3ca3fb06	0.020017158
197	0xbc2c8c74	-0.0105315335
198	0xbd1ae08a	-0.037811793
199	0xbc074fdb	-0.008258785
200	0x3d07661e	0.03305637
201	0xbcc82794	-0.024432935
202	0x3bf96a92	0.007611581
203	0xbd0cbe85	-0.03436138
204	0xbc6b39ee	-0.014357073
205	0xbd23f87c	-0.040031895
206	0xbc931189	-0.017952697
207	0xbba98d08	-0.005174283
208	0xbd28b2e1	-0.041186217
209	0xbcc6e741	-0.024280192
210	0x3d170b83	0.036876213
211	0x3cf58400	0.029970169
212	0xbbf17dcc	-0.0073697325
213	0x3c1a3806	0.009412771
214	0x3c940376	0.018068057
215	0x3d132989	0.035928283
216	0x3d054161	0.032533053
217	0x3ca7ea10	0.020497352
218	0x3cff9ebe	0.031203624
219	0xbd2b7546	-0.041859888
220	0x3ccef39a	0.025262643
221	0x3bb80a13	0.0056164353
222	0xbd061614	-0.0327359
223	0x3b7e98e3	0.0038848452
224	0x3c9db48e	0.019251134
225	0x3d2a6fc7	0.041610505
226	0xbcb939d1	-0.022610577
227	0xbd2e331b	-0.042529207
228	0xbcf1017c	-0.029419653
229	0xbd2d7405	-0.042346973
230	0xbd11deae	-0.035612755
231	0x3cfa7fba	0.030578483
232	0x3c44d11d	0.012012747
233	0x3cbc4708	0.02298309
234	0x3cb99b02	0.022656921
235	0xbd5f8b08	-0.05457595
236	0xbc0ac49c	-0.008469727
237	0xbcda97f0	-0.026683778
238	0xbd4c5ddd	-0.049894203
239	0xbd5f2f6a	-0.054488577
240	0x3d26eb3f	0.040751692
241	0x3cdaa2e6	0.026689004
242	0xbcdedfed	-0.027206386
243	0x3bcc91bb	0.0062429584
244	0x3a250a00	0.00062957406
245	0x3c952302	0.01820517
246	0x3cd641f1	0.02615449
247	0xbd5a3384	-0.053271785
248	0xb9ea7b00	-0.000447236
249	0xbcc994a1	-0.024607005
250	0xbd1c1b10	-0.038111746
251	0xbd05686f	-0.0325703
252	0x3d0c57d5	0.03426345
253	0xbd088cd7	-0.03333744
254	0xbc97a6d7	-0.018512173
255	0xbd35012f	-0.044190582

model.2.bias f4 [256]
0	0xbd43f9e8	-0.04784575
1	0xbbe4d241	-0.006983072
2	0xbcc2cbf8	-0.0237789
3	0x3d927a49	0.0715223
4	0x3ccf1a32	0.025281046
5	0xbcd6b1f9	-0.02620791
6	0x3d1bae83	0.038008224
7	0x3caaecae	0.02086481
8	0x3c838f6c	0.0160596
9	0xbd2f424e	-0.042787842
10	0x3c56ac3c	0.013102587
11	0x3da29b2f	0.07939755
12	0x3d4c5451	0.049885098
13	0xbd26432f	-0.040591415
14	0xbd355360	-0.044268966
15	0xbbfa5a94	-0.0076401923
16	0x3da876d2	0.08225788
17	0xbc1676e4	-0.009183619
18	0x3c10b028	0.008831061
19	0xbc5ad436	-0.013356259
20	0xbd7e2fe8	-0.062057406
21	0xbd3a0d64	-0.045422927
22	0xbd3485e1	-0.04407299
23	0xbcbebc6e	-0.02328321
24	0xbc59099b	-0.013246919
25	0x3bf92716	0.0076035364
26	0xbbb86e19	-0.005628359
27	0xbc8acc7b	-0.016943207
28	0x3cebffaa	0.028808434
29	0xbc4390ec	-0.011936408
30	0x3c779de8	0.015113331
31	0xbd0228a5	-0.031777043
32	0x3cb3f6b2	0.02196822
33	0xbd16f26c	-0.036852285
34	0x3bd019d7	0.0063507366
35	0xbd044a4b	-0.032297414
36	0xbb82f065	-0.0039959424
37	0xbd09a92b	-0.033608597
38	0x3dcb0e53	0.099148415
39	0x3d2c981f	0.04213726
40	0x3d3afc93	0.04565103
41	0x3d2a7d33	0.041623306
42	0xbc3c9f30	-0.011512563
43	0xbcd69a76	-0.0261967
44	0xbc2dbed4	-0.010604579
45	0xbbc19d54	-0.0059086476
46	0x3c00267c	0.007821675
47	0x3cede572	0.029040072
48	0x3d0a4fdf	0.033767577
49	0xbd32f8a6	-0.04369416
50	0x3c12653d	0.00893527
51	0x3c7fda08	0.015615948
52	0x3d7af7e2	0.061271556
53	0x3db85895	0.09001271
54	0xbb8c2967	-0.0042773965
55	0xbccca818	-0.024982497
56	0x3c5ba707	0.013406522
57	0x3d757535	0.05992623
58	0x3ce870e4	0.028374143
59	0x3cd093e6	0.025461148
60	0x3cce1880	0.025158167
61	0xbac2c6a2	-0.0014860223
62	0x3d039e11	0.032133166
63	0x3c295a70	0.010336503
64	0xbd36ad00	-0.04459858
65	0x3cf25db2	0.029585693
66	0x3cf20d5c	0.029547386
67	0x3ce75014	0.028236426
68	0x3c065ee8	0.008201338
69	0x3d19d72a	0.037558712
70	0x3b3b82a8	0.0028611813
71	0x3c668d3e	0.014071761
72	0x3c1ecf98	0.009693049
73	0xbca0bfcb	-0.019622704
74	0xbd1ae201	-0.03781319
75	0x3d8ba1ee	0.06817995
76	0xbb7bbcc6	-0.0038412078
77	0xbcf9ce2b	-0.030493816
78	0xbd153311	-0.036425654
79	0xbbbfd7b0	-0.0058545694
80	0xbcf85b79	-0.030317055
81	0x3c8ec245	0.01742662
82	0x3c7728ca	0.015085408
83	0xbd72d4ed	-0.059285093
84	0xbd157aa3	-0.03649391
85	0x3c8a263f	0.01686394
86	0xbd257d78	-0.04040286
87	0x3d83699b	0.06416627
88	0xbd14c550	-0.036320984
89	0x3cd21760	0.025645912
90	0x3d297641	0.04137254
91	0xbbd5b2b8	-0.006521549
92	0x3c690314	0.014221925
93	0x3c9d3ffa	0.019195545
94	0xbccb0377	-0.024781926
95	0x3c9ddeb6	0.019271236
96	0x3c27d720	0.010244161
97	0xbd33aa77	-0.04386374
98	0xbcafd276	-0.02146266
99	0xbcf3ef5e	-0.029777225
100	0x3d683cba	0.05669854
101	0x3c006dfa	0.00783872
102	0xbd446759	-0.047950123
103	0xbcd51903	-0.026012903
104	0xbd1f7cd0	-0.03893739
105	0x3c170888	0.009218343
106	0x3c85d91e	0.016338881
107	0xbb19a340	-0.0023443252
108	0x3be6d03a	0.0070438655
109	0x3d34ba1c	0.0441228
110	0x3c9b7419	0.018976258
111	0x3ca187be	0.019718047
112	0x3d1b4af3	0.037913274
113	0xbbc9b7c0	-0.006155938
114	0x3d314fb5	0.043288905
115	0xbd20a885	-0.039223213
116	0xbc5cf68e	-0.013486518
117	0x3d0d1160	0.0344404
118	0x3a37b400	0.0007007718
119	0xbc0a6d3f	-0.008448898
120	0xbca4c7de	-0.020114835
121	0xbc460f63	-0.012088629
122	0x3d96093d	0.07325981
123	0x3c93a5be	0.018023368
124	0xbd43983a	-0.047752596
125	0xbc6f65ac	-0.014611643
126	0xbd8a33de	-0.06748174
127	0x3c4403ec	0.011963826
128	0x3ca13e8a	0.019683141
129	0x3d22959f	0.03969347
130	0x3c82c44a	0.015962739
131	0xbc891974	-0.01673577
132	0x3d2d8d7b	0.042371254
133	0xbd0ee484	-0.0348859
134	0xbd2e2889	-0.042519126
135	0xb9cbe6db	-0.00038891178
136	0x3d0cb5ea	0.034353174
137	0x3cfb594e	0.030682232
138	0xbd1beb92	-0.038066454
139	0x3d1c9997	0.038232412
140	0x3d576df9	0.052595112
141	0xbc74fa07	-0.014952189
142	0x3c562031	0.0130691985
143	0x3d0967b9	0.033546183
144	0xbc21dc00	-0.009879112
145	0xbc2457a8	-0.0100306645
146	0xbc6e00ea	-0.014526585
147	0xba57d0d2	-0.0008232716
148	0xbbbf341b	-0.005835069
149	0x3d1cd069	0.038284693
150	0xbcb5ad40	-0.022177339
151	0x3c769136	0.015049269
152	0x3cfe01f3	0.031006789
153	0xbc8ed45e	-0.017435249
154	0x3c2373a4	0.009976301
155	0x3d33c0c9	0.043885026
156	0xbabd6d6e	-0.0014452168
157	0x3c90c3b6	0.017671447
158	0xbd1f76c8	-0.038931638
159	0x3d152116	0.036408506
160	0xbd36639f	-0.0445286
161	0x3c10dc82	0.008841636
162	0x3cdedff0	0.027206391
163	0x3c21d9ed	0.009878618
164	0xbcc7f52a	-0.024408896
165	0x3ca97c9f	0.020689307
166	0xbd2108ea	-0.03931514
167	0x3d2fe6ed	0.042944837
168	0x3c8fa5e9	0.017535167
169	0x3c640fc2	0.013919773
170	0x3c744a60	0.0149103105
171	0xbd7a9f2e	-0.06118696
172	0x3d33423c	0.043764338
173	0xbd23577e	-0.03987836
174	0x3d5ca57b	0.053868752
175	0x3d062925	0.032754082
176	0x3c5180ed	0.012787086
177	0xb40c0000	-1.3038516e-07
178	0xbc5bd4d0	-0.013417438
179	0xbccab815	-0.02474598
180	0x3c848a79	0.01617931
181	0xbcce43c3	-0.025178796
182	0x3c26add2	0.010173278
183	0xbd23a2d7	-0.039950218
184	0x3b228e01	0.002480388
185	0x3c7be8fd	0.015375373
186	0xbc63c14b	-0.013901065
187	0x3db13ad4	0.08653799
188	0xbcb90f5c	-0.022590332
189	0xbc50b3ec	-0.012738209
190	0xbcb4a67f	-0.022052048
191	0xbc060695	-0.00818028
192	0x3c862e68	0.01637955
193	0xbd11dd63	-0.03561152
194	0x3c8e2196	0.01735
195	0x3d063689	0.032766853
196	0x3a191b50	0.00058405567
197	0xbd1f4280	-0.03888178
198	0xbd259ef8	-0.040434808
199	0xbd1da043	-0.038482916
200	0x3da3e77b	0.08003136
201	0xbc0c7fe8	-0.008575417
202	0xbc4836d8	-0.012220107
203	0xbc92bba8	-0.017911747
204	0x3d19418e	0.037416033
205	0xbcdb75ce	-0.026789572
206	0x3cd84ec1	0.02640474
207	0x3d0e1371	0.03468651
208	0xbc7bbf2c	-0.015365403
209	0x3bf788c0	0.0075541437
210	0x3ba310b8	0.0049763583
211	0x3da09775	0.07841388
212	0x3b1473ec	0.0022652103
213	0xbc6bee49	-0.014400073
214	0xbd2e33a4	-0.042529717
215	0x3cf84452	0.030306015
216	0xbc1f5f03	-0.009727242
217	0xbce7ecdc	-0.028311186
218	0x39820582	0.00024799636
219	0x3cf50220	0.02990824
220	0xbac3f4b0	-0.0014950242
221	0x3baed1aa	0.0053350525
222	0xbcccdb0f	-0.025006799
223	0xbd30dda6	-0.04318013
224	0xbbe27620	-0.0069110543
225	0x3d3473a1	0.044055585
226	0xbd60deac	-0.054899856
227	0xbcf2c19d	-0.029633338
228	0x3d93647f	0.071969025
229	0x3bcf8a38	0.0063336156
230	0x3cb31fcf	0.021865753
231	0xbc3c5038	-0.011493735
232	0x3b819d10	0.003955491
233	0x3ada40a0	0.001665134
234	0xbd1aec4c	-0.037823007
235	0xbccf844d	-0.02533164
236	0xbce5ea57	-0.028065844
237	0x3d9534cd	0.072854616
238	0xbb39f105	-0.0028372419
239	0x3cd941de	0.026520666
240	0xbd2d1e6d	-0.042265344
241	0xbd555fce	-0.05209332
242	0xbc367594	-0.011136431
243	0x3d60ca53	0.05488045
244	0x3bcc05aa	0.006226261
245	0xbb8f2808	-0.004368786
246	0xbd6a4872	-0.057197995
247	0xbba4ce87	-0.005029503
248	0xbc2ab01a	-0.010417962
249	0x3bcc0210	0.006225832
250	0xbd0900ea	-0.033448137
251	0x3cb92056	0.022598427
252	0x3c51acbd	0.012797532
253	0x3cbc81dc	0.02301114
254	0xbc797d58	-0.015227638
255	0xbc6f32c7	-0.014599509

model.4.weight f4 [128, 256]
0	0x3d14f92a	0.036370434
1	0xbd76ce1a	-0.060255148
2	0xbd57f4e0	-0.052723765
3	0xbd66e386	-0.056369327
4	0x3d6fe2ea	0.05856601
5	0x3d1305d0	0.035894215
6	0x3d79c7f4	0.060981706
7	0xbc8f762c	-0.017512403
8	0xbd542a3e	-0.051798098
9	0xbd24a386	-0.04019501
10	0x3ce4cef4	0.027930714
11	0x3d7161aa	0.05893103
12	0x3d00dc50	0.031460106
13	0x3ca6110c	0.0202718
14	0xbcf6f86c	-0.030147754
15	0x3d749bda	0.059718944
16	0xbd545b08	-0.051844627
17	0xbc29f368	-0.010372974
18	0x3c0f25b0	0.008737013
19	0x3d7a31c2	0.06108261
20	0x3ccdcddc	0.025122575
21	0x3d2072e4	0.03917207
22	0xbd66854a	-0.056279458
23	0x3c0551e8	0.008137204
24	0xbc8373d4	-0.016046442
25	0xbd61affc	-0.055099472
26	0x3cdff330	0.02733764
27	0xbd034e02	-0.032056816
28	0xbcef6394	-0.029222287
29	0xbd72e5a6	-0.05930104
30	0xbc5407c8	-0.012941308
31	0x3d5afb1e	0.05346214
32	0xbd1db5f6	-0.03850361
33	0xbc222a38	-0.009897761
34	0xbd24a6fa	-0.040198304
35	0x3ca98660	0.020693958
36	0x3c3849c0	0.011248052
37	0x3cc2e9e4	0.023793168
38	0xbb387220	-0.0028144196
39	0x3d3b825c	0.045778617
40	0x3c28ea48	0.010309763
41	0x3d3a9ba8	0.0455586
42	0x3cf3999c	0.029736333
43	0x3ca6f9b4	0.02038274
44	0xbd089e98	-0.03335437
45	0x3d53a26e	0.051668577
46	0x3d34c5a0	0.044133782
47	0x3cd9f788	0.02660729
48	0x3d4af8f4	0.049553826
49	0xbb2ace40	-0.0026062876
50	0xbcd34e70	-0.025794238
51	0x3d4fe4fe	0.050755493
52	0x3ca210e0	0.019783437
53	0x3ccd0a0c	0.025029205
54	0x3afb2100	0.0019159615
55	0x3d59e574	0.05319734
56	0xbd1671d2	-0.03672964
57	0xbcc83814	-0.024440803
58	0x3bb52df0	0.005529158
59	0x3c46e868	0.012140371
60	0xbcf9f078	-0.030510172
61	0x3d230e54	0.039808586
62	0xbd48c26c	-0.04901354
63	0xbca4e3d4	-0.020128168
64	0xbceb3b34	-0.028714754
65	0xbd422e7c	-0.047407612
66	0xbd2ecb22	-0.04267419
67	0xbd167acc	-0.036738202
68	0xbcc833c4	-0.024438746
69	0x3cfffb24	0.031247683
70	0x3bdbc110	0.0067063645
71	0xbb2ab520	-0.00260479
72	0xbc886400	-0.016649246
73	0x3cb83e80	0.02249074
74	0x3d352d66	0.04423275
75	0xbd527890	-0.05138451
76	0xbd681dbe	-0.05666899
77	0xbd6bc4b2	-0.05756063
78	0x3c257388	0.010098346
79	0xbd2bb532	-0.04192085
80	0xbd3182ea	-0.04333774
81	0xbd1d4dfc	-0.03840445
82	0xbd7af1a8	-0.061265618
83	0xbc6c8418	-0.0144357905
84	0x3c85db04	0.016339786
85	0x3d57f3ce	0.052722745
86	0xbd6d1230	-0.057878673
87	0xbd09fa24	-0.03368582
88	0x3d533b30	0.051570117
89	0x3d41dfe6	0.047332667
90	0x3cbc8340	0.023011804
91	0x3d1fef02	0.039046295
92	0x3d377fc0	0.044799566
93	0xbd27897a	-0.040902592
94	0x3cefaef8	0.029258236
95	0xbcf947bc	-0.030429713
96	0xbc488f40	-0.012241185
97	0x3c91f734	0.017818071
98	0x3c2abc40	0.010420859
99	0x3d1ca8ee	0.03824704
100	0x3c288c08	0.010287292
101	0x3b62d820	0.0034613684
102	0x3cea5df8	0.02860926
103	0xbd41a7e8	-0.04727927
104	0x3d2cc6b0	0.04218167
105	0xbc992068	-0.01869221
106	0xbceb8dac	-0.028754078
107	0x3d192a02	0.037393577
108	0xbd58d44a	-0.05293683
109	0xbb810140	-0.0039369166
110	0x3d277cdc	0.04089056
111	0x3cccd714	0.025004901
112	0xbcb03994	-0.02151183
113	0xbc95c5dc	-0.018282823
114	0xbca2d750	-0.01987806
115	0xbb707f40	-0.003669694
116	0xbc8aa348	-0.016923562
117	0x3c829668	0.01594086
118	0x3aa94e00	0.0012916923
119	0x3b4d24a0	0.0031302348
120	0x3ca352e4	0.019936986
121	0xbb119ea0	-0.0022219792
122	0xbd6bf7ee	-0.05760949
123	0xbd484612	-0.04889495
124	0x3c87c68c	0.016574167
125	0xbd22fcfe	-0.039792053
126	0xbd058df8	-0.032606095
127	0xbcf29b30	-0.029615015
128	0x3d040a02	0.032236107
129	0xbd4e5fdc	-0.050384387
130	0xbb129360	-0.0022365674
131	0x3d008676	0.031378232
132	0x3cd7dff0	0.026351899
133	0xbcd256a8	-0.025676087
134	0x3d08a64a	0.03336171
135	0x3bd871b0	0.0066053495
136	0x3d413730	0.04717177
137	0x3cc57828	0.024105147
138	0xbd7c28fa	-0.061562516
139	0x3d463382	0.048388965
140	0x3b35adc0	0.0027721971
141	0x3d7eee88	0.0622392
142	0xbc195cb8	-0.009360485
143	0x3d49a6ec	0.049231455
144	0x3d476920	0.04868424
145	0xbd3e7fb2	-0.0465085
146	0xbd124864	-0.03571357
147	0x3d4c1dd0	0.04983312
148	0x3d706510	0.05869013
149	0xbd4bfd02	-0.049801834
150	0xbb8e8240	-0.004349023
151	0xbc812944	-0.015766747
152	0x3d23c8a4	0.039986268
153	0x3d4cd1e6	0.050004862
154	0xb82bb000	-4.093349e-05
155	0x3d6d769a	0.057974435
156	0x3cabdba8	0.020978764
157	0xba036500	-0.00050123036
158	0x3c8863ac	0.01664909
159	0x3c0e8230	0.008698031
160	0xbb8568e0	-0.00407134
161	0x3d27d3c2	0.040973432
162	0x3d748b56	0.059703194
163	0xbd57afe0	-0.05265796
164	0xbd74ecc8	-0.059796125
165	0xbce15a2c	-0.027508818
166	0xbc7b07d0	-0.015321687
167	0x3d7b13bc	0.061298117
168	0xbd0cba70	-0.03435749
169	0x3b4b9880	0.003106624
170	0x3ce790a0	0.028267205
171	0xbca593e0	-0.020212114
172	0xbd0dd51c	-0.034627065
173	0xbd14c220	-0.036317945
174	0xbcf1b6b4	-0.029506065
175	0x3d7cd472	0.06172604
176	0xbc259c68	-0.010108091
177	0xbd2c4a26	-0.0420629
178	0x3d694b0a	0.05695633
179	0xbbf21210	-0.007387407
180	0xbcb0e3d8	-0.02159302
181	0x3d5fa4b6	0.05460044
182	0xbd0307ea	-0.03198997
183	0xbd0e45d6	-0.03473457
184	0xbd1be594	-0.03806074
185	0x3d543bfc	0.051815018
186	0xbc40b9b0	-0.011763021
187	0x398ab800	0.00026458502
188	0xbc668d30	-0.014071748
189	0x3cfd5330	0.030923456
190	0xbd36bf9e	-0.044616334
191	0x3c871820	0.016490996
192	0xbd7671d4	-0.06016715
193	0xbc8d36a8	-0.017237976
194	0xbc8d2d3c	-0.017233483
195	0xbd1f7586	-0.03893044
196	0xbcef3f1c	-0.029204898
197	0x3d56e34c	0.05246286
198	0xbbc6b5f0	-0.006064169
199	0xbc9f8eb4	-0.019477226
200	0xbd48b204	-0.048997894
201	0x3d3be0c0	0.045868635
202	0x3d3476d0	0.04405862
203	0x3d0a2abe	0.03373217
204	0xbd4b8498	-0.049686998
205	0x3a064280	0.00051216036
206	0x3cc97194	0.024590291
207	0x3d5a76ce	0.053335957
208	0x3cce1d54	0.02516047
209	0x3d4b1bcc	0.049587056
210	0xbd345b92	-0.04403264
211	0xbd64941e	-0.055805318
212	0xbd2fc4ac	-0.04291217
213	0xbd4ae1ce	-0.04953175
214	0x3d199d5a	0.037503578
215	0xbd0d2464	-0.034458533
216	0xbd0094b0	-0.0313918
217	0x3c0b4ae8	0.008501746
218	0xbc0b95d8	-0.008519612
219	0x3c72a7e8	0.01481054
220	0xbd3201ec	-0.043458864
221	0xbcb2529c	-0.021767907
222	0x3d0b69b6	0.03403636
223	0x3c556c98	0.013026379
224	0xbc56da38	-0.013113551
225	0xbcf2ceb8	-0.029639587
226	0x3d732a92	0.05936677
227	0xbd243c8c	-0.040096804
228	0x3d0316d6	0.0320042
229	0x3d0cd3b8	0.0343816
230	0x3c8faa74	0.017537333
231	0xbd308536	-0.04309579
232	0xbc718698	-0.014741562
233	0xbc0e0738	-0.008668713
234	0xbd6ea94e	-0.05826693
235	0xbcd334dc	-0.025782041
236	0x3d791e96	0.060820185
237	0x3c155338	0.009114079
238	0xbd59bcae	-0.053158455
239	0xbd438318	-0.047732443
240	0x3cc97478	0.02459167
241	0xbd36448c	-0.044498965
242	0xbcbb1f98	-0.022842214
243	0xbd3b6fc6	-0.045760892
244	0xbd08824e	-0.033327393
245	0xbb3af8c0	-0.0028529614
246	0xbcaa6394	-0.020799436
247	0x3c421ec8	0.011848159
248	0x3d319572	0.043355413
249	0x3d49b80e	0.049247794
250	0xbcc9a1c4	-0.024613269
251	0x3c3557f0	0.011068329
252	0xbd074e60	-0.03303373
253	0xbc369c20	-0.011145622
254	0xbc829fd4	-0.015945353
255	0xbd0382c6	-0.032107137

model.4.bias f4 [128]
0	0x3bd63bd0	0.006537892
1	0x3d884076	0.0665292
2	0xbca971c4	-0.02068413
3	0x3ce5b600	0.028040886
4	0x3d11afac	0.035567924
5	0xbc41ca54	-0.011828024
6	0x3d8da6d9	0.06916589
7	0x3dab2dc2	0.08358337
8	0x3d58b746	0.05290916
9	0xbc56af71	-0.013103352
10	0x3de64f09	0.112455435
11	0xbcbe5f84	-0.023238905
12	0x3cc0a970	0.023518294
13	0x3d974056	0.07385318
14	0x3c14a76b	0.009073119
15	0x3cdfef35	0.027335742
16	0xbc8856ec	-0.01664301
17	0x3cbee9aa	0.02330478
18	0x3e012877	0.12613092
19	0xbc620270	-0.013794526
20	0xbc92798e	-0.017880227
21	0xbd36cb5c	-0.044627532
22	0x3d5e7e93	0.05431993
23	0x3c7ad43e	0.015309392
24	0xbcbb1871	-0.022838803
25	0xbd2d132f	-0.042254623
26	0xbb2e3945	-0.0026584428
27	0x3d2dcda2	0.042432435
28	0x3d1dbb29	0.038508568
29	0x3bff9722	0.007799999
30	0x3c9b2379	0.018937813
31	0x3bbdc7fc	0.0057916623
32	0x3e15159d	0.14559026
33	0x3d2596ca	0.040427007
34	0x3c304464	0.010758493
35	0xbbb711c2	-0.0055868337
36	0x3dff11de	0.1245458
37	0xbd2923a6	-0.041293763
38	0x3cd5fa2d	0.02612027
39	0x3d97f125	0.074190415
40	0xbb9e32e0	-0.004827842
41	0xbb4adb86	-0.00309536
42	0x3bfab18d	0.0076505602
43	0x3d533d67	0.05157223
44	0xbc4ff228	-0.012692012
45	0x3df0983b	0.11747786
46	0xbd3485ea	-0.044073023
47	0x3d0a1604	0.033712402
48	0x3d35210b	0.044220965
49	0x3cdd5236	0.02701674
50	0x3c1f1e3e	0.0097118
51	0x3c29867e	0.010347007
52	0x39deb1f6	0.0004247573
53	0x3cc82c91	0.024435313
54	0x3db24741	0.08704997
55	0x3d60c4b7	0.054875102
56	0x3cc488a4	0.023990937
57	0xbd0ab24d	-0.033861447
58	0x3cd614ad	0.026132906
59	0x3cae2dbd	0.021262044
60	0xbbfcba89	-0.0077126664
61	0xbd1abdb6	-0.03777858
62	0xbd71d092	-0.0590368
63	0x3e162765	0.14663465
64	0x3d4be2b4	0.049776748
65	0xbc032e1d	-0.0080066
66	0x3de12b76	0.10994618
67	0xbd6e6809	-0.058204684
68	0x3d23bbf9	0.039974187
69	0xbd340af6	-0.043955766
70	0xbc502a38	-0.012705378
71	0xbd080e56	-0.033216797
72	0xbcffaf94	-0.031211652
73	0x3cf0583b	0.029338947
74	0x3dda309f	0.10653805
75	0xbd2f8777	-0.0428538
76	0x3c97bcc7	0.018522633
77	0x3c892826	0.016742777
78	0xbc070798	-0.008241557
79	0x3c888678	0.016665682
80	0x3d0475a4	0.032338753
81	0xbc2d9317	-0.010594151
82	0xbd6378c2	-0.055535085
83	0xbd201545	-0.039082784
84	0xbd329d56	-0.04360708
85	0x3cf6aa21	0.03011042
86	0xbcb6ed10	-0.022329837
87	0x3df8acfd	0.1214237
88	0x3da5e1fc	0.08099744
89	0xbd8b2fff	-0.06796264
90	0x3ca0bb04	0.019620426
91	0xbc4ddd2e	-0.01256494
92	0xbcdf071b	-0.027225068
93	0x3cfaba8c	0.03060653
94	0x3dbbc588	0.091685355
95	0xbd1ea627	-0.038732674
96	0x3dd68f4a	0.10476549
97	0xbca2ded8	-0.01988165
98	0x3c11dbaf	0.008902474
99	0x3df1c797	0.11805647
100	0xbd900f32	-0.07034148
101	0xbd5d128d	-0.05397277
102	0x3e093b98	0.1340164
103	0xbd3e7e9a	-0.046507455
104	0x39b04836	0.00033623137
105	0x3d10bb0b	0.035334628
106	0xbc622b09	-0.013804206
107	0x3d1eafd2	0.038741894
108	0xbccb6a3a	-0.024830926
109	0xbcd163f0	-0.02556035
110	0x3d20e4c0	0.039280653
111	0xbd504b8c	-0.050853297
112	0xbceddf28	-0.029037073
113	0xba21b97d	-0.00061693025
114	0xbd24a502	-0.040196426
115	0xbc4d62ec	-0.012535792
116	0x3d3db8ea	0.046318926
117	0x3e0a1b7e	0.1348705
118	0x3d05154f	0.032491025
119	0x3d363002	0.044479378
120	0xbc2958aa	-0.010336081
121	0xbd1fc398	-0.039004892
122	0xba85bdc3	-0.0010203648
123	0xbd34b0a5	-0.044113774
124	0xbbc234f0	-0.005926721
125	0xbbe3c709	-0.006951217
126	0xbc8afd29	-0.01696642
127	0xbd7a4890	-0.061104357

model.6.weight f4 [5, 128]
0	0xbd9a5a79	-0.075367875
1	0x3d32fa1a	0.043695547
2	0xbd462a3a	-0.048380114
3	0x3c2a95b0	0.010411665
4	0x3d2c453f	0.042058226
5	0xbcf14be8	-0.02945514
6	0x3d101794	0.035178736
7	0x3d573250	0.052538216
8	0x3d530005	0.05151369
9	0x3b9f001d	0.0048523084
10	0xbc90719c	-0.017632298
11	0xbd39fc84	-0.045406833
12	0xbd8ccf7a	-0.068755105
13	0x3da00ce7	0.07814961
14	0x3cd33e09	0.025786417
15	0x3d72c9df	0.05927455
16	0xbc9566e4	-0.018237539
17	0xbcc56070	-0.024093837
18	0xbc761def	-0.015021785
19	0xbc7dca88	-0.015490182
20	0xbc2b5405	-0.010457044
21	0x3ba74ba0	0.0051054507
22	0x3db0266b	0.08601078
23	0x3cce3736	0.025172811
24	0xbcf56bdb	-0.029958656
25	0x3b149ba5	0.002267578
26	0x3d8f2067	0.06988602
27	0xbd223ef2	-0.03961081
28	0x3d1b4ee5	0.037917037
29	0xbd119146	-0.035538934
30	0x3b2a4420	0.0025980547
31	0x3cf0eb8c	0.029409193
32	0x3d3b3867	0.045708086
33	0xbd610fb7	-0.054946627
34	0xbd391e8a	-0.04519514
35	0xbd9fc5fc	-0.078014344
36	0x3dfbaade	0.1228845
37	0xbd87f652	-0.06638779
38	0x3cae1293	0.021249091
39	0x3d035e56	0.032072388
40	0xbd2bc19a	-0.04193268
41	0xbcc73db3	-0.024321413
42	0xbd9ebbc9	-0.07750661
43	0xbd8e69a4	-0.06953743
44	0xbccc15c0	-0.024912715
45	0x3dabd32b	0.083898865
46	0xbcd1ce9c	-0.025611214
47	0x3ce1c168	0.027558044
48	0x3cca8b84	0.02472473
49	0xbc2c3d8e	-0.010512723
50	0x3ae3343f	0.0017334296
51	0x3ce3b3de	0.027795728
52	0x3def49d7	0.11684006
53	0x3db878e1	0.09007431
54	0xbc37e712	-0.011224525
55	0x3db4ab65	0.088217534
56	0xbd8ac97e	-0.06776713
57	0xbd2c6add	-0.0420941
58	0xbd956fc0	-0.07296705
59	0xbda43974	-0.08018771
60	0x3d8aee87	0.06783777
61	0x3c8dd83b	0.01731502
62	0xbda20a53	-0.079121254
63	0x3dc73f13	0.09728827
64	0xbd679192	-0.05653531
65	0xbcf5d591	-0.030009063
66	0x3d625d3b	0.055264693
67	0x3d7d08d3	0.061775994
68	0xbc4f39ff	-0.012648105
69	0xbd6170f9	-0.05503938
70	0xbbda3320	-0.0066589266
71	0x3cddcdb8	0.027075633
72	0x3d8999a9	0.067187615
73	0xbd3865dd	-0.04501902
74	0x38e8fc11	0.00011109573
75	0x3b5f82a1	0.003410496
76	0x3cfc0049	0.030761855
77	0x3c9ac817	0.018894238
78	0xbba44440	-0.005013019
79	0x3c88eb64	0.016713805
80	0x3d3ed66a	0.0465912
81	0x3d04bab8	0.03240463
82	0xbce501d4	-0.027954973
83	0xbc01aba4	-0.0079144575
84	0x3d6beca2	0.057598718
85	0xbd76a031	-0.060211364
86	0x3d9a38ff	0.075304024
87	0xbc01a0c1	-0.007911862
88	0x3dd913bd	0.10599468
89	0x3d9a103b	0.07522627
90	0xbcb30230	-0.021851629
91	0x3d51bf07	0.05120757
92	0x3b9ba502	0.004749895
93	0xbdab6305	-0.08368496
94	0x3de41407	0.111366324
95	0xbd7cf328	-0.06175533
96	0x3ce8a19c	0.028397374
97	0x3c88b814	0.016689338
98	0xbcf92898	-0.030414864
99	0x3db1a146	0.086733386
100	0xbd1eb718	-0.03874883
101	0x3cec3b10	0.028836757
102	0x3d68be3a	0.05682204
103	0xbd4474a6	-0.047962807
104	0x3c1cb825	0.009565388
105	0xbc79075f	-0.015199511
106	0xbd98aebb	-0.07455202
107	0xbd9f59c3	-0.077807926
108	0xbd65cad2	-0.056101628
109	0x3da42a13	0.080158375
110	0x3dc6b3ce	0.09702264
111	0x3b2b712d	0.0026159987
112	0xbc92be24	-0.017912932
113	0x3cb49084	0.022041567
114	0xbda23827	-0.079208665
115	0x3d8102bb	0.06299349
116	0xbda4c1e8	-0.08044797
117	0x3dabf458	0.08396214
118	0x3c9b5214	0.018960036
119	0x3d51cf3e	0.051223032
120	0x3cbe530e	0.023232963
121	0xbd944781	-0.07240201
122	0x3bcbeb7f	0.0062231417
123	0x3d66ab7c	0.056315884
124	0xbccf7ccc	-0.025328062
125	0xbc0aeb4b	-0.00847895
126	0x3bff7830	0.00779631
127	0xbd6abecf	-0.057310876
128	0xbbffb720	-0.0078038126
129	0x3d7ce131	0.061738197
130	0xbd8e9347	-0.06961685
131	0x3cde5c1c	0.02714353
132	0xbc9527f1	-0.018207522
133	0xbcc48877	-0.023990853
134	0xbb870cf7	-0.0041214186
135	0x3dc252c1	0.0948844
136	0xbd0ad6f7	-0.033896413
137	0xbd057463	-0.0325817
138	0x3caec208	0.021332756
139	0xbd4ddd93	-0.050260138
140	0x3d378fda	0.044814922
141	0x3d885686	0.06657128
142	0xbc4a0128	-0.012329377
143	0x3d4e3edc	0.050352916
144	0xbd9982be	-0.0749564
145	0x3d851cb0	0.06499612
146	0x3db32260	0.08746791
147	0x3cd66fa4	0.026176281
148	0x3da75190	0.08169854
149	0xbccee444	-0.02525533
150	0x3da03b1c	0.07823774
151	0x3d9c30cc	0.07626495
152	0x3b4b3373	0.0031006008
153	0xbd61ae1c	-0.055097684
154	0x3adbaec5	0.0016760459
155	0xbd5e840f	-0.05432516
156	0xbcb5b8d9	-0.022182869
157	0xbd676bf6	-0.056499444
158	0xbd06ac65	-0.032879252
159	0xbd7e2e5f	-0.06205594
160	0x3db1ecf3	0.086877726
161	0x3cb523e1	0.022111835
162	0x3d81ce79	0.0633821
163	0xbcab6e49	-0.020926611
164	0x3de37d34	0.11107865
165	0x3c649080	0.013950467
166	0x3ba7bdf8	0.0051190816
167	0x3d11b2c4	0.035570875
168	0xbd915898	-0.07096976
169	0x3d0089d1	0.031381432
170	0x3d58b3ca	0.052905835
171	0xbd8d2d16	-0.06893365
172	0x3d3c4622	0.04596532
173	0x3dc366ad	0.09541068
174	0x3a479000	0.0007612705
175	0x3d237236	0.039903842
176	0x3c9f591f	0.019451676
177	0xbd8303f7	-0.063972406
178	0x3cf96723	0.030444687
179	0xbd2de07f	-0.042450424
180	0xbd1c2b09	-0.03812698
181	0x3d1741a8	0.03692785
182	0x3d1efe78	0.0388169
183	0x3d97588b	0.07389935
184	0x3d4bbe05	0.049741764
185	0x3d1f1228	0.038835675
186	0x3d4c27e8	0.049842745
187	0x3dc0c98a	0.094134405
188	0xbd3014a5	-0.04298844
189	0x3b8c93aa	0.004290064
190	0x3dba6a46	0.09102301
191	0x3de3ddcd	0.111262895
192	0x3d8905aa	0.066905335
193	0x3dac60b9	0.08416886
194	0x3bfc1343	0.007692726
195	0xbda2040b	-0.079109274
196	0x3b51b61c	0.0031999415
197	0x3aa751c0	0.0012765452
198	0xbdaf1e55	-0.08550707
199	0x3c107798	0.008817576
200	0x3d2d8940	0.04236722
201	0xbd1cddc1	-0.03829742
202	0x3c847b7a	0.01617216
203	0x3cf2e0fb	0.029648295
204	0xbd9f52f1	-0.07779492
205	0x3d16839d	0.03674661
206	0x3ca63452	0.02028862
207	0x3daa782b	0.083237015
208	0xbd58d699	-0.05293903
209	0x3d32b19c	0.043626413
210	0x3dafd263	0.0858505
211	0x3af73131	0.0018859265
212	0xbd5498bd	-0.051903475
213	0x3c78f5b1	0.015195296
214	0x3c1cc8f8	0.009569399
215	0x3d70eb37	0.05881807
216	0x3d91029b	0.07080575
217	0xbd8bcf8c	-0.06826696
218	0xbc912dd7	-0.017722053
219	0xbd8dad2e	-0.06917797
220	0x3c80f657	0.015742464
221	0xbda81390	-0.08206856
222	0x3c9f3648	0.019435063
223	0xbd204d88	-0.03913644
224	0x3d862a09	0.06550986
225	0xbd8000b0	-0.06250131
226	0x3cb4084d	0.021976614
227	0x3cd88dc4	0.026434787
228	0x3c5d1804	0.013494495
229	0xbb8758e0	-0.004130468
230	0x3d9d82ad	0.0769094
231	0x3d8874e1	0.06662918
232	0x3c8a0299	0.016846942
233	0x3d231899	0.03981838
234	0x3d86c3ec	0.06580338
235	0xbd24af5b	-0.040206295
236	0xbcecaf40	-0.02889216
237	0x3d831393	0.06400218
238	0x3daaa6b2	0.08332576
239	0x3ca213bd	0.019784803
240	0x3ce66af7	0.028127177
241	0xbcc6fd2a	-0.02429064
242	0x3d5126cc	0.05106239
243	0xbd1983c9	-0.037479196
244	0xbd92d68f	-0.0716983
245	0x3dd84107	0.10559278
246	0x3c9eb4a8	0.019373253
247	0xbc699c40	-0.014258444
248	0x3bf9b09f	0.007619932
249	0xbd139ac5	-0.03603627
250	0xbbc30d60	-0.005952522
251	0x3d9ff746	0.078108355
252	0xbd6f2cb2	-0.058392234
253	0x3a1536ad	0.0005692046
254	0xba3f8280	-0.0007305518
255	0xbd3a161c	-0.04543124

model.6.bias f4 [5]
0	0xbcd21aef	-0.025647609
1	0x3e118c11	0.14213587
2	0x3e0c28bc	0.13687414
3	0x3d0f433e	0.034976237
4	0x3d1b915e	0.03798043
