2021-22/PrimerSemestre/Reinforcement/PRA1/DQN.pth (torch, 674127 bytes, 8 tensors)

model.0.weight f4 [512, 5]
00000000: cc36 45be 773c d6be e8ce 8a3e b1a5 74be
00000010: fcca 8bbd e770 e2be 49e3 603d b650 8cbe
00000020: 2060 5f3e 3a98 6fbe a29f da3e 480b e3be
00000030: b487 a73e 6c48 bb3e 84f0 0a3e 48c2 6abe
00000040: 240d 293e c018 91bb 54d2 c1be 8c68 dcbd
00000050: 3151 4e3e 3215 53be 1888 2dbe d512 c5be
00000060: 77fe 96be 3e44 45be b813 12bd 6cd0 59be
00000070: 35eb acbe 14d6 f8bd 1839 b6bd 58c9 fabd
00000080: 1666 87be 1c93 dabd 7d7c b4be 12da 1fbe
00000090: fdc0 a7bd 2274 dcbd 07bf 343e 1805 11be
000000a0: 85da 4f3e 9f36 863e 2e84 8dbe d367 5e3c
000000b0: 14dd 153f 03a5 c0be 5627 babe 785c af3e
000000c0: 34d7 db3e 1198 353e ec45 7e3e 8099 a8bc
000000d0: 4ccf 92bd b2c6 a8be d043 09bd e620 ce3e
000000e0: 6288 24be a57b 9f3e 7f7a f4bd 090c e4be
000000f0: 2e8f 8c3e 06cc bcbe 7c30 9e3e 882d 3a3e
00000100: 8034 9f3d ecf6 a33e 3e2d 67be 8cc8 03be
00000110: c1cf c4be b034 cf3e bfe0 803d 58bc 1b3e
00000120: 4b80 95be 252a 7fbe 703a c13e 9537 213b
00000130: 01d9 03bd b44c b7be 6ad4 e2be 3261 db3d
00000140: 395a 903d db77 86be a43f 18be 8da3 c2be
00000150: 5116 e2bc 585e 333e bdd6 f0bd d663 f2bd
00000160: 8142 ae3d ba38 1b3e 2c9a 0ebe 6e96 02be
00000170: 009c 923d 708f 0ebe 581d 7dbd 0afa 2bbe
00000180: 80f5 a43d a0d3 d3be 00fb 88bd 3006 eabc
00000190: f859 4d3e a060 dfbc a0f9 cb3d 5300 d3be
000001a0: 383a c33e a8f5 a4bd 783b 4cbb ce18 b63d
000001b0: 3465 ddbe 69a4 433e a8df 833e 7173 79be
000001c0: f481 a5be 75b8 40bc d91b 893e e5b5 91be
000001d0: 8e16 8b3e d384 d8bc 26b1 893e 4959 5dbc
000001e0: 4e24 45be c502 1a3e a0b4 8c3e e6ba dbbe
000001f0: 9c02 b3be 1d3f af3d b307 febc 76f7 66bd
00000200: 81bd 45bd 32ea 363e b67b a0be caef 19be
00000210: ed10 833d b908 20bd 3d72 a6be efca b9be
00000220: da15 bf3e 0c97 403e 7400 c43e 0049 393e
00000230: 460b a2bd 674c 8d3e f717 383e 3ce9 ad3e
00000240: 5437 37bd dc59 34be 60f8 51be 4a2c 03be
00000250: 10cd 603d 44ab 663e dd62 2d3c 5f01 833b
00000260: f00d 27bf 8903 3cbe d848 afbe 1c59 0fbe
00000270: 12fd 4c3e a846 bbbd 189d f13c 393c edbd
00000280: b13c 63be 60e6 cbbd 1007 7ebe 54a7 eabd
00000290: 5285 e43e 1848 a8be 9058 513d 4899 babd
000002a0: ce27 9dbe dc80 de3e 6d89 a3be 0cc4 b0be
000002b0: 266b 02be b8b8 f13d d84a 683e 7469 7f3e
000002c0: e0c2 97bd b435 aebe 4c6a 6cbe f44c 263e
000002d0: ef5b b23e 1fee 9d3e fb54 443e 44ba 00bf
000002e0: 78af 12be d75d 633e 215d c33e cb6f 24bf
000002f0: 6e8d dcbe efef c83e 7b66 71be 452c 343d
00000300: f286 083b 523e 933d c7c1 b3be 5880 70be
00000310: c8c6 dfbd b182 a1be d4cf 183e c0dc d33c
00000320: 9a42 8bbe 809a 25bc 2c1b 0e3e 365a 01be
00000330: 92cb 5fbe b876 3f3e 45dd 72be 6e05 cabe
00000340: 2101 c8be 16ef 8c3e 6b13 e6be 021d 513e
00000350: 91fb ebbe 40c2 103d 9d18 223e 05c9 aabe
00000360: d884 023e b054 5e3e ec1a 993e b474 a93e
00000370: c589 aabc 70f3 9c3b 57bb 053e 10a7 c43e
00000380: bb1f 00bf a058 a43e 2542 50be d52f b3bd
00000390: dc69 eebe 2d4f c8be 1cfe 363e 50a7 0d3e
000003a0: 0ee5 793d 0653 ffbd 8a7c 05bf f13d adbe
000003b0: 1eac 80be b4b2 e43e 1041 aa3d ac45 c0bd
000003c0: 67be c3be ea9d c63e 3ba0 21bf 5450 e93e
000003d0: fdc3 0b3f 7c1b debe 273b cc3d 1dce 0f3e
000003e0: 38be 8e3c 4b0a 75be 32ca a93e 484a 8dbd
000003f0: e5b1 e53d afda bfba f9c7 0abf cd46 a8be
-0.19259185 -0.41843006 0.27110982 -0.23891331 -0.068258256 -0.44226763 0.054904256 -0.27405328
0.21814013 -0.23397914 0.42699915 -0.44344544 0.3272072 0.3657869 0.13568312 -0.22925675
0.16508919 -0.0044279993 -0.3785578 -0.10762128 0.2014816 -0.20613554 -0.16946447 -0.3849093
-0.29491016 -0.19264314 -0.035663337 -0.21270913 -0.337732 -0.12150207 -0.088976085 -0.122454345
-0.26445073 -0.1067259 -0.35251227 -0.15610531 -0.081911065 -0.10764338 0.17650996 -0.141621
0.20298202 0.26213548 -0.27639908 0.013574558 0.58540463 -0.37625894 -0.36358136 0.34250236
0.42937624 0.1773379 0.2483136 -0.020581007 -0.07168445 -0.32964092 -0.033511937 0.40259475
-0.16067651 0.3114902 -0.11937427 -0.44540432 0.27452987 -0.36874408 0.30896366 0.18181431
0.077736855 0.32024324 -0.22575852 -0.12869471 -0.38439754 0.40469885 0.06292867 0.15208566
-0.29199442 -0.2491842 0.37739897 0.002459978 -0.032189373 -0.35800707 -0.44302684 0.10711898
0.070484586 -0.26263317 -0.14868027 -0.38015404 -0.027598532 0.17516458 -0.11759708 -0.118354484
0.08508778 0.15158358 -0.13926 -0.12752697 0.07158661 -0.13921905 -0.061795563 -0.16794601
0.08054638 -0.41372395 -0.066884995 -0.028567404 0.20053852 -0.027267754 0.099597216 -0.41211185
0.38130355 -0.08054668 -0.0031163376 0.0889145 -0.43241274 0.19105686 0.25756574 -0.24360444
-0.3232571 -0.011762728 0.2677906 -0.28459087 0.27165645 -0.026430523 0.26892966 -0.013510057
-0.1925213 0.15040119 0.27481556 -0.4291603 -0.34962928 0.0855696 -0.03100953 -0.05638834
-0.048276428 0.17862776 -0.31344384 -0.15032879 0.06399713 -0.03907082 -0.32509032 -0.3628764
0.3732136 0.1880762 0.38281596 0.18094254 -0.079123065 0.27597353 0.17977892 0.33967006
-0.0447305 -0.17612404 -0.20504904 -0.12809864 0.054883063 0.2252627 0.010582653 0.003997966
-0.6525564 -0.18360724 -0.34235263 -0.13998836 0.20018414 -0.09144336 0.029493853 -0.11583752
-0.2219112 -0.0995605 -0.24807382 -0.114576966 0.44632965 -0.32867503 0.05110985 -0.09111267
-0.3069443 0.43457687 -0.31940785 -0.34524572 -0.12736186 0.118028104 0.226848 0.24942571
-0.07410216 -0.34025347 -0.23087424 0.16240293 0.34835765 0.30845734 0.19173042 -0.5028422
-0.14324749 0.22203766 0.3815699 -0.6423308 -0.43076652 0.39245555 -0.2357425 0.04398753
0.0020832387 0.07189621 -0.35108778 -0.2348646 -0.109265864 -0.31545022 0.1492303 0.025862098
-0.2719925 -0.010107636 0.13877553 -0.12632069 -0.21855 0.18697631 -0.2371722 -0.39457268
-0.3906336 0.27526158 -0.4493669 0.20421222 -0.46090367 0.0353415 0.15829702 -0.3335649
0.12745988 0.21711993 0.29903352 0.3309685 -0.020817647 0.004789762 0.13059746 0.3840871
-0.50048417 0.32098866 -0.20337732 -0.087493576 -0.4656514 -0.39122906 0.17870373 0.13833356
0.06100946 -0.12467007 -0.52143157 -0.3383632 -0.25131315 0.4466759 0.08313191 -0.09388289
-0.38231203 0.38792354 -0.6313512 0.45569098 0.5459593 -0.43380344 0.0997222 0.1404347
0.017424688 -0.23929708 0.33162075 -0.06898934 0.11215571 -0.0014637316 -0.54211384 -0.32866517

model.0.bias f4 [512]
00000000: 5c14 f9bd 2f2b 9a3e 0848 d0be 5c70 47be
00000010: 8584 973e 9c6c d1be 002a 84bd b08b 2d3e
00000020: 4fca fabe 565c 973e 5eaa c4be f754 123e
00000030: b461 76be 5429 e2be b208 22be b14a 7e3e
00000040: 5462 863e d502 cbbd 0026 293d 8c75 cdbd
00000050: d43b 75be 9068 2e3e 6858 52bd 5e3a babd
00000060: 860e 7abd f7b6 ab3e 8e77 ce3e 882c 99be
00000070: 5591 efbe 23e6 77be 7d7c da3a 3312 99bd
00000080: bca9 2f3e bcac aabd 0c22 f4bd 0d8e 5fbe
00000090: 4ce1 9f3e 8c92 3abe 23e6 193e 0805 c83d
000000a0: c6db 4dbe 9c24 0ebe f421 643e de35 2cbe
000000b0: e2ee 72be 8375 0d3e 8bf7 9abe a87c 72bd
000000c0: 43f5 8ebd e51b 5d3e 1c01 9a3e 2842 92be
000000d0: 58ea 4fbd 4c17 19be c8c2 ddbe 7dd1 4a3e
000000e0: 32d7 b8be e444 dcbe bb38 8cbe c819 d1bd
000000f0: c279 443e fdf7 bfbe 3dcf 913b 4730 ad3e
00000100: acc2 adbe 8a9b bcbe bf18 15be a224 41be
00000110: f1ad 023e 288f 5abe 504b 1a3d f42e 4b3e
00000120: 26e0 933e 79ba a2be ce8b 6cbe f0f5 b23d
00000130: 0960 6b3e 5693 42be f636 a8be d4c5 c83e
00000140: 1b20 ac3e 7df8 293d e0a6 c93e f74c debe
00000150: d13b 813e d529 b7bd 8fda 093e 3ab0 3f3c
00000160: 7ad8 42bd 209d 65be 02ac 0fbe 85fd 09be
00000170: b259 2f3d 0829 b2be c078 d43d dfe8 35bd
00000180: 895a 45be 914b 6ebe 6d04 dfbe f168 e03d
00000190: 323c 963e 8a43 733e 84ed aabe 4c6a b6bd
000001a0: eecd 753e ef1e a53e 0c5d 02bb 55d6 553e
000001b0: 9087 e0bd e827 5c3b bf40 233e 2ec8 6e3e
000001c0: 50e2 a7bd 5e03 d73e db96 713e 3654 cbbe
000001d0: a381 99be 5caa 47be 02c3 0ebe b8fb d6be
000001e0: c80f 8ebe 5e5a 9bbe a2a2 983e 139d 913e
000001f0: 2411 303e e53e 603e 57cf acbb a003 163c
00000200: b80d 0c3d 536d 7cbe ca74 263e 0ac1 8ebe
00000210: e0f8 a13d 00cd 1c3b b9c7 b53c e218 acbe
00000220: c937 4cbb 6185 64be 0c20 56be c8d0 bcbe
00000230: fd16 9dbe e6f0 d7be 4914 8dbe 9561 933e
00000240: 5a0e 8a3e 27b3 143e ce49 613e 537c 91be
00000250: effb c33e f871 aebe f842 97be 73ca 21bd
00000260: a13e cb3e 6a36 ca3e 2efd aabc 3988 59be
00000270: 5700 8a3e c579 a9be e8b3 b83e 4f67 0d3e
00000280: 8053 d53b 7eb4 8cbe 1c61 abbd 85d4 f63d
00000290: 828c 7cbe c27e 27be 409a 343e bc70 41be
000002a0: 98f4 cdbe 2106 8c3e 02da d63e 3a46 ebbe
000002b0: 0750 aebe ecb5 24be 6021 ab3d de3c ad3d
000002c0: 34bd 88be 619e 08be 7bcf 983e 7c25 943d
000002d0: 8046 72bc dff1 c2be da4b 983e 62e9 e5bc
000002e0: 9e32 abbe 35f7 7d3e 3c13 47be 6406 333e
000002f0: c6a9 823e c934 59bd ce57 18be ca61 0d3e
00000300: 3e47 cebd e0aa 543c c4b8 033e 52cd cd3e
00000310: 5234 2c3e 13e1 cd3e 90cb 873e 8e62 29be
00000320: ce16 92bd 2c1f 04be fd2d fabd f04e 1bbd
00000330: c270 19be e573 12be 9173 b73e 1e52 ccbe
00000340: c4bc a23e dc91 c1bc b84f 003d 2b04 ca3d
00000350: f1a7 0fbe 3241 2fbe d7d5 e3be ba0f 05be
00000360: aa5f 09bf 6985 c93e 75f5 91be 6812 153e
00000370: 6e30 023e f83c 613e 7cd2 19be 4696 7d3d
00000380: 4359 b5bc 32a8 933d dda1 7dbe f060 89bb
00000390: f0e6 9f3d 2bf3 f9bc a26a 853e 2b2f 87be
000003a0: ead4 5c3e cf83 ddbd e6be 443e 21c8 97be
000003b0: 572f 923e 7c75 363e d619 83bd fc91 a9be
000003c0: 88c6 93be 6793 823e 98be 943e 68fa 15be
000003d0: 8668 9a3e 00bc 00bb 6c93 193e 20f6 a3be
000003e0: 41c1 4dbe d4d9 a23c 280c 91be b4f6 833e
000003f0: c760 babe 7210 67be 1a4b 2d3e 3d39 d7be
-0.12162086 0.3011107 -0.40679955 -0.19476455 0.29593292 -0.40903175 -0.06453323 0.16947818
-0.48982474 0.29562634 -0.3841123 0.14290224 -0.24060708 -0.44172156 -0.1582363 0.2483318
0.26246893 -0.099126495 0.041296005 -0.10032186 -0.23948604 0.17032075 -0.051353842 -0.09093164
-0.061049007 0.3353803 0.40325588 -0.29916787 -0.46790567 -0.24208884 0.001666918 -0.07474174
0.17154592 -0.08333728 -0.119205564 -0.21831532 0.31226575 -0.18219966 0.15029196 0.09766585
-0.20103368 -0.13881153 0.22278577 -0.16817424 -0.23723939 0.13814358 -0.30266985 -0.059200913
-0.06980374 0.21592672 0.3007897 -0.28566098 -0.050760597 -0.14950293 -0.4331267 0.19806476
-0.3610168 -0.4302131 -0.27387032 -0.102099955 0.19187072 -0.37493888 0.0044497536 0.33825895
-0.33937585 -0.36837417 -0.14560221 -0.1886163 0.12761666 -0.21343672 0.03766948 0.1984213
0.2888195 -0.31782892 -0.23100206 0.08738315 0.22985853 -0.19001517 -0.32854432 0.3921343
0.33618245 0.041496743 0.39385128 -0.43418095 0.2524095 -0.08943526 0.1346228 0.0116997305
-0.04756973 -0.2242322 -0.1403046 -0.13475616 0.04281015 -0.3479693 0.10374594 -0.044411536
-0.19272818 -0.23271014 -0.43558064 0.10957516 0.293428 0.23756233 -0.33384335 -0.08906993
0.24004337 0.32250163 -0.0019891886 0.20882542 -0.109633565 0.0033593122 0.15942667 0.2331855
-0.081974626 0.41994756 0.23592703 -0.39712685 -0.29981717 -0.1949858 -0.13941577 -0.4198892
-0.27746415 -0.30342382 0.2981158 0.2844015 0.17194039 0.21898992 -0.0052737403 0.009156138
0.03419277 -0.24651079 0.16255489 -0.27881652 0.07908797 0.00239259 0.022189962 -0.33612734
-0.003116118 -0.22316505 -0.20910662 -0.36878037 -0.306816 -0.42175978 -0.2755454 0.28785387
0.26964074 0.14521466 0.2200081 -0.28415164 0.38278148 -0.34071326 -0.2954328 -0.03949971
0.3969622 0.3949464 -0.020872679 -0.21243371 0.26953384 -0.33100715 0.36074758 0.1380894
0.006510198 -0.27481455 -0.083681315 0.12052254 -0.24662974 -0.16356948 0.17636967 -0.18890661
-0.40225673 0.27348426 0.41963202 -0.45952016 -0.3404543 -0.16085023 0.08355975 0.08458875
-0.2670685 -0.13341667 0.29845795 0.07233712 -0.014787316 -0.38075158 0.2974537 -0.028065387
-0.33437055 0.24801333 -0.19440931 0.17482907 0.25520152 -0.053028855 -0.14877245 0.13806835
-0.10072182 0.012980193 0.12863451 0.4019571 0.16816834 0.4021078 0.26522493 -0.16541502
-0.07133256 -0.12902516 -0.12215803 -0.037917078 -0.1498442 -0.14302023 0.35830358 -0.399064
0.31784642 -0.023629121 0.031326026 0.09864076 -0.14028908 -0.17114714 -0.44499084 -0.1299428
-0.53661597 0.39359596 -0.2850758 0.14557803 0.12713787 0.21995914 -0.150217 0.06191089
-0.02213729 0.07209815 -0.24768777 -0.004192464 0.0780772 -0.03051146 0.26057917 -0.26403174
0.21565595 -0.10816156 0.19213447 -0.29644874 0.28551742 0.17818254 -0.06401412 -0.3311919
-0.28862405 0.25503084 0.29051661 -0.14646304 0.3015787 -0.0019643307 0.14997643 -0.32023716
-0.20093252 0.01987926 -0.28329587 0.25774157 -0.3640196 -0.22564867 0.1692318 -0.42035857

model.2.weight f4 [256, 512]
00000000: 69ec 2f3d d49a 84bd 10b9 ebbb 4484 19bd
00000010: f9a4 743d a4db 03bd 70fd 1abc d4db 3dbd
00000020: e50d e0bb f78f 9cbd 294f 1d3d f0ff fdbc
00000030: d028 46bc 48ef 42bc a0b8 16bd c310 e13c
00000040: 0af0 51bb 4686 d2bc 586b c8bb 85ac 15bd
00000050: f887 b23b 36b6 12bd c6a1 28bd 6b63 0fbe
00000060: 3be7 033d 9554 25bd b010 45bd e25c e93c
00000070: 7763 98bd 4a88 29bd abef 33bd 4c1b 49bd
00000080: 1217 963c 5024 d4bb c911 14bd 052e 2fbd
00000090: 7b13 21bd 5b82 a6bd 4877 cb3c ace1 20bd
000000a0: 2039 923b 0505 bdbc 212a f4bc aea7 d93c
000000b0: e9e9 84bd 4bdc 393c 1d03 0bbc 598d 103d
000000c0: fcaa a8bd 066b 7ebd bff3 afbc 79e6 ccbc
000000d0: 48ad d63b 6d35 59bd 6403 ecbc 4553 08bd
000000e0: 2994 203d aa38 00bd f655 a23c 7247 dc3b
000000f0: f0f0 4b3c f437 e23a 0803 ddbd 66aa 2abd
00000100: 64b1 f1bd d075 5fbb 9f24 bdbd 5602 dcbc
00000110: 752f 24bb 03da 28bd 59ba 263d 29d1 b13b
00000120: 664d fd3c 03b5 68bd 9dfc 8cbc 39dd 2f3d
00000130: 3e91 23bc 5878 edbc 3556 21bd bbc8 27bc
00000140: 71c7 683c 8ba0 853c 3e50 943c 1050 d33b
00000150: c2ea 9fbd 9d5e 7cbd bb6a 5ebd 4b42 00bd
00000160: ca74 34bd a8a1 46bc a4a2 60bd ee33 3c3d
00000170: 5a46 523b 5bd7 473c 80bd 9eb9 33a8 12bd
00000180: f8ba 2bbe d057 a0bc 7752 a7bc 24d6 42bc
00000190: eab1 fabc 23f9 6fbd 7096 27bb dee6 b93c
000001a0: a403 9c3c 4e0e b33c c2a9 fcbb 7620 bd3b
000001b0: e3e2 76bc 965f d1bd 633a 453d 0b41 3a3c
000001c0: 1406 67bc 6f31 21bd 2d3d 063d c808 6a3c
000001d0: 3da1 e0bc c955 1cbd a87d 51bc 3d5f 2f3d
000001e0: 7fb0 b7bd 951a 9ebc b038 11bd 4d32 18bb
000001f0: 2031 1abd 36b5 4f3c 6a9a 4fbd 4ff1 e4bc
00000200: eb18 123d a310 84bd 7ae9 89bd 05bd 06bd
00000210: ef13 82bc 8b78 023d a5bc a13c 41ff 21bd
00000220: 8990 51bc aaaa 72bc 5094 58bc f0a7 223b
00000230: ad31 2c3c 8fce 8ebc 448d 0cbd 5b4c 8b3c
00000240: cfe8 cdba 56a2 8fbd 13b4 ebbc 295a 0bbd
00000250: bb6e 46b9 7a04 bcbc 7de6 e0bc d387 7fbd
00000260: d205 4abc 477e 523c d094 fc3b 5e00 33bd
00000270: 4cb4 443c 2590 8bbc 6aba 14bd f47f 02bc
00000280: 2f81 153d 98b9 8bbc 9b13 303d 6907 0dbd
00000290: 4778 333d b64a 23bd cf90 483d 6a33 793c
000002a0: 635a 2a3d b4af 843d b87e c0bb 692c 21bd
000002b0: 3c11 6cbc a490 863c 9c31 173c f5ed 593c
000002c0: 09cf 1e3d 11d1 1b3d cbbe a4bb b004 a23b
000002d0: 3862 073c be00 223d cdfd 2a3d 8c1a 03be
000002e0: 60a9 fabc 6d69 bb3b d47d 2c3c 0180 2e3d
000002f0: 9893 e53a af2b 8d3c 5f14 1c3d cb79 933c
00000300: 9314 08bd fea5 1cbd c862 31bd c2ed ea3c
00000310: e23a febb ea02 fcbc e2e2 4dbc bcca 44bc
00000320: 5794 26bd 003f b4b9 f754 f0bc f29a 123c
00000330: f21e f2bc a54f a4bc 800c 9d3c 498a 18bd
00000340: 9d95 b2bc d2e0 18bd ce95 e73c 6340 353c
00000350: 2847 54bc d62f e8bb 658e b7bc 3fa2 1b3d
00000360: b1bd 87bd 3617 f3bb 4e27 1dbd 7b94 11bd
00000370: 372f 2ebd f1f6 0f3d 886f 12bc 652f fdbc
00000380: f60e 8abd 8088 93bd 2ac7 843b 1a2d 87bc
00000390: 989e 163c b69e 41bc dbd3 0b3c 5424 a0bd
000003a0: 7a55 fb3b 95a5 f33c 0db4 943c d3fd 8e3c
000003b0: 8402 ddbc 4085 ebba 9c0f 4fbd 6dec eebc
000003c0: 4e75 bd3c 2670 2bbd 63f5 d33c 3ec5 2bbd
000003d0: 7139 2dbd aa22 13bd c281 d63c 8c1c 1d3c
000003e0: a48a 04bb b69a 43bd 484d 48bc 74f3 db3b
000003f0: 3673 f7bc 5039 e33c abfd 46bd d025 e43b
0.042950068 -0.064748436 -0.007193692 -0.037479654 0.059727643 -0.032191887 -0.009459838 -0.046352223
-0.006837594 -0.076446466 0.03840557 -0.03100583 -0.012094691 -0.011897869 -0.036797166 0.027473813
-0.0032033944 -0.025698792 -0.006116312 -0.03654148 0.0054483376 -0.0358183 -0.041169904 -0.14002769
0.03220294 -0.040363867 -0.048111618 0.028486673 -0.074408464 -0.04138974 -0.043929737 -0.049098298
0.018321548 -0.0064740553 -0.036149774 -0.042768497 -0.03932522 -0.08130332 0.024837151 -0.039277717
0.0044623762 -0.023073683 -0.029805245 0.026569214 -0.06489927 0.011344026 -0.008484629 0.03529105
-0.08235738 -0.062113784 -0.021478532 -0.025012242 0.0065514185 -0.053029466 -0.02881021 -0.033282537
0.039203797 -0.03130404 0.01981638 0.006722384 0.012447581 0.0017259107 -0.10791594 -0.04166641
-0.11801413 -0.0034097321 -0.092355005 -0.026856583 -0.00250527 -0.041223537 0.04070506 0.005426545
0.030920696 -0.05681325 -0.0172103 0.042935584 -0.009983359 -0.028988048 -0.039388854 -0.010240729
0.014207707 0.016311904 0.018104669 0.006448753 -0.078084484 -0.061613668 -0.054301005 -0.031313222
-0.04405669 -0.012123503 -0.054842606 0.04594796 0.003208539 0.012197341 -0.00030277297 -0.03580494
-0.16770542 -0.019573122 -0.020425064 -0.011891875 -0.030602414 -0.058587205 -0.0025571845 0.022693094
0.019044705 0.021857407 -0.0077106664 0.005771692 -0.015068742 -0.1022331 0.048151385 0.0113680465
-0.01410057 -0.039353784 0.032773186 0.01428432 -0.027420634 -0.03816775 -0.012786306 0.042815436
-0.08969211 -0.019299785 -0.035454452 -0.002322334 -0.037644506 0.012677481 -0.05068437 -0.027947096
0.035668295 -0.06448486 -0.06733985 -0.032895107 -0.015878646 0.03185324 0.019743273 -0.03955007
-0.0127908075 -0.014811197 -0.013218954 0.0024819337 0.0105098905 -0.01743248 -0.03431441 0.017004183
-0.0015709641 -0.07013385 -0.02877239 -0.03402153 -0.00018924002 -0.022951353 -0.027453655 -0.06238539
-0.012330489 0.01284749 0.0077081695 -0.043701522 0.012005877 -0.017036507 -0.03631059 -0.007965077
0.036500152 -0.017056271 0.042987447 -0.034430895 0.043815877 -0.03986617 0.048966225 0.015210012
0.041590106 0.06478825 -0.005874481 -0.039348993 -0.014408406 0.016426392 0.009228136 0.013301362
0.038771663 0.038041178 -0.005027627 0.0049444064 0.008263163 0.03955149 0.04174595 -0.12803096
-0.030598342 0.005719355 0.010528047 0.042602543 0.00175153 0.017232744 0.038105365 0.018002411
-0.033222746 -0.03824424 -0.043307096 0.028677825 -0.007758484 -0.030763108 -0.0125663 -0.012011226
-0.04066881 -0.00034379214 -0.02933739 0.008948075 -0.029555771 -0.020057509 0.019171 -0.037241254
-0.021799857 -0.03732378 0.028269675 0.011062714 -0.012956418 -0.0070857806 -0.022406766 0.037996527
-0.06627978 -0.0074185384 -0.038367562 -0.035541993 -0.042525496 0.03514761 -0.008937724 -0.030906389
-0.06741135 -0.0720377 0.0040520625 -0.016500998 0.009193085 -0.011817625 0.008534397 -0.07819429
0.0076701017 0.029742042 0.018152261 0.017455017 -0.026978739 -0.0017968789 -0.050551996 -0.029165471
0.023127224 -0.041855 0.025873845 -0.04193615 -0.04229111 -0.03592173 0.02618492 0.009589326
-0.0020224238 -0.047754966 -0.012225457 0.0067123715 -0.030206304 0.02773729 -0.04858176 0.0069625154

model.2.bias f4 [256]
00000000: a51f ac3c 009c f8b9 d1be 00bd e615 4a3d
00000010: e475 dcbc 9089 cabb ba43 42bc b1de ac3b
00000020: 54b7 0fbd 912b f53c 2385 bf3c ec34 0f3c
00000030: 9fc3 37bd 89f7 efbc 3e0c 763c 045b 343b
00000040: e32b 493c 9c9d 29bc 9c42 39bd 9b9d 3bbc
00000050: 6628 003d 3889 d7bc 198c 35bc 9b50 8f3c
00000060: 8dbc 45bb ba73 debc 259f 293e 6f08 c0bc
00000070: ab4a adbb c28b 23bc 7297 5d3c c780 c8bc
00000080: 1ae9 3fbd d929 063d 7fb3 0b3d e49b 8c3c
00000090: 34a6 673c 6fc3 c2bc d2c6 1ebd 5435 83bc
000000a0: ef4f 133d 658f 74bb 9ad7 953b 1d38 adbc
000000b0: 176b 2bbd 69b3 95bd a8e4 47bd a0c5 e23d
000000c0: 9fed 2dbd 82ff 1f3c 2aa3 bcbc 2973 96bb
000000d0: 7f2d cabc 1f2a 423c b0d8 45bd be58 82bd
000000e0: f132 81b7 5587 6c3c 58db 31bd 4c99 5b3e
000000f0: 177a 143e 4e2f c4bc e5a0 043d 2208 45bd
00000100: e039 c8ba 7e6a 27bd e4ee 0cbd 82ed 813c
00000110: 978f 05bd 30a4 333c 37d1 e6bc d153 a43c
00000120: 427a 75bc 25e4 e4bc 804f a2bc da4b 13bd
00000130: 3546 c0bb acc5 9f3b ee0f 85bc 3349 5fbd
00000140: 34f6 e4ba 1779 c9bc f4f0 52bb 01a5 7aba
00000150: 7b45 f63c 02fb 0b3d 7a23 f23c 78a1 efbb
00000160: 1efb ebbc 5fd4 253d b14d 46bd da9f 64bd
00000170: b4d8 243d d689 33bd beb8 45bd e1b0 23bd
00000180: 8b07 1e3c 9bdb c5bc e1a6 333d 66a0 36bc
00000190: 0755 49bc 3f21 e73b 6b92 0fbc 0c53 9d3c
000001a0: 3807 c33c f554 7cbc a0a3 45bd 69c6 a13a
000001b0: 006e c8b8 883c 983c a8b3 143d ae9d bebc
000001c0: c309 e73c 17af 84bd fc3c 5cbc c7c4 2cbd
000001d0: a2ea 21bd 89e0 12bd c2a4 45bd ab86 8e3b
000001e0: cc51 8d3c 8436 d63d 40db 42ba c8b1 84bd
000001f0: cd33 35bc c29c 443c 5fa3 4cbd 9ba2 a53b
00000200: ef22 a33d da78 0abd 58f7 31bd ab0f 1abd
00000210: 01d7 10bd 5537 15bd 7a09 db3d 991c c2bc
00000220: f2f7 dfbc 1397 0e3d dc39 4bbc c0b7 cb3a
00000230: b0cd 3f3b 4d09 afbc 3948 a73c c62a 05bd
00000240: b282 7bbc 1502 0abd 033f 93bc 22c2 eb3a
00000250: f875 033c fdd2 383c f050 04bc d272 c23c
00000260: f077 7e3c 8e1c 92bc ec6a 5fbc b234 1c3e
00000270: 7459 12bd b8b5 f3bc 12b3 093d 90c7 1ebc
00000280: e97f 253c 1459 3fbc 2933 85bb e8f8 b6bc
00000290: b87a 193c 80bc e23b bef2 0ebd d9b5 a1bd
000002a0: b096 8f3c 2d7b 833c 8465 c93a 7eb9 ce3d
000002b0: ad30 17bd 3ae8 87b9 aec1 fbbc e813 babc
000002c0: 1e39 68bd bff2 f33a 18d6 113c ce70 ecbc
000002d0: 7ea0 193d edde 0dbd 03ea 07bd abaa 873b
000002e0: 0dd5 01bd be49 ba3b 48af e8bc e525 3fbd
000002f0: 3079 98bb 2886 b6bc 3e43 893c c56c 77bc
00000300: 1015 2ebb d8bd 52bb 277a 1fbd d528 7fbc
00000310: 293b babc d9e7 053c daf7 bd3c 153b 0eba
00000320: 4179 3abd 8049 f1bb a7af b53c 467b 32bd
00000330: 984f 3bbc 1b7b 29bd 80da d539 3aa2 dc3c
00000340: 55a0 cabc b604 c1bc 2e26 00bc 91f6 2abc
00000350: 2a08 54bc 8f79 a7bb 65e5 0e3d 6078 3bbd
00000360: 842e 1d3c 7a67 70bc 6eb3 18bd eb7e a1bc
00000370: 6b41 ab3c f205 0d3e 71dd e0bc 6f94 21bd
00000380: 0c0e 12bb 8369 57bd 400f 01bc 22a3 983c
00000390: fe2d 803d 2b8c 30bc 799d 8a3c 1c59 1dbd
000003a0: 73ae 303c 3ef7 aa3c fa48 e4bb 5b29 e33c
000003b0: 2165 bbbc 477f 233e 5fa5 23bc 8396 c93c
000003c0: 70e7 cc3c 6ec2 f9bc 52e2 d03c dbde 053d
000003d0: 154c 95bc b9d1 7bbd bbf1 91bd f3ff 2dbc
000003e0: 1d87 163c aa9a d13c 3119 8dbc 6775 63bc
000003f0: 737d 19bd 833f 81bc b1c0 013c c9b3 d6bc
0.021011183 -0.00047418475 -0.031431977 0.04933729 -0.026911683 -0.0061809495 -0.011856968 0.0052755703
-0.035086945 0.029928 0.023378914 0.008740645 -0.044864293 -0.029292839 0.015017567 0.002752007
0.01227853 -0.010352518 -0.04522954 -0.01145115 0.031288527 -0.026310548 -0.011080765 0.01749449
-0.00301722 -0.027154792 0.16564615 -0.023441521 -0.005288442 -0.009982051 0.013524877 -0.024475468
-0.046853162 0.032754753 0.034106728 0.017164178 0.014138747 -0.02377483 -0.03876383 -0.01601664
0.035964902 -0.0037316915 0.004572821 -0.021144921 -0.041850176 -0.073096104 -0.048802048 0.1107285
-0.04246294 0.009765508 -0.023027021 -0.004591365 -0.024679897 0.011850863 -0.048302352 -0.063645825
-1.540172e-05 0.014436563 -0.043422073 0.21445197 0.14499699 -0.023948338 0.032380003 -0.04810346
-0.0015276037 -0.040873043 -0.03440751 0.015860323 -0.03260764 0.010964438 -0.028175933 0.020059498
-0.014982762 -0.027940819 -0.0198133 -0.03596101 -0.0058677443 0.0048758592 -0.016242947 -0.054513168
-0.0017468394 -0.024593873 -0.0032187076 -0.00095613307 0.030062428 0.034174927 0.029557932 -0.0073129497
-0.028806265 0.040485736 -0.048413936 -0.05581651 0.040245727 -0.043832622 -0.048271887 -0.039963607
0.009645353 -0.024152568 0.04386032 -0.01114664 -0.0122883385 0.007053524 -0.008762936 0.019204639
0.023807153 -0.015401115 -0.048251748 0.0012342456 -9.557232e-05 0.018583551 0.036304146 -0.023268547
0.028202897 -0.06478708 -0.013442274 -0.04217985 -0.039530404 -0.035858665 -0.04825283 0.0043495498
0.017250918 0.10459617 -0.00074331835 -0.064792216 -0.011059714 0.012000265 -0.04996049 0.0050547845
0.079656474 -0.03380666 -0.043448776 -0.0376126 -0.035361294 -0.03642972 0.10695167 -0.023695277
-0.02733991 0.034812044 -0.0124039315 0.0015542433 0.0029266886 -0.02136674 0.02042018 -0.032511495
-0.015350984 -0.03369339 -0.017974382 0.0017986933 0.008023731 0.011280772 -0.008075938 0.023736391
0.015531525 -0.017835882 -0.013636332 0.15254477 -0.03572984 -0.029749736 0.03361804 -0.009691134
0.010101297 -0.011678953 -0.0040649367 -0.022335485 0.009367637 0.0069194436 -0.034899466 -0.07896013
0.017527908 0.016049946 0.0015365337 0.100939736 -0.036911655 -0.0002592223 -0.030732002 -0.02271457
-0.056695096 0.0018611773 0.008901142 -0.028862383 0.037506573 -0.034636427 -0.033182155 0.0041402183
-0.03169732 0.0056850603 -0.028403893 -0.046667 -0.0046531186 -0.022280768 0.016755696 -0.015101616
-0.0026562847 -0.0032156613 -0.038934853 -0.0155737 -0.022733288 0.008172953 0.023189474 -0.0005425674
-0.045525793 -0.007363498 0.022178484 -0.043574594 -0.011432551 -0.04137717 0.0004078932 0.026932824
-0.024734655 -0.023561817 -0.007821603 -0.010434763 -0.0129414 -0.0051109265 0.034886736 -0.045769095
0.00959361 -0.014673108 -0.037280492 -0.01971384 0.020905217 0.13771799 -0.027449341 -0.039448198
-0.0022286205 -0.05259086 -0.007877171 0.018632475 0.06258772 -0.010775606 0.016920792 -0.03841506
0.010783779 0.020869847 -0.0069667073 0.02772968 -0.02287537 0.15966521 -0.009988158 0.024607902
0.025012702 -0.03048822 0.025498543 0.032683235 -0.018224755 -0.061479304 -0.071261846 -0.010620105
0.009187487 0.025586445 -0.017223926 -0.013882971 -0.037473153 -0.015777355 0.007919476 -0.026208775

model.4.weight f4 [128, 256]
00000000: 3509 9f3b 1fb5 073d b663 793d 798c d6bb
00000010: 9087 0bbc ee13 193d 40e4 6e3d ddf2 70bd
00000020: 857d 3a3d 8c5f d0bb 3e43 7ebc 9c6a 4ebd
00000030: a31f 103d 58c3 29bc c6e4 e83b bc15 853c
00000040: 1a9e 12bd 808d 43bb 532c 95bc 320b 303c
00000050: 2c32 efbc 2897 4f3c 6cf4 c6bc 3c6c 3ebc
00000060: ee36 09bd 22e2 2d3d b4cc 8e3c f7aa acbc
00000070: 03ed 1d3d 3534 2bbd d5f1 eebc a35d 3bbd
00000080: 17b9 1abd 7500 02bd 6a0d 96bc d868 0ebd
00000090: b073 84bd 10fd 303c 1989 483d c004 5f3b
000000a0: 9a3c 723d 12ff 5bbd 0039 80bd d987 e53c
000000b0: d83f f83c 5133 0dbd 003a e3bc 4064 e3bb
000000c0: 242a c8bc 0aeb 87bd 34ca 68bd 822b fbbc
000000d0: 7cbb c2bc 56b2 d4bc 3ce9 2a3d 53e0 233d
000000e0: 87e2 f63c aeaa d1bb 5a08 3ebd bede 9d3c
000000f0: 6ceb 0abd f415 82bc 069e 41bd 7b76 e03c
00000100: 3855 38bc e5e2 b73c 76fe 80bd 1168 3e3d
00000110: 6eb2 05bd f0e6 d2bc 5567 b33c aad2 d8bb
00000120: 6801 a03c 182d 1a3d b4ea 5fbc 2020 67bd
00000130: 624c 70bd 0060 bc38 28ec 05bd ba0e 313d
00000140: 978d c83b 548d c3bc 04e4 c63c cb63 2abd
00000150: 781a 053d 7f3a 68bc 0aa1 3bbd a257 113d
00000160: 24a7 f3bc e4b5 3e3d ce89 d3bb 10e4 98bc
00000170: 5948 113d aada da3c e463 203d b465 f73c
00000180: 3c38 febb a023 07bb 1a80 f63a b1c0 813c
00000190: f6bf 67bd 1f33 a2bc 758f 453d 8ad8 60bd
000001a0: 942c 14bd 1098 52bc 18bd 65bd cd0d b2bb
000001b0: 1090 23bc 775f 663c 8d1a 743b fa0f fe3c
000001c0: 5ea3 93bc c2df 403d 0860 6dbc eded 4b3d
000001d0: 90d6 06bc 5fbe a1bc 22ca 0bbd 9c0c 23bd
000001e0: 0d88 7d3b 23da 59bd 0fe4 28bc 64b5 f93c
000001f0: 0627 6dbd 4139 413d d408 a5bc 5abf 38bd
00000200: f652 45bc 243e 06bd ba28 f9bc e8ef 6a3c
00000210: 7c13 2b3d 4420 6b3d 025e 88bd 341c a9bc
00000220: f675 033d 6c2d 5d3d 0600 05bd 6261 71bd
00000230: 804e 18bd 3811 113d 1a3b 663d 23a1 11bd
00000240: dc5b ac3c f188 33bd aa26 753d 6b27 47bd
00000250: 6c3c 20bd 613d 2a3d d882 7ebd 1ed9 0c3d
00000260: 4c4f 4cbd 8803 413d b820 0a3d 5884 82bc
00000270: 1a78 453d 1dd2 073d 00ac 513d c823 80bc
00000280: 0f3f 66bd 0537 a53c 9478 87bc 78fd 2d3d
00000290: be0a 4dbc 721d 0fbd 6843 4cbc be9f 0dbd
000002a0: 84e0 173d 633f ee3c cc90 74bd 8f7c 3f3d
000002b0: 38ac 72bd a506 d23b cc6d 753d fbb7 143d
000002c0: 97c2 28bd 60b4 28bd 0080 2f37 e0c7 b13c
000002d0: 8ad5 2bbd 71c3 09bd 6833 1dbd b92a 2a3d
000002e0: 229e 2dbc 843f 89bd 8416 08bd cfdc 643d
000002f0: f202 2f3c 0d94 343d a1cf a9bc df38 64bd
00000300: cc24 e9bc 5de7 cf3c 96ed 09bd 3761 043c
00000310: 4003 e53c 1931 00bd c366 b93a b8d5 433d
00000320: 4482 c0bc 80fd 22ba 9085 0d3d c0ce c6bb
00000330: a2a5 973c 78da 0f3c 481a d03c 2a27 5ebd
00000340: 5a48 f1bb 7242 4d3d 80e1 75bd 7843 4c3d
00000350: bce9 bd3c 6284 64bd 86c9 41bd a001 2bbc
00000360: 738b 26bd 021b 723d 23b3 f53c e654 67bd
00000370: 8842 613d 3076 b1bc 384c 93bc ecec 5a3d
00000380: 3689 acbc f8b8 393d eb23 283d 75b6 28bc
00000390: 4c0c 113d 0d91 073b 6e73 1cb8 654f 58bd
000003a0: dc45 133d 22dc 3cbd 6050 3c3c d929 3cbd
000003b0: 0012 82bc d813 86bc dffa e43c 4afb 7ebb
000003c0: a89c efbc 4023 e43c 743a debc 6820 243c
000003d0: 2cce 133d 72cc 6dbd 490a 7dbd 7b15 0b3d
000003e0: 7860 d63c 5abd 243d c0ba a0bb fc5b 41bc
000003f0: ef87 2fbc 3a39 7f3d 501f 953b f0d8 9bbc
0.0048533925 0.033131715 0.060886107 -0.0065475074 -0.008516207 0.037372522 0.058323145 -0.058825362
0.04552986 -0.0063590463 -0.0155189615 -0.05039464 0.03518642 -0.010361515 0.00710735 0.016245715
-0.03579531 -0.002983898 -0.018209612 0.010744857 -0.029198729 0.012670316 -0.024286471 -0.011622485
-0.03349965 0.042451985 0.017431594 -0.021077616 0.03855611 -0.041797835 -0.029168049 -0.045743596
-0.03777417 -0.031738717 -0.018316943 -0.034767956 -0.06467378 0.010802522 0.04895887 0.003402993
0.059139825 -0.05371005 -0.06260872 0.028018879 0.03030388 -0.034472767 -0.027737617 -0.006939441
-0.024434157 -0.06636627 -0.05683346 -0.030660395 -0.02377104 -0.025963943 0.041726336 0.040008854
0.030137314 -0.0063985204 -0.046394683 0.01927125 -0.033915922 -0.015879609 -0.047269844 0.027400246
-0.0112507865 0.022447059 -0.062985346 0.046485964 -0.032640867 -0.025744885 0.021899858 -0.00661691
0.01953192 0.03764066 -0.013666797 -0.05642712 -0.058666594 8.98242e-05 -0.03269592 0.043226935
0.0061203944 -0.023871101 0.024278648 -0.041599076 0.032495946 -0.014174103 -0.045807876 0.035483964
-0.029742785 0.046560183 -0.0064556366 -0.018663436 0.035469387 0.026715595 0.039157763 0.030199863
-0.0077581685 -0.00206206 0.0018806488 0.015838953 -0.056579553 -0.019799767 0.048232514 -0.054894008
-0.036175326 -0.012853637 -0.056088537 -0.005433774 -0.009983078 0.0140608465 0.003724727 0.031013478
-0.018022235 0.047088392 -0.014488228 0.04978745 -0.008229867 -0.019744096 -0.034128316 -0.039806947
0.003868583 -0.053186547 -0.01030828 0.030482002 -0.057898544 0.047173742 -0.020145811 -0.045104362
-0.012043705 -0.032774106 -0.030414928 0.014339425 0.04176663 0.057403818 -0.066585556 -0.020643331
0.03209492 0.053998396 -0.032470725 -0.058930762 -0.03718424 0.03541681 0.056208707 -0.035554063
0.021039896 -0.04383177 0.059851326 -0.048621576 -0.039120123 0.04156244 -0.0621365 0.034386747
-0.04988031 0.04712251 0.03372261 -0.015932247 0.04821024 0.033159364 0.051189423 -0.015642062
-0.05621248 0.020167837 -0.016536988 0.042478055 -0.012514768 -0.03494019 -0.012467243 -0.03457617
0.03707935 0.02908296 -0.0597084 0.046749648 -0.05924627 0.0064094835 0.059919164 0.03630827
-0.0412012 -0.041187644 1.0460615e-05 0.021701753 -0.041951694 -0.033633653 -0.038379103 0.04154465
-0.010596784 -0.06701568 -0.033224598 0.055874642 0.010681855 0.044086505 -0.020728888 -0.0557183
-0.028459929 0.025378877 -0.033673845 0.008079818 0.027955651 -0.031296823 0.0014145005 0.04781124
-0.023499615 -0.0006217584 0.034551203 -0.006067127 0.018511597 0.008780114 0.025403157 -0.05423657
-0.0073633613 0.050112195 -0.060029507 0.04986903 0.023182742 -0.055790313 -0.04731133 -0.010437399
-0.040660333 0.059107788 0.029992646 -0.05647745 0.05499509 -0.021662802 -0.01798068 0.053448603
-0.021061521 0.045342416 0.04104988 -0.010297407 0.035412118 0.0020685822 -3.73008e-05 -0.05281009
0.035955295 -0.046108373 0.011493772 -0.045938347 -0.015877724 -0.016366884 0.027951656 -0.0038907104
-0.029249504 0.02784884 -0.027127482 0.010017492 0.036085293 -0.058056302 -0.061777387 0.033956032
0.026169047 0.040219642 -0.004905075 -0.011801716 -0.010713561 0.062310435 0.004550852 -0.019024342

model.4.bias f4 [128]
00000000: f2d7 ff3c a61d 51bd 7b9c 5d3d f0c4 e63c
00000010: 3188 003e befd bdbc 5bb4 34bd 3147 aa3e
00000020: db19 25bd d0df e7bc 99ec 673d 5aad 86bd
00000030: 700f 3dbd cd2a 3ebc 0c2e 91bc 0add a3bd
00000040: 068a fd3c 20a4 64bc 67a5 85bd aebc 51bd
00000050: a6bc 8c3e e611 acbc 588a 223c 115e 61bd
00000060: 9dcf 6b3c 0dd3 81bb 3dba 973d 1e06 dabc
00000070: dfbc df3c afe6 e63c 96bb eebc bfa1 a0bc
00000080: 4fbb e7bc 18ee 3bbc c583 4abd 2201 193e
00000090: 2f32 7fbb 40f9 98bc 1c1f 083d 40d4 83bb
000000a0: cb8c f73c 837c 94bd c6d3 a33b b687 00bd
000000b0: 4ac2 563d 4ca7 a83c 540c 963c db64 55ba
000000c0: bec0 cd3a e8cd ff3c 83f9 aebc d433 3dbd
000000d0: 248a 97bc 4211 00bd 88e7 b43e 13fc f43d
000000e0: 4f87 ba3c b14a ae3e d168 c83e 6546 e5bb
000000f0: be8b 6a3a 9a09 23bd 80fe 87bb b957 863e
00000100: 7a61 8a3c fab1 8a3e f20d 60bd e2f4 37bd
00000110: ae68 123d 4543 24bd 6630 38bd c151 93bd
00000120: 771a e6bc 8a61 123d a069 b83b dbdd 5a3b
00000130: 6cfb 7cbd 035c 27bc 28e4 dcbb b386 d4bc
00000140: da55 9a3c aa3d 16bd 5e1b 093c c07c 46bd
00000150: c2b2 323c ecd4 b93c fdb8 8e3e 92c5 da3c
00000160: 0268 0bbd ca8a aebd a118 4ebd 351f aebd
00000170: e6e4 0ebd 2893 03bd e4dc 973e a72e ec3c
00000180: d111 7bbd ca10 e13d b481 4e3d 00e4 35bb
00000190: bd5d 313c cc3f df3c 1115 12bc 29f4 df39
000001a0: f40b 27ba 30cb 233d b9b2 603b cde7 bbbc
000001b0: 986c 17bd 49ae 513e 02bd 753d bfb9 363e
000001c0: b0d5 f2bc bceb 41bb 261d 77bd 059c a73e
000001d0: 5025 f0bb 3040 273d 4a65 103d 5564 013d
000001e0: 8f13 853c 8012 96bd 9706 0ebd e8de c5bc
000001f0: 7bee 8d3e c4e1 863d 8b87 a2bc 9f74 ec3b
0.0312309 -0.051053666 0.05410431 0.028170079 0.12551953 -0.023192283 -0.044117313 0.3325744
-0.04030786 -0.028304964 0.05662212 -0.06576033 -0.0461573 -0.011606884 -0.017722152 -0.08001144
0.030949604 -0.013955146 -0.065256886 -0.05120533 0.27487677 -0.021004628 0.009920679 -0.05502135
0.014392761 -0.003961927 0.07408569 -0.026614245 0.02731174 0.02818617 -0.029142182 -0.019608377
-0.028287558 -0.01147034 -0.04944207 0.14941838 -0.0038939824 -0.01867354 0.033232793 -0.004023105
0.030218503 -0.07250311 0.0049996106 -0.031379424 0.052431382 0.020587586 0.018316425 -0.0008140334
0.00156977 0.031226113 -0.02135921 -0.046192005 -0.018498488 -0.03126646 0.35332894 0.11962142
0.022769598 0.3404136 0.3914247 -0.006996917 0.0008947215 -0.03980408 -0.004150212 0.26238802
0.016892184 0.2708891 -0.0547008 -0.044911273 0.03574436 -0.040103216 -0.04496803 -0.07193328
-0.028088791 0.03573755 0.005627826 0.0033396396 -0.061763212 -0.010214808 -0.0067410655 -0.025943136
0.018839765 -0.0366799 0.008368341 -0.048458815 0.010906877 0.022684537 0.2787551 0.026705537
-0.034034736 -0.08522566 -0.050316457 -0.08502046 -0.034886263 -0.03212276 0.29660714 0.02883084
-0.061296288 0.109895304 0.050416663 -0.0027754307 0.010825572 0.0272521 -0.008916155 0.00042715788
-0.00063723256 0.039988697 0.0034286215 -0.02293768 -0.036968797 0.20476641 0.059994705 0.17844294
-0.02964291 -0.0029589972 -0.060330532 0.3273622 -0.0073286667 0.0408327 0.035252847 0.031589825
0.016244678 -0.07327747 -0.034674253 -0.024154142 0.2772101 0.0658603 -0.019840023 0.0072160508

model.6.weight f4 [5, 128]
00000000: c37e 50bd cc2c 1dbd 5e45 3e3d 5c2b e6bc
00000010: c0e3 b33c 8798 c7bc 3353 5bbd e054 e53d
00000020: caf0 e7bc dbba 88bd 0d02 a13c b62d 33bd
00000030: 2978 a6bc bc37 d0bc e865 8bbd edfe 43bd
00000040: c840 b33d d98c 883d 2af7 eb3b 9323 a93d
00000050: 8ae1 2b3e 93d1 b33c 32ab 6ebd 98f3 143d
00000060: c78e 373b 3a3e 573d 2a74 edbc 4775 9cbd
00000070: a839 45bd 3845 fb3c efb9 76bd e443 283d
00000080: a30f 69bc ad84 b0bd ba62 b4bc 3ea2 393d
00000090: 8d19 50bd 91fb 07bd 4d3c 04bc 6165 ab3d
000000a0: 0e07 5ebc a876 66bb a8f9 40bc 6785 ed3c
000000b0: 69ee 893c 889f f73c cea7 ac3c a223 06bc
000000c0: 3c2a 243c 071b b9ba e57b 5bbd f2ff a8bc
000000d0: 7d9c 2cbd 4caf 9ebd 974b 2a3e 4fb4 cc3d
000000e0: 627b 0e3e f3d2 2b3e f161 003e 2adc c73c
000000f0: d927 a83b af87 3ebd d0dc 093d 1c28 193e
00000100: 745f ff3c 141d b93d 8736 1f3d 005a fcba
00000110: a5fb 91bd de6b 853c a8c2 a83d 3708 1b3d
00000120: ae42 083d 2224 38bd 0752 65bd eaa3 04bc
00000130: fa5a 913d e4a5 9abd fc00 83bd c5e5 92bd
00000140: 3e99 81bc 120c 923d f7f0 95bd e1fe 9e3d
00000150: 987f 0cbc 76a3 613d 2694 dc3d 1e9d 39bd
00000160: 9543 b83d a7c6 12be e426 343d e011 bc3b
00000170: 00cd 32bc 67a5 9a3d 63cd 143e 97d4 0e3d
00000180: 3712 4dbd dbf7 5a3c 6986 99bb 82bc 0e3d
00000190: 1634 693d 3a26 65bd 01b4 85bd 7f28 1e3d
000001a0: 657d 83bc 58ae cc3c e844 bbbc d415 57bd
000001b0: 276c 18bd 405d c13d bca2 aa3c 3bea 763c
000001c0: 9cbc 91bd 70fa 463d 2ddc 90bd ff18 273e
000001d0: 9d36 c1bc 80cb 1f3d 1c19 33bb 6c78 6e3d
000001e0: 20bf f03c 1aef 673d bdf5 d4bb 290d 123c
000001f0: 706a 0d3d 5164 9ebc dc8d 7ebd db78 093d
00000200: 4171 17bd bf06 ec3c 0083 703b 98e8 8abc
00000210: c3cc 803c e36e 77bd e20c 193d d81f fb3d
00000220: 7b5f 46bd 702a 043d dd60 3b3b 8bfc 6a3c
00000230: 6c8d 1ebd def6 d0bc 7208 46bb d442 f3bc
00000240: 4c37 433d f46b 4abd 99d3 463b 521b 89bd
00000250: 1442 6e3d e5bb b03c 10a4 02bd 8cb6 e83a
00000260: d7cb 7ebb 5e13 043c 0b20 5a3d 8c77 48bd
00000270: 59f8 cbbb ec46 923d cc35 183c 40ab 34bd
00000280: 96df 98bc cf3e 99bd 40db 8abd 00be ac3b
00000290: b721 203c e774 98ba 35be c13c 40d5 b63b
000002a0: d2ea 07bc b2a2 963d 4398 b93c 729a 32bd
000002b0: 9928 e2b9 b8ef a1bd 9c45 2cbd f982 94bd
000002c0: 4a51 953d 5019 0fbd 8f1d 88bd c1c9 a4bd
000002d0: 7c1d 033d d856 1f3d e652 0b3e a6a9 75bc
000002e0: 799b 43bb 20ae e33d bf7b 373e a279 8d3c
000002f0: f522 c83c 10ab e2bb f08f 9f3c 4bd5 253e
00000300: dd65 97bd 962b c63d 30bb 2abb f09e 4abc
00000310: 1d73 d1bc a08c 803c 94e9 dabc 69fd 81bc
00000320: f572 83bc cbed aa3d 3030 463c ed6c 22bc
00000330: eefa 9abd ba5c a7bd 816b 213d 1389 fe3c
00000340: 49f9 9e3c e246 23bd d4b9 a03d 01e8 a53d
00000350: e588 eb3b 05e2 46bd c4f2 103e 52bb 103d
00000360: 6c9e 3fbd 76ad 993a 79bc 4ebd 804f 29bb
00000370: fe8b 64bd 25cc e2ba ae5b ff3d 465f 413c
00000380: dc02 a33d 58c3 e23c 92ec 14bd 8849 87bc
00000390: 6ade 55bd c575 8c3d a8fb 76bd 7200 0ebd
000003a0: 1cfd 2dbd d6cb 65bd 719f 20bc 5d4f a83d
000003b0: d843 66bd 68c1 0d3d 4d2a 4bbc 4d62 1d3d
000003c0: ac5a afbd 558f 91bc 3698 80bd 8439 123e
000003d0: 328b c23d dc56 25bb 3597 2e3d 9c22 c8bc
000003e0: 16b0 7dbd a7ad a23a 2c1d 29bc 26d3 4bbd
000003f0: 4a2e e93d adfa 3bba 9ec8 363c c815 dbbb
-0.05090214 -0.0383728 0.046452872 -0.028096847 0.021959186 -0.024364723 -0.05354614 0.11197829
-0.02831306 -0.06676265 0.019654298 -0.043744765 -0.020320969 -0.025417201 -0.068065464 -0.047850538
0.087525904 0.066674896 0.007201095 0.08258738 0.16785255 0.021950519 -0.058268733 0.03636512
0.0028008686 0.05254958 -0.028986055 -0.076395564 -0.04815069 0.030672655 -0.060235914 0.04108037
-0.0142249195 -0.08619056 -0.022019733 0.04532074 -0.050805617 -0.033198897 -0.008071017 0.08368946
-0.013551487 -0.003516594 -0.011778273 0.028994275 0.016837316 0.030227438 0.02107611 -0.008187206
0.010019835 -0.0014122435 -0.053584952 -0.020629857 -0.042141426 -0.07748279 0.16630398 0.09995329
0.13914254 0.1677969 0.12537362 0.024396975 0.0051317033 -0.046516117 0.03365785 0.14956707
0.031173445 0.09038749 0.03887036 -0.0019252896 -0.071280755 0.016286787 0.08240253 0.03784963
0.033266716 -0.044956334 -0.05598643 -0.008095721 0.070974305 -0.075511724 -0.06396672 -0.07172731
-0.015820142 0.071312085 -0.07321351 0.07763458 -0.008575343 0.05508753 0.107704446 -0.045315854
0.08997265 -0.14333592 0.0439824 0.0057394356 -0.010913134 0.07551079 0.14531474 0.03487071
-0.0500662 0.013364757 -0.0046852124 0.034847744 0.05693444 -0.05594466 -0.06528474 0.03861284
-0.016051004 0.024985477 -0.022860005 -0.05251105 -0.037212517 0.09441614 0.02082955 0.015070493
-0.071160525 0.04857868 -0.07073245 0.16318129 -0.023585612 0.039012432 -0.0027328199 0.058220312
0.02938801 0.05662451 -0.006499021 0.00891427 0.034525335 -0.019334944 -0.062147006 0.033562522
-0.03697324 0.02881181 0.0036699176 -0.016956612 0.015722638 -0.060408484 0.0373658 0.12261933
-0.0484309 0.032267034 0.002859167 0.0143424375 -0.03870909 -0.02550834 -0.0030217436 -0.029694952
0.047660157 -0.04941936 0.0030338524 -0.06694664 0.058168486 0.02157397 -0.031894743 0.0017754599
-0.0038878822 0.008061258 0.053253215 -0.048942134 -0.0062246737 0.071424335 0.00929017 -0.04410863
-0.018661302 -0.07482683 -0.067801 0.005271673 0.009773663 -0.0011631519 0.023650268 0.0055796206
-0.008295732 0.073552504 0.022655612 -0.04360432 -0.00043136327 -0.07907051 -0.042058572 -0.072515436
0.07290895 -0.03493625 -0.06646263 -0.08046294 0.03201054 0.03890118 0.13605842 -0.014994061
-0.0029847308 0.11117196 0.17918299 0.017269913 0.024430731 -0.006917365 0.019477814 0.16194646
-0.07392476 0.09676282 -0.0026051514 -0.012366995 -0.025567586 0.015692055 -0.026722707 -0.015867906
-0.016046027 0.08346137 0.01209645 -0.009913665 -0.07567392 -0.08171983 0.039409164 0.031071221
0.019405978 -0.03986252 0.07847944 0.08100892 0.00718795 -0.048555393 0.14155108 0.035334893
-0.046781942 0.0011724669 -0.05047271 -0.002583474 -0.05579757 -0.0017303271 0.124686584 0.0118025
0.0795953 0.027681038 -0.036358424 -0.016514555 -0.052214064 0.068584 -0.06029859 -0.034668393
-0.042477712 -0.056102596 -0.009803639 0.08218262 -0.056217045 0.034608275 -0.012400222 0.038423825
-0.08562216 -0.017768541 -0.06279032 0.14279753 0.09499206 -0.0025228774 0.04262467 -0.024430566
-0.061935507 0.0012411372 -0.0103218965 -0.049761914 0.11385782 -0.00071708375 0.011156229 -0.006685946

model.6.bias f4 [5]
00000000: 8e78 543e 1c25 b63e 4eae 203e 11cd 253e
00000010: 5267 e63e
0.20749113 0.35575187 0.15691492 0.16191508 0.45000702
