2021-22/PrimerSemestre/Reinforcement/PRA1/DQN.pth (torch, 715087 bytes, 8 tensors)

model.0.weight f4 [512, 25]
-0.17834496 0.10090875 0.13977535 -0.08331366 0.02676936 -0.105438516 -0.027253903 0.20233151
-0.0011861545 -0.01897059 -0.022031209 -0.3502613 0.04663898 -0.055157475 -0.080541186 0.076275215
-0.15092222 0.16197942 -0.098613195 0.21022743 -0.25077897 0.0030022433 0.20614962 -0.20521903
-0.17475817 0.09101311 0.10737288 -0.2132208 -0.18952698 -0.19085352 0.03659335 -0.016411033
0.01309702 -0.21495979 -0.012668234 0.16069151 -0.0035587042 -0.06195867 -0.048509296 0.13855901
0.016056005 0.036104433 -0.056979 0.012878249 -0.2037179 0.04374404 0.04768819 -0.12464882
-0.15343809 -0.025847001 2.2466313e-05 -0.08308026 0.08879425 -0.049776953 0.22735985 -0.004387609
-0.008864793 0.024770051 -0.22885264 0.4047248 0.056154355 -0.02426146 0.46378854 -0.07171579
0.16697717 0.0473783 -0.117069475 0.038400095 0.115322545 0.076380685 0.030397339 0.015843391
0.036803335 0.108510874 0.0010732274 -0.19634376 0.05447138 -0.17668526 -0.1150517 0.08625446
-0.1176546 -0.005676793 0.03151339 -0.11564887 -0.41247478 0.076795496 0.12694345 -0.059466794
-0.08895458 -0.08639824 0.13023268 -0.06498632 -0.14022717 -0.18050858 -0.36371815 0.12471579
-0.18794411 0.015400006 0.03073844 -0.2390552 -0.023192868 0.17744112 0.059237067 0.11513824
0.30017465 -0.14691597 0.9465362 -0.47718573 0.49963287 -0.6741891 0.047433913 0.24174342
-0.034414914 0.2333809 -0.07431856 -0.096007995 -0.04795091 -0.00396054 0.1536582 -0.263892
0.16230857 0.15690905 0.03480834 0.17463444 -0.24334548 0.07869556 0.104179025 -0.24613854
-0.21950023 -0.089495614 0.059379064 0.1394181 0.01926091 -0.13405436 0.27599108 0.14589001
-0.071770325 -0.15028112 0.10816 0.14768839 -0.18611287 -0.01739191 -0.11758304 0.1767908
-0.041381873 0.06313144 0.21384767 -0.07939939 -0.05963655 0.23221 0.018800514 -0.0635087
0.0032430054 0.19749407 0.18292774 -0.12776276 0.029177895 -1.1609449 -0.11495303 -0.5578445
-0.10361966 -0.12958853 0.005844898 -0.2557761 0.29315275 0.1814521 0.02845367 0.10234653
-0.25805154 0.015200188 0.10467956 -0.1877172 0.059320096 -0.20743853 -0.08543691 0.00078081223
-0.030893859 0.009996235 0.16781034 -0.5306583 0.055171512 0.12170239 -0.35202813 -0.26114318
0.2867035 0.15679576 -0.3371242 -0.029949574 -0.2264309 0.50832057 -0.15671463 -0.12310255
-0.27049 -0.39479774 0.6577071 0.023846412 -0.16013312 0.09678656 -0.3376652 0.4196247
-0.101693206 0.027062446 0.116751716 0.043866202 -0.030635431 0.17793714 0.12472935 -0.05984506
-0.18020812 0.15275384 -0.14492102 -0.12414112 -0.09243613 0.021958143 0.08192088 0.046035245
0.0634733 0.01009874 0.08967419 0.042461827 -0.1933208 -0.18912673 0.08569516 0.14660378
-0.1294964 0.19452967 -0.12168139 -0.102607206 0.034446925 -0.07264853 -0.07814089 0.016965782
-0.08189273 -0.11594696 0.18806045 0.10024444 0.079910584 -0.0841351 0.006016511 -0.1737777
-0.056601297 -0.00070178945 0.0914132 -0.17445585 -0.011733114 -0.18315339 -0.09726586 -0.17098835
-0.0031530194 -0.16567732 -0.02877454 -0.06332602 0.1926578 -0.26656377 -0.067909546 0.08712654
00000000: 10a0 36be 3fa9 ce3d 4521 0f3e 5aa0 aabd
00000010: 6b4b db3c 26f0 d7bd 9443 dfbc fe2f 4f3e
00000020: be78 9bba 3668 9bbc cb7a b4bc 7355 b3be
00000030: 8408 3f3d ceec 61bd c7f2 a4bd 2e36 9c3d
00000040: 5b8b 1abe efdd 253e b7f5 c9bd dc45 573e
00000050: 1a66 80be 49c1 443b e318 533e f024 52be
00000060: cef3 32be 1565 ba3d 50e6 db3d 8e56 5abe
00000070: 5c13 42be 1b6f 43be e9e2 153d 6e70 86bc
00000080: e294 563c 6b1e 5cbe 6d8e 4fbc 518c 243e
00000090: 2639 69bb 60c8 7dbd afb1 46bd 6ae2 0d3e
000000a0: e287 833c 3ee2 133d d062 69bd 4bff 523c
000000b0: 6d9b 50be f32c 333d b154 433d e147 ffbd
000000c0: e01e 1dbe 17bd d3bc 0a76 bc37 fc25 aabd
000000d0: c2d9 b53d ebe2 4bbd 05d1 683e efc5 8fbb
000000e0: a33d 11bc 90ea ca3c 5958 6abe 1738 cf3e
000000f0: 1c02 663d f8bf c6bc b175 ed3e badf 92bd
00000100: 10fc 2a3e c00f 423d 1fc2 efbd 6b49 1d3d
00000110: 3a2e ec3d 7a6d 9c3d d703 f93c 00ca 813c
00000120: 18bf 163d f33a de3d 89ab 8c3a 570e 49be
00000130: 621d 5f3d fbec 34be 3aa0 ebbd 2ea6 b03d
00000140: e5f4 f0bd 6404 babb 2f14 013d 51d9 ecbd
00000150: e52f d3be f546 9d3d 77fd 013e 7493 73bd
00000160: d22d b6bd 8ff1 b0bd b75b 053e 8c17 85bd
00000170: b697 0fbe 3ed7 38be 4439 babe fe6a ff3d
00000180: 6c74 40be 4f50 7c3c 2ecf fb3c e3ca 74be
00000190: f8fe bdbc 20b3 353e 91a2 723d 99cd eb3d
000001a0: 7eb0 993e 2471 16be 3250 723f b051 f4be
000001b0: e1cf ff3e a897 2cbf 104a 423d 968b 773e
000001c0: a7f6 0cbd 67fb 6e3e 5434 98bd d79f c4bd
000001d0: 2c68 44bd 6bc7 81bb 9358 1d3e da1c 87be
000001e0: 3834 263e c4ac 203e 3193 0e3d 5fd3 323e
000001f0: 8f2f 79be 232b a13d d05b d53d be0b 7cbe
00000200: abc4 60be 7a49 b7bd 7637 733d 9ec3 0e3e
00000210: 0ec9 9d3c 8c45 09be b44e 8d3e 3164 153e
00000220: 52fc 92bd 4be3 19be fd82 dd3d a03b 173e
00000230: 5f94 3ebe 7b79 8ebc 60cf f0bd a608 353e
00000240: 0a80 29bd 0e4b 813d e2fa 5a3e 269c a2bd
00000250: 7445 74bd 75c8 6d3e 8903 9a3c d910 82bd
00000260: 9a88 543b e33b 4a3e 6951 3b3e 3ed4 02be
00000270: 7b06 ef3c d899 94bf 7f6c ebbd e6ce 0ebf
00000280: 8b36 d4bd dbb2 04be 8f86 bf3b 16f5 82be
00000290: 1e18 963e 94ce 393e ac17 e93c 0f9b d13d
000002a0: 551f 84be 360a 793c 3d62 d63d f038 40be
000002b0: a1f9 723d c46a 54be 8cf9 aebd 6caf 4c3a
000002c0: 1e15 fdbc 40c7 233c 79d6 2b3e 39d9 07bf
000002d0: 86fb 613d 1a3f f93d 083d b4be 8fb4 85be
000002e0: cdca 923e 118f 203e 8b9b acbe cf58 f5bc
000002f0: 80dd 67be 4c21 023f cd79 20be 311d fcbd
00000300: aa7d 8abe ee22 cabe 7e5f 283f 8d59 c33c
00000310: f0f9 23be 0838 c63d 74e2 acbe 0cd9 d63e
00000320: 8744 d0bd 10b2 dd3c 861b ef3d 0cad 333d
00000330: 28f7 fabc 2735 363e 1a72 ff3d 1820 75bd
00000340: 7a88 38be 816b 1c3e 2d66 14be b33d febd
00000350: 274f bdbd 90e1 b33c 22c6 a73d 748f 3c3d
00000360: 4afe 813d 3075 253c 1aa7 b73d 74ec 2d3d
00000370: e3f5 45be 70aa 41be f280 af3d 4d1f 163e
00000380: b49a 04be c932 473e 1834 f9bd ba23 d2bd
00000390: 3818 0d3d c1c8 94bd 5508 a0bd d3fb 8a3c
000003a0: 60b7 a7bd 9a75 edbd eb92 403e f54c cd3d
000003b0: 29a8 a33d 064f acbd 2726 c53b c8f2 31be
000003c0: c3d6 67bd 4bf8 37ba d836 bb3d 8ea4 32be
000003d0: 3f3c 40bc 908c 3bbe 5333 c7bd 9217 2fbe
000003e0: e3a2 4ebb 51a7 29be 96b8 ebbc 13b1 81bd
000003f0: 1648 453e 0c7b 88be 2914 8bbd 666f b23d

model.0.bias f4 [512]
-0.029624367 -0.1509366 -0.07471817 -0.19981472 -0.1556092 -0.17438193 0.07464789 -0.183638
-0.068180084 -0.08504332 -0.15927528 -0.18564568 -0.039257325 0.11393015 -0.26158547 0.1922131
-0.09386571 -0.04748017 -0.04622498 -0.17191474 0.0772392 0.004101798 0.039358217 -0.014248246
0.07617629 -0.14341643 0.10970009 0.099757135 0.047291227 -0.19560969 -0.049027886 -0.17217626
-0.004174881 -0.020140758 0.17126314 0.069397874 -0.038787138 -0.057359725 -0.052766636 -0.0442843
0.019738108 -0.17700776 -0.1594888 0.04965453 0.035817828 0.036944333 0.19082798 -0.18495564
-0.18307553 -0.024111528 0.0418724 -0.18319009 0.09995045 0.01488473 0.04607268 -0.1098528
0.08863515 -0.044030927 0.12962727 -0.019064583 0.089249216 -0.08207216 -0.09252729 -0.039652977
-0.14496988 0.18255197 -0.104774654 0.08388979 -0.18318318 -0.01119335 0.083679944 -0.00530508
-0.05091927 0.03201537 -0.058688074 0.15920997 0.0270251 0.0060495585 -0.066330954 -0.086979836
-0.19417833 -0.16031472 0.0838145 0.085609965 0.06973794 -0.037632506 -0.18214272 0.010299012
-0.05383256 0.07536812 -0.18888834 0.11573 0.030721933 0.08168927 -0.18736437 0.08066183
-0.21866788 -0.1934395 -0.020348085 -0.065721884 -0.07755722 -0.14603905 -0.14655942 0.030741133
-0.17373359 0.049763158 0.088051945 -0.19370216 -0.13848197 0.07523326 -0.14662714 0.029807206
0.14819959 -0.19658203 -0.07407567 -0.17042463 0.091910966 0.04283656 -0.18296474 -0.19619893
-0.094779864 -0.035418347 0.068697155 -0.09244414 -0.14006205 -0.115934156 0.056205675 0.002604745
0.12466822 0.005483208 -0.076848075 -0.13832058 -0.16166422 -0.08054099 0.016460955 0.01703641
-0.05761227 -0.19561158 0.12070974 -0.0819591 -0.15807112 -0.0905961 0.106709525 0.046030764
-0.14610073 -0.09480673 0.15476122 -0.22310938 0.11423036 -0.1639657 0.008778269 -0.18691313
-0.12299104 -0.11115681 0.031586386 0.041958172 -0.010966614 0.14172885 -0.08520162 -0.15235543
-0.029253492 -0.21625753 -0.08354159 -0.05577425 -0.1942722 -0.11545666 0.03714244 -0.11264526
0.06883265 0.081609815 0.12991832 0.040853806 0.07431786 0.05935892 -0.07278442 -0.16112804
0.07536692 -0.13597023 0.015454509 -0.13629565 0.19591843 -0.022848472 0.054936472 -0.18851666
-0.18023989 -0.0013486192 0.114971414 -0.016054273 0.097087875 0.06599621 0.12237776 0.011940813
0.025085036 -0.1406013 -0.101617575 -0.085966244 -0.090184584 0.15062116 0.061957475 -0.008414156
0.092506036 0.016661407 0.11668509 0.093313985 -0.053856473 -0.2025425 -0.11210975 -0.15594372
-0.07362796 0.06801963 -0.16490512 -0.019779922 0.13952996 0.07639468 -0.16280481 -0.04847003
0.04527235 -0.008557704 0.17699504 -0.035579618 -0.050359607 -0.02528274 -0.16373616 0.06783448
-0.07138319 0.07669393 -0.015500869 -0.11814865 5.2958727e-05 -0.1512429 -0.03487224 0.14362152
0.061002757 -0.00424724 -0.19451888 -0.13291952 0.1826773 0.16920707 -0.09614165 0.043478023
-0.18561813 -0.18737984 -0.054148205 -0.16952546 0.11968774 -0.02353374 0.10109759 -0.095551886
0.012391441 -0.16670218 0.16486414 -0.16197148 0.011098648 0.0920864 0.04353552 0.023997521
00000000: cdae f2bc 208f 1abe d705 99bd 3b9c 4cbe
00000010: 0558 1fbe 2d91 32be fee0 983d 9a0b 3cbe
00000020: 00a2 8bbd 312b aebd 0f19 23be e719 3ebe
00000030: 4acc 20bd 3654 e93d 88ee 85be 83d3 443e
00000040: aa3c c0bd 917a 42bd 6856 3dbd 6b0a 30be
00000050: 962f 9e3d 6068 863b 1536 213d 7a71 69bc
00000060: 5102 9c3d c2db 12be 71aa e03d 784d cc3d
00000070: 72b4 413d e84d 48be 77d1 48bd f94e 30be
00000080: 71cd 88bb 3bfe a4bc 9b5f 2f3e 7920 8e3d
00000090: 43df 1ebd 08f2 6abd d421 58bd 7463 35bd
000000a0: d0b1 a13c 8641 35be 0851 23be 8c62 4b3d
000000b0: b7b5 123d f152 173d 6968 433e 0365 3dbe
000000c0: 2778 3bbe 8a85 c5bc 6582 2b3d 2f96 3bbe
000000d0: d2b2 cc3d 15df 733c b5b6 3c3d 81fa e0bd
000000e0: 5886 b53d c659 34bd 03bd 043e 542d 9cbc
000000f0: 4bc8 b63d 7315 a8bd f37e bdbd 296b 22bd
00000100: fc72 14be e7ee 3a3e 1894 d6bd 69ce ab3d
00000110: 5f94 3bbe 5064 37bc 6460 ab3d 3dd6 adbb
00000120: b990 50bd 8c22 033d e862 70bd f007 233e
00000130: be63 dd3c 603b c63b 86d8 87bd 7c22 b2bd
00000140: afd6 46be 8b29 24be f0a6 ab3d 4754 af3d
00000150: c4d2 8e3d 8b24 1abd 9f83 3abe 30bd 283c
00000160: 887f 5cbd 9a5a 9a3d f26b 41be da03 ed3d
00000170: 90ac fb3c b44c a73d 72dc 3fbe 0832 a53d
00000180: 79ea 5fbe 0115 46be 07b1 a6bc 3299 86bd
00000190: 52d6 9ebd 438b 15be ac13 16be d4d4 fb3c
000001a0: 38e7 31be 74d4 4b3d 9454 b43d dc59 46be
000001b0: 38ce 0dbe e513 9a3d 6d25 16be 3e2e f43c
000001c0: a2c1 173e cd4c 49be fcb4 97bd cb83 2ebe
000001d0: d13b bc3d 6475 2f3d 1c5b 3bbe 5fe8 48be
000001e0: f21b c2bd d412 11bd 18b1 8c3d 5a53 bdbd
000001f0: 6d6c 0fbe e36e edbd ec37 663d 5fb4 2a3b
00000200: 0d52 ff3d 7cac b33b 8662 9dbd e9a3 0dbe
00000210: 4e8b 25be adf2 a4bd 20d9 863c f18f 8b3c
00000220: d8fa 6bbd 674e 48be ab36 f73d 2cda a7bd
00000230: 65dd 21be 738a b9bd 868a da3d c18a 3c3d
00000240: 6e9b 15be 082a c2bd ba79 1e3e c976 64be
00000250: 9bf1 e93d a0e6 27be bbd2 0f3c 2866 3fbe
00000260: bae2 fbbd 2ea6 e3bd ba60 013d 55dc 2b3d
00000270: 50ad 33bc 5e21 113e 307e aebd 1003 1cbe
00000280: 05a5 efbc 9d72 5dbe da17 abbd 8a73 64bd
00000290: 4bef 46be 8b74 ecbd ac22 183d 8fb2 e6bd
000002a0: 22f8 8c3d 0c23 a73d 4f09 053e 5256 273d
000002b0: f633 983d 5722 733d ff0f 95bd c0fe 24be
000002c0: f959 9a3d c83b 0bbe e934 7d3c 1691 0bbe
000002d0: d79e 483e b82c bbbc 1105 613d 830a 41be
000002e0: ce90 38be 27c4 b0ba 2276 eb3d 4084 83bc
000002f0: 02d6 c63d 0529 873d 31a1 fa3d 66a3 433c
00000300: 227f cd3c caf9 0fbe e01c d0bd 120f b0bd
00000310: b2b2 b8bd 6f3c 1a3e 1fc7 7d3d 87db 09bc
00000320: ce73 bd3d 817d 883c 98f8 ee3d 671b bf3d
00000330: 9b98 5cbd 4d67 4fbe cc99 e5bd b6af 1fbe
00000340: 42ca 96bd e04d 8b3d e3dc 28be 8109 a2bc
00000350: f1e0 0e3e d074 9c3d 4eb6 26be 8388 46bd
00000360: 806f 393d 9d35 0cbc 303e 353e efbb 11bd
00000370: e045 4ebd c01d cfbc 74aa 27be ceec 8a3d
00000380: 5a31 92bd b511 9d3d 5bf7 7dbc ebf7 f1bd
00000390: 0020 5e38 6bdf 1abe 32d6 0ebd 8511 133e
000003a0: 07de 793d 6e2c 8bbb f52f 47be 0e1c 08be
000003b0: c20f 3b3e 9e44 2d3e eae5 c4bd 0316 323d
000003c0: ae12 3ebe 80e0 3fbe 82ca 5dbd 1598 2dbe
000003d0: d91e f53d d4c9 c0bc 410c cf3d b5b0 c3bd
000003e0: 7805 4b3c fab3 2abe 25d2 283e dadb 25be
000003f0: 1bd7 353c cb97 bc3d 4d52 323d 7396 c43c

model.2.weight f4 [256, 512]
0.011024592 -0.04863115 0.009622715 0.0030688785 -0.023262864 -0.010501302 0.0020898944 -0.059310187
0.00896683 -0.005339831 0.0070825433 -0.04216413 -0.039703995 -0.01154545 0.018577866 -0.03544373
0.006578181 0.012637414 -0.036759697 -0.035063576 -0.042776193 0.04368339 -0.031973608 -0.019394066
0.026241174 0.014648802 -0.019989816 0.00069676916 -0.030502716 -0.038143378 -0.03483159 -0.037293404
-0.03700822 -0.020921247 -0.0072770636 -0.019085974 0.0008614539 -0.037394237 0.00918936 0.0066139414
0.007932518 0.006140686 0.029133026 -0.07809416 -0.0038512202 -0.07573389 -0.033722553 0.032150593
0.029160116 0.03777713 -0.04449589 -0.017262602 -0.01119529 -0.019101279 -0.003201166 -0.026916396
0.013408551 -0.030440155 0.004448183 0.0024553512 -0.003960436 0.00922459 0.011456492 0.03394562
-0.042459514 0.01511094 -0.06996099 0.0133594265 -0.040297322 0.018130526 -0.023267927 -0.04133835
-0.012701148 0.016707707 0.0020863153 0.004736314 -0.027508667 -0.010057941 -0.021991342 -0.020843023
0.005745777 -0.00571822 0.032768115 -0.0023252224 -0.07045774 -0.026445463 0.031164292 -0.01855633
0.0055565685 0.005973529 -0.033462707 -0.027589157 -0.038744073 -0.035485566 -0.007884864 -0.060956135
0.017710421 0.009946365 0.0034221623 0.0002413725 -0.05384591 -0.034267996 -0.031983078 -0.053223252
-0.016683614 -0.003367658 -0.016097097 -0.005832565 -0.038920462 -0.041865166 -0.038768515 0.0034688825
-0.069796816 -0.012812081 -0.032798693 0.007122487 -0.015571658 0.030446213 0.030759845 -0.022914093
0.006621341 -0.009685695 -0.039923955 -0.026622238 -0.042430606 -0.0049280934 -0.0047909953 0.0398946
-0.020937772 0.03440392 -0.0030926378 0.014893675 -0.039215315 0.006702361 -0.027604295 0.010270546
0.038656127 -0.035699464 0.040608913 -0.0470008 0.008981392 0.020061556 0.012635853 -0.044706706
0.020780038 -0.0075974683 -0.024828028 0.013028297 0.033596374 -0.012360733 0.00029427803 -0.024300376
-0.023612572 -0.011054175 0.02784756 -0.024005331 0.038025666 -0.043591626 -0.04113004 0.002130296
-0.03953886 -0.04544286 -0.00827904 -0.01582539 -0.018463438 0.0077840844 0.017544962 -0.0063496386
0.009350784 0.0010174887 0.0046425387 0.023583276 -0.011374151 0.0045129643 -0.029857792 -0.0017076364
-0.04901098 0.01804586 -0.00417846 -0.027228914 -0.012849666 -0.03812607 0.010820199 -0.051582854
-0.04803996 -0.051476147 -0.011414783 0.020238597 -0.041382793 -0.043667972 -0.0496664 0.024879713
0.014674544 -0.019229058 -0.01285439 -0.042448238 0.03638165 -0.04591989 -0.0023120376 0.009370298
-0.041224223 -0.02611713 -0.004300351 0.0023648078 -0.029587787 0.004526982 0.0012759253 -0.039782923
0.009465702 0.008566736 -0.025423732 -0.033118784 -0.03208269 0.017995445 0.03717714 0.02361298
-0.029364321 0.034807205 -0.042318374 -0.0062846984 0.023760226 -0.00012657791 0.0046813292 0.029692486
-0.03089764 -0.015397714 -0.032977685 0.03710513 0.02724294 -0.013804058 -0.021089774 -0.04509957
-0.005372471 -0.03618299 0.01695987 0.011741921 -0.040007107 0.019835884 -0.0035360157 0.018982554
-0.02455833 0.034397792 -0.01479404 -0.015710922 0.023293171 -0.044017117 -0.014853023 -0.032054324
-0.026725069 0.03001376 0.023909193 0.0045822915 0.006708112 0.027939472 -0.022831887 0.035849117
00000000: 7ea0 343c 7531 47bd 98a8 1d3c 3d1f 493b
00000010: c391 bebc a70d 2cbc 9cf6 083b 3def 72bd
00000020: 9ce9 123c c0f9 aebb ae14 e83b 4bb4 2cbd
00000030: a8a0 22bd 2129 3dbc 9c30 983c 722d 11bd
00000040: c88d d73b 280d 4f3c 5691 16bd d39e 0fbd
00000050: 1736 2fbd 5bed 323d c2f6 02bd 4ee0 9ebc
00000060: bbf7 d63c 8701 703c afc1 a3bc 63a7 363a
00000070: d5e0 f9bc 3b3c 1cbd 92ab 0ebd f8c0 18bd
00000080: ee95 17bd 0963 abbc 6f74 eebb 305a 9cbc
00000090: 31d3 613a b32a 19bd f88e 163c c3b9 d83b
000000a0: 64f7 013c cf37 c93b 62a8 ee3c d5ef 9fbd
000000b0: c164 7cbb 5f1a 9bbd a920 0abd 57b0 033d
000000c0: 32e1 ee3c 31bc 1a3d 5341 36bd 4d6a 8dbc
000000d0: 736c 37bc 497a 9cbc a7ca 51bb c67f dcbc
000000e0: 8aaf 5b3c a25d f9bc 10c2 913b f5e9 203b
000000f0: 8cc6 81bb bc22 173c 03b4 3b3c 900a 0b3d
00000100: 07ea 2dbd e093 773c b547 8fbd 7fe1 5a3c
00000110: ce0e 25bd 7886 943c 619c bebc 6752 29bd
00000120: 7a18 50bc 9ade 883c 90ba 083b 1533 9b3b
00000130: db59 e1bc 10ca 24bc 3027 b4bc fdbe aabc
00000140: 1247 bc3b e85f bbbb dc37 063d c262 18bb
00000150: 264c 90bd 28a4 d8bc 424c ff3c 7203 98bc
00000160: e013 b63b 98bd c33b 3110 09bd a802 e2bc
00000170: 1bb2 1ebd 5059 11bd 842f 01bc 24ad 79bd
00000180: 7215 913c 14f6 223c 5b46 603b f018 7d39
00000190: 878d 5cbd 995c 0cbd b000 03bd a000 5abd
000001a0: 13ac 88bc edb3 5cbb 0fde 83bc 1a1f bfbb
000001b0: 106b 1fbd cf7a 2bbd bccb 1ebd 3156 633b
000001c0: a2f1 8ebd c3e9 51bc ec57 06bd c063 e93b
000001d0: 4420 7fbc 566a f93c 12fc fb3c 56b6 bbbc
000001e0: d6f7 d83b c0b0 1ebc 4d87 23bd e116 dabc
000001f0: b7cb 2dbd d87b a1bb c8fd 9cbb 8568 233d
00000200: b185 abbc 20eb 0c3d daad 4abb 9a04 743c
00000210: 3da0 20bd 7b9f db3b 6722 e2bc cb45 283c
00000220: e355 1e3d 9a39 12bd 8855 263d e983 40bd
00000230: b026 133c 2258 a43c 9c06 4f3c 611e 37bd
00000240: e63a aa3c 2ff4 f8bb 2664 cbbc a374 553c
00000250: 5a9c 093d ac84 4abc 5449 9a39 9511 c7bc
00000260: 276f c1bc 921c 35bc 9120 e43c d4a6 c4bc
00000270: cdc0 1b3d 228d 32bd f977 28bd 709c 0b3b
00000280: 80f3 21bd 4b22 3abd d0a4 07bc 40a4 81bc
00000290: a340 97bc a211 ff3b 74ba 8f3c a110 d0bb
000002a0: 0834 193c 415d 853a 7020 983b b731 c13c
000002b0: a65a 3abc 7de1 933b 5498 f4bc c5d2 dfba
000002c0: bdbf 48bd e9d4 933c 77eb 88bb 2c0f dfbc
000002d0: 6887 52bc 152a 1cbd 3447 313c 8b48 53bd
000002e0: 8dc5 44bd a7d8 52bd 1205 3bbc 6acb a53c
000002f0: 0181 29bd 30dd 32bd ff6e 4bbd 8ad0 cb3c
00000300: 806d 703c 4286 9dbc 389b 52bc 34de 2dbd
00000310: ed04 153d 7f16 3cbd 8e85 17bb e185 193c
00000320: bbda 28bd 97f3 d5bc f5e9 8cbb e4fa 1a3b
00000330: 1662 f2bc 1457 943b f33c a73a 6bf3 22bd
00000340: 0816 1b3c 7f5b 0c3c 6e45 d0bc 90a7 07bd
00000350: 2469 03bd 2f6b 933c 0f47 183d 0270 c13c
00000360: 728d f0bc 0092 0e3d 0856 2dbd dfef cdbb
00000370: cea4 c23c 00ba 04b9 d665 993b a83d f33c
00000380: 0c1d fdbc b246 7cbc 9c13 07bd 8cfb 173d
00000390: 962c df3c 6a2a 62bc 76c4 acbc 54ba 38bd
000003a0: 8e0b b0bb 9d34 14bd 6def 8a3c 3061 403c
000003b0: 7ede 23bd dd7e a23c 80bc 67bb 4d81 9b3c
000003c0: 8d2e c9bc b3e4 0c3d b362 72bc 31b4 80bc
000003d0: 52d1 be3c 4b4b 34bd 185a 73bc 654b 03bd
000003e0: 88ee dabc 6bdf f53c 36dd c33c 0c27 963b
000003f0: b9cf db3b 52e1 e43c f009 bbbc 86d6 123d

model.2.bias f4 [256]
0.0069688186 -0.05132196 -0.030944414 -0.0032458322 0.061266374 -0.00015051509 0.05438689 -0.00813368
0.06391226 0.0038568934 0.10455603 -0.005247006 -0.05604988 0.0065461732 0.01876099 -0.03491404
-0.0452534 -0.005265494 0.0182908 0.09713491 0.002533944 0.005743939 -0.04608056 -0.043674983
-0.008086018 0.02720993 -0.026286958 0.084776044 -0.02634092 0.10027408 0.094936036 -0.026712254
0.059463423 -0.061250694 0.071804546 -0.04108536 -0.048263725 0.048526995 0.00683867 0.055161495
0.05182973 0.013756125 0.030832741 -0.040827274 0.0072943717 0.03792908 -0.014339323 0.048832424
0.0926728 -0.07104384 -0.043568097 -0.015312377 0.0033239794 0.008759227 -0.008631594 0.0245455
0.008263795 -0.04524862 0.025052583 0.11986371 -0.018298442 0.017779758 -0.049336597 -0.015224877
0.10537101 0.07454764 0.057252064 0.024879724 -0.019161154 -0.043346383 -0.021554219 0.09559676
-0.028177164 -0.03909637 -0.022178913 0.026832309 0.0072495025 -0.013801996 -0.029787494 0.06922529
-0.004673691 -0.042554088 0.024139002 0.14119157 0.104759395 -0.012364459 0.0698261 0.069837995
0.031837158 -0.009996552 0.013006104 0.0125571815 0.009883473 -0.012321532 -0.00086085824 -0.014889508
0.014399207 0.088335246 0.090835616 -0.008270566 0.00036645538 0.019147813 0.14456949 -0.035692148
0.015102065 -0.04987694 -0.014902322 -0.0024710258 -0.04686639 0.024794469 0.012696193 0.08651709
0.09762989 0.015743058 0.0020253714 -0.004058902 -0.046107627 -0.022006743 0.01409922 0.02577717
-0.030109229 0.0026539976 -0.040276885 0.05834423 -0.034169964 0.0493789 -0.041264057 0.0012803128
0.02008506 -0.038740333 0.0135369925 -0.006215384 0.022733001 0.07455266 0.06755656 -0.0018788634
-0.014907726 -0.035645973 0.089756496 0.05548773 0.01262842 -0.023497362 -0.002856329 0.050319325
0.024408143 -0.053809103 0.10503224 0.029383605 0.014276588 -0.0040268986 -0.026261618 0.0030864081
-0.034801174 -0.0070216805 -0.0059292205 -0.0396753 0.005924635 -0.06067398 -0.039734542 0.035148747
-0.023018323 -0.022647675 -0.04781378 0.0086105 -0.030783692 0.011027898 0.033159386 -0.033418596
0.06948164 -0.035794158 -0.003876304 -0.034486968 -0.012655791 -0.0016201849 0.00018503147 -0.04040262
-0.014652394 0.14544165 0.03284604 0.07746858 0.01337242 0.0012644174 -0.039888002 0.12214493
-0.018520148 0.08164171 0.02849349 0.09760412 0.024592962 -0.043166064 0.0023217702 -0.029945372
-0.06276097 0.07903156 -0.0072664046 -0.0055985358 0.09421491 -0.043309145 0.046049673 -0.043351468
0.0073000016 -0.004648248 0.033036042 -0.020336397 0.0070459303 -0.042713612 -0.018117052 -0.009095347
0.01684118 0.00794191 0.018645748 0.080818675 0.01569919 0.024171276 -0.039847568 -0.013616402
-0.051946223 -0.040621802 0.0016090864 -0.03127114 0.009690505 -0.038617603 0.038271014 0.056712806
-0.044396795 0.072542705 -0.030393504 -0.017903216 0.0037814514 -0.038872845 -0.0010973698 -0.07698004
-0.037014704 -0.037416905 -0.040240064 0.05729676 0.05205322 0.0827069 0.08881192 -0.04572683
0.020042378 -0.022967916 -0.04253444 0.0085357055 -0.06923272 -0.15744393 -0.03989781 0.064581126
0.018950334 -0.017871572 0.07330129 0.009913857 -0.0127483895 0.004076968 -0.0029840122 -0.036894083
00000000: b05a e43b fa36 52bd 247f fdbc 07b8 54bb
00000010: 73f2 7a3d 96d3 1db9 cac4 5e3d 2043 05bc
00000020: 6ee4 823d efc3 7c3b 7921 d63d 14ef abbb
00000030: 8f94 65bd 4881 d63b a6b0 993c 0602 0fbd
00000040: a15b 39bd 2a8a acbb 96d6 953c abee c63d
00000050: 8710 263b a737 bc3b f8be 3cbd 8ae4 32bd
00000060: 387b 04bc 5ce7 de3c bf57 d7bc 109f ad3d
00000070: eac8 d7bc 7f5c cd3d d36d c23d a8d3 dabc
00000080: eb8f 733d 02e2 7abd 430e 933d 1f49 28bd
00000090: 2fb0 45bd 3ec4 463d ec16 e03b 05f1 613d
000000a0: 694b 543d 5f61 613c f294 fc3c 803a 27bd
000000b0: a005 ef3b 865b 1b3d 7bef 6abc 8204 483d
000000c0: 3dcb bd3d 6f7f 91bd 7674 32bd c4e0 7abc
000000d0: 1fd7 593b dc82 0f3c 876b 0dbc a513 c93c
000000e0: de64 073c 9e56 39bd 133b cd3c 1b7b f53d
000000f0: 9de6 95bc dba6 913c 2c15 4abd c371 79bc
00000100: c2cc d73d 6fac 983d 2481 6a3d 90d0 cb3c
00000110: daf7 9cbc fa8b 31bd 7992 b0bc 3cc8 c33d
00000120: ccd3 e6bc 8423 20bd 8db0 b5bc 6ecf db3c
00000130: 3c8d ed3b c421 62bc e704 f4bc fdc5 8d3d
00000140: c325 99bb 324d 2ebd 28bf c53c 8694 103e
00000150: 188c d63d 4d94 4abc fc00 8f3d 3907 8f3d
00000160: ae67 023d 94c8 23bc 8e17 553c a3bc 4d3c
00000170: 4aee 213c 40e0 49bc 38ab 61ba 1ff3 73bc
00000180: a7ea 6b3c 1ce9 b43d 0608 ba3d 4581 07bc
00000190: cf20 c039 e0db 9c3c 060a 143e ee31 12bd
000001a0: a76e 773c c34b 4cbd de28 74bc eff0 21bb
000001b0: f9f6 3fbd c51d cb3c b103 503c df2f b13d
000001c0: 2ef2 c73d 96f7 803c 18bc 043b 8a00 85bb
000001d0: 5adb 3cbd 7c47 b4bc 6a00 673c a52a d33c
000001e0: a1a7 f6bc b1ee 2d3b 60f9 24bd 5cfa 6e3d
000001f0: cef5 0bbd 8841 4a3d 8004 29bd 2bd0 a73a
00000200: 6c89 a43c 2fae 1ebd 43ca 5d3c 6caa cbbb
00000210: 8f3a ba3c 11af 983d 185b 8a3d 3244 f6ba
00000220: 893f 74bc 8301 12bd 41d2 b73d 1a47 633d
00000230: 6fe7 4e3c 8a7d c0bc 4031 3bbb a31b 4e3d
00000240: 96f3 c73c ef66 5cbd 251b d73d e3b5 f03c
00000250: 5ae8 693c 13f4 83bb 9b22 d7bc 5645 4a3b
00000260: ad8b 0ebd 2016 e6bb e849 c2bb 9182 22bd
00000270: 7123 c23b 4785 78bd b0c0 22bd 22f8 0f3d
00000280: ec90 bcbc 9e87 b9bc 62d8 43bd 0e13 0d3c
00000290: 152e fcbc 5bae 343c 23d2 073d f0e1 08bd
000002a0: 644c 8e3d e59c 12bd 9709 7ebb 3542 0dbd
000002b0: 3c5a 4fbc 625c d4ba 0205 4239 387d 25bd
000002c0: 9810 70bc a8ee 143e 9289 063d d9a7 9e3d
000002d0: ff17 5b3c cfba a53a 9a61 23bd 1f27 fa3d
000002e0: 91b7 97bc c533 a73d 2e6b e93c abe4 c73d
000002f0: 2e77 c93c e6ce 30bd d728 183b ff4f f5bc
00000300: d388 80bd 4cdb a13d 051b eebb ec73 b7bb
00000310: bff3 c03d ee64 31bd 959e 3c3d 4f91 31bd
00000320: da34 ef3b 5550 98bb cd50 073d 8498 a6bc
00000330: 8ce1 e63b 78f4 2ebd 366a 94bc a604 15bc
00000340: 84f6 893c c91e 023c f8be 983c 4384 a53d
00000350: 969b 803c d702 c63c 3437 23bd 5417 5fbc
00000360: 90c5 54bd 0c63 26bd fbe7 d23a 2b16 00bd
00000370: edc4 1e3c 7e2d 1ebd 11c2 1c3d b04b 683d
00000380: 6ad9 35bd 4591 943d ccfb f8bc c4a9 92bc
00000390: 3ad2 773b 2239 1fbd 9fd5 8fba b6a7 9dbd
000003a0: bb9c 17bd 7842 19bd c4d2 24bd 02b0 6a3d
000003b0: c235 553d 3c62 a93d 06e3 b53d 0e4c 3bbd
000003c0: ea2f a43c 3627 bcbc 9838 2ebd 58d9 0b3c
000003d0: e2c9 8dbd fb38 21be e36b 23bd 1c43 843d
000003e0: bb3d 9b3c 6767 92bc fd1e 963d bb6d 223c
000003f0: 9fde 50bc 1698 853b 6b8f 43bb 401e 17bd

model.4.weight f4 [128, 256]
0.061586358 0.03670738 -0.107330225 -0.010775418 0.08256128 -0.030633656 0.17181712 -0.016180478
-0.21209472 -0.031259503 0.019127626 -0.048574373 -0.02072845 -0.029521706 0.05117294 -0.0013520836
-0.003189661 -0.044796593 0.049962796 0.09332599 -0.050084542 0.05459829 0.016374454 -0.061477553
0.015813835 -0.06842588 -0.04078854 0.07492564 0.03432062 0.036480084 0.018073153 0.064333364
0.09309332 -0.040347986 -0.02432966 0.024367012 -0.019498803 -0.02361797 0.0073904516 0.15406759
0.003735227 -0.021830615 -0.05032859 0.04729577 0.011894377 -0.057458676 0.043974884 0.15658258
0.074961066 0.0152087165 0.0014603361 0.011967645 -0.07035649 0.040528607 0.061716303 0.045397975
0.05521789 -0.034597438 -0.027098218 0.21846597 0.023033556 0.0646822 0.04135955 -0.017615242
0.04914777 0.06381277 0.0075988285 -0.06994453 -0.05231744 -0.049259108 0.0072528324 0.071434684
0.062201448 -0.20273602 0.049245235 -0.04982371 -0.0007532558 -0.01694507 -0.0028366754 -0.0037385544
-0.0359613 -0.042642027 0.033682432 0.07348829 -0.51552635 0.029292056 0.067498356 -0.026885437
0.015880492 0.0005044625 0.0011744644 0.010734292 0.056916744 -0.043664064 0.036972955 0.08678459
-0.010261143 0.0869062 0.07996096 -0.089996845 -0.079538085 0.051158793 -0.00075794547 0.020722771
0.0025922095 -0.011633696 0.25348857 -0.011459715 0.052154735 -0.1016907 -0.013489471 0.07554716
0.04602185 -0.100695446 -0.0592003 0.092644155 -0.04224384 0.036615502 0.053900998 -0.03209426
-0.017971959 0.008139723 -0.05095073 0.029704796 -0.037721936 0.05142451 -0.03716643 0.056761142
-0.024927745 0.051809795 -0.019659817 0.06771904 -0.038152486 0.13061263 -0.0016096393 -0.058750052
0.04235178 0.059955373 -0.009782897 0.027353331 0.014789519 -0.02927814 -0.006003159 -0.01970811
0.027124861 0.013781329 -0.06062821 -0.03983282 0.015631963 -0.0060498165 -0.043425504 0.0041810204
0.0055646934 0.015607491 0.070134856 -0.08644194 -0.04329286 0.0037404157 -0.004951191 0.070720665
0.014119861 0.024312323 0.0011604471 -0.032237217 0.030074878 -0.050825793 0.04046822 0.009691741
-0.009695893 0.05336476 0.09325655 -0.019310076 0.037192028 -0.006546715 0.0018776818 0.034255803
-0.051083863 0.043413557 -0.025407888 0.03290974 -0.07437582 0.049259786 -0.0050196247 0.020969294
0.05925165 0.08251347 0.05062753 -0.05204048 0.034528993 -0.011644378 -0.021675518 -0.030440435
0.0066991276 -0.019587167 -0.03005717 -0.016438723 -0.0054110195 -0.011668718 0.055521302 0.023435744
0.010874744 0.036764212 -0.010334582 -0.0020494496 0.015483885 -0.07265418 -0.005623667 -0.023235986
-0.08388844 -0.041872688 -0.0031342702 -0.027954012 -0.00073958683 -0.0031481797 0.0048498316 0.05818414
0.041364048 -0.04683902 0.023158208 -0.017022487 -0.047324635 -0.013763107 -0.05072469 -0.0070048706
0.06615222 -0.022776587 -0.05419032 -0.040739033 -0.044309087 0.031327724 -0.0030832982 0.027155375
-0.01884241 0.05258601 -0.045832872 -0.012082314 0.017299926 -0.048273146 -0.00575356 -0.01620256
-0.043627907 0.028789558 0.04342877 0.0073150788 0.0423051 -0.033600677 -0.028668378 0.1572201
-0.03283315 0.062218357 0.0373629 0.06628309 -0.010157909 0.056661453 0.028048111 0.008876508
00000000: fa41 7c3d 7a5a 163d f3cf dbbd 618b 30bc
00000010: e315 a93d 6ff3 fabc d4f0 2f3e ec8c 84bc
00000020: 5c2f 59be f709 00bd 8ab1 9c3c ecf5 46bd
00000030: b6ce a9bc 81d7 f1bc b79a 513d 6638 b1ba
00000040: a209 51bb a27c 37bd caa5 4c3d b221 bf3d
00000050: 7325 4dbd 75a2 5f3d b823 863c e3cf 7bbd
00000060: 048c 813c de22 8cbd e211 27bd 9d72 993d
00000070: c793 0c3d 246c 153d 260e 943c 36c1 833d
00000080: b6a7 be3d ee43 25bd ff4e c7bc 549d c73c
00000090: f4bb 9fbc 797a c1bc 9a2b f23b e5c3 1d3e
000000a0: b6ca 743b 1ed6 b2bc 5a25 4ebd 36b9 413d
000000b0: a2e0 423c ca59 6bbd 021f 343d 2f57 203e
000000c0: 3085 993d fb2d 793c c068 bf3a f113 443c
000000d0: 1017 90bd 5301 263d 3cca 7c3d 3af3 393d
000000e0: 272c 623d 0bb6 0dbd 15fd ddbc 8bb5 5f3e
000000f0: deb0 bc3c 1a78 843d a268 293d d74d 90bc
00000100: 2c4f 493d 45b0 823d 98ff f83b 143f 8fbd
00000110: d04a 56bd ebc3 49bd 2ba9 ed3b 594c 923d
00000120: f2c6 7e3d 089a 4fbe 5fb5 493d f213 4cbd
00000130: 2476 45ba 63d0 8abc 84e7 39bb 8902 75bb
00000140: 284c 13bd 68a9 2ebd 97f6 093d 0781 963d
00000150: 89f9 03bf e5f5 ef3c 943c 8a3d d93e dcbc
00000160: ce17 823c e83d 043a 7cf0 993a e2de 2f3c
00000170: 8821 693d 17d9 32bd f470 173d 1ebc b13d
00000180: 5a1e 28bc e1fb b13d 92c2 a33d 4450 b8bd
00000190: dde4 a2bd e28b 513d dcb0 46ba cdc2 a93c
000001a0: 0fe2 293b 429b 3ebc 41c9 813e 87c1 3bbc
000001b0: 34a0 553d 3743 d0bd f102 5dbc 78b8 9a3d
000001c0: 6881 3c3d 6a39 cebd 047c 72bd 38bc bd3d
000001d0: e007 2dbd 23fa 153d 4bc7 5c3d 4575 03bd
000001e0: ee39 93bc 795c 053c b6b1 50bd 7957 f33c
000001f0: 5182 1abd 82a2 523d d43b 18bd 5f7e 683d
00000200: 4535 ccbc 8236 543d a00d a1bc 48b0 8a3d
00000210: c845 1cbd 51bf 053e 88fa d2ba e5a3 70bd
00000220: 0f79 2d3d c493 753d 7248 20bc 1814 e03c
00000230: bd4f 723c b6d8 efbc 26b6 c4bb e772 a1bc
00000240: f534 de3c 15cb 613c 4955 78bd bd27 23bd
00000250: 9a0e 803c 8a3d c6bb f1de 31bd f100 893b
00000260: 0858 b63b 90b6 7f3c dda2 8f3d 7908 b1bd
00000270: db53 31bd c321 753b 9a3d a2bb ffd5 903d
00000280: fd56 673c a32a c73c 251a 983a 2c0b 04bd
00000290: 975f f63c b52e 50bd 01c2 253d 1cca 1e3c
000002a0: 86db 1ebc 0295 5a3d 4afd be3d 2a30 9ebc
000002b0: ab56 183d d385 d6bb 8c1c f63a d04f 0c3d
000002c0: 503d 51bd 6ad2 313d 3424 d0bc 5dcc 063d
000002d0: 5a52 98bd a1c4 493d aa7b a4bb ccc7 ab3c
000002e0: dcb1 723d d2fc a83d d05e 4f3d 6628 55bd
000002f0: 466e 0d3d 10c8 3ebc db90 b1bc 385e f9bc
00000300: 5b84 db3b 4475 a0bc 743a f6bc 80aa 86bc
00000310: ec4e b1bb 272e 3fbc 4e6a 633d 51fc bf3c
00000320: fb2b 323c 1296 163d 6152 29bc 0f50 06bb
00000330: 1fb0 7d3c b7cb 94bd bd46 b8bb 6559 bebc
00000340: b4cd abbd b282 2bbd 5468 4dbb d0ff e4bc
00000350: d5e0 41ba b151 4ebb 56eb 9e3b 7e52 6e3d
00000360: 596d 293d 46da 3fbd 48b6 bd3c be72 8bbc
00000370: 7ad7 41bd a87e 61bc b1c4 4fbd 1d89 e5bb
00000380: d17a 873d f795 babc abf6 5dbd f9dd 26bd
00000390: 727d 35bd 8051 003d 2911 4abb f374 de3c
000003a0: 665b 9abc 6e64 573d 40bb 3bbd e6f4 45bc
000003b0: 93b8 8d3c 10ba 45bd 5c88 bcbb 3bbb 84bc
000003c0: 2db3 32bd 14d8 eb3c 5ee2 313d 54b3 ef3b
000003d0: 1d48 2d3d dda0 09bd f2d9 eabc 4efe 203e
000003e0: 0e7c 06bd add8 7e3d d709 193d 6ebf 873d
000003f0: 5c6d 26bc d715 683d 27c5 e53c c66e 113c

model.4.bias f4 [128]
0.18120435 0.031843275 0.07715461 0.1488813 -0.0526517 -0.07657616 -0.06871542 0.0053835413
0.12960313 -0.08458969 0.009933606 0.20880355 0.15886769 0.04385792 -0.05914535 -0.08544182
-0.005695305 0.040230747 -0.025632538 0.018749105 0.01501862 -0.015195289 0.0675326 0.12238372
0.0101841735 -0.0111580845 0.08175269 -0.012562061 -0.022105014 0.09427744 0.2003916 0.17855905
0.12700936 0.17186376 -0.04210096 0.14022014 -0.054898966 0.09257609 0.13526064 0.0015518498
-0.08088502 0.16084832 -0.0728739 -0.012223196 -0.07166147 0.098454855 0.10470529 0.13837868
0.12714018 0.12352041 0.11659977 -0.030720051 0.089352645 0.18288942 0.03347438 0.19281092
-0.0345982 0.012555169 -0.03470587 0.13387194 0.053627014 -0.046701442 0.18689677 -0.057381336
-0.039276715 0.0711632 0.013246528 0.055355627 0.143138 -0.065186664 -0.043789614 -0.017019883
-0.052082516 0.03291958 -0.076294824 0.11154258 -0.085939445 -0.06571137 -0.03441803 0.17547879
-0.030225702 0.22711648 0.014326277 -0.0105730025 0.14456055 0.13843416 -0.05228261 -0.04949286
0.17808661 -0.07284627 -0.061199654 0.017683124 -0.061607517 0.03054095 -0.034929443 0.017255304
-0.0050771656 -0.030416843 -0.03031542 0.09681519 -0.07504665 0.09509858 0.14707565 -0.035309903
-0.0476326 -0.062282544 -0.06880564 -0.075383715 0.15353364 -0.056150727 -0.0014396075 0.03997262
0.14719808 0.12973592 -0.07467152 -0.025000896 0.17070891 0.19637698 -0.023251252 -0.036905684
0.23976542 0.043383375 0.10550637 0.03877634 0.1055868 -0.0106857065 -0.011907154 0.1382788
00000000: a28d 393e 186e 023d 3c03 9e3d 5774 183e
00000010: 4fa9 57bd f6d3 9cbd acba 8cbd 6b68 b03b
00000020: afb6 043e 5c3d adbd 90c0 223c 99d0 553e
00000030: 36ae 223e 5da4 333d 6542 72bd 1ffc aebd
00000040: ae9f babb ffc8 243d 54fb d1bc b997 993c
00000050: a810 763c a9f5 78bc 884e 8a3d 51a4 fa3d
00000060: 85db 263c 66d0 36bc f46d a73d 1ad1 4dbc
00000070: 9315 b5bc 8814 c13d 7533 4d3e 2fd8 363e
00000080: be0e 023e 0efd 2f3e 0e72 2cbd de95 0f3e
00000090: bddd 60bd 8898 bd3d c481 0a3e 7067 cb3a
000000a0: 0ca7 a5bd 6cb5 243e e93e 95bd cd43 48bc
000000b0: 40c3 92bd b3a2 c93d ba6f d63d 24b3 0d3e
000000c0: 0931 023e 45f8 fc3d dccb ee3d 9ea8 fbbc
000000d0: 85fe b63d 5d47 3b3e 6e1c 093d 3a70 453e
000000e0: d8b6 0dbd 32b4 4d3c be27 0ebd ba15 093e
000000f0: 00a8 5b3d 034a 3fbd de61 3f3e b108 6bbd
00000100: 9fe0 20bd 03be 913d f707 593c 95bc 623d
00000110: c592 123e 9680 85bd bd5c 33bd 486d 8bbc
00000120: 7a54 55bd aed6 063d 7640 9cbd 7070 e43d
00000130: 0501 b0bd af93 86bd ecf9 0cbd b6b0 333e
00000140: e49b f7bc 3991 683e c3b8 6a3c 633a 2dbc
00000150: ae07 143e afc1 0d3e 4a26 56bd 06b9 4abd
00000160: 565c 363e 6d30 95bd 7dac 7abd 33dc 903c
00000170: 2a58 7cbd 0431 fa3c 2d12 0fbd ff5a 8d3c
00000180: 5a5e a6bb be2c f9bc 0b58 f8bc 0b47 c63d
00000190: 0fb2 99bd 0bc3 c23d 009b 163e 1ea1 10bd
000001a0: 671a 43bd fb1b 7fbd f9e9 8cbd c762 9abd
000001b0: ec37 1d3e 4efe 65bd 36b1 bcba 54ba 233d
000001c0: 18bb 163e 7ed9 043e 62ed 98bd aece ccbc
000001d0: 51ce 2e3e 0c17 493e 6979 bebc 6a2a 17bd
000001e0: 1185 753e c4b2 313d b913 d83d f1d3 1e3d
000001f0: e43d d83d 1a13 2fbc 3916 43bc f598 0d3e

model.6.weight f4 [5, 128]
0.014545573 0.012221298 0.047301035 0.01576543 -0.03035178 0.061712317 -0.023066262 0.037962988
0.036919706 0.06926032 0.055843093 0.013425653 0.026492149 -0.048388638 0.014694594 -0.049552966
-0.047039118 0.108321354 0.026093706 -0.015636453 -0.051486086 0.08272416 0.055021387 0.17558943
0.08925834 0.036657173 0.030150043 0.04099835 0.0031456102 0.22004554 0.075187035 0.0627077
0.18462987 0.011013357 0.03287972 0.035148986 0.05576219 0.052816086 0.007553395 0.051019236
0.032586586 0.10888654 0.029826304 -0.04164459 -0.036610574 0.11348652 0.1595429 -0.023111787
0.05260669 0.039390005 0.09459918 -0.04235921 0.13843322 0.034724724 0.058274798 0.0021691595
-0.046106786 -0.05755754 0.049860712 -0.021032725 0.067924425 -0.019056935 0.11991109 -0.010390689
-0.022202572 0.13418497 -0.055263106 0.1135909 0.11655869 0.0741579 -0.037134245 -0.06366971
-0.052434746 0.00351166 0.0040060356 0.14247327 -0.04323186 0.048269797 0.011603445 0.1496628
0.040461212 0.0654644 0.05348631 0.06957 0.058725007 -0.17189571 0.030569889 0.14925772
0.15306789 -0.0040935636 -0.030908253 -0.036072165 -0.022371002 -0.029208675 0.045126334 0.05597107
0.019847043 -0.01963591 -0.056324393 0.12078175 0.0850062 0.14464863 0.16741394 -0.06833744
-0.0014916185 -0.022741042 -0.009960565 -0.04139911 0.10111664 -0.03581023 0.0829282 -0.077328175
0.13433135 -0.043165535 0.030258888 -0.07337311 0.034121003 -0.04811083 -0.07240978 -0.07682068
0.06304567 -0.020527683 0.11948921 -0.12403802 -0.094510056 -0.06553901 0.03567479 -0.32444677
0.061472014 -0.029169017 0.052553114 0.13256449 0.090114325 -0.03623573 0.022553125 0.035854843
0.11543122 0.008616626 0.022799917 0.13793828 0.11327649 -0.042590987 0.037433922 0.076497786
0.08569396 0.09734708 0.047533862 0.036145292 0.05998108 -0.04665862 -0.29023325 -0.006692411
0.21071674 0.056461025 0.114921086 0.008525826 -0.055486567 0.28293005 0.08740189 0.1112987
0.0028916264 -0.43645355 0.02597963 0.03719617 0.0033660813 0.12598015 0.049999163 0.038262285
-0.07151394 0.0038047445 0.072743036 0.07483965 -0.012498076 -0.012228479 0.043299817 0.14575633
0.055048477 0.12125887 0.0770406 -0.028555859 0.12210142 0.101226844 -0.03519038 0.017425867
0.021269515 -0.016042568 -0.036339156 0.045583874 -0.06009044 -0.045276076 0.047202278 -0.029493239
-0.056241076 0.10114972 0.043984044 -0.026632883 0.09053578 0.05176815 -0.045189425 0.017814882
0.026482137 -0.021395618 -0.009369455 0.040156443 0.047013752 0.010854066 0.038416486 0.10783771
-0.01389901 -0.4153829 0.056633566 -0.01745536 0.07982337 -0.011684938 -0.04855968 0.003518936
0.03494149 0.028276838 0.037996434 0.030173874 -0.051398557 0.038292516 0.06374796 -0.0518152
0.073359616 0.031975884 0.0629184 0.050027654 -0.030015817 0.089653745 0.11341673 -0.041010883
0.06423235 -0.02187226 0.031707473 0.020769306 0.08624164 -0.084344245 -0.04296381 0.067010924
0.085627556 0.090396106 0.012472118 -0.014635033 0.048692666 0.06742522 0.0776448 0.024523491
-0.5003609 0.05058544 0.08547005 0.037613496 0.1453443 0.06048895 -0.0047412505 0.2340818
00000000: 8e50 6e3c d73b 483c bbbe 413d 8126 813c
00000010: 4ca4 f8bc 0ec6 7c3d 75f5 bcbc 147f 1b3d
00000020: 1e39 173d 5bd8 8d3d babb 643d 45f7 5b3c
00000030: 1006 d93c 2a33 46bd 98c1 703c 0df8 4abd
00000040: 17ac 40bd 96d7 dd3d 78c2 d53c 0518 80bc
00000050: 13e3 52bd 496b a93d 1b5e 613d b7cd 333e
00000060: 14cd b63d d525 163d 39fd f63c e3ed 273d
00000070: 9526 4e3b 9e53 613e a9fb 993d e56c 803d
00000080: 9d0f 3d3e 5e71 343c e3ac 063d 62f8 0f3d
00000090: e566 643d ae55 583d 7882 f73b 8cf9 503d
000000a0: 8379 053d e8ff de3d 4b56 f43c 8593 2abd
000000b0: f8f4 15bd 9f6b e83d 375f 233e ee54 bdbc
000000c0: 1d7a 573d 6a57 213d 37bd c13d da80 2dbd
000000d0: 70c1 0d3e 833b 0e3d 8eb1 6e3d 7528 0e3b
000000e0: 78da 3cbd 74c1 6bbd bf3a 4c3d d24c acbc
000000f0: f61b 8b3d 4a1d 9cbc f293 f53d b53d 2abc
00000100: 2be2 b5bc c967 093e 915b 62bd 59a2 e83d
00000110: 53b6 ee3d 19e0 973d 141a 18bd 4465 82bd
00000120: d1c5 56bd e123 663b 1045 833b 83e4 113e
00000130: e413 31bd 8db6 453d 601c 3e3c 3441 193e
00000140: a8ba 253d 3312 863d 7614 5b3d b77a 8e3d
00000150: a289 703d 6e05 30be b46d fa3c 04d7 183e
00000160: d4bd 1c3e 4d23 86bb 4e33 fdbc 68c0 13bd
00000170: 6443 b7bc 0847 efbc 64d6 383d ec41 653d
00000180: 4496 a23c 7ddb a0bc 68b4 66bd 6c5c f73d
00000190: bb17 ae3d c51e 143e 8f6e 2b3e 80f4 8bbd
000001a0: 6982 c3ba 6c4b babc a331 23bc 1d92 29bd
000001b0: 3e16 cf3d bfad 12bd 43d6 a93d 3c5e 9ebd
000001c0: 288e 093e 58ce 30bd 7de1 f73c a444 96bd
000001d0: 77c2 0b3d dd0f 45bd 944b 94bd 2954 9dbd
000001e0: 171e 813d ac29 a8bc c2b6 f43d a507 febd
000001f0: 7d8e c1bd 5139 86bd bb1f 123d e31d a6be
00000200: 14ca 7b3d ddf3 eebc ef41 573d fcbe 073e
00000210: dc8d b83d eb6b 14bd 55c1 b83c 87dc 123d
00000220: 3467 ec3d c02c 0d3c e4c6 ba3c b13f 0d3e
00000230: 81fd e73d e373 2ebd 5054 193d dfaa 9c3d
00000240: 5180 af3d e85d c73d deb2 423d 160d 143d
00000250: b9ae 753d 1c1d 3fbd 7499 94be 034c dbbb
00000260: 21c6 573e ad43 673d bf5b eb3d e8af 0b3c
00000270: e245 63bd 35dc 903e c3ff b23d 93f0 e33d
00000280: 7181 3d3b d776 dfbe 3cd3 d43c 035b 183d
00000290: 7999 5c3b f100 013e eccb 4c3d eab8 1c3d
000002a0: e775 92bd 0559 793b 4dfa 943d 8845 993d
000002b0: bbc4 4cbc f559 48bc 265b 313d 2641 153e
000002c0: 837a 613d 9256 f83d 76c7 9d3d faed e9bc
000002d0: 4f10 fa3d 0550 cf3d ca23 10bd b1c0 8e3c
000002e0: 683d ae3c b46b 83bc 5ed8 14bd 28b6 3a3d
000002f0: 6521 76bd 6873 39bd 2d57 413d ce9b f1bc
00000300: 0b5d 66bd 9627 cf3d 9d28 343d 342d dabc
00000310: d36a b93d d70a 543d 8c18 39bd 84f0 913c
00000320: 11f1 d83c dd45 afbc 5882 19bc 157b 243d
00000330: 7e91 403d 41d5 313c 9b5a 1d3d 04da dc3d
00000340: acb8 63bc 11ad d4be 99f8 673d 8bfe 8ebc
00000350: 6f7a a33d 2f72 3fbc 84e6 46bd f39d 663b
00000360: cf1e 0f3d d4a4 e73c 26a2 1b3d 332f f73c
00000370: 4b87 52bd 9dd8 1c3d 4a8e 823d 2d3c 54bd
00000380: 913d 963d 25f9 023d 5ddb 803d cce9 4c3d
00000390: bbe3 f5bc 629c b73d 0847 e83d 07fb 27bd
000003a0: 408c 833d 742d b3bc b2df 013d 6424 aa3c
000003b0: 759f b03d adbc acbd d2fa 2fbd 063d 893d
000003c0: 805d af3d 9821 b93d db57 4c3c c7c7 6fbc
000003d0: f671 473d 3c16 8a3d 3d04 9f3d 7de5 c83c
000003e0: a717 00bf ae32 4f3d ec0a af3d 9c10 1a3d
000003f0: 23d5 143e 43c3 773d 7e5c 9bbb 24b3 6f3e

model.6.bias f4 [5]
0.111556895 0.1610893 0.073211834 -0.0025870195 0.19599022
00000000: f177 e43d 98f4 243e 16f0 953d fc8a 29bb
00000010: a9b1 483e
