2021-22/PrimerSemestre/Reinforcement/PRA1/DQN.pth (torch, 715087 bytes, 8 tensors)

model.0.weight f4 [512, 25]
0	0x3e3140d1	0.17309882
1	0xbe29c6eb	-0.16579787
2	0x3c1485e0	0.009065121
3	0x3d5bc05c	0.053650245
4	0x3db13fb2	0.08654727
5	0x3c399da0	0.011329085
6	0x3d5c67a4	0.053809777
7	0xbe3c98af	-0.18417619
8	0xbdc9c357	-0.09851711
9	0x3d9b07e2	0.07569863
10	0x3d88b92a	0.06675942
11	0x3d01d7c0	0.031699896
12	0xbce8ab98	-0.028402135
13	0xbd5527a8	-0.052039772
14	0xbd115c68	-0.035488516
15	0xbde478fd	-0.11155889
16	0x3d8a8bb2	0.06764926
17	0xbc8da0d8	-0.01728861
18	0xbe0ac3ba	-0.13551226
19	0xbda3351d	-0.07969115
20	0xbe21d91d	-0.15805478
21	0xbdb56cda	-0.088586524
22	0x3e421271	0.18952347
23	0x3d77a3cc	0.060458943
24	0xbe30b628	-0.17256987
25	0x3df40e07	0.11916738
26	0x3ca721cd	0.02040186
27	0x3d931e96	0.07183568
28	0xbe7ce695	-0.24697335
29	0x3e3c8cf7	0.18413149
30	0xbd243875	-0.040092904
31	0x3b2a134b	0.002595144
32	0x3d34830b	0.044070285
33	0xbc0b313c	-0.008495625
34	0x3ddf71eb	0.109104
35	0xbe303628	-0.17208159
36	0x3e4aa2d9	0.19788684
37	0xbdcbb127	-0.099458985
38	0x3e58b6ce	0.21163484
39	0xbf1d3dcf	-0.6142244
40	0x3d845ad5	0.06462637
41	0x3d67844b	0.05652265
42	0xbd4929ed	-0.04911225
43	0xbd7048a0	-0.05866301
44	0xbef2749a	-0.47354585
45	0x3d4e1dcf	0.050321396
46	0xbe66fe6f	-0.22557996
47	0x3d865f7f	0.06561183
48	0xbe86ddf1	-0.26341203
49	0xbe0f5787	-0.13998233
50	0x3dd1fd03	0.10253336
51	0xbe02e0ec	-0.12781113
52	0xbdf6cf97	-0.12051313
53	0x3e26e9bb	0.16300099
54	0xbe5379ed	-0.2065198
55	0xbcfdb8d5	-0.030971924
56	0x3e959842	0.29217726
57	0x3e5db99b	0.21652834
58	0x3d0c6e93	0.03428514
59	0x3d9413b0	0.072303176
60	0xbd52414d	-0.051331807
61	0x3e3a8f3e	0.18218705
62	0x3bd65668	0.006541062
63	0xbe93b077	-0.2884557
64	0x3c6d7d8e	0.014495267
65	0xbdea1871	-0.11430443
66	0x3d400d84	0.04688789
67	0x3c6131f1	0.013744817
68	0x3dae4c2f	0.085106246
69	0x3e30f2f2	0.17280176
70	0x3c87d195	0.016579429
71	0xbd99855f	-0.07496142
72	0xbe9f841e	-0.31155485
73	0xbe649297	-0.22321545
74	0xbdaff7ea	-0.08592208
75	0x3d51da43	0.05123354
76	0x3da21eb1	0.0791601
77	0xbd03e8fc	-0.032204613
78	0x3dadee65	0.08492736
79	0xbdcb1610	-0.099163175
80	0xbe45379c	-0.19259495
81	0xbe203fda	-0.15649357
82	0xbd9111e3	-0.0708349
83	0xbd989575	-0.07450382
84	0x3e15f921	0.14645816
85	0xbd97e7e3	-0.07417276
86	0xbe0c3388	-0.13691533
87	0x3d3e9e17	0.046537485
88	0xbde21228	-0.11038619
89	0x3ba0a128	0.004902024
90	0x3de14242	0.10998966
91	0xbe72e2d1	-0.23719336
92	0x3d3383ed	0.043826986
93	0x3e8598cb	0.26093134
94	0x3e16109c	0.14654773
95	0x3da4b248	0.08041817
96	0xbdb635d4	-0.08896986
97	0x3db620c1	0.08892966
98	0x3d5144e9	0.05109111
99	0x3daedb98	0.08537978
100	0xbd9628de	-0.073320135
101	0xbd65163f	-0.05592942
102	0xbe5126bf	-0.20424937
103	0xbdd014c8	-0.10160214
104	0x3d6efbdc	0.05834566
105	0x3e29a704	0.16567618
106	0x3eefd211	0.46839955
107	0xbeaa2e97	-0.3323867
108	0x3ecbbaf5	0.39791074
109	0xbebdd774	-0.3707844
110	0x3e2f6522	0.17128423
111	0x3e4df72b	0.20113818
112	0xbdd4bfc7	-0.10388141
113	0x3e85d2f4	0.26137507
114	0xbe899cb2	-0.26877362
115	0xbd906572	-0.07050599
116	0x3e068d38	0.13139808
117	0xbe49d0b8	-0.19708526
118	0x3e29948d	0.16560574
119	0xbeb88188	-0.36036325
120	0x3dc540c0	0.09631491
121	0x3d6dfcf8	0.058102578
122	0x3d1df732	0.038565822
123	0x3d55b9a8	0.05217901
124	0x3e174109	0.14770903
125	0x3debee46	0.115200564
126	0xbdff9b33	-0.12480774
127	0xbd2df7e0	-0.04247272
128	0x3d14b94d	0.03630953
129	0x3ed8c7d3	0.42339954
130	0xbe58eb04	-0.21183401
131	0x3e4e3519	0.20137443
132	0x3e2c90e3	0.16852145
133	0x3c8b6cb5	0.017019609
134	0x3e0c53c0	0.13703823
135	0x3db2b8b2	0.08726634
136	0xbf4a538a	-0.7903372
137	0xbee7f263	-0.45302114
138	0xbea90e79	-0.33018854
139	0xbf1306e9	-0.5743242
140	0xbca90c1d	-0.020635659
141	0x3ee81bc1	0.45333675
142	0x3dc4a5bb	0.09601923
143	0x3dd90737	0.10597079
144	0xbc8ba491	-0.017046245
145	0x3dc6c8b8	0.09706253
146	0x3e5802aa	0.21094766
147	0x3d4e88e7	0.05042353
148	0x3d8d9b63	0.06914403
149	0x3ca39b5c	0.019971542
150	0xbb498d29	-0.0030754304
151	0xbdc61bc5	-0.09673265
152	0x3d4a7119	0.049424265
153	0x3df3d51c	0.11905882
154	0xbde74c1f	-0.11293816
155	0x3d46ad63	0.0485052
156	0xbdb30d5e	-0.08742784
157	0x3e22578d	0.1585371
158	0x3d993fa9	0.07482845
159	0x3dbfc75c	0.09364197
160	0xbd13ef2b	-0.03611676
161	0xbdd9c9f7	-0.10634225
162	0xbd56c79b	-0.052436452
163	0xbceefbf3	-0.029172873
164	0x3da86581	0.08222485
165	0xbd9c7723	-0.07639911
166	0xbe54ab98	-0.20768583
167	0xbd84e0dd	-0.06488202
168	0xbd243dee	-0.040098123
169	0xbd6f930d	-0.058489848
170	0x3b552428	0.0032522772
171	0xbe281a9b	-0.16416399
172	0xbc619931	-0.013769434
173	0xbe23dcac	-0.16002148
174	0x3d12e022	0.03585828
175	0x3b954ccb	0.0045562736
176	0x3d457883	0.048210632
177	0xbd02d348	-0.031939775
178	0xbd2cceeb	-0.04218952
179	0x3e18814b	0.14893071
180	0x3bc3cbe1	0.005975232
181	0xbdab7b3c	-0.083731145
182	0xbe442dbd	-0.19158073
183	0xbe057fc5	-0.13037021
184	0xbe12a931	-0.14322354
185	0xbe3f029e	-0.18653342
186	0x3d40ab37	0.047038283
187	0x3e1051c7	0.14093696
188	0xbd721952	-0.05910618
189	0xbdf0888e	-0.11744796
190	0xbd760115	-0.060059626
191	0xbea2211f	-0.31665894
192	0x3e6d5bef	0.23179601
193	0xbe344966	-0.17606124
194	0x3e700027	0.23437558
195	0xbe08aed3	-0.1334794
196	0x3daa32fc	0.08310506
197	0x3dce67c6	0.10078387
198	0xbd547f0c	-0.051878974
199	0x3d63ab5b	0.05558334
200	0xbb8b170c	-0.0042446908
201	0x3dc05ed6	0.093930885
202	0xbe69d13c	-0.22833723
203	0xbddf6f46	-0.109098956
204	0xbe2b2180	-0.16711998
205	0xbdd35450	-0.10318816
206	0x3f4b3461	0.793768
207	0xbd131621	-0.035909776
208	0x3f0e1f74	0.55516744
209	0x3e2b443f	0.16725253
210	0xbda12b0a	-0.07869537
211	0x3e18ba56	0.14914832
212	0xbe93ae54	-0.2884394
213	0x3f2dbca5	0.67865974
214	0xbe838d7b	-0.2569388
215	0xbe847ad1	-0.2587495
216	0x3dcdf6c2	0.10056831
217	0xbdc47ee4	-0.09594515
218	0x3f1f4fed	0.6223133
219	0x3e8b545c	0.272128
220	0x3de18ef2	0.11013593
221	0x3e2767ec	0.16348237
222	0x3dc8cf91	0.09805215
223	0x3eae4f21	0.34044746
224	0x3e18a1bd	0.14905448
225	0x3e0b5e23	0.13610129
226	0xbd9312d6	-0.07181327
227	0x3c41d000	0.011829376
228	0xbbc21600	-0.0059230328
229	0xbc827e98	-0.015929505
230	0xbe36563b	-0.17806332
231	0xbdc49017	-0.095977955
232	0x3d821082	0.06350805
233	0xbe3ffc5a	-0.18748608
234	0xbd81f2c4	-0.06345132
235	0xbd3da994	-0.0463043
236	0xbe12522b	-0.14289157
237	0x3c1e5120	0.009662896
238	0xbd1c62f4	-0.038180307
239	0x3ce03ed0	0.027373701
240	0xbe3fa182	-0.18713954
241	0x3e21b909	0.15793242
242	0xbe06b6ba	-0.13155642
243	0x3d971722	0.07377459
244	0xbcbd6240	-0.023118138
245	0xbe04251c	-0.12904781
246	0xbcb8b410	-0.022546798
247	0xbe400802	-0.18753055
248	0x3cca70b0	0.024711937
249	0x3dabe6e2	0.08393647
250	0xbdbd2f3a	-0.092375234
251	0x3e2a2275	0.16614707
252	0xbe3a6fb8	-0.1820668
253	0xbe1d9580	-0.15389061
254	0xbd9fa81a	-0.07795735
255	0xbe34f637	-0.17672049

model.0.bias f4 [512]
0	0xbe0f5efa	-0.14001074
1	0xbdf2a11d	-0.11847136
2	0x3cb5d1d3	0.022194779
3	0xbe32e74d	-0.17471047
4	0xbe30531f	-0.17219208
5	0xbe2033d0	-0.15644765
6	0x3c1ba827	0.00950054
7	0x3d475737	0.04866716
8	0x3ccab015	0.024742166
9	0xbd09d778	-0.033652753
10	0x3c77e260	0.015129656
11	0xbcd2dc30	-0.02573976
12	0xbc43510b	-0.011921178
13	0xbb9b4cf7	-0.0047393995
14	0x3d38de72	0.045134015
15	0xbd6f1daa	-0.0583779
16	0xbe19d555	-0.15022786
17	0xbb85553b	-0.004068998
18	0xbe290429	-0.16505493
19	0x3dcd3a29	0.10020859
20	0x3d9962db	0.07489558
21	0xbe4a88af	-0.19778703
22	0xbd4ccb5e	-0.049998634
23	0xbe1f4446	-0.15553388
24	0x3d5ece44	0.05439593
25	0xbe4346fb	-0.19070046
26	0x3a4d3b00	0.0007828921
27	0xbd9a71c0	-0.07541227
28	0xbdc8bb33	-0.098013304
29	0xbe48d8f7	-0.19614016
30	0x3b8ad70b	0.004237061
31	0x3e2ae2ef	0.16688131
32	0xbcc63f98	-0.024200246
33	0xbe6be43a	-0.2303628
34	0xbca4b7f0	-0.02010724
35	0xbe53b8d6	-0.20675978
36	0x3b4103ed	0.0029451803
37	0xbd6dbeaa	-0.05804316
38	0xbd373ac1	-0.044733766
39	0x3dbd796d	0.09251676
40	0x3d6f8be7	0.05848303
41	0x3d1390a8	0.036026627
42	0xbe568d2d	-0.20952292
43	0x3dc1e28f	0.09467041
44	0xbe81aecd	-0.25328675
45	0xbd179ea8	-0.03701654
46	0x3d43db50	0.047816575
47	0xbd321085	-0.043472786
48	0x3e1481dd	0.14502664
49	0xb98efa00	-0.00027270615
50	0x3de77ff7	0.11303704
51	0xbd404705	-0.04694273
52	0xbb82c216	-0.003990422
53	0x3d6e365f	0.05815732
54	0xbd9fab60	-0.07796359
55	0xbe57bff8	-0.21069324
56	0xbe06679f	-0.13125466
57	0x3dd6df7f	0.10491847
58	0x3c3c6400	0.011498451
59	0xbd52f951	-0.051507298
60	0xbc88e60e	-0.016711261
61	0xbe384583	-0.17995267
62	0xbe1d1d91	-0.1534331
63	0xbd4109e4	-0.047128573
64	0xbcfdc92a	-0.030979712
65	0xbdf57056	-0.11984317
66	0x3d6d9962	0.058007605
67	0x3bc14ff0	0.005899422
68	0x3d900db3	0.07033863
69	0xbe396297	-0.18104015
70	0x3c63a369	0.0138939405
71	0xbdf4b504	-0.119485885
72	0xbd2ee234	-0.042696193
73	0x3d709402	0.0587349
74	0xbd2fc536	-0.042912684
75	0x3d6f68bd	0.058449496
76	0x3db57e0f	0.088619344
77	0x3b5a9180	0.0033350885
78	0xbe17fb24	-0.14841896
79	0xbe47fbd7	-0.19529663
80	0x3d1cc399	0.038272474
81	0xbd861eff	-0.06548881
82	0xbd2190d6	-0.039444767
83	0xbe314558	-0.17311609
84	0xbe2d0a72	-0.16898516
85	0xbdaddd7d	-0.08489511
86	0xbe06c3e7	-0.13160668
87	0xbe27b9a2	-0.16379407
88	0xbd4998ee	-0.04921811
89	0xbe1e54da	-0.15462056
90	0x3d609bba	0.054836012
91	0xbe03d336	-0.1287354
92	0x3e0bd171	0.13654114
93	0x3ce296d7	0.027659817
94	0xbdd4a54a	-0.10383089
95	0x3e078d7d	0.13237567
96	0xbe0fa3ed	-0.14027376
97	0xbd341a49	-0.04397038
98	0xbe1e8a5b	-0.15482466
99	0x3dba5222	0.09097697
100	0xbe299c1a	-0.16563454
101	0x3cba6f3a	0.022758115
102	0xbdbea85a	-0.09309454
103	0x3d929fc2	0.07159378
104	0x3e07ff2a	0.13280931
105	0x3d8eb5aa	0.069682434
106	0xbe1e60c2	-0.15466598
107	0xbdb7d8ea	-0.0897692
108	0xbe526871	-0.20547654
109	0xbb2671eb	-0.002539749
110	0x3d575230	0.052568614
111	0x3dc13ca9	0.09435398
112	0x3ca2ac5a	0.019857574
113	0x3e3af796	0.18258509
114	0x3c97c330	0.01852569
115	0xbe13387d	-0.14377017
116	0x3e294780	0.16531181
117	0x3dce23bf	0.10065412
118	0xbe696d41	-0.22795583
119	0xbe16ccdd	-0.14726587
120	0xbc812828	-0.015766218
121	0x3cf3998b	0.0297363
122	0x3e1a0c6c	0.15043801
123	0xbd74835c	-0.059695587
124	0xbcee2e9d	-0.029074961
125	0xbe14baf3	-0.1452444
126	0x3e004028	0.12524474
127	0x3dfa69f4	0.1222724
128	0xbe6e11d6	-0.23248991
129	0xbe60af13	-0.21941786
130	0xbd857b0c	-0.0651761
131	0xbdc55424	-0.09635189
132	0xbd0b96b2	-0.03407926
133	0x3e1e5149	0.15460695
134	0x3c250131	0.010071085
135	0x3e096c05	0.13420112
136	0x3c9c22d9	0.019059585
137	0xbc0c4b71	-0.0085629085
138	0x3e39024e	0.18067285
139	0x3dbcce14	0.09218994
140	0xbe100603	-0.14064793
141	0xbcadd823	-0.021221226
142	0x3d8d9120	0.06912446
143	0xbd2c9475	-0.042133767
144	0xbe8fb05b	-0.28064236
145	0x3dccdc19	0.10002918
146	0xbe34328d	-0.17597409
147	0xbe2f5d16	-0.17125353
148	0xbdf54da5	-0.119777
149	0xbda00c67	-0.078148656
150	0x3ded55b6	0.11588614
151	0xbe0b3bb5	-0.13596995
152	0xbdcc6f21	-0.09982134
153	0xbe20ff8d	-0.15722485
154	0x3e067ea4	0.13134247
155	0x3d5beac9	0.053690705
156	0x3c1e6fb7	0.00967019
157	0xbdd00db0	-0.10158861
158	0x3dfb92d0	0.12283862
159	0xbe4e81a6	-0.20166644
160	0xbd48216a	-0.04885999
161	0x3d0763fa	0.03305433
162	0xbe345925	-0.17612131
163	0xbd4ecc8c	-0.05048804
164	0xbddc77d3	-0.10765042
165	0xbc3319a6	-0.010931408
166	0xbd0b6528	-0.034032017
167	0x3c968898	0.01837568
168	0x3e027e34	0.12743455
169	0x3ddf69e6	0.109088704
170	0xbd9463b9	-0.07245583
171	0x3d693e04	0.05694391
172	0xbe18c270	-0.14917922
173	0x3af1298a	0.001839922
174	0xbe7c6733	-0.24648742
175	0xbd6bdf02	-0.057585724
176	0x3cf4ec0d	0.029897714
177	0xbd1f3f9d	-0.038879026
178	0xbe33b272	-0.1754854
179	0x3dc3e4c2	0.095651165
180	0xbe0268fa	-0.12735358
181	0xbe094199	-0.1340393
182	0xbcabae50	-0.020957142
183	0xbdaa2e2a	-0.08309586
184	0xbc86ed70	-0.01647064
185	0x3c30c28b	0.01078857
186	0xbcb09b0f	-0.021558313
187	0xbbb92bec	-0.005650988
188	0xbe3ceca5	-0.18449648
189	0x3dbd76d0	0.09251177
190	0x3e2fa96f	0.17154478
191	0xbe017c0c	-0.12644976
192	0xbd609ff3	-0.05484004
193	0xbe25978b	-0.1617109
194	0xbd9d4c35	-0.07680551
195	0x3d9516c2	0.07279731
196	0xbe76328b	-0.24042718
197	0x3df38f2a	0.11892541
198	0x3ccc2240	0.024918675
199	0xbdf0e0a3	-0.11761596
200	0xbe676e1f	-0.22600602
201	0xbdf972ea	-0.12180121
202	0xbe059a5b	-0.13047163
203	0x3d7984a6	0.06091752
204	0xbe092de6	-0.13396415
205	0x3cdf5225	0.02726085
206	0x3e1114f5	0.1416815
207	0x3dc32dae	0.09530197
208	0xbd946910	-0.072466016
209	0xbd9b8e7d	-0.07595537
210	0x3d6dfa04	0.05809976
211	0x3ce2b52d	0.027674282
212	0xbe07637f	-0.13221548
213	0xbe14c033	-0.14526443
214	0x3d4ba258	0.04971537
215	0xbd51eb2b	-0.051249664
216	0xbe3c90d1	-0.18414618
217	0x3db5a90d	0.088701345
218	0xbd94200a	-0.072326735
219	0xbcb3a248	-0.021927968
220	0x3d932e36	0.071865484
221	0xbd24804f	-0.040161427
222	0x3d9f85fe	0.07789229
223	0x3db4073a	0.08790441
224	0xbe1666d6	-0.14687666
225	0x3df5b232	0.11996879
226	0xbe4aea46	-0.1981593
227	0xbe468c13	-0.19389372
228	0xbdb5bb73	-0.08873644
229	0x3e214348	0.15748322
230	0xbe421774	-0.18954259
231	0xbe4dc40a	-0.20094314
232	0xbda6d935	-0.08146898
233	0xbe80a244	-0.251238
234	0xbcb18f40	-0.021674752
235	0x3e05c690	0.13064027
236	0x3e172c69	0.14763035
237	0xbd9848e7	-0.0743578
238	0xbd8eadba	-0.069667295
239	0xbe214a58	-0.15751016
240	0x3cd775ec	0.026301347
241	0xbd3c0936	-0.04590722
242	0x3e31da44	0.17368418
243	0xbe15e786	-0.146391
244	0xbcaf85e7	-0.021426154
245	0xbd20fef4	-0.039305642
246	0xbdf6cf80	-0.12051296
247	0x3e0999d7	0.13437591
248	0xbe4130c3	-0.18866257
249	0x3d89bfca	0.06726034
250	0x3cd15db8	0.025557384
251	0x3dc8f3df	0.0981214
252	0xbe1eeee8	-0.15520823
253	0xbd845dd3	-0.06463208
254	0xbe6148d7	-0.22000442
255	0x3e124c55	0.14286931

model.2.weight f4 [256, 512]
0	0x3c5bc604	0.01341391
1	0xbceccafa	-0.02890538
2	0xbcbd00ed	-0.02307173
3	0xbd16e008	-0.036834747
4	0xbce8ae11	-0.028403314
5	0xbd2df302	-0.04246808
6	0x3d12c018	0.035827726
7	0xbd36c931	-0.044625465
8	0x3cf448dd	0.0298199
9	0xbd08a116	-0.03335675
10	0x3c2d6210	0.010582462
11	0x3c86eaba	0.016469348
12	0x3cd6f52e	0.026239958
13	0x3cfdf797	0.03100185
14	0xbd2c61e7	-0.042085554
15	0xbd13fe57	-0.03613123
16	0x3c74fc70	0.014952764
17	0xbd5a0a5b	-0.053232532
18	0xbba3fd1b	-0.0050045378
19	0x3c7fe745	0.015619104
20	0xbb42a3e0	-0.0029699728
21	0xbc9596d4	-0.018260397
22	0x3c57cbd7	0.013171158
23	0x3abb3db8	0.0014285361
24	0xbcd9e024	-0.026596136
25	0xbc249965	-0.010046338
26	0x3c50aaf4	0.012736071
27	0xbc8af492	-0.016962323
28	0x39e0c625	0.0004287224
29	0x3d304ec1	0.043043856
30	0x3abae062	0.0014257545
31	0x3d048527	0.032353546
32	0x3b897a60	0.0041954964
33	0xbc4976c9	-0.012296387
34	0xbce6bbcf	-0.028165726
35	0x3d073b23	0.03301538
36	0xbd0138fe	-0.031548493
37	0x3ced337b	0.028955212
38	0xbd52f558	-0.05150351
39	0x3c2e8409	0.010651597
40	0xbc65d227	-0.014027155
41	0xbd00d0b4	-0.031449035
42	0x3c96f27f	0.018426178
43	0xbc7b04a4	-0.015320931
44	0x3d0121cf	0.031526383
45	0xbbe5c53e	-0.0070120385
46	0xbc204c7c	-0.00978386
47	0xbc949857	-0.018139048
48	0xbcb7b4f3	-0.02242515
49	0x3c8ea94e	0.017414715
50	0xbc3f2f41	-0.011668981
51	0xbcb42dbe	-0.021994468
52	0x3c2c871e	0.010530261
53	0x38f45737	0.00011651072
54	0xbd20f7cf	-0.03929883
55	0x3d1007bb	0.035163622
56	0xbd2cd1f7	-0.042192426
57	0xbd12d70e	-0.035849623
58	0x3c457134	0.0120509155
59	0x3b5503c0	0.0032503456
60	0x3b0dbe06	0.0021628155
61	0x3c2fa5f0	0.010720715
62	0x3d18eefd	0.037337292
63	0x3ca2be01	0.019865992
64	0xbce26076	-0.027633887
65	0xbd1b345f	-0.03789174
66	0x3ced5af4	0.028974034
67	0xbccc2727	-0.024921013
68	0xbb409e66	-0.0029391288
69	0x3d25d75d	0.04048859
70	0xbd0cf000	-0.03440857
71	0xbd06092f	-0.032723602
72	0x3ca74c1a	0.02042203
73	0xbd0bd346	-0.034137033
74	0xbcdb2426	-0.026750635
75	0x3d098b9a	0.0335804
76	0x3c3493bb	0.01102155
77	0xbbb56b11	-0.005536445
78	0xbd248488	-0.040165454
79	0xbb688da0	-0.0035484806
80	0xbd51fe37	-0.05126783
81	0x3cc6d8b1	0.024273248
82	0x3c5ae490	0.013360158
83	0xbbd71890	-0.0065642074
84	0xbd1f3d01	-0.038876537
85	0x3c847746	0.016170155
86	0x3cf1ff30	0.029540628
87	0xbd20e054	-0.039276436
88	0x3cc8da16	0.024518054
89	0xbd3725a4	-0.04471363
90	0x3ce49bdd	0.027906353
91	0xbce29e7d	-0.027663464
92	0xbbb405d0	-0.005493857
93	0x3d07ef79	0.033187363
94	0xbcbfb484	-0.023401506
95	0x3c880197	0.01660232
96	0xbd31af1d	-0.04337989
97	0x3cfa55a6	0.030558418
98	0x3b358480	0.0027697384
99	0x3d34af85	0.0441127
100	0x3d0a88b7	0.033821788
101	0xbb8abc9d	-0.0042339102
102	0x3cdcf9aa	0.026974518
103	0x3b304240	0.0026894957
104	0xbc3f0f8c	-0.0116614215
105	0x3caeca2a	0.021336634
106	0x3d2e58ca	0.042565145
107	0x3cc02044	0.023452885
108	0xbd2a4e7e	-0.041578762
109	0x3c88dcbd	0.016706819
110	0xbbe3a85f	-0.0069475616
111	0xbd074349	-0.033023153
112	0xbd3ebd99	-0.046567533
113	0x3c76102b	0.015018503
114	0x3b9c45e8	0.0047690757
115	0xbd00d014	-0.03144844
116	0xbcf084a0	-0.029360116
117	0xbc293999	-0.010328674
118	0xbc734035	-0.014846851
119	0xbcc7847a	-0.024355162
120	0x3d0d4139	0.03448603
121	0x3cd3f5e8	0.025874093
122	0x3cbad4bf	0.022806523
123	0x3cf82a30	0.030293554
124	0xbc231b4d	-0.0099552395
125	0xbc00d3bc	-0.007862981
126	0x3bcc352f	0.006231926
127	0x3cf6b188	0.03011395
128	0xbd2c5e27	-0.04208198
129	0x3bcf2991	0.006322094
130	0x3d2c76a3	0.04210533
131	0xbd3a7d94	-0.045529917
132	0xbd0c2d85	-0.0342231
133	0xbce54801	-0.027988436
134	0x3c9a1339	0.018807994
135	0xbcbc5edb	-0.02299445
136	0x3cd67e06	0.02618314
137	0xbc33d93d	-0.010977087
138	0xbd0b76c3	-0.034048807
139	0xbd0c9b3a	-0.034327723
140	0x3d120185	0.03564598
141	0x3d0fc602	0.035100944
142	0x3c96dcf4	0.018415906
143	0xbd429b3c	-0.047511324
144	0xbd06f643	-0.032949697
145	0x3c2ac976	0.010424009
146	0x3d255d13	0.040371966
147	0xbd09a27c	-0.033602223
148	0xbc993e6b	-0.018706521
149	0xbbaf0c88	-0.00534207
150	0x3d27a15f	0.04092538
151	0x3d0972aa	0.033556618
152	0x3c9e181b	0.019298604
153	0x3cef5aef	0.029218165
154	0x3c568f23	0.01309565
155	0x3c177ab8	0.009245567
156	0x3ccf0e21	0.025275292
157	0xbd0a2a7a	-0.033731915
158	0xbca0497d	-0.019566292
159	0xbc16a2c2	-0.009194078
160	0x3bd24058	0.006416362
161	0xbc41c3bb	-0.011826451
162	0x3c4ff820	0.012693435
163	0xbbd7be70	-0.006583981
164	0xbc228504	-0.009919409
165	0xbc978a5d	-0.018498594
166	0x3c045200	0.008076191
167	0xbcce50c1	-0.02518499
168	0x3cfcec09	0.03087427
169	0xbd08757f	-0.033315178
170	0xbcd6c007	-0.026214613
171	0xbcb22d72	-0.021750186
172	0x3c47cbdc	0.0121946
173	0x3ceac935	0.028660396
174	0xbb9363be	-0.004497974
175	0x3b5d1507	0.0033734457
176	0xbcb0ee79	-0.021598088
177	0xbd55ed28	-0.052228123
178	0x3a81cdc0	0.0009903237
179	0xbc997b02	-0.018735413
180	0x3b52e980	0.0032182634
181	0xbd052e36	-0.032514773
182	0xbc80f1b7	-0.015740259
183	0xbd1f1c68	-0.03884545
184	0xbd3065e9	-0.04306594
185	0xbb1d156a	-0.0023969063
186	0xbd3acb92	-0.045604296
187	0xbb120860	-0.0022282824
188	0xbcf1c8ff	-0.029514788
189	0xbcaeac8c	-0.021322511
190	0x3c110e8e	0.008853568
191	0xbc9d97f7	-0.019237502
192	0xbc2df2f5	-0.0106170075
193	0xbc61894c	-0.013765644
194	0x3ce61790	0.028087407
195	0xb7d357b9	-2.519401e-05
196	0xbc00303f	-0.007824003
197	0x39de2f07	0.00042378178
198	0xba8b8d20	-0.0010646917
199	0x3c6e0696	0.014527937
200	0xbbd7ca66	-0.006585407
201	0xbcf0d59c	-0.029398732
202	0x3c3ed922	0.011648448
203	0xbb1ddd81	-0.0024088325
204	0xbd20d02f	-0.03926104
205	0x3cdbdaef	0.026837794
206	0xbd0e79ba	-0.034784056
207	0xbbbb4849	-0.005715404
208	0xbcdacfb0	-0.026710361
209	0x3cea3326	0.028588843
210	0xbc513d0c	-0.012770902
211	0x3d0c127b	0.03419731
212	0x3c650100	0.013977289
213	0xbbd668b3	-0.006543243
214	0xbd21cb97	-0.0395008
215	0xbd3831de	-0.044969432
216	0xbca3fc41	-0.020017745
217	0xbb523e27	-0.0032080503
218	0xbd129916	-0.035790525
219	0xbd15444f	-0.036442097
220	0xbd361bdb	-0.04446016
221	0x3ca19169	0.019722657
222	0x3c6b078a	0.014345059
223	0x3cc54bfe	0.024084087
224	0x3d0dc45f	0.034611102
225	0x3d1dcb9d	0.03852426
226	0x3c94a19e	0.018143471
227	0xbd0b20ad	-0.03396671
228	0xbc76fb2a	-0.015074531
229	0xbcc92a8f	-0.024556426
230	0xbc45df51	-0.012077169
231	0x3c91f659	0.017817663
232	0xbc38e5ea	-0.0112852845
233	0xbbe877d2	-0.007094362
234	0xba1c1140	-0.0005953498
235	0x3be23eb2	0.0069044465
236	0xbc95838c	-0.018251203
237	0x3c413137	0.011791519
238	0x3b62bde1	0.003459804
239	0x3b4b04b0	0.0030978136
240	0xbd3b61e1	-0.04574764
241	0xbd502b24	-0.050822392
242	0x3cdc9481	0.02692628
243	0xbbeedb41	-0.0072893207
244	0xbce16c6e	-0.027517524
245	0x3d04aa5d	0.032389034
246	0xbd2664e8	-0.040623575
247	0x3cdaca7c	0.02670788
248	0x3ced0050	0.028930813
249	0x3c79f372	0.015255796
250	0x3d021c6c	0.031765386
251	0xbc9301ca	-0.017945189
252	0x3cae60e2	0.021286432
253	0x3a556770	0.00081407186
254	0x3b527cb4	0.0032117786
255	0x3c16e9f7	0.009211055

model.2.bias f4 [256]
0	0xbc997d65	-0.01873655
1	0xbd238740	-0.039923906
2	0xbd817a72	-0.06322183
3	0xbbe550d5	-0.0069981613
4	0xbc6a5ee3	-0.014304849
5	0xbd059f81	-0.032622818
6	0xbc42f934	-0.011900235
7	0x3b1fac1c	0.002436406
8	0x3de466b2	0.111524
9	0xbd464619	-0.048406694
10	0x3cef3272	0.029198859
11	0xbd87ece9	-0.06636984
12	0xbb3a93be	-0.002846941
13	0xbc179b40	-0.009253323
14	0x3cfa0c9b	0.030523589
15	0xbcc3cd9b	-0.023901751
16	0x3ce9349f	0.028467475
17	0xbd973387	-0.07382875
18	0xbd7b6682	-0.061377056
19	0x3c41bc2a	0.011824647
20	0xbc4b9caa	-0.012427488
21	0xbc23e287	-0.010002739
22	0x3cd3f942	0.025875691
23	0x3ddd28b2	0.10798778
24	0xbd000104	-0.03125097
25	0xbccd416a	-0.025055606
26	0xbcbe1022	-0.023201052
27	0xbd80f059	-0.06295843
28	0x3d996d92	0.07491602
29	0xbcfeed54	-0.031119026
30	0x3d3583d0	0.04431516
31	0x3d52109e	0.05128538
32	0xbcf1e535	-0.02952824
33	0xbd3d6d78	-0.046246976
34	0xbd976485	-0.073922195
35	0x3ba5090e	0.00503648
36	0x3e244598	0.16042173
37	0x3d4b03f3	0.049564313
38	0xbc68d278	-0.014210336
39	0xbd5d45c4	-0.05402161
40	0xbd800780	-0.062514305
41	0xbcfa15ca	-0.030527968
42	0xbce6a44f	-0.02815452
43	0x3db853b2	0.090003386
44	0xbd01251c	-0.03152953
45	0xbd14aac7	-0.03629568
46	0xbcadbdea	-0.021208722
47	0xbc66d9ba	-0.014089996
48	0xbb7c225b	-0.0038472626
49	0xbbda8af7	-0.006669398
50	0xbd146057	-0.03622469
51	0xbcc98352	-0.024598751
52	0xb9fb4228	-0.0004792374
53	0xbd4c8c55	-0.04993852
54	0x3c555772	0.013021337
55	0xbc8522ce	-0.016251948
56	0x3dc89797	0.097945385
57	0x3b256608	0.0025237817
58	0xbd096d56	-0.033551537
59	0xbd91cc25	-0.071190156
60	0xbc43c2a0	-0.011948258
61	0x3db947c5	0.09046892
62	0xbc8887ac	-0.016666256
63	0x3d3ccf0d	0.046095897
64	0xbcbd9b6d	-0.023145402
65	0x3c90de0a	0.017684001
66	0xbd0b6e96	-0.03404101
67	0x3c3fd47b	0.011708374
68	0xbd711d17	-0.058865633
69	0xbd1560b3	-0.036469173
70	0xbd3c2877	-0.045937028
71	0xbd48f70e	-0.049063735
72	0xbc9b7039	-0.01897441
73	0x3cedc71f	0.029025612
74	0x3d8cafe8	0.06869489
75	0xbc912209	-0.017716425
76	0xbc9a8a01	-0.018864634
77	0xbc843807	-0.016139997
78	0xbd4aef85	-0.04954483
79	0xbc701349	-0.014653035
80	0x3b14562c	0.002263437
81	0x3cd36aa0	0.025807679
82	0xbd0f383b	-0.034965735
83	0x3c544c0e	0.012957586
84	0xbce001af	-0.027344553
85	0xbc51cdd8	-0.012805425
86	0xbc5c8e34	-0.013461638
87	0xbd3e0446	-0.046390794
88	0x3d41d8e5	0.047325987
89	0x3dbdda2e	0.0927013
90	0xbc93cc97	-0.018041892
91	0x3decff4a	0.1157213
92	0x3bed954b	0.007250463
93	0x3ce8a5b5	0.028399328
94	0x3e4a31ca	0.19745556
95	0x3d0151f8	0.031572312
96	0x3b364909	0.0027814528
97	0x3d99adb3	0.075038336
98	0x3d3d8dc0	0.04627776
99	0xbd3bf0e1	-0.045884017
100	0x3d5ad116	0.053422056
101	0x3b877ecf	0.00413499
102	0xbd678ba6	-0.056529664
103	0x3cf39b8a	0.029737253
104	0xbc91a88d	-0.017780567
105	0xbc27735f	-0.010220378
106	0x3be9013b	0.0071107424
107	0x3df38fcb	0.11892661
108	0x3ca7073b	0.02038919
109	0xbd425af8	-0.047450036
110	0x3dd9cc89	0.10634715
111	0x39968fa2	0.00028717244
112	0x3c8ee572	0.017443392
113	0xbd29be12	-0.04144103
114	0x3d87952a	0.06620248
115	0x3c15c6ef	0.009141668
116	0x3e05330e	0.13007757
117	0xbc097759	-0.008390271
118	0x3cd92d01	0.026510717
119	0x3c0d6d70	0.008632049
120	0xbcf8a7c3	-0.030353433
121	0xbd7f86d6	-0.06238445
122	0x3c882039	0.016616927
123	0x3c0e82f4	0.008698214
124	0x3dcd50e9	0.10025198
125	0x3bf936d7	0.0076054144
126	0xbd05ce24	-0.032667294
127	0x3e4c7141	0.19965078
128	0x3c620b76	0.013796678
129	0xbc65f9d2	-0.014036613
130	0xbd909bb5	-0.07060949
131	0xbb1ae702	-0.0023636227
132	0xbc97b0e9	-0.018516975
133	0xbd136f07	-0.035994556
134	0xbcb652ad	-0.02225622
135	0x3cffd065	0.0312273
136	0xbcdcf369	-0.026971536
137	0x3cb886aa	0.02252515
138	0xbcbb7747	-0.022884024
139	0xbd5b7f7b	-0.05358837
140	0xbc2eaee9	-0.010661819
141	0x3ced29fd	0.028950686
142	0xbda27e63	-0.079342626
143	0x3c84f04a	0.01622786
144	0x3c49f6e3	0.012326929
145	0x3dc2ad9f	0.09505772
146	0x3d9ed28f	0.077550046
147	0x3dfd1d9d	0.12359164
148	0xbd53233a	-0.051547267
149	0x3e39d45a	0.18147412
150	0x3c8d2af0	0.017232388
151	0xbd8b7d5a	-0.06811018
152	0xbd350554	-0.044194534
153	0xbd096f73	-0.033553552
154	0x3d1fdc76	0.039028607
155	0xbccdfbec	-0.02514454
156	0x3de3983e	0.11113022
157	0x3e12eada	0.14347401
158	0xbc062ba4	-0.008189116
159	0xbd6c0922	-0.057625897
160	0x3c8eb181	0.017418625
161	0xbd00a993	-0.03141172
162	0xbb06d3b0	-0.0020572953
163	0x3dace448	0.08441979
164	0xbc87b73b	-0.016566863
165	0xbcb4ca42	-0.0220691
166	0x3e38e39b	0.18055575
167	0xbd32d591	-0.043660704
168	0xbd02f114	-0.03196819
169	0xbd8ff249	-0.07028634
170	0xbd4af6c0	-0.049551725
171	0x3dcf0986	0.10109238
172	0x3cf35e2b	0.029707989
173	0xbba93da8	-0.0051648207
174	0xbca09fce	-0.01960745
175	0xbbba1e51	-0.0056798835
176	0x3d9e13d3	0.07718625
177	0xba380551	-0.0007019835
178	0xbc165e04	-0.0091776885
179	0x3c26236e	0.010140283
180	0xba525641	-0.0008023717
181	0x3dbf897b	0.09352394
182	0x3d13557b	0.035970192
183	0xbd37af89	-0.044845138
184	0x3e1a35e9	0.15059628
185	0xbb075a27	-0.00206531
186	0xbcbf57cb	-0.023357293
187	0x3c14dff6	0.0090866
188	0xbd44edbe	-0.04807829
189	0xbd69fa21	-0.057123307
190	0x3bba2300	0.005680442
191	0xbd3001cd	-0.042970467
192	0x3e18b64b	0.14913289
193	0xbd4fbc4c	-0.050716683
194	0xbd080239	-0.033205245
195	0xb9afb400	-0.00033512712
196	0xbbe00654	-0.006836692
197	0x3cf51971	0.029919358
198	0xbd32075a	-0.043464042
199	0x3e347031	0.17620923
200	0xbd40496f	-0.04694503
201	0x3dc41cdc	0.09575817
202	0xbb379455	-0.0028011997
203	0xbcf0bba7	-0.029386355
204	0xbb5d3214	-0.0033751773
205	0x3c15f3fd	0.00915241
206	0xbd91ab70	-0.07112777
207	0x3d32049e	0.043461435
208	0xba8f540f	-0.0010935086
209	0x3d49bdfd	0.049253453
210	0xbd942dfa	-0.07235332
211	0x3d0a2dc5	0.033735055
212	0x3d533a59	0.051569317
213	0x3d16e970	0.036843717
214	0x3d1a965b	0.037741046
215	0x3ced2b2b	0.028951248
216	0x3ca4d3f7	0.020120604
217	0x3df5a9da	0.11995287
218	0xb9ce43f5	-0.00039342014
219	0xbd93fb13	-0.07225623
220	0xbd62d821	-0.055381898
221	0x3c1fbe4a	0.009749958
222	0x3dfa67dc	0.12226841
223	0xbc0f9670	-0.008763894
224	0x3ce553db	0.027994087
225	0x3d953b37	0.07286685
226	0x3d4514c6	0.048115514
227	0x3b2996c0	0.0025877208
228	0x3e06dbe0	0.13169813
229	0x3e0893a7	0.13337575
230	0x3ca473b0	0.020074695
231	0xbd75f9ae	-0.060052566
232	0x3dd4d211	0.103916295
233	0xbd6d47d0	-0.057929814
234	0xbc741325	-0.014897143
235	0x3c985617	0.018595738
236	0xbd9abac6	-0.075551555
237	0xbd0e85cd	-0.03479557
238	0xbc9418ec	-0.01807829
239	0xbd871e70	-0.06597602
240	0x3c195fad	0.00936119
241	0xbcc705da	-0.024294782
242	0xbb7fd60d	-0.0039037496
243	0xbc0f6e81	-0.0087543735
244	0x3bc946ef	0.006142489
245	0x3ba17b4e	0.004928029
246	0x3e0b2344	0.13587672
247	0x3de51f46	0.111876056
248	0x3ccb6fc7	0.024833573
249	0xbd83540b	-0.06412514
250	0x3d377546	0.044789575
251	0xbd1d7c96	-0.038448893
252	0xbd02759f	-0.031850453
253	0xbd38fb21	-0.04516137
254	0xbc134bba	-0.008990223
255	0x3cd0650d	0.02543881

model.4.weight f4 [128, 256]
0	0xbcdf2d9b	-0.027243426
1	0xbd473d86	-0.048642658
2	0xbd931441	-0.071815975
3	0xbd1a8cc6	-0.03773191
4	0x3ca764eb	0.020433864
5	0xbd2a6faa	-0.041610397
6	0xbc7e70c8	-0.015529819
7	0x3b0bbb60	0.00213214
8	0xbb51a40d	-0.003198865
9	0xbbf52fb0	-0.0074824914
10	0x3cd10857	0.025516672
11	0x3d5c6ee2	0.053816684
12	0xbd25a454	-0.04043992
13	0xbd295fcc	-0.041351125
14	0x3c34d867	0.011037922
15	0x3cec8d68	0.028876022
16	0x3bca8bce	0.006181217
17	0x3c6ea7c9	0.01456637
18	0x3d198adf	0.037485953
19	0xbcfd5f00	-0.030929089
20	0x3d4b73d0	0.049670994
21	0xbd7c20e4	-0.061554804
22	0xbd3582f2	-0.044314332
23	0xbc8fa677	-0.017535431
24	0xbd752dec	-0.059858248
25	0x3c165f40	0.009177983
26	0x3cd2e910	0.025745898
27	0x3c8a9b29	0.01691969
28	0x3a961068	0.0011448981
29	0xbbbcfb60	-0.005767271
30	0xbcf1e06a	-0.029525954
31	0xbcd06d7c	-0.025442831
32	0x3caf28ec	0.021381818
33	0xbc708680	-0.014680505
34	0x3bc7ba90	0.006095238
35	0x3c6d3d40	0.014479935
36	0xbc9b37c6	-0.018947493
37	0xbc889db3	-0.01667676
38	0x3d26f9ce	0.040765576
39	0xbcdbd0cc	-0.02683296
40	0xbd51f982	-0.05126334
41	0xbd1b89dc	-0.03797327
42	0xbd0bda94	-0.034144
43	0x3d3f7a39	0.04674742
44	0x3c98111c	0.018562846
45	0x3d3316fb	0.043723088
46	0xbcb738c8	-0.022365943
47	0xbc50bbfe	-0.012740133
48	0xbd0dc0da	-0.034607746
49	0xbb990f80	-0.004671037
50	0xbd26c8be	-0.040718786
51	0x3d4f63fc	0.050632462
52	0x3cb9fdc4	0.022704013
53	0x3c7bdd70	0.015372619
54	0xbd8457d5	-0.06462065
55	0xbd84745e	-0.06467508
56	0xbc98fbd7	-0.018674774
57	0xbcf4a3cd	-0.029863263
58	0xbd5a8696	-0.053351007
59	0xbcc483f8	-0.023988709
60	0xbd4762f3	-0.04867835
61	0x3cd5910f	0.026070146
62	0xbd596e3e	-0.05308365
63	0x3d4f0748	0.050544053
64	0xbbc54280	-0.0060198903
65	0xbc9e3ce0	-0.019316137
66	0x3d483940	0.048882723
67	0xbb8e4a97	-0.004342388
68	0xbbe019b0	-0.0068389997
69	0x3ccdb5fc	0.025111191
70	0xbd8c1597	-0.068400554
71	0x3c615f60	0.013755649
72	0xbc91f36e	-0.017816272
73	0x3d444722	0.0479194
74	0x3ca31e9d	0.019912058
75	0xbd373b1a	-0.044734098
76	0x3c99b2c8	0.018762007
77	0xbd328e0e	-0.043592505
78	0xbb992250	-0.00467328
79	0xbd68fe36	-0.05688306
80	0xbd35418d	-0.044251967
81	0x3b2a6179	0.002599804
82	0x3d4c651a	0.049901105
83	0x3c3bd2b8	0.0114638135
84	0xbcaa6f2c	-0.020804964
85	0xbd5b77e8	-0.05358115
86	0xbd7cbc51	-0.06170303
87	0xbd531d04	-0.051541343
88	0xbd299141	-0.04139829
89	0x3d23f299	0.04002628
90	0xbc84bcd5	-0.016203323
91	0xbd39e7d9	-0.045387123
92	0xbc25069b	-0.010072376
93	0xbd52164c	-0.051290795
94	0xbb12ef7e	-0.002242058
95	0xbd58dc1c	-0.052944288
96	0x3d51b9e8	0.051202685
97	0x3d306e3e	0.043073885
98	0x3cc844c1	0.024446847
99	0x3d18fa58	0.03734812
100	0xbd80667f	-0.062695496
101	0xbd06dd76	-0.032926045
102	0x3caaf05c	0.020866565
103	0xbd489dc3	-0.04897858
104	0xbd6ae5b4	-0.05734797
105	0xbd41e014	-0.04733284
106	0xbcd299a4	-0.025708027
107	0xbd78779e	-0.06066095
108	0x3d1a42db	0.037661415
109	0xbcacb7e8	-0.021083787
110	0x3b69a555	0.0035651524
111	0xbcb022b0	-0.021500915
112	0xbd609a92	-0.05483491
113	0x3c95311d	0.018211896
114	0x3b510614	0.0031894492
115	0xbd922065	-0.07135085
116	0xbd8e54dc	-0.069497794
117	0x3d24588e	0.040123515
118	0x3d1ed874	0.038780645
119	0xba9bca40	-0.0011885837
120	0x3c64a4f8	0.013955347
121	0x3cc8d0d4	0.02451364
122	0x3cb3a3ed	0.021928752
123	0x3d78ab78	0.0607104
124	0xbd140e72	-0.03614659
125	0x3d51596e	0.051110677
126	0x3d136286	0.03598263
127	0x3d375c50	0.04476577
128	0x3d585d90	0.052823603
129	0xbbe85000	-0.007089615
130	0xbce757fc	-0.028240196
131	0x3c5d6398	0.0135125145
132	0x3cf91dd8	0.030409738
133	0xbc529750	-0.0128534585
134	0xbc536c70	-0.0129042715
135	0xbca014b0	-0.019541115
136	0x3d6970de	0.056992404
137	0xbaff1012	-0.0019459745
138	0xbc4579c0	-0.012052953
139	0xbcba1168	-0.022713378
140	0xbd48a483	-0.048985016
141	0x3c36f3ed	0.011166555
142	0xbd48c453	-0.049015354
143	0xbcd45fb7	-0.025924547
144	0x3c09cc17	0.008410475
145	0xbd571c1e	-0.05251705
146	0xbc7b8f90	-0.015354052
147	0xbca0f583	-0.01964832
148	0xbd2d33a4	-0.042285576
149	0xbcd24382	-0.025666956
150	0xbca030e3	-0.019554561
151	0xbbbc1030	-0.0057392344
152	0x3ccb5298	0.024819657
153	0x3d15f72c	0.036612675
154	0xbd6fd82c	-0.058555767
155	0x3d15df8c	0.036590144
156	0x3d39f11b	0.04539595
157	0xbd5ff926	-0.054680966
158	0x3d3b5dc6	0.045743726
159	0xbb939520	-0.004503861
160	0x3d0d1288	0.0344415
161	0x3d5ac5d4	0.05341132
162	0x3b82d335	0.003992463
163	0xbbea7b09	-0.00715578
164	0x3c4bfd18	0.012450479
165	0x3d5b57a8	0.053550392
166	0xbd1ea125	-0.0387279
167	0x3d6a2160	0.057160735
168	0xbcc99a34	-0.024609663
169	0xbab448c0	-0.0013754591
170	0x396ae000	0.00022399426
171	0x3ab32226	0.0013666793
172	0xbcb2efff	-0.021842955
173	0x3d1110ea	0.03541652
174	0xbc1e3b04	-0.009657625
175	0x3d43d180	0.047807217
176	0xbaa0bbe1	-0.0012263024
177	0xbd2616dc	-0.040549144
178	0xbd1ad690	-0.03780228
179	0x3d55d520	0.052205205
180	0xbcc11960	-0.02357167
181	0x3cd57318	0.026055858
182	0x3b837654	0.0040119085
183	0x3c084d18	0.008319162
184	0x3ce55970	0.027996749
185	0x3d8ade66	0.067807004
186	0x3cf6dab9	0.030133592
187	0x3b90f4c0	0.0044237077
188	0x3d46a35a	0.048495628
189	0xbb949280	-0.0045340657
190	0xbbd9e130	-0.006649159
191	0xbd4c7b2e	-0.04992216
192	0x3ca5707e	0.020195242
193	0x3c1d37f8	0.0095958635
194	0xbcf8d2c4	-0.030373938
195	0xbd010b48	-0.0315049
196	0xbd1f0766	-0.038825415
197	0xbc8d1adc	-0.017224722
198	0xbd35d382	-0.044391163
199	0xbd899cdd	-0.067193724
200	0x3cc08cc0	0.023504615
201	0xbd1a80ac	-0.037720367
202	0x3d2a8062	0.04162634
203	0x3c617041	0.013759674
204	0x3bf3e17c	0.0074426513
205	0x3cd80490	0.026369363
206	0x3a64751d	0.0008714961
207	0x3b497d24	0.0030744756
208	0xbcf63c4c	-0.030058049
209	0x3b875bda	0.0041308226
210	0xbc58a6c0	-0.01322335
211	0x3cbb2468	0.022844508
212	0xbd648e53	-0.055799793
213	0xbd25a5b2	-0.040441222
214	0x3b7d8d86	0.003868909
215	0xbd38d523	-0.045125138
216	0x3c0c5c6a	0.008566955
217	0x3cdb4332	0.02676544
218	0x3cfd5f78	0.030929312
219	0xbd7041da	-0.05865655
220	0xbcf336f0	-0.029689282
221	0xbc964ec5	-0.018348107
222	0x3c5fe941	0.013666452
223	0x3d2475d0	0.040151417
224	0xbd191bae	-0.037379913
225	0x3b3a59cb	0.0028434868
226	0x3bc6060e	0.0060432022
227	0xbd252a7c	-0.04032372
228	0x3bdbea52	0.006711283
229	0xbd8296d9	-0.06376428
230	0x3ad5db8a	0.0016316038
231	0xbd8cacf3	-0.06868925
232	0xbd88eb3d	-0.06685493
233	0x3d6704f6	0.056401215
234	0x3c9d6b2c	0.019216143
235	0x3cc8d542	0.024515752
236	0xbb9f7600	-0.0048663616
237	0x3c4ab310	0.012371793
238	0x3ca676d0	0.020320326
239	0x3d2533b2	0.040332504
240	0xbd545bfa	-0.05184553
241	0x3d5554ba	0.052082755
242	0xbcc63eec	-0.024199925
243	0x3d3c9390	0.046039164
244	0xbd8e0e4c	-0.06936321
245	0xbccfc8eb	-0.02536436
246	0x3c898f27	0.016791893
247	0x3b98f2e6	0.0046676276
248	0x3c05ae80	0.00815928
249	0x3c0fab30	0.008768842
250	0xbd26ba54	-0.04070504
251	0x3d0d0d16	0.034436308
252	0xbb24e1e5	-0.0025159058
253	0x3d62a766	0.055335425
254	0xbd769176	-0.060197316
255	0xbd1697fa	-0.03676603

model.4.bias f4 [128]
0	0xbc491e8a	-0.0122753475
1	0x3d1dc8c1	0.038521532
2	0xbbeafa2a	-0.007170935
3	0xbd5b950c	-0.05360894
4	0x3b9c4d87	0.004769984
5	0x3aec21d5	0.0018015454
6	0x3e8abe3a	0.27098256
7	0x3c973c6e	0.018461432
8	0xbda6206e	-0.08111654
9	0xbd9dfe75	-0.077145495
10	0x3cbc72ac	0.023003899
11	0x3df4ba23	0.11949565
12	0x3d02f34a	0.0319703
13	0x3c2f5515	0.0107014375
14	0xbc56d919	-0.013113284
15	0xbd308454	-0.043094948
16	0xbd53017c	-0.051515087
17	0x3d9ffe93	0.07812228
18	0x3cdb65fc	0.026782028
19	0x3c98adde	0.018637594
20	0xbdb485e5	-0.08814601
21	0x3ca11629	0.019663887
22	0x3e0c83d7	0.13722168
23	0xbd9abd1e	-0.075556025
24	0xbd4071b6	-0.046983443
25	0x3e27c439	0.16383447
26	0x3e3fadd2	0.18718651
27	0xbd66f728	-0.05638805
28	0x3cf8a7dc	0.03035348
29	0xbd01ebf9	-0.03171918
30	0x3cb11a43	0.021618968
31	0x3e4e75ee	0.20162174
32	0xbd487b8f	-0.04894596
33	0xbc57af4f	-0.013164355
34	0xbd894a9a	-0.06703682
35	0x3d7343f8	0.059390992
36	0x3c89eadf	0.016835628
37	0xbd20bfe0	-0.039245486
38	0x3e946dbe	0.28989977
39	0x3e463501	0.19356157
40	0xbd8b73e8	-0.06809217
41	0xbd9902e9	-0.07471258
42	0xbc67ef22	-0.014156135
43	0x3e95f059	0.29284933
44	0xbd7ea251	-0.062166516
45	0x3e5f517d	0.21808429
46	0x3d7604de	0.060063235
47	0x3e145c08	0.14488232
48	0xbd2b85d6	-0.041875683
49	0x3c905104	0.017616756
50	0x3d2ba35a	0.04190383
51	0x3e5fe926	0.21866283
52	0x3e971b5f	0.2951307
53	0xbc8656f4	-0.016398884
54	0x3dde8532	0.10865249
55	0x3e34d27d	0.1765842
56	0xbbdc30d1	-0.0067196866
57	0x3dcfed08	0.10152632
58	0x3aeb54f4	0.0017954395
59	0xbd4bf323	-0.04979242
60	0xbd809e5a	-0.06280203
61	0xbd8ef48a	-0.06980236
62	0xbd01d9fb	-0.031702023
63	0xbc7f5f9f	-0.015586763
64	0x3cf4e2e3	0.029893344
65	0x3e9c50d4	0.30530417
66	0xbc61f5e2	-0.013791533
67	0x3da0f995	0.07860104
68	0x3e270e02	0.16313937
69	0xbd482330	-0.048861682
70	0x3de16639	0.110058255
71	0x3b1ec7e3	0.0024228028
72	0xbc922725	-0.017840931
73	0x3e851161	0.25989822
74	0xbd71a82d	-0.058998276
75	0x3c02d263	0.00798473
76	0xbce0e95d	-0.027455026
77	0x3ced24d7	0.02894823
78	0x3e802769	0.25030068
79	0xbc60decc	-0.013724994
80	0xbd85baa2	-0.06529738
81	0x3dbaf83f	0.091293804
82	0xbd53eb9b	-0.051738363
83	0x3e842298	0.25807643
84	0xbc9b0ef0	-0.018928021
85	0x3e5c99be	0.21543023
86	0x3e95e381	0.29275134
87	0xbdbc62d9	-0.09198541
88	0xbcb06c6d	-0.021536076
89	0xbd8f454d	-0.0699564
90	0x3e8ed064	0.27893364
91	0x3de825ed	0.11335359
92	0xb9d99745	-0.0004150217
93	0x3e289ffd	0.1646728
94	0xbc6bab2f	-0.014384075
95	0x3ca7bad3	0.020474827
96	0x3e95ef3e	0.2928409
97	0xbd7ebb7b	-0.062190514
98	0x3ddde3fc	0.108345
99	0x3e813804	0.2523805
100	0xbca0b7b1	-0.01961884
101	0x3e759b4e	0.23985025
102	0x3e0a5e24	0.13512474
103	0x3daf5c91	0.085625775
104	0x3d047b69	0.032344256
105	0x3c4e74cc	0.012601089
106	0xbd3fb962	-0.046807654
107	0x3e6d0c48	0.23149216
108	0xbd4e8ee3	-0.050429236
109	0x3cfc7c50	0.030820996
110	0x3c5991a4	0.013279352
111	0xbb917bb0	-0.0044397935
112	0x3e8098c2	0.25116545
113	0xbd975a63	-0.07390287
114	0xbd83f6d3	-0.06443562
115	0x3b53d082	0.0032320325
116	0x3b83aed2	0.004018643
117	0x3e48669c	0.19570392
118	0xbb147add	-0.002265624
119	0x3da867de	0.08222936
120	0xbd4fa4b0	-0.050694168
121	0xbca4d07e	-0.020118948
122	0xbd4be00f	-0.049774226
123	0x3cd686fb	0.02618741
124	0x3e1eefb0	0.15521121
125	0x3e17e832	0.14834669
126	0x3d486ec4	0.04893376
127	0x3e04d683	0.12972455

model.6.weight f4 [5, 128]
0	0x3c8bf8e3	0.017086452
1	0x3cce3722	0.025172774
2	0xbc20c273	-0.009811985
3	0xbd4e9302	-0.050433166
4	0x3c0522c7	0.008125967
5	0xbc5b03e8	-0.013367631
6	0x3e1f6bb2	0.15568426
7	0xbc034df1	-0.008014188
8	0xbca9ee30	-0.02074346
9	0xbd2a7ef6	-0.041624986
10	0xbd6b9087	-0.05751088
11	0x3d102047	0.035187032
12	0x3c06bd75	0.008223881
13	0xbb8d5315	-0.0043128827
14	0xbd893ef9	-0.06701464
15	0xbd0943d8	-0.033511966
16	0x3ce620bc	0.02809178
17	0x3db0e2c5	0.08637003
18	0xbdb228da	-0.08699198
19	0xbd029466	-0.031879805
20	0x3da7cae1	0.08192993
21	0xbc46e293	-0.01213898
22	0xbf051fa9	-0.52001435
23	0x3d1e180a	0.038597144
24	0x3c8d2dc8	0.017233744
25	0x3d3e85d8	0.046514362
26	0x3d801a31	0.062549956
27	0x3d645252	0.05574257
28	0xbd12276e	-0.035682134
29	0xbdbfc3e8	-0.09363538
30	0x3c80e87a	0.015735853
31	0x3d8e0948	0.06935364
32	0x3c65a78a	0.014016995
33	0xbd300050	-0.042969048
34	0xbda05340	-0.07828379
35	0x3e06af4b	0.13152806
36	0x3c9b7193	0.018975055
37	0x3d2c8524	0.04211916
38	0x3e23caf0	0.15995383
39	0x3d08db6f	0.033412393
40	0x3d8e32a3	0.06943252
41	0x3cb13d0d	0.021635557
42	0x3db4d9a6	0.08830576
43	0x3e03d64b	0.12874715
44	0xbccb13db	-0.024789741
45	0x3dcd3129	0.10019142
46	0xbd92fdab	-0.071772896
47	0xbd910ace	-0.07082139
48	0x3ca12e78	0.019675478
49	0x3d623271	0.055223886
50	0x3d2cfb9d	0.042232145
51	0xbf0908e2	-0.5352918
52	0x3d77dceb	0.06051342
53	0xbd986ff7	-0.074432306
54	0x3ca2eeb3	0.019889211
55	0x3daefea0	0.085446596
56	0x3ce19fe4	0.027542062
57	0xbeefb9b4	-0.46821368
58	0xbd7b5e5d	-0.06136929
59	0x3daa2b79	0.08309073
60	0x3d6729a8	0.05643621
61	0x3c6bf086	0.014400607
62	0x3d33a9e7	0.043863203
63	0xbcb294c6	-0.021799456
64	0xbd32eaf2	-0.043681093
65	0x3df0907a	0.11746307
66	0xbd8f6623	-0.07001903
67	0x3d95b9cd	0.07310829
68	0x3dd75ac5	0.1051536
69	0x3c849bc8	0.016187564
70	0xbe1d806f	-0.15381025
71	0xbcc64fbb	-0.02420794
72	0xbd754b11	-0.059886042
73	0x3dc09f78	0.09405416
74	0xbcc870d4	-0.024467863
75	0xbc888dd7	-0.016669197
76	0xbcdbcee0	-0.026832044
77	0x3db4b30e	0.088232145
78	0x3da14fe8	0.07876569
79	0x3bd2c750	0.0064324513
80	0xbd8140bb	-0.063111745
81	0x3e6154ab	0.22004955
82	0x3ca82144	0.020523675
83	0xbf062183	-0.52394885
84	0xbd217f21	-0.03942788
85	0x3db8faf7	0.09032243
86	0x3e3a6631	0.18203045
87	0x3ce33ecd	0.027739907
88	0x3cc009d6	0.02344219
89	0xbd595654	-0.053060845
90	0x3e19ef06	0.15032586
91	0x3d0064e4	0.031346217
92	0x3d665dda	0.056241848
93	0xbe2230cd	-0.15838929
94	0x3dbbf4e4	0.091775686
95	0xbcd523bb	-0.026018014
96	0x3e20901a	0.1567997
97	0x3d2637a3	0.040580403
98	0xbee56967	-0.44806978
99	0x3c76a987	0.015055067
100	0xbcf8fc3d	-0.030393714
101	0x3d97c1c4	0.07410005
102	0x3c2fae39	0.01072269
103	0x3da50497	0.08057516
104	0x3d053e55	0.032530148
105	0xbd06598a	-0.032800235
106	0x3cc41100	0.023933887
107	0x3dda61c2	0.10663177
108	0xbd982ab7	-0.07430022
109	0xbbb222f3	-0.005436295
110	0xbd0753ee	-0.033039026
111	0x3cc4c53c	0.02401983
112	0x3dad6e1f	0.084682696
113	0xbd4adbf7	-0.04952618
114	0xbd2f02c4	-0.042727247
115	0xbeb1bea0	-0.34715748
116	0x3dbf38d4	0.09337011
117	0xbeb64fa2	-0.3560763
118	0xbcef99b2	-0.029248092
119	0xbe8daf22	-0.27672678
120	0xbd428df4	-0.04749866
121	0x3ca6f4fe	0.020380493
122	0xbd921c78	-0.07134336
123	0xbc2b6e89	-0.010463365
124	0x3c42360e	0.011853708
125	0x3dc7dfc6	0.09759478
126	0xbd1a1f36	-0.03762742
127	0xbe797714	-0.24361831
128	0xbd9397be	-0.07206677
129	0xbceb0327	-0.028688027
130	0x3c664923	0.014055523
131	0x3ca57c0b	0.02020075
132	0xbd12783b	-0.035759192
133	0xbd0cc51c	-0.034367666
134	0x3e11b2c9	0.14228357
135	0xbd52b079	-0.05143783
136	0x3cbf8612	0.02337936
137	0xbb76642c	-0.0037596328
138	0x3d304cfe	0.043042175
139	0x3c573018	0.013134025
140	0xbd8c6ee1	-0.06857086
141	0xbc4e5f0e	-0.012595905
142	0xbce01e08	-0.02735807
143	0xbd9d7fa2	-0.0769036
144	0x3daadabf	0.08342504
145	0x3d8fce15	0.07021729
146	0x3d3d5652	0.0462249
147	0x3d3a663e	0.045507662
148	0xbd93aabe	-0.07210301
149	0x3d181822	0.03713239
150	0xbd507965	-0.05089702
151	0x3d4dc3ae	0.050235443
152	0xbd81d0db	-0.06338664
153	0x3ddc559c	0.10758516
154	0x3e1129dc	0.14176124
155	0xbdabc9b7	-0.083880834
156	0xbd4fdf22	-0.050749905
157	0xbd2c8119	-0.042115305
158	0x3da51fda	0.08062716
159	0x3dd80951	0.10548652
160	0x3d974141	0.07385493
161	0x3cf75a04	0.03019429
162	0x3c11a9f8	0.008890621
163	0x3e820698	0.25395656
164	0x3d30f148	0.043198854
165	0x3d4f6b0e	0.050639205
166	0x3dca3b24	0.098745614
167	0x3db8eeea	0.09029944
168	0xbdaf313b	-0.08554312
169	0x3c960588	0.018313184
170	0x3d772bde	0.06034457
171	0x3d4da432	0.050205417
172	0x3c2d0334	0.010559846
173	0x3da7a050	0.08184874
174	0x3c687d49	0.014190027
175	0x3d37428c	0.0447412
176	0x3d895997	0.06706541
177	0xbd9007fd	-0.07032774
178	0xbc562e33	-0.013072538
179	0xbe82f309	-0.25576046
180	0x3e36e992	0.17862538
181	0x3c730486	0.014832621
182	0xbe3db6a3	-0.18526702
183	0x3da74b2e	0.08168636
184	0x3cebd4ac	0.028787933
185	0x3e566c7d	0.20939822
186	0xbb3fa3d5	-0.0029241939
187	0xbd03a652	-0.032141037
188	0xbd8ba3ac	-0.06818327
189	0x3cacde33	0.021102047
190	0x3daff5e5	0.085918225
191	0x3b9efc99	0.0048518893
192	0x3a09b308	0.0005252813
193	0x3df192f3	0.117956065
194	0x3baeeac6	0.005338046
195	0xbd3185db	-0.043340545
196	0x3d473c90	0.04864174
197	0x3a833680	0.0010010749
198	0x3debe39d	0.11518023
199	0xbd6e6745	-0.058203954
200	0xbcab8105	-0.020935545
201	0x3dd7951a	0.10526486
202	0x3da846e1	0.08216644
203	0x3d394ce0	0.04523933
204	0x3d6c04d5	0.057621796
205	0xba338ad6	-0.0006848996
206	0x3d93d3cb	0.07218131
207	0xbc805b5c	-0.015668564
208	0xbbd41753	-0.006472507
209	0x3d9723f5	0.07379905
210	0x3dad1818	0.08451861
211	0xbf72f905	-0.94911224
212	0xbd56f0ed	-0.05247586
213	0x3d253a38	0.040338725
214	0x3df3b9af	0.11900651
215	0xbcf9757c	-0.030451529
216	0xbcb95af4	-0.022626378
217	0xbcdcc8ad	-0.026951158
218	0x3c6993d7	0.014256439
219	0x3d80cd27	0.0628913
220	0x3d94388b	0.07237347
221	0xbe81b0e1	-0.2533026
222	0x3d5ccb30	0.053904712
223	0xbcd5dd18	-0.026106402
224	0x3df4cef9	0.119535394
225	0x3d8d327c	0.06894395
226	0xbf12493b	-0.5714299
227	0x3dfa2216	0.122135326
228	0x3bcbab0f	0.00621546
229	0x3df33004	0.11874393
230	0x3cbfe658	0.023425266
231	0x3ca210b3	0.019783353
232	0xbd526720	-0.05136788
233	0xbacf92a1	-0.0015836545
234	0xbd87f1e2	-0.06637932
235	0x3d12a651	0.035803143
236	0x3d931fb5	0.07183782
237	0xbc47d746	-0.012197321
238	0x3d5a33ec	0.053272173
239	0x3d07331d	0.03300773
240	0x3da3e8b0	0.08003366
241	0xbd51f727	-0.051261093
242	0x3cabba7e	0.02096295
243	0x3e072e54	0.13201267
244	0x3c26f6fb	0.010190721
245	0xbddca016	-0.107727215
246	0xbc8e2fcc	-0.017356776
247	0xbe44aa80	-0.19205666
248	0x3d1dcec9	0.038527284
249	0x3cb14456	0.02163903
250	0x3ab339f2	0.0013673885
251	0x3ca896b1	0.020579668
252	0x3df6e65b	0.120556556
253	0x3d8349b7	0.06410544
254	0xbc503409	-0.012707719
255	0xbe7f91c2	-0.24957946

model.6.bias f4 [5]
0	0x3e8c29b3	0.27375564
1	0x3e75e519	0.24013175
2	0x3d74b19c	0.059739694
3	0x3d98f9c1	0.07469512
4	0x3e8d48de	0.27594656
