2021-22/PrimerSemestre/Reinforcement/PRA1/DQN.pth (torch, 674127 bytes, 8 tensors)

model.0.weight f4 [512, 5]
0.31243303 -0.37654018 -0.36671385 0.20194343 -0.0979464 0.20480666 0.04972191 0.035139523
-0.15740919 -0.16522655 -0.053618193 0.21240109 -0.06154743 -0.07818797 0.36831778 -0.034879096
-0.21106875 -0.011916395 0.3213139 0.10497854 -0.30688846 -0.008612603 -0.050301015 -0.15257967
-0.44595757 -0.2519185 0.15793933 0.38507503 -0.55002457 -0.4324366 -0.24378693 0.17043124
-0.13453685 -0.10802039 0.21895738 -0.061335348 0.046885014 -0.16176283 -0.26959676 -0.16440278
-0.44265652 0.43281013 0.27252513 0.15087648 -0.27471325 0.09318806 0.24721926 0.10190072
0.07078532 0.5942877 -0.2767484 0.0020782796 -0.019462278 -0.16254422 -0.31145266 0.22334185
-0.27722815 -0.33131662 0.2931246 0.33816433 0.2748217 -0.4223905 -0.43116987 -0.21901727
-0.022551686 0.0125022 -0.007194075 -0.22352453 0.29608172 -0.26779735 -0.18889967 -0.22831963
-0.3582362 0.15786314 0.4021356 0.31648526 0.19725409 -0.48616108 -0.0049302974 -0.097584195
-0.08822647 -0.22745 -0.3081829 -0.3042201 -0.3205744 0.4166265 0.057368536 0.22650401
0.055057354 0.15267807 -0.22960274 -0.058003247 0.23131174 0.012614965 0.18716592 -0.07960522
-0.2257053 0.1624811 0.036443505 0.04175758 -0.05846112 0.28943458 -0.1905678 -0.036938213
0.22230512 -0.10040188 -0.21165313 0.37401772 -0.3092528 -0.20652562 -0.13861135 -0.41929388
-0.18077326 0.39499873 -0.10948044 -0.31202552 0.015105575 0.06043309 -0.279445 -0.19230613
-0.028282344 -0.047326565 -0.05198416 -0.31772023 -0.29233193 0.25119653 0.078218944 0.08513245
-0.10347174 0.14023657 -0.067500144 -0.04136613 0.18888038 -0.06757009 -0.043732584 0.14125545
0.1262313 -0.26635572 0.005017178 -0.1737177 -0.070620924 -0.26920092 -0.21879016 -0.064554244
0.28894192 0.00946047 -0.010668986 -0.7122378 0.1686706 0.1663235 0.2700106 -0.29123262
0.09441194 0.28411177 -0.31885338 0.024181921 -0.41109568 0.26163265 -0.12170543 0.08639933
0.084000945 -0.4072026 -0.19726506 0.31609863 -0.35510337 -0.04822688 0.12549905 0.34992307
-0.48779646 -0.43125078 0.24707977 -0.029188143 -0.14945991 0.33421734 -0.10337377 -0.42530695
0.13658392 -0.38327283 -0.38274786 0.32547504 0.25352067 -0.10689614 0.24564746 0.23328006
-0.21816328 0.3549137 0.009016218 0.10453641 -0.40735534 -0.19891346 -0.29695076 0.17295599
-0.2423811 0.2453515 0.1516779 -0.028236775 -0.015510229 0.3102856 -0.21783273 0.38030878
0.086976424 0.48243654 -0.41367015 -0.08248524 -0.101514935 -0.43429214 -0.15440807 -0.15815371
0.31060398 -0.34676757 -0.44221255 -0.04029019 0.22005099 0.34577772 -0.47309127 -0.3139014
0.12628725 -0.11878846 0.23062916 -0.39776525 0.24204706 0.34527135 -0.26844594 -0.33287242
0.4127458 -0.28498203 0.11570376 0.3642438 -0.30609146 -0.41834173 0.31698596 -0.13850105
-0.112071276 -0.43732166 0.28398764 -0.14016134 -0.4097981 -0.22303204 0.38080913 0.37034065
-0.3346709 0.0073220883 0.1588256 0.22387786 -0.31899458 -0.071786866 -0.47345 0.30091926
-0.021222584 0.5829025 -0.20528255 -0.13660741 0.33607686 0.003318876 0.27578664 -0.44142678
00000000: 39f7 9f3e e0c9 c0be ebc1 bbbe 42ca 4e3e
00000010: 1f98 c8bd d6b8 513e 34a9 4b3d 76ee 0f3d
00000020: e02f 21be 2631 29be c09e 5bbd ac7f 593e
00000030: 2819 7cbd 0421 a0bd 2694 bc3e 62dd 0ebd
00000040: 6822 58be fc3c 43bc 4183 a43e fdfe d63d
00000050: 7c20 9dbe e01b 0dbc 7008 4ebd d83d 1cbe
00000060: 8d54 e4be 76fb 80be d9ba 213e 8e28 c53e
00000070: 69ce 0cbf 5468 ddbe 48a3 79be 8785 2e3e
00000080: 07c4 09be cb39 ddbd 5d36 603e c63a 7bbd
00000090: 800a 403d 28a5 25be 9608 8abe 3459 28be
000000a0: e0a3 e2be 4a99 dd3e 6a88 8b3e 5d7f 1a3e
000000b0: 37a7 8cbe 62d9 be3d 0c27 7d3e 53b1 d03d
000000c0: e5f7 903d 3d23 183f f7b1 8dbe bf33 083b
000000d0: 5b6f 9fbc fe71 26be b976 9fbe bab3 643e
000000e0: d9f0 8dbe 55a2 a9be 6d14 963e e023 ad3e
000000f0: 6eb5 8c3e 9143 d8be 4cc2 dcbe 1046 60be
00000100: 50be b8bc 07d6 4c3c 46bc ebbb 9de3 64be
00000110: 0698 973e bc1c 89be ea6e 41be 9fcc 69be
00000120: bc6a b7be e0a6 213e b8e4 cd3e 5b0a a23e
00000130: fafc 493e 1bea f8be 558e a1bb 39da c7bd
00000140: 14b0 b4bd a7e8 68be 26ca 9dbe bdc2 9bbe
00000150: 5422 a4be 1250 d53e 45fb 6a3d abf0 673e
00000160: d283 613d a457 1c3e fb1c 6bbe d094 6dbd
00000170: fcdc 6c3e 00af 4e3c 6ca8 3f3e 1008 a3bd
00000180: 4a1f 67be 7261 263e c945 153d ff09 2b3d
00000190: ed74 6fbd c530 943e 3524 43be 864c 17bd
000001a0: f4a3 633e 809f cdbd 99bb 58be 407f bf3e
000001b0: 6256 9ebe 747b 53be 22f0 0dbe b0ad d6be
000001c0: a01c 39be 463d ca3e 4837 e0bd cfc1 9fbe
000001d0: 607d 773c b088 773d 6a13 8fbe e6eb 44be
000001e0: 60b0 e7bc 80d9 41bd 58ed 54bd 3aac a2be
000001f0: 88ac 95be d59c 803e 4131 a03d ec59 ae3d
00000200: fee8 d3bd 2d9a 0f3e 843d 8abd 886f 29bd
00000210: dc69 413e 3062 8abd f020 33bd 45a5 103e
00000220: c742 013e c75f 88be 2467 a43b 0ee3 31be
00000230: b4a1 90bd b4d4 89be 870a 60be 0435 84bd
00000240: 32f0 933e 1600 1b3c f8cc 2ebc 3755 36bf
00000250: fcb7 2c3e b550 2a3e d43e 8a3e 711c 95be
00000260: 0c5b c13d 1977 913e c040 a3be 2a19 c63c
00000270: 227b d2be b7f4 853e b240 f9bd 22f2 b03d
00000280: b008 ac3d dc7c d0be daff 49be aed7 a13e
00000290: 1cd0 b5be 8d89 45bd d382 003e 1e29 b33e
000002a0: 75c0 f9be e7cc dcbe 7b02 7d3e f91b efbc
000002b0: 050c 19be 891e ab3e a1b5 d3bd d5c1 d9be
000002c0: a8dc 0b3e 563c c4be 87f7 c3be aaa4 a63e
000002d0: 76cd 813e 5dec dabd 028b 7b3e f8e0 6e3e
000002e0: 3266 5fbe 40b7 b53e c2b8 133c 2f17 d63d
000002f0: e190 d0be f8af 4bbe ee09 98be 601b 313e
00000300: c032 78be 6c3d 7b3e 7451 1b3e cf50 e7bc
00000310: 9e1e 7ebc c1dd 9e3e 8b0f 5fbe d5b7 c23e
00000320: b220 b23d ec01 f73e 93cc d3be 06ee a8bd
00000330: 10e7 cfbd 8a5b debe 261d 1ebe 0cf3 21be
00000340: 7c07 9f3e 858b b1be af69 e2be 5407 25bd
00000350: 0c55 613e c709 b13e 0539 f2be afb7 a0be
00000360: 7251 013e 5d47 f3bd 0d2a 6c3e e3a7 cbbe
00000370: 2fdb 773e 68c7 b03e bf71 89be 416e aabe
00000380: 6b53 d33e 2ae9 91be 18f6 ec3d 2a7e ba3e
00000390: 05b8 9cbe e330 d6be fc4b a23e 38d3 0dbe
000003a0: a085 e5bd a0e8 dfbe d466 913e 7486 0fbe
000003b0: 0ed1 d1be 8362 64be 6af9 c23e 4a9d bd3e
000003c0: fc59 abbe 21ee ef3b 2ea3 223e 3d40 653e
000003d0: 4253 a3be fe04 93bd 0a68 f2be 1712 9a3e
000003e0: fcda adbc 1939 153f 9735 52be d0e2 0bbe
000003f0: 4412 ac3e 8081 593b e833 8d3e b102 e2be

model.0.bias f4 [512]
0.24529113 -0.12999603 -0.22924145 0.11275313 0.15084153 0.09202721 0.3287086 0.3870329
-0.19201683 0.2627011 0.32484868 -0.06169243 -0.36437875 -0.12091139 0.06469518 -0.46469006
0.21828157 0.33465505 -0.11743933 0.22585379 0.22506088 -0.2675926 0.3763836 -0.018819451
-0.38189828 -0.37004277 -0.122048646 -0.14065953 -0.36284807 0.029782517 -0.18772481 0.2387506
0.16805524 -0.08217042 -0.3462289 0.03076753 -0.0844736 0.25347075 -0.41870877 0.1609435
-0.41015115 -0.17309195 0.17985837 0.08788153 0.3431874 -0.21317977 -0.32291955 -0.42522314
0.11410852 0.3152129 -0.13227686 0.12856889 -0.13923308 -0.029401768 -0.09246537 0.1475672
-0.04443272 0.23858702 0.0351751 0.35294732 0.1462456 0.14548884 -0.24237935 -0.059379786
0.40472373 -0.18540117 0.090114005 -0.2658142 -0.27336127 -0.11181247 0.11430925 0.37904555
0.28868115 -0.27526265 -0.0824092 0.34986964 0.16479 -0.09278277 0.08719499 0.3624223
-0.43052047 0.42000303 -0.2795279 -0.28378594 -0.24441779 0.29464465 -0.31876063 0.06102628
0.3787924 -0.4550618 0.15715647 -0.060658503 -0.29434836 0.30181405 -0.46851522 -0.14863768
-0.29638985 -0.4607882 0.12372409 -0.21791527 0.09570631 0.2593927 0.1701664 0.30999666
-0.048458636 -0.41244242 0.124848984 0.11418575 -0.16730377 -0.41842958 -0.37116325 -0.015831087
0.02493094 0.29224363 -0.34365118 -0.15599568 0.04338563 0.021824729 0.3840934 0.39457992
-0.2773501 0.16703394 0.18343008 -0.38417017 0.31441796 0.062283218 0.30547145 0.17591074
-0.24289612 0.21570328 -0.5280523 -0.3285076 0.29401845 0.28336844 -0.31496444 -0.1367752
-0.07899114 0.34980273 0.38659135 -0.43602696 -0.4352283 -0.30632865 -0.050903052 -0.18380794
-0.12928319 0.31893718 0.16598661 -0.3866234 -0.366452 0.23619485 -0.23472129 -0.15655446
-0.39160904 -0.35444835 0.38927412 -0.30749527 0.2579186 0.3395378 -0.27068627 0.009026522
0.2634318 0.37981778 0.2901867 -0.3906383 -0.06944108 0.3132696 -0.19818933 0.36388353
-0.26350918 0.25723037 -0.18607119 -0.24743193 -0.28726262 -0.068062276 0.06905761 -0.24451768
-0.11912155 -0.062200308 0.19959658 -0.045906395 0.18230502 -0.3756833 -0.35159838 0.29626524
0.3469228 -0.30455992 0.26065537 0.20368597 -0.3347075 0.13590609 -0.32725266 0.04107493
-0.44327968 0.17038514 -0.15074143 -0.23720738 0.11359101 -0.22145614 0.21217161 0.28428197
0.0059241303 -0.20842382 -0.01641224 -0.2536364 -0.20717315 -0.13801616 0.37010646 -0.16509205
0.16932386 0.085588574 0.257404 -0.28915262 -0.12683147 -0.022069436 -0.23328426 0.26601574
-0.08297196 0.4035891 0.17447436 0.017014282 -0.3044855 0.052432 -0.2956429 -0.12705022
0.26561818 -0.040972423 -0.28794605 0.0055423677 -0.1774903 -0.089172035 0.33153695 -0.25490874
0.06804055 -0.12730274 0.31831092 0.36341542 0.16220623 -0.2475979 0.34803307 -0.14516968
0.19165288 0.38624576 0.27090758 0.19997743 0.24525693 -0.34051743 -0.20726122 -0.1926981
0.051155318 0.31645826 -0.44714952 -0.16701977 -0.067116916 0.3090623 0.36352646 -0.24086627
00000000: 992d 7b3e ae1d 05be 45be 6abe 1deb e63d
00000010: 3476 1a3e c378 bc3d 7e4c a83e 2d29 c63e
00000020: 0fa0 44be c280 863e 9152 a63e 34b1 7cbd
00000030: da8f babe 64a0 f7bd e87e 843d dbeb edbe
00000040: 3485 5f3e e857 ab3e 0884 f0bd 3746 673e
00000050: 5c76 663e e601 89be 5ab5 c03e 402b 9abc
00000060: 2c88 c3be 3f76 bdbe a4f4 f9bd 0d09 10be
00000070: 39c7 b9be 77fa f33c ef3a 40be 0a7b 743e
00000080: ac16 2c3e f748 a8bd ea44 b1be 300c fc3c
00000090: 7f00 adbd ebc6 813e ff60 d6be 5fce 243e
000000a0: 55ff d1be 043f 31be cb2c 383e 3bfb b33d
000000b0: 42b6 af3e cc4b 5abe b655 a5be d9b6 d9be
000000c0: bab1 e93d 9663 a13e 9673 07be 90a7 033e
000000d0: 1e93 0ebe fadb f0bc 7c5e bdbd db1b 173e
000000e0: 15ff 35bd 2850 743e c413 103d 83b5 b43e
000000f0: 68c1 153e 07fb 143e 4b32 78be 3838 73bd
00000100: f337 cf3e ced9 3dbe b18d b83d cc18 88be
00000110: 02f6 8bbe f0fd e4bd f81a ea3d 4212 c23e
00000120: 04ce 933e 3aef 8cbe 28c6 a8bd 1d22 b33e
00000130: b6be 283e e504 bebd 4993 b23d 6a8f b93e
00000140: 2e6d dcbe a30a d73e 481e 8fbe 644c 91be
00000150: a848 7abe aadb 963e 9834 a3be b1f6 793d
00000160: 14f1 c13e dcfd e8be a0ed 203e 0d75 78bd
00000170: d4b4 96be 5f87 9a3e 3ae1 efbe 7a34 18be
00000180: 69c0 97be 6eec ebbe 0e63 fd3d 2e25 5fbe
00000190: ab01 c43d 1fcf 843e 1a40 2e3e e2b7 9e3e
000001a0: 907c 46bd a72b d3be d3b0 ff3d 38da e93d
000001b0: ae51 2bbe 673c d6be 1c09 bebe 32b0 81bc
000001c0: f83b cc3c f5a0 953e 0cf3 afbe 55bd 1fbe
000001d0: 21b5 313d c6c9 b23c e4a7 c43e 6106 ca3e
000001e0: d500 8ebe f20a 2b3e 18d5 3b3e f4b1 c4be
000001f0: 64fb a03e b01c 7f3d c166 9c3e f221 343e
00000200: c3b9 78be 52e1 5c3e 6f2e 07bf 2632 a8be
00000210: 9689 963e ab15 913e 0543 a1be cc0e 0cbe
00000220: 1bc6 a1bd 5819 b33e 4def c53e ed3e dfbe
00000230: 3ed6 debe 1cd7 9cbe b87f 50bd 2638 3cbe
00000240: d062 04be bc4b a33e 65f8 293e 81f3 c5be
00000250: 999f bbbe 10dd 713e c75a 70be d04f 20be
00000260: fb80 c8be 417a b5be f04e c73e 0570 9dbe
00000270: e80d 843e e6d7 ad3e 6497 8abe fae3 133c
00000280: 88e0 863e 7a77 c23e 5a93 943e be01 c8be
00000290: 2037 8ebd df64 a03e 25f2 4abe f14e ba3e
000002a0: adea 86be b3b3 833e 7289 3ebe cc5e 7dbe
000002b0: 1614 93be 3c64 8bbd 146e 8d3d d862 7abe
000002c0: 00f6 f3bd c0c5 7ebd 0c63 4c3e 5808 3cbd
000002d0: 2bae 3a3e 9059 c0be b404 b4be 14b0 973e
000002e0: de9f b13e 47ef 9bbe 9f74 853e 0e93 503e
000002f0: c85e abbe f72a 0b3e a98d a7be 303e 283d
00000300: 8ef5 e2be 7179 2e3e f65b 1abe 7ee6 72be
00000310: 67a2 e83d 66c5 62be 8443 593e 688d 913e
00000320: 351f c23b 0e6d 55be f672 86bc a1dc 81be
00000330: 3325 54be 1c54 0dbe 987e bd3e e40d 29be
00000340: 3c63 2d3e 1049 af3d 75ca 833e d00b 94be
00000350: 1ce0 01be f6ca b4bc 12e2 6ebe 3733 883e
00000360: 34ed a9bd 3ba3 ce3e 68a9 323e 8961 8b3c
00000370: 86e5 9bbe f0c2 563d 825e 97be 7419 02be
00000380: 1bff 873e b3d2 27bd aa6d 93be c09c b53b
00000390: 04c0 35be d49f b6bd 36bf a93e 6683 82be
000003a0: d858 8b3d a65b 02be a6f9 a23e 9611 ba3e
000003b0: 6419 263e 4e8a 7dbe 6431 b23e 5ca7 14be
000003c0: a740 443e 01c2 c53e 66b4 8a3e e2c6 4c3e
000003d0: a224 7b3e 4d58 aebe 493c 54be a752 45be
000003e0: 3d88 513d d106 a23e c8f0 e4be 3b07 2bbe
000003f0: 9874 89bd 6a3d 9e3e 2420 ba3e a6a5 76be

model.2.weight f4 [256, 512]
-0.0035131648 0.03902815 -0.029156025 -0.013375329 0.03224813 0.02174868 -0.00884527 -0.0018612891
0.023124184 -0.040045597 0.0007717684 -0.017084146 -0.013362464 0.0031618923 -0.0040639453 -0.024722299
0.0055911057 0.011301167 -0.005499214 0.008159861 0.012330446 -0.020356368 -0.02611867 -0.004528437
0.032616336 0.029734287 -0.01406279 0.0067731664 0.038976263 -0.012939252 0.019455347 -0.019888977
0.0124360435 0.017359987 -0.014912382 0.04175165 -0.011001982 0.0057094134 -0.01129882 -0.029218644
-0.016301658 -0.015644405 -0.02735449 0.00322197 -0.03413014 -0.021781197 -0.025916139 0.036447268
-0.0034822188 -0.0038873516 0.040184688 -0.007138476 -0.026703922 0.0038984418 -0.020299582 0.018080883
0.027564514 0.0034956113 -0.00057803467 0.033531938 0.0071362033 -0.038678385 0.00019762665 -0.033634767
0.0044057667 0.041526 0.025090758 -0.0010065883 -0.03003272 0.03226218 -0.041521806 0.004201662
-0.011120152 0.0031547584 -0.04310986 0.010646552 0.017304316 -0.00085433945 -0.024457067 0.0054179393
0.0281162 0.014017411 0.013877045 -0.043703225 0.016545326 0.024034288 -0.00076765195 0.0023516715
-0.01576565 0.027077582 0.042633127 0.043707702 -0.034144104 0.026051242 0.039013516 0.011345126
0.0059212856 -0.0049217492 0.003807634 0.04315194 0.015733197 -0.011364572 -0.020417746 -0.009484857
-0.030439876 -0.042921938 -0.012722805 -0.015145712 -0.00090671703 0.022893 0.030264344 0.015941992
-0.024466734 -0.028521637 -0.033914153 -0.033495802 0.031873118 -0.0038119555 -0.0010011867 -0.037515957
-0.014608882 -0.0027318336 0.015093762 -0.041124754 -0.016912445 0.018578675 0.011704013 8.8207424e-05
0.035444174 -0.013151767 -0.015850944 -0.0367925 0.009740949 0.043260213 -0.031199394 -0.043244258
0.02421147 -0.0006873347 -0.0026387237 -0.025883285 -0.017993195 0.02989472 0.026086826 -0.022706984
-0.03862871 -0.04144964 0.021920938 -0.014261534 -0.024801139 0.00259047 -0.024601262 0.041265886
0.027886417 -0.010948762 0.03338964 0.038558904 -0.0196154 -0.038421705 -0.020747164 0.028127465
0.033211846 0.02741335 -0.035076793 0.019862894 0.020217191 0.01905762 0.03356279 -0.017724289
-0.022380186 -0.04192729 0.02746794 0.032421965 0.035139125 0.019134406 0.017461106 -0.020741729
0.033496615 0.006912548 0.0065815784 0.037715215 -0.04207282 -0.0030503944 0.0037602223 0.026279394
0.016671102 0.03123184 0.003749717 0.030284468 -0.009250037 -0.02576264 -0.030596726 -0.03702579
0.029943746 0.019026313 -0.00832456 -0.019121593 -0.022339752 -0.030774254 0.040741 -0.028908217
0.041469324 0.027006265 -0.0017751195 -0.0008879602 -0.029157637 0.0039218105 -0.033062525 0.016970217
-0.01209379 0.03535829 0.026254747 -0.04412543 0.02302828 -0.005415421 -0.03696562 -0.036776677
-0.025130259 0.013382092 0.030545142 -0.011131421 0.023254555 0.030881245 0.03342166 -0.03887347
0.007991891 0.025252003 0.015062913 -0.009198301 -0.0052056685 0.02541991 -0.02996134 0.016843125
0.021505449 0.004367236 -0.010790013 0.009961713 -0.01009468 -0.015052024 0.019374419 -0.008627411
-0.0038241744 0.02685598 0.041661922 -0.007814106 0.01491097 0.00069684535 -0.017050339 -0.011844128
0.007952195 -0.019201934 -0.01064403 -0.023262188 0.004149746 0.016765196 0.011592582 -0.020823494
00000000: 203d 66bb fbdb 1f3d 9ed8 eebc 3224 5bbc
00000010: 9d16 043d 4a2a b23c c0eb 10bc 80f6 f3ba
00000020: ee6e bd3c da06 24bd 8050 4a3a 0df4 8bbc
00000030: 3cee 5abc c037 4f3b d82a 85bb 6b86 cabc
00000040: 9835 b73b 8828 393c c032 b4bb f0b0 053c
00000050: a405 4a3c 66c2 a6bc d2f6 d5bc 4863 94bb
00000060: b598 053d 5295 f33c 9e67 66bc 70f1 dd3b
00000070: 93a5 1f3d 28ff 53bc d260 9f3c 35ee a2bc
00000080: 8cc0 4b3c 8836 8e3c 1053 74bc c703 2b3d
00000090: a841 34bc 0816 bb3b b01e 39bc f05b efbc
000000a0: 0e8b 85bc b228 80bc 8616 e0bc b027 533b
000000b0: 0ccc 0bbd 7b6e b2bc 154e d4bc bb49 153d
000000c0: f035 64bb f0c2 7ebb b398 243d e0e9 e9bb
000000d0: 2fc2 dabc 007d 7f3b 4f4b a6bc 5c1e 943c
000000e0: face e13c a016 653b 4087 17ba c958 093d
000000f0: d0d6 e93b 3a6d 1ebd 003a 4f39 9cc4 09bd
00000100: 405e 903b 2b17 2a3d 228b cd3c 80ef 83ba
00000110: 2e07 f6bc 5925 043d c512 2abd 18ae 893b
00000120: 4c31 36bc 10c0 4e3b f793 30bd e06e 2e3c
00000130: c8c1 8d3c c0f5 5fba 305a c8bc f888 b13b
00000140: f253 e63c 48a9 653c 8c5c 633c 2702 33bd
00000150: 108a 873c 8ee3 c43c 403c 49ba 801e 1a3b
00000160: f726 81bc ced1 dd3c 13a0 2e3d d906 333d
00000170: b0da 0bbd 6a69 d53c a3cc 1f3d e8e0 393c
00000180: 5807 c23b a046 a1bb 8089 793b 17c0 303d
00000190: e8e2 803c 7832 3abc 1e43 a7bc 6066 1bbc
000001a0: 0c5d f9bc eace 2fbd 5073 50bc b825 78bc
000001b0: c0b0 6dba 1a8a bb3c eeec f73c c898 823c
000001c0: 766e c8bc 35a6 e9bc 91e9 0abd e532 09bd
000001d0: 638d 023d 00d2 79bb 403a 83ba 55aa 19bd
000001e0: 185a 6fbc 9008 33bb d44b 773c 6e72 28bd
000001f0: f88b 8abc 4e32 983c 30c2 3f3c 00fc b838
00000200: e92d 113d 827a 57bc d7d9 81bc bcb3 16bd
00000210: 8098 1f3c 9f31 313d df95 ffbc e420 31bd
00000220: 2257 c63c 402e 34ba 70ee 2cbb 2f09 d4bc
00000230: 7766 93bc c6e5 f43c 0ab4 d53c ff03 babc
00000240: 2339 1ebd 19c7 29bd 8a93 b33c 36a9 69bc
00000250: c22b cbbc e0c4 293b 9688 c9bc 6b06 293d
00000260: 0e72 e43c 7062 33bc 93c3 083d f1ef 1d3d
00000270: 7ab0 a0bc 1460 1dbd f5f5 a9bc 926b e63c
00000280: 2509 083d f691 e03c afac 0fbd 82b7 a23c
00000290: 869e a53c ba1e 9c3c 2379 093d 8732 91bc
000002a0: a756 b7bc f3bb 2bbd 7204 e13c e5cc 043d
000002b0: 0bee 0f3d c2bf 9c3c 980a 8f3c 8fea a9bc
000002c0: bf33 093d a882 e23b 48aa d73b 457b 1a3d
000002d0: 8d54 2cbd 20e9 47bb 106e 763b e247 d73c
000002e0: d691 883c ead9 ff3c d0bd 753b 2217 f83c
000002f0: 788d 17bc 2c0c d3bc fca5 fabc 5ba8 17bd
00000300: 964c f53c 12dd 9b3c bc63 08bc e3a4 9cbc
00000310: db01 b7bc 4a1a fcbc 09e0 263d edd0 ecbc
00000320: bddb 293d 3e3c dd3c 20ab e8ba 00c6 68ba
00000330: ffdb eebc 8882 803b 926c 07bd 2005 8b3c
00000340: 0825 46bc dbd3 103d 3214 d73c debc 34bd
00000350: cea5 bc3c d873 b1bb 4369 17bd 24a3 16bd
00000360: f9dd cdbc 9040 5b3c ce39 fa3c 9060 36bc
00000370: 5680 be3c aafa fc3c 27e5 083d ca39 1fbd
00000380: 6cf0 023c 4add ce3c 70ca 763c 78b4 16bc
00000390: 5094 aabb 6a3d d03c 7c71 f5bc 98fa 893c
000003a0: 322c b03c 081b 8f3b 98c8 30bc 7436 233c
000003b0: 2864 25bc c49c 76bc 1ab7 9e3c fc59 0dbc
000003c0: 009f 7abb 1201 dc3c b1a5 2a3d bc06 00bc
000003d0: 244d 743c 80ac 363a 27ad 8bbc e00d 42bc
000003e0: ec49 023c 604d 9dbc 4c64 2ebc 5890 bebc
000003f0: 98fa 873b 2a57 893c d0ee 3d3c 0896 aabc

model.2.bias f4 [256]
0.0013676658 -0.042095844 0.039699327 0.03385387 0.055971682 -0.009447917 0.035827648 0.1210142
-0.023269352 -0.0035476543 -0.02170287 0.10805876 0.03106239 0.09925697 0.031418517 -0.010299618
-0.013881484 -0.04426646 -0.003134151 -0.041391768 -0.027596414 -0.0051786564 -0.033163354 0.04415014
0.0224448 -0.011339385 -0.019654673 -0.016422076 -0.071389005 0.022964288 0.0026219822 -0.035592705
0.025200313 -0.0027043372 -0.027160408 -0.020035364 0.022420619 -0.03272378 0.0045280084 -0.03374538
-0.025773987 -0.027792042 -0.034688104 -0.022176133 -0.041334987 -0.05015626 0.045909245 0.009756345
0.009079366 0.026587915 -0.045767304 -0.009947956 -0.03474336 0.002965464 -0.0039031468 0.013708652
-0.036805928 -0.0011196397 -0.028864484 -0.006089862 -0.03904019 0.04027109 -0.03309737 0.013800129
-0.05233671 -0.0049172104 -0.04308269 0.026521087 0.016623454 0.001144021 0.051164374 0.014277303
0.006169554 0.015708737 -0.053529114 0.021196691 -0.05120775 0.02707154 0.036610957 0.036613796
-0.0065959627 -0.0267305 -0.04151292 -0.023011884 -0.022242414 -0.034976993 0.017129097 -0.031279817
0.01641274 0.009127058 0.012227028 0.06032723 0.017125994 0.03180091 0.031013587 -0.011589754
-0.014966473 0.04019926 -0.005506464 0.036698278 0.021924693 0.010723571 -0.035930887 -0.025510913
0.0072439816 -0.048554435 -0.0030761426 -0.002287605 0.02169181 -0.024465144 -0.014976224 0.006668254
-0.027863147 0.020855652 -0.01856562 0.06791208 -0.03628298 -0.025359578 -0.03100454 0.017220959
-0.01835754 -0.025083866 -0.047972985 -0.02184288 0.033756383 0.012348969 0.07771629 0.008628823
-0.027983217 -0.0019348034 -0.040913004 -0.02793464 0.026707998 -0.0041129775 -0.0059538106 0.09343508
-0.025858382 -0.009839132 -0.00044624743 0.012496838 -0.030786097 0.02734122 0.029807035 0.024468254
-0.0031414758 0.014821552 0.007302521 0.02687006 -0.0077994675 -0.03640021 -0.037714142 0.06589426
0.042602595 -0.01790876 0.020976294 -0.012641981 -0.021624584 -0.008165397 0.08778584 -0.028868385
-0.0028049268 -0.023196299 -0.04307124 0.023008686 -0.020068819 0.040833276 -0.012802523 -0.0348675
-0.045803852 0.032773104 -0.05286157 0.03460112 0.0019175934 -0.03202354 -0.04743026 -0.031347066
0.067633726 0.01844989 0.031150248 0.025982922 0.02288311 -0.037648045 -0.0075766486 0.022112709
0.020085018 0.05605051 0.0047770212 -0.03772928 -0.030521074 -0.034818545 0.029953543 -0.020200426
-0.022412002 0.017511569 -0.008565109 -0.040443543 -0.016781768 -0.025665572 0.0059907283 0.03383885
-0.047587406 -0.012584573 0.034885105 -0.033433385 0.027595978 -0.035285957 0.02731116 0.017131662
0.0455147 0.036533035 0.044003177 -0.045619052 0.022375975 -0.04858533 0.008438709 -0.016541652
0.043304805 -0.00042877631 0.04854996 0.0021361103 0.013205155 -0.016018858 0.010365879 0.059080712
-0.014803642 0.042857457 -0.036832247 0.008137125 -0.037331298 0.017501853 -0.041059915 0.042097334
-0.009286888 -0.036999136 -0.026164638 -0.03558833 -0.042397063 -0.04465017 0.025397677 -0.00580775
0.013610776 -0.043940507 -0.026609788 -0.041750923 -0.011342693 0.016183272 -0.035309352 0.031080822
-0.025010873 -0.006462447 0.08469429 -0.042728797 -0.044697654 -0.008293734 0.0030403533 -0.052911654
00000000: 4043 b33a b16c 2cbd c39b 223d 5baa 0a3d
00000010: 9042 653d 70cb 1abc 03c0 123d 4bd6 f73d
00000020: 5e9f bebc c37f 68bb 38ca b1bc e94d dd3d
00000030: 8e76 fe3c 3d47 cb3d b4b0 003d bbbf 28bc
00000040: 2a6f 63bc bf50 35bd 5466 4dbb 6a8a 29bd
00000050: e011 e2bc b8b1 a9bb 4cd6 07bd c7d6 343d
00000060: 28de b73c d4c8 39bc d602 a1bc 9787 86bc
00000070: 6634 92bd 9a1f bc3c 90d5 2b3b a8c9 11bd
00000080: e370 ce3c 403b 31bb 817f debc 3421 a4bc
00000090: 72ab b73c 5f09 06bd b05f 943b 9838 0abd
000000a0: f823 d3bc 23ac e3bc 1d15 0ebd b9aa b5bc
000000b0: e04e 29bd a770 4dbd 550b 3c3d 14d9 1f3c
000000c0: 9fc1 143c e6ce d93c 7f76 3bbd c0fc 22bc
000000d0: 0e4f 0ebd 3b58 423b f0cb 7fbb 419a 603c
000000e0: d0c1 16bd e0c0 92ba 3675 ecbc 778d c7bb
000000f0: 9be8 1fbd 4cf3 243d 1c91 07bd f019 623c
00000100: 055f 56bd 8d20 a1bb 7a77 30bd c042 d93c
00000110: e92d 883c faf2 953a bc91 513d 59eb 693c
00000120: f829 ca3b 9caf 803c 5841 5bbd afa4 ad3c
00000130: 38bf 51bd 22c5 dd3c 5ff5 153d 59f8 153d
00000140: f222 d8bb ecf9 dabc 7409 2abd 6b83 bcbc
00000150: b935 b6bc 0944 0fbd 5252 8c3c 441f 00bd
00000160: 0374 863c a889 153c df53 483c af19 773d
00000170: d04b 8c3c ac41 023d 3510 fe3c f4e2 3dbc
00000180: f035 75bc fba7 243d 916f b4bb ef50 163d
00000190: 6a9b b33c ebb1 2f3c 442c 13bd 43fc d0bc
000001a0: ec5e ed3b 04e1 46bd 1c99 49bb a5eb 15bb
000001b0: 06b3 b13c 206b c8bc d65e 75bc 5e81 da3b
000001c0: 4141 e4bc 79d9 aa3c ed16 98bc 7d15 8b3d
000001d0: 769d 14bd e4be cfbc 3cfd fdbc f812 8d3c
000001e0: 8d62 96bc ae7c cdbc 527f 44bd d7ef b2bc
000001f0: 2244 0a3d 5453 4a3c b829 9f3d e85f 0d3c
00000200: 0f3d e5bc 3b99 fdba 6594 27bd 30d7 e4bc
00000210: bbca da3c 28c6 86bb 2f18 c3bb e45a bf3d
00000220: f5d4 d3bc 5034 21bc 51f6 e9b9 8abf 4c3c
00000230: 2033 fcbc b2fa df3c e22d f43c a671 c83c
00000240: 38e1 4dbb 18d6 723c fc49 ef3b 9a1e dc3c
00000250: ad92 ffbb 6318 15bd 257a 1abd 92f3 863d
00000260: 0f80 2e3d 64b5 92bc 7ad6 ab3c 5020 4fbc
00000270: 0a26 b1bc 28c8 05bc 10c9 b33d 647d ecbc
00000280: ddd2 37bb 2a06 bebc 786b 30bd b67c bc3c
00000290: 5d67 a4bc cb40 273d acc1 51bc 39d1 0ebd
000002a0: d29c 3bbd 173d 063d 6085 58bd e7b9 0d3d
000002b0: c257 fb3a 1e2b 03bd 3b46 42bd c865 00bd
000002c0: 8d83 8a3d 3924 973c ce2e ff3c 23da d43c
000002d0: 5c75 bb3c d634 1abd 8945 f8bb b625 b53c
000002e0: 5689 a43c 3895 653d 8f88 9c3b 048a 1abd
000002f0: 5507 fabc e49d 0ebd 2261 f53c 5d7b a5bc
00000300: 6099 b7bc 6c74 8f3c ac54 0cbc 21a8 25bd
00000310: eb79 89bc 9b40 d2bc df4d c43b 9b9a 0a3d
00000320: 03eb 42bd 862f 4ebc afe3 0e3d 72f1 08bd
00000330: f610 e23c 0288 10bd a7bb df3c b357 8c3c
00000340: 9f6d 3a3d aaa3 153d ad3c 343d 0bdb 3abd
00000350: d24d b73c 6901 47bd 8342 0a3c 5c82 87bc
00000360: 6160 313d 62cd e0b9 53dc 463d fcfd 0b3b
00000370: 6f5a 583c fb39 83bc a6d5 293c 9efe 713d
00000380: fa8a 72bc 4d8b 2f3d 69dd 16bd 9351 053c
00000390: b4e8 18bd 0c60 8f3c 712e 28bd 416e 2c3d
000003a0: 0828 18bc 688c 17bd 3957 d6bc 12c5 11bd
000003b0: 8ba8 2dbd 19e3 36bd ca0e d03c f04e bebb
000003c0: bbff 5e3c f6fa 33bd c5fc d9bc 0403 2bbd
000003d0: b4d6 39bc c892 843c 8aa0 10bd 359d fe3c
000003e0: 9ae3 ccbc efc2 d3bb 3374 ad3d 6404 2fbd
000003f0: e314 37bd 71e2 07bc aa40 473b e4b9 58bd

model.4.weight f4 [128, 256]
-0.025291257 0.041684404 0.056915306 -0.061127707 -0.07486063 -0.049929544 -0.06315359 0.014415954
-0.030153878 -0.044843048 -0.026612133 0.035249077 -0.039845347 -0.018664936 -0.047454037 -0.0026383027
-0.03362668 -0.024120308 0.048836432 -0.024043716 0.0043336432 0.006327994 0.059099317 -0.03985104
0.055164628 -0.031164862 -0.013028644 -0.023128131 -0.00691285 -0.0015538484 -0.0016949102 -0.0068587586
-0.042115636 0.05095099 0.05067295 0.009738512 0.05043775 0.007837683 0.04636676 0.021558173
-0.019379348 -0.008903407 -0.048042893 -0.029649988 -0.028000912 0.020488009 0.015893707 -0.043557
0.042734314 0.039243035 0.016626656 -0.050920703 0.012138157 0.047479168 -0.05890006 -0.036243107
0.00380043 0.061140746 -0.056448624 0.05719702 0.057580464 -0.026369395 -0.06178136 -0.020763032
0.044701137 0.024182998 0.029486604 -0.06483863 0.012118947 -0.06772828 -0.0018302893 0.052156344
0.033050597 0.03040032 0.024880525 0.0016496703 0.049294002 0.012735188 -0.048079394 -0.039341405
0.028860778 -0.060775526 -0.035052426 0.021543585 0.024409533 -0.004895337 -0.0054716617 0.023161925
0.012935922 0.049828872 0.038451895 -0.07355571 -0.0035471246 -0.049204916 0.050273128 0.032113075
-0.053351104 -0.039769765 -0.056867823 -0.047689393 -0.025522664 -0.02139165 -0.032778785 -0.025720954
-0.045262292 -0.051227793 0.01766809 0.020819342 -0.03286123 0.02975116 -0.021573588 0.028245986
-0.03229487 -0.039992873 0.0005063042 -0.008506753 -0.042252712 0.04300046 0.017145455 0.024125166
0.023226531 5.1639974e-05 -0.0339835 -0.053534836 0.041747365 0.033749953 -0.0023778514 0.052389547
0.03462539 0.0031789914 0.01914201 -0.06506392 -0.053918082 0.04226215 0.042116277 -0.002909681
0.042063933 -0.03636591 0.035294432 -0.046858422 -0.023502685 0.012231328 0.049567457 0.046076305
-0.041720107 -0.03574018 -0.0076354756 0.04790414 0.026246004 0.045564644 -0.038462136 -0.015412518
-0.010059394 0.0083302185 0.014365792 0.04062344 -0.06277776 -0.020761304 0.006177654 -0.038814723
-0.0252479 0.052823596 -0.0121007785 -0.061319664 -0.058767103 -0.018922321 0.062176205 -0.0445461
-0.04586678 -0.021838486 0.009490125 0.03222443 -0.018657349 0.025819208 -0.006133631 0.035910383
-0.025204923 0.016800307 -0.026120238 -0.0016553774 -0.021805303 0.05019983 0.044564538 -0.062396474
0.003920585 -0.00047425277 -0.0032380372 0.027201355 -0.05682338 0.010522366 -0.0026225895 -0.0048103854
-0.013545357 -0.017982546 -0.01258 0.004354328 -0.033353604 0.026758328 -0.0059854225 0.037911754
0.013325311 -0.011639914 0.013235405 0.035454117 0.018423326 -0.0056815147 -0.004343994 0.03286142
-0.05913547 0.015361175 0.0102381855 -0.05212234 0.0019237995 -0.009563595 -0.01962515 0.016467005
-0.00021073222 0.024155123 -0.022944182 -0.011489199 -0.02157648 -0.062193193 0.022232722 -0.026955899
-0.060009785 0.058563553 0.04141792 -0.026538985 0.029501311 -0.047308467 -0.04438614 0.062474996
0.015155263 -0.05893358 -0.03849566 -0.014368579 -0.040033273 0.037560172 -0.053508118 -0.03296136
-0.008521274 -0.04131367 0.059492126 0.05280209 -0.040172838 -0.062286794 -0.016134663 0.019671574
-0.022427917 0.050807334 0.0020354863 0.057566546 0.04011953 -0.0039092675 -0.054608703 -0.038579766
00000000: 9c2f cfbc 44bd 2a3d 0620 693d 0c61 7abd
00000010: 8850 99bd ec82 4cbd ab56 81bd e530 6c3c
00000020: 4405 f7bc 58ad 37bd b001 dabc 5661 103d
00000030: e034 23bd 35e7 98bc 2a5f 42bd 60e7 2cbb
00000040: 21bc 09bd f497 c5bc b608 483d 54f7 c4bc
00000050: 3c01 8e3b 105b cf3b 2012 723d d83a 23bd
00000060: 4ef4 613d 744d ffbc 1876 55bc 3577 bdbc
00000070: 3085 e2bb 80aa cbba c027 deba 70bf e0bb
00000080: 7281 2cbd fcb1 503d 708e 4f3d 488e 1f3c
00000090: d097 4e3d a069 003c 12eb 3d3d c49a b03c
000000a0: 70c1 9ebc 98df 11bc a0c8 44bd 88e4 f2bc
000000b0: 2b62 e5bc 78d6 a73c 8533 823c d368 32bd
000000c0: 2d0a 2f3d 4ebd 203d a034 883c 3a92 50bd
000000d0: 1fdf 463c 8479 423d 3041 71bd a773 14bd
000000e0: a310 793b b86e 7a3d ac36 67bd 6c47 6a3d
000000f0: 7ed9 6b3d a104 d8bc 740e 7dbd 3c17 aabc
00000100: 8a18 373d 6c1b c63c e48d f13c 1eca 84bd
00000110: 8c8e 463c 20b5 8abd 51e6 efba e4a1 553d
00000120: 1060 073d 180a f93c 3ed2 cb3c c039 d83a
00000130: 82e8 493d 40a7 503c e6ee 44bd 7424 21bd
00000140: 706d ec3c c2ef 78bd 2293 0fbd 2c7c b03c
00000150: 80f6 c73c 1069 a0bb a04b b3bb 14be bd3c
00000160: 30f1 533c 5c19 4c3d bc7f 1d3d 60a4 96bd
00000170: e076 68bb 188b 49bd 32eb 4d3d 0089 033d
00000180: b086 5abd 9fe5 22bd 3cee 68bd f455 43bd
00000190: e814 d1bc 8b3d afbc 0c43 06bd c0b4 d2bc
000001a0: f464 39bd 3cd4 51bd acbc 903c 538d aa3c
000001b0: 7f99 06bd b4b8 f33c 18bb b0bc 2064 e73c
000001c0: a047 04bd 91cf 23bd 80b9 043a e85f 0bbc
000001d0: 2e11 2dbd 4021 303d a074 8c3c 24a2 c53c
000001e0: 9145 be3c 0098 5838 4832 0bbd 5847 5bbd
000001f0: 49ff 2a3d 643d 0a3d bad5 1bbb 6c96 563d
00000200: 5ad3 0d3d a056 503b b4cf 9c3c 3c40 85bd
00000210: 35d9 5cbd 141b 2d3d 1e82 2c3d 59b0 3ebb
00000220: 3b4b 2c3d 6cf4 14bd e590 103d 9eee 3fbd
00000230: b488 c0bc e865 483c 3f07 4b3d 82ba 3c3d
00000240: b4e2 2abd 4c64 12bd 0333 fabb 2237 443d
00000250: dc01 d73c fea1 3a3d 798a 1dbd c984 7cbc
00000260: 28d0 24bc 787b 083c 805e 6b3c c464 263d
00000270: a091 80bd 9c13 aabc eb6d ca3b 30fc 1ebd
00000280: afd4 cebc 8e5d 583d 5842 46bc 542a 7bbd
00000290: c6b5 70bd fc02 9bbc 7aac 7e3d f975 36bd
000002a0: cede 3bbd a0e6 b2bc 787c 1b3c c4fd 033d
000002b0: 4cd7 98bc ce82 d33c a0fc c8bb c416 133d
000002c0: 8e7a cebc cca0 893c 1cfa d5bc 40f9 d8ba
000002d0: 09a1 b2bc 569e 4d3d 4e89 363d 7293 7fbd
000002e0: 4078 803b 21a5 f8b9 4035 54bb 60d5 de3c
000002f0: a2bf 68bd 0066 2c3c c0df 2bbb 70a0 9dbb
00000300: 58ed 5dbc 2250 93bc 581c 4ebc c0ae 8e3b
00000310: ca9d 08bd 4834 db3c 5d21 c4bb 5b49 1b3d
00000320: 6852 5a3c 56b5 3ebc 50d9 583c 5638 113d
00000330: 84ec 963c 002c babb 1058 8ebb b299 063d
00000340: 0938 72bd 70ad 7b3c 10be 273c 3c7e 55bd
00000350: 0028 fc3a a0b0 1cbc ecc4 a0bc d0e5 863c
00000360: 00f8 5cb9 f7e0 c53c 70f5 bbbc 313d 3cbc
00000370: 28c1 b0bc 4abe 7ebd 6621 b63c 9ed2 dcbc
00000380: d2cc 75bd 56e0 6f3d d6a5 293d 4968 d9bc
00000390: bcac f13c 86c6 41bd 3ece 35bd c8e5 7f3d
000003a0: c84d 783c 5664 71bd a0ad 1dbd 306a 6bbc
000003b0: eef9 23bd b2d8 193d 542b 5bbd 7e02 07bd
000003c0: d09c 0bbc 8638 29bd 04ae 733d 0147 583d
000003d0: 468c 24bd 7020 7fbd d72c 84bc 4826 a13c
000003e0: c0ba b7bc 5a1b 503d cb65 053b e6ca 6b3d
000003f0: 6054 243d 5019 80bb 60ad 5fbd d105 1ebd

model.4.bias f4 [128]
-0.016497724 -0.02363505 -0.020921549 -0.043183826 -0.050730135 0.007731349 0.005537341 -0.050397374
0.018389108 0.013200413 -0.040872898 0.09547476 0.13540344 0.0105917305 0.044691414 -0.009805989
0.0066612554 -0.06347754 0.1393945 0.05474556 -0.0151771605 -0.056073293 0.058772553 0.051668145
0.037714362 -0.0109019065 0.047193736 -0.050348796 -0.06354204 0.024496177 0.13012223 0.0381224
0.18896955 -0.03667158 0.16939159 0.10813443 0.04094114 0.0136637455 0.155403 -0.0040552802
-0.012867912 0.08500787 0.19454761 -0.030049264 -0.038371466 0.004881628 -0.016939364 0.019643767
0.075666554 0.08556872 0.0067262724 -0.033511594 -0.048310548 -0.0036804676 0.04983976 0.14295562
0.057009526 0.07729519 -0.008011997 0.022062875 0.05565161 -0.008832294 -0.039253354 0.14015986
-0.043494523 -0.022795124 -0.07260611 0.20083079 -0.019418918 -0.059393708 0.044901937 0.20606785
-0.020952726 0.0042477557 -0.02015806 0.14044413 0.017061885 0.015019629 -0.050562035 0.057000507
-0.06728006 -0.06445908 -0.043656424 -0.012669928 0.1148441 0.0013578444 0.16666055 -0.061833534
0.08593211 0.15771055 0.03524579 0.13889118 0.064261064 -0.05520035 -0.061917163 0.007898101
0.007698509 -0.031550124 -0.024964543 -0.004950099 -0.06199251 0.011424142 0.03424744 -0.03716696
0.11773425 -0.012008772 -0.0022536495 0.021612098 0.08060513 -0.053690363 -0.058849394 0.07280835
0.0352111 0.041645244 -0.050766997 0.0027846242 -0.006474793 -0.010106452 0.008813336 0.077901244
0.004128081 0.03545384 0.007135169 -0.02902527 0.12986237 -0.048628647 0.04648446 0.14681935
00000000: 3c26 87bc 4b9e c1bc ab63 abbc 86e1 30bd
00000010: 67ca 4fbd 4257 fd3b 9572 b53b 7a6d 4ebd
00000020: c1a4 963c 8c46 583c 576a 27bd 4588 c33d
00000030: 33a7 0a3e f088 2d3c 580e 373d 4da9 20bc
00000040: a946 da3b 8300 82bd 6fbd 0e3e e13c 603d
00000050: a0a9 78bc 1cad 65bd 7dbb 703d faa1 533d
00000060: 607a 1a3d e99d 32bc 384e 413d 8a3a 4ebd
00000070: 5422 82bd 35ac c83c c33e 053e 3c26 1c3d
00000080: 3c81 413e f034 16bd fd74 2d3e 9675 dd3d
00000090: e6b1 273d e7dd 5f3c f721 1f3e 28e2 84bb
000000a0: efd3 52bc 9b18 ae3d 7d37 473e e029 f6bc
000000b0: 662b 1dbd 10f6 9f3b 6cc4 8abc f7eb a03c
000000c0: 11f7 9a3d a73e af3d 1068 dc3b 7443 09bd
000000d0: 48e1 45bd 0034 71bb c724 4c3d f562 123e
000000e0: d282 693d f14c 9e3d c044 03bc 34bd b43c
000000f0: f1f2 633d 53b5 10bc 20c8 20bd 1186 0f3e
00000100: 5027 32bd d7bc babc 83b2 94bd 96a6 4d3e
00000110: 6c14 9fbc d146 73bd 18eb 373d 7303 533e
00000120: 0da5 abbc c230 8b3b 8422 a5bc 96d0 0f3e
00000130: 5ec5 8b3c e414 763c 231a 4fbd 5d79 693d
00000140: 21ca 89bd 1f03 84bd 14d1 32bd 8895 4fbc
00000150: 6233 eb3d b3f9 b13a 10a9 2a3e 2945 7dbd
00000160: 2dfd af3d e07e 213e e45d 103d 7d39 0e3e
00000170: 4e9b 833d c319 62bd da9c 7dbd 0967 013c
00000180: c643 fc3b b43a 01bd 7182 ccbc 7134 a2bb
00000190: dceb 7dbd 532c 3b3c 0b47 0c3d 623c 18bd
000001a0: a81e f13d 71c0 44bc f7b1 13bb db0b b13c
000001b0: 4d14 a53d 6dea 5bbd 100c 71bd 8b1c 953d
000001c0: 8439 103d 3494 2a3d 0ef1 4fbd 3e7e 363b
000001d0: 802a d4bb 8895 25bc cf65 103c b08a 9f3d
000001e0: da44 873b 0c38 113d 23ce e93b 67c6 edbc
000001f0: a4fa 043e d52e 47bd 7d66 3e3d d057 163e

model.6.weight f4 [5, 128]
0.07714009 -0.078106724 0.027103426 0.063656054 -0.07422106 0.016961668 -0.01902034 0.03381232
0.066977 -0.044476554 0.0890927 0.09384624 0.069919765 -0.052000474 -0.079466954 0.05318725
-0.021195471 -0.06339053 0.12204804 -0.038076762 -0.04524024 -0.036631543 0.08045899 0.039704956
-0.06700269 0.01779522 -0.003294735 -0.008009292 0.04732558 0.003077508 0.10643399 0.05467145
0.09521728 0.00094244635 0.037451558 0.020057447 0.016131105 0.07420231 0.03164409 -0.016631503
-0.04285474 0.066750444 0.03447499 -0.046297163 -0.064922825 -0.055097256 -0.044353507 0.044796735
0.08380475 0.058223914 0.00065271556 -0.047520723 -0.062527545 -0.064314075 0.0025839407 0.025686022
0.02840554 -0.023789907 -0.040619213 0.025356133 -0.07469558 -0.06299593 0.041168924 0.1339371
0.08817639 -0.06980333 -0.05194609 0.09698508 0.048211016 -0.081321016 0.05289272 0.12305852
0.005993178 -0.064240344 0.03595109 0.11465578 -0.042580158 -0.057373386 0.0057847924 0.056692373
0.06655291 0.08806494 -0.008941084 0.081063576 0.08260687 -0.071055055 0.09158259 -0.06945146
0.051293273 0.05199633 -0.086415544 0.019681426 0.03262398 -0.04247874 -0.04102337 -0.012475669
0.049383577 0.08766992 0.016058465 -0.013552088 0.035532847 0.020319358 0.020469826 -0.0710807
0.08884154 0.07144253 0.031219773 -0.027870009 0.04479275 0.019026196 0.04268027 0.015478229
0.04373906 0.04348538 0.08407751 0.057051696 0.00014471263 0.0031136842 -0.000210508 0.028259791
-0.058757972 0.015465989 -0.045297667 0.06298304 0.025389794 0.053878367 -0.011484972 0.03225549
0.022862194 0.038930085 -0.07616335 0.08790713 -0.0058976375 -0.039866354 0.013028815 0.08709902
0.050802335 0.04154493 -0.07169162 0.031917665 0.049413156 -0.029072246 -0.03479041 0.00083778147
-0.002781669 0.0058621597 0.09594403 0.048797015 -0.0050452724 0.0419882 0.068013065 0.008708633
0.0011539017 0.011087192 -0.009209002 0.038331605 0.08155046 0.10056195 0.027395045 -0.042970717
0.06711743 0.031945486 0.03801546 0.0075657913 -0.07851548 -0.030946814 0.06537917 0.057957187
0.0014868492 0.037990358 0.1134524 -0.030649599 0.050977662 -0.02827786 0.07561191 -0.004196487
0.022566484 0.075265065 -0.048079386 -0.04245965 0.0007975423 0.0072028935 0.025836332 0.03631912
0.041292895 0.037391298 -0.043414656 0.007214757 -0.070500955 0.0031826866 0.011470756 0.08075562
0.062131904 -0.007935796 0.023554405 0.13275704 -0.03449417 -0.06926926 0.0068384265 0.10910441
0.06101453 -0.03037301 0.004149845 0.07937641 -0.022644756 -0.0055363914 0.027750969 0.013048182
-0.06077284 0.053693622 0.057478722 0.056501724 0.08549664 0.04770265 0.07758415 0.074671924
0.037712477 0.090535864 -0.012985177 0.07915447 -3.3425942e-05 -0.051275477 0.029964747 0.0048308554
0.009425084 0.06261992 0.01741719 -0.07857022 0.07494547 -0.026409466 -0.04253069 0.00037423804
0.13007988 0.061675083 0.017353378 -0.0044365926 0.010430433 0.038188692 -0.024865061 0.011695715
-0.017551104 0.029362215 -0.023021702 -0.04761423 -0.055102177 0.07498893 0.02219805 0.00820672
-0.024266774 0.033900578 0.034795526 0.0008491601 0.05658738 -0.0758478 0.020338772 0.0584746
00000000: a0fb 9d3d 6bf6 9fbd 0108 de3c 1b5e 823d
00000010: 3601 98bd 32f3 8a3c 8bd0 9bbc ca7e 0a3d
00000020: 3d2b 893d 0c2d 36bd 3c76 b63d 7532 c03d
00000030: 1832 8f3d 73fe 54bd 92bf a2bd e0da 593d
00000040: 20a2 adbc e5d2 81bd 53f4 f93d 61f6 1bbd
00000050: d44d 39bd f50a 16bd afc7 a43d aaa1 223d
00000060: b538 89bd 48c7 913c 7bec 57bb 6839 03bc
00000070: 78d8 413d 04b0 493b 10fa d93d 2cef 5f3d
00000080: 4701 c33d 810e 773a ce66 193d 844f a43c
00000090: 6125 843c 61f7 973d 3c9d 013d ca3e 88bc
000000a0: 7488 2fbd 75b4 883d a635 0d3d 18a2 3dbd
000000b0: 42f6 84bd a9ad 61bd 06ac 35bd c87c 373d
000000c0: d3a1 ab3d 337c 6e3d 001b 2b3a 17a5 42bd
000000d0: 710e 80bd 19b7 83bd 5557 293b 7e6b d23c
000000e0: bcb2 e83c 0de3 c2bc 5560 26bd aab7 cf3c
000000f0: fff9 98bd 0304 81bd bfa0 283d cf26 093e
00000100: d395 b43d 0cf5 8ebd 6cc5 54bd 1da0 c63d
00000110: ea78 453d a28b a6bd 09a6 583d 1b06 fc3d
00000120: 6c62 c43b 7190 83bd 7341 133d a6d0 ea3d
00000130: 8868 2ebd 5b00 6bbd 5b8e bd3b 4336 683d
00000140: e44c 883d 645b b43d a07d 12bc a904 a63d
00000150: ca2d a93d 5085 91bd a78f bb3d 913c 8ebd
00000160: e518 523d 1bfa 543d a2fa b0bd f13a a13c
00000170: b9a0 053d 30fe 2dbd 1f08 28bd c066 4cbc
00000180: 6f46 4a3d 498c b33d 0b8d 833c 9409 5ebc
00000190: e48a 113d c874 a63c 56b0 a73c c292 91bd
000001a0: 8ef2 b53d 7650 923d 9cc0 ff3c a54f e4bc
000001b0: 9a78 373d d3dc 9b3c 82d1 2e3d 6698 7d3c
000001c0: bb27 333d ba1d 323d d430 ac3d 0aaf 693d
000001d0: 00be 1739 f40e 4c3b d0bb 5cb9 1481 e73c
000001e0: 33ac 70bd 0f65 7d3c 0c8a 39bd 41fd 803d
000001f0: 42fe cf3c 90af 5c3d 772b 3cbc 551e 043d
00000200: 7f49 bb3c 2775 1f3d 88fb 9bbd a708 b43d
00000210: f840 c1bb e74a 23bd d076 553c f960 b23d
00000220: 1c16 503d 042b 2a3d 0ed3 92bd 19bc 023d
00000230: 7365 4a3d eb28 eebc 6480 0ebd 909e 5b3a
00000240: a94c 36bb 5c17 c03b 4e7e c43d 61df 473d
00000250: d052 a5bb d2fb 2b3d 6f4a 8b3d a7ae 0e3c
00000260: 843e 973a 0ea7 353c 5be1 16bc 9a01 1d3d
00000270: ed03 a73d 6cf3 cd3d 936b e03c 1002 30bd
00000280: dd74 893d 45d9 023d 19b6 1b3d 75ea f73b
00000290: b9cc a0bd 2c84 fdbc 84e5 853d 8464 6d3d
000002a0: 61e2 c23a c79b 1b3d bb59 e83d de14 fbbc
000002b0: f4cd 503d f8a6 e7bc 6bda 9a3d af82 89bb
000002c0: 59dd b83c 9224 9a3d e4ee 44bd 2cea 2dbd
000002d0: 2812 513a 4006 ec3b b7a6 d33c 5cc3 143d
000002e0: bd22 293d 9e27 193d 91d3 31bd c569 ec3b
000002f0: ce62 90bd 9f94 503b d6ef 3b3c 3463 a53d
00000300: 067e 7e3d 2405 02bc 2bf5 c03c 76f1 073e
00000310: c249 0dbd 0bdd 8dbd e114 e03b 2272 df3d
00000320: 5fea 793d d2d0 f8bc 6cfb 873b 1990 a23d
00000330: 7f81 b9bc 9e6a b5bb 0056 e33c 0bc8 553c
00000340: f1ec 78bd d8ed 5b3d cf6e 6b3d 5a6e 673d
00000350: dd18 af3d db63 433d 70e4 9e3d 98ed 983d
00000360: 6678 1a3d de6a b93d c8bf 54bc bd1b a23d
00000370: d532 0cb8 3c06 52bd a178 f53c 274c 9e3b
00000380: ab6b 1a3c df3e 803d 7fae 8e3c 6ce9 a0bd
00000390: 037d 993d aa58 d8bc a934 2ebd 6135 c439
000003a0: a933 053e 039f 7c3d ac28 8e3c d660 91bb
000003b0: 68e4 2a3c bf6b 1c3d d0b1 cbbc 629f 3f3c
000003c0: 55c7 8fbc 0789 f03c 0298 bcbc 2407 43bd
000003d0: d2b2 61bd cc93 993d afd8 b53c 7b75 063c
000003e0: 1dcb c6bc 55db 0a3d c185 0e3d 2b9a 5e3a
000003f0: 2bc8 673d 1756 9bbd 7f9d a63c 1083 6f3d

model.6.bias f4 [5]
0.0855378 0.09852362 0.20654052 0.1504437 0.18452278
00000000: 712e af3d c0c6 c93d 5c7f 533e ea0d 1a3e
00000010: 8af3 3c3e
